DDPG_actor.pth (torch, 2929 bytes, 3 tensors)

fc1.weight f4 [64, 3]
000000 8f 8f 99 be 90 07 87 be 7e 52 16 bf a4 59 83 bf
       -0.2999234 -0.26372957 -0.58719623 -1.0261731
000010 02 7d d8 bd a7 dc a6 3e 29 d9 d9 be b8 16 c5 3e
       -0.10570718 0.3259022 -0.42548493 0.38493896
000020 83 0b 44 be 2b fc c5 3e cf 3f 97 bf 4e 5c 6d be
       -0.19145016 0.3866895 -1.1816348 -0.23179743
000030 a7 23 3d bf 7f 20 77 bf 81 ed 79 be e2 12 27 bf
       -0.73882526 -0.9653396 -0.24407007 -0.6526319
000040 a1 94 15 3e 5e e8 4f 3e 60 54 88 bf 7b 5c b9 bc
       0.14607479 0.20303485 -1.0650749 -0.022627106
000050 41 3c a9 3e 81 aa 4a 3f 4e 2c aa 3e 3f 97 4c 3e
       0.33053783 0.7916642 0.33236927 0.19979571
000060 c3 5d aa bf 91 86 0b 3e f4 23 d3 3e 03 ff 1d bf
       -1.3309864 0.13625552 0.41238368 -0.6171724
000070 f2 85 1d be b5 22 43 be 99 4a 37 bf 9d 07 94 3d
       -0.15383127 -0.19056208 -0.715982 0.072280146
000080 84 11 f3 be 15 7f fb 3e 67 64 c8 be 7e ff ea be
       -0.474743 0.49120393 -0.391391 -0.4589805
000090 a4 02 72 bf c1 1f 87 3f 0c ff 64 3e 2e df 73 3f
       -0.9453528 1.0556566 0.22362918 0.9526242
0000a0 b1 59 ad be f4 5f 3c 3e 10 73 9b bd 06 25 43 bf
       -0.33857492 0.18395978 -0.07590306 -0.7622837
0000b0 be 51 d7 be d4 43 f7 be 71 d0 88 3f 14 fb 5c 3e
       -0.42054552 -0.48293936 1.0688611 0.21580154
0000c0 c8 49 a6 3e 31 6e e5 3e 91 6d b4 3e 82 a7 9a 3f
       0.32478166 0.44810632 0.35239843 1.2082369
0000d0 62 0f 35 3f 64 d1 12 be a8 5c 69 3f 30 46 46 be
       0.707266 -0.14337689 0.9115701 -0.19362712
0000e0 58 7b 31 3e 3c 82 f7 be b6 c9 05 bf 24 2a cd be
       0.17332208 -0.48341548 -0.5226091 -0.40071213
0000f0 6a 94 25 3f 8d 4c 4d 3d e4 9f c1 be b5 a7 97 bd
       0.64679587 0.050121833 -0.378173 -0.074050345
000100 75 f3 d2 3e 41 a2 2d be f7 99 d2 3e 38 89 ca 3e
       0.41201368 -0.16956426 0.4113309 0.39557815
000110 35 e7 c0 3e 27 84 31 3f c6 55 64 bf 81 2e 74 be
       0.37676397 0.69342273 -0.8919338 -0.23845865
000120 52 23 b9 3e 94 7d 52 3f 86 10 1b 3f 04 ac 5b 3f
       0.3615976 0.82222867 0.6057209 0.8580935
000130 5d d3 b4 be bf 18 bd be 2b f7 90 be f3 f1 8d be
       -0.35317507 -0.36932942 -0.28313574 -0.27723655
000140 ff b6 25 bf 67 46 1a 3f b3 84 2a 3f 7f 28 23 bf
       -0.64732355 0.60263675 0.6660873 -0.6373367
000150 9c 71 be 3e 17 11 00 bf fc a1 06 be 0c b2 52 be
       0.37196052 -0.5002608 -0.1314773 -0.20575732
000160 1c 66 0c bf 5d ec 1c be 01 73 11 3f 7d 43 04 3f
       -0.54843307 -0.1532454 0.5681611 0.5166548
000170 af 40 d9 3e c0 b7 3b 3f ea 84 8c bf 91 22 94 be
       0.42432162 0.73327255 -1.0978062 -0.28932622
000180 5a 8d 7f 3f 2d da 67 be 4d 05 da be 68 94 c6 be
       0.9982506 -0.22641821 -0.4258217 -0.387851
000190 73 ad 94 3f cd 48 e6 3d b0 cc 12 bf fd 1b e7 be
       1.1615433 0.112443544 -0.5734358 -0.4513854
0001a0 a4 cb 20 bf 72 55 6a 3f 23 c6 1f bf 18 56 bb be
       -0.6281073 0.9153663 -0.6241171 -0.36589122
0001b0 88 22 53 3e 78 a1 69 3e a5 fe 90 be fd 6e 22 3f
       0.20618641 0.22815502 -0.28319278 0.63450605
0001c0 ab 81 25 be 71 39 17 3f 59 00 8f 3f ce e3 47 bf
       -0.16162746 0.59072024 1.1171981 -0.7808198
0001d0 fd e0 6a bd 13 c2 9f 3c 43 ba 59 3f b1 33 a4 3d
       -0.05734347 0.019501721 0.8504984 0.08017672
0001e0 82 79 27 3f e4 70 49 be c0 97 8c be c8 14 57 3d
       0.6541978 -0.1967197 -0.27459526 0.052510053
0001f0 22 89 9f be 68 7b db be d2 fb 08 be 60 5f 44 bf
       -0.31159312 -0.4286759 -0.13377312 -0.7670803
000200 b1 e2 0e bc c9 a4 81 bf 7b 4e 5c 3f bd 14 41 3e
       -0.00872104 -1.0128413 0.8605725 0.18855567
000210 f2 68 ae bf 4e 10 7a 3e 52 40 93 3e 6b 88 8f 3d
       -1.3625777 0.24420282 0.2876001 0.070084415
000220 11 47 2a 3e 86 bc 6f be 5d 6f ca 3e 48 9b f6 3e
       0.16628672 -0.2341176 0.39538088 0.48165345
000230 0e 31 2a 3f c0 e4 3f 3f 56 bd ef 3e bf de 86 bd
       0.664811 0.7495842 0.4682414 -0.06585454
000240 b4 b1 9a bf d8 de 82 be c6 d1 ec 3e 44 55 94 be
       -1.2085481 -0.2556064 0.46253794 -0.28971303
000250 e5 d7 1f be 2b 37 0e bf b5 a8 25 bf 55 45 7b bf
       -0.15609701 -0.5555293 -0.6471055 -0.9815267
000260 74 a3 d4 3b 42 dd 5e 3f 5e ed 34 3e 2c 65 0a bf
       0.0064892117 0.8705636 0.17668673 -0.54060626
000270 47 fd a2 3e 12 a4 66 bf 7f 8d 42 be ec ba ff 3d
       0.3183386 -0.900941 -0.18999289 0.124868244
000280 26 85 d8 3e ec 0e 4f be 50 b4 92 bf 7a 91 2c bf
       0.42289084 -0.20220536 -1.1461277 -0.6740948
000290 ad 3d c8 bd 7d bd 7e be d7 88 14 bf 1e f4 88 3e
       -0.09777389 -0.24876972 -0.580213 0.26748747
0002a0 85 a1 ac bf ec b0 bc bd f3 f8 fc 3e 2d 75 83 be
       -1.3486792 -0.09213433 0.49408683 -0.25675336
0002b0 b3 92 7e 3f cc 96 52 3d 03 7a 0e bf b7 38 07 bf
       0.99442595 0.051413342 -0.55654925 -0.52820915
0002c0 65 af 0c be 22 53 fc be fc f2 23 3e 8a 85 4c be
       -0.13738783 -0.49282175 0.1601066 -0.19972816
0002d0 a2 79 23 3f bf 1a 1d 3f 20 fe 81 3e 9d 46 06 bf
       0.6385747 0.61368936 0.25389194 -0.524515
0002e0 04 c6 6c 3f 7a 8f 3d 3e c9 8f 04 3f 2c 0a 3f be
       0.9248965 0.18511763 0.517819 -0.18656224
0002f0 af e2 d5 be e4 c6 c4 3e 05 95 4d 3f 1a b2 eb 3e
       -0.41774508 0.38432992 0.8030551 0.46034318

fc1.bias f4 [64]
000000 81 90 33 3e 41 d6 df 3d 14 04 e0 bd cf af 85 be
       0.17535593 0.109295376 -0.10938278 -0.26110694
000010 52 96 d9 be 20 11 97 3e 69 df 0e 3e ed c4 cf 3d
       -0.42497498 0.29505253 0.13952412 0.101449825
000020 2c 63 a7 3e 0e 95 31 3e b6 92 95 bc c7 36 4c bf
       0.3269285 0.17342016 -0.018258434 -0.79771084
000030 d0 77 bc be ed 44 14 3f 61 14 f3 3d 65 fa c7 3e
       -0.3681016 0.5791767 0.11869121 0.39058223
000040 0e 75 cd 3d 26 14 38 3e 59 da 8e 3e 93 41 d8 bd
       0.10032092 0.17976436 0.2790096 -0.10559382
000050 81 a3 63 be 93 5a bb be 1b cc 3f 3d 08 55 3d 3d
       -0.2223034 -0.3659254 0.04682551 0.04622367
000060 10 e8 8c be 89 76 c8 be cb 1c 9d 3e c3 42 3c bf
       -0.275208 -0.39152935 0.3068603 -0.7353937
000070 0b c3 5c 3d c8 3b 0e 3f 1a 13 42 3e c3 5a 74 3d
       0.053896945 0.5555997 0.18952599 0.05965687
000080 de 84 17 bf 14 94 85 3e d3 c4 a5 bd 37 8d bb be
       -0.59187114 0.26089537 -0.08094182 -0.36631176
000090 4d a8 0d bf 67 5b f4 bd 6f fb 04 bf 34 78 00 3f
       -0.5533493 -0.11931496 -0.5194616 0.50183415
0000a0 a7 ea 9a be ea f0 c1 3e 96 70 06 3f 1a ee 6b be
       -0.3025715 0.37879115 0.5251554 -0.23040047
0000b0 b2 09 cd 3e ce 65 06 bf 50 74 b6 bd 77 db 79 3e
       0.4004646 -0.5249909 -0.089089036 0.24400125
0000c0 be 42 0f 3e bb 06 9d 3e a7 7e c1 bd bc e2 a2 be
       0.13990304 0.30669197 -0.09447985 -0.3181361
0000d0 fc 75 9c 3e 1e b7 62 bf f7 02 a5 3e 1c a3 4e bf
       0.30558765 -0.88560665 0.32228824 -0.80717635
0000e0 87 99 45 3e 34 91 1c 3e ce 5b 30 be 90 0e cd 3d
       0.19296847 0.15289766 -0.1722252 0.10012543
0000f0 d8 50 9d 3e b9 04 0d bf c8 55 41 bf 84 5e 02 be
       0.3072574 -0.5508533 -0.75521517 -0.12731367

fc2.weight f4 [1, 64]
000000 d1 c8 54 be 4d ce 9e 3e aa b9 f1 bd 36 ca a5 bf
       -0.2077973 0.3101677 -0.11802991 -1.2952335
000010 1f 33 c2 be 75 dc 0b 3e 81 ce 9c 3e 9d 55 f8 bd
       -0.37929627 0.13658316 0.306263 -0.121257044
000020 94 ca 6b 3e 83 5b a0 bd c9 f5 ee bd d6 c6 0d 3e
       0.23026496 -0.078299545 -0.116679735 0.13845381
000030 aa d8 fb 3e d2 e9 b8 be a9 95 f4 bd ae 92 92 be
       0.4918874 -0.3611589 -0.11942608 -0.28627533
000040 a4 e1 30 be fa 9f 04 bf a2 00 00 bf 14 7d 67 be
       -0.17273575 -0.51806605 -0.50000966 -0.22606307
000050 f1 c5 88 3e ed 75 6b 3e 2c cd 28 be fb 66 87 3e
       0.26713517 0.22994204 -0.16484517 0.26445755
000060 cb b7 27 be 9f 93 0b 3e ec ff 2e be 13 16 90 3e
       -0.16378705 0.13630532 -0.17089814 0.2814184
000070 20 f4 7a 3e 42 7f b5 3d c3 07 4c be 6f c2 83 3e
       0.24507189 0.08862163 -0.19924836 0.2573428
000080 65 57 7b 3e 6b 77 74 be 94 30 3d be a6 80 70 3e
       0.24545057 -0.2387368 -0.18475562 0.23486575
000090 b4 93 8d 3e 3d 87 14 be f8 6c 5f 3f 0b 2a 96 be
       0.2765175 -0.14504714 0.8727565 -0.2932895
0000a0 bd c6 89 3e 36 4f 97 bd 43 b3 7b 3e 00 76 c9 3e
       0.26909438 -0.07388155 0.24580102 0.3934784
0000b0 f6 6a 80 3e 19 d8 fc 3e 30 b7 5f be bd 7d 41 3e
       0.25081605 0.4938362 -0.21847224 0.18895622
0000c0 17 84 69 3e 74 c0 27 be c4 05 04 3e 11 34 46 3e
       0.22804295 -0.16382009 0.12892824 0.193558
0000d0 81 30 90 3e 46 33 18 3f 0a 32 d7 be f8 f0 b3 be
       0.28162006 0.5945324 -0.42030364 -0.35144782
0000e0 69 cf 7f 3e d2 5e 87 be 4a e6 e6 bd de 07 a1 bb
       0.24981464 -0.2643953 -0.11274393 -0.004914268
0000f0 8f 41 2d be c6 ff 2f 3f 46 a7 53 3e c3 05 2d be
       -0.1691954 0.68749654 0.20669279 -0.16896729
