DDPG_actor_test.pth (torch, 2959 bytes, 3 tensors)

fc1.weight f4 [64, 3]
0	0xbf7cc39d	-0.9873598
1	0xbf6f72ed	-0.9353474
2	0xbed0f073	-0.40808448
3	0xbfe40be5	-1.781613
4	0x3eb6280a	0.35577422
5	0xbea30fdb	-0.31848034
6	0xbf03dbdf	-0.5150737
7	0x3f9aba59	1.2088119
8	0x3e8c8a5c	0.2744931
9	0xbf293bb3	-0.6610672
10	0x3f1b3479	0.6062694
11	0x3f51b39e	0.819147
12	0x3e54fcd9	0.20799579
13	0x3e3fbaaa	0.1872355
14	0xbe964f30	-0.2935729
15	0xbe55fa65	-0.20896299
16	0x3e215b90	0.15757585
17	0x3b58141e	0.0032970975
18	0xbf0b4517	-0.544023
19	0x3f32c642	0.6983377
20	0x3e993f70	0.2993121
21	0x3ed01235	0.4063889
22	0x3f172c2f	0.59051794
23	0xbf128156	-0.572286
24	0xbf6945c5	-0.91122085
25	0xbe167e97	-0.14696728
26	0xbf11799b	-0.5682618
27	0xbe903198	-0.28162837
28	0x3f3bd34c	0.7336929
29	0xbeb487fa	-0.35259992
30	0xbf1f7b57	-0.62297577
31	0x3ea9ca47	0.33162138
32	0x3e8731ed	0.26405278
33	0xbf2d20f3	-0.676284
34	0xbf747c61	-0.9550229
35	0xbe7cc1ea	-0.24683347
36	0xbeddae66	-0.43297118
37	0x3fc00329	1.5000964
38	0xbea32d8f	-0.31870696
39	0x3ea69ce4	0.32541573
40	0x3f463eb9	0.7743946
41	0xbe832189	-0.25611523
42	0x3e1f1212	0.15534237
43	0xbcb61338	-0.022225961
44	0xbd01ccd1	-0.03168947
45	0xbf333a0e	-0.7001046
46	0x3ec1d00b	0.37854037
47	0x3d87d3b7	0.06632178
48	0x3e6a83cc	0.22901839
49	0x3f5d9e10	0.8656931
50	0xbf2c6fc6	-0.6735805
51	0x3ed4cf08	0.41564202
52	0x3f24f590	0.644372
53	0xbf48abac	-0.7838695
54	0x3ef2995f	0.47382638
55	0xbf3dbc49	-0.74115425
56	0x3d2e6efd	0.042586315
57	0xbd267188	-0.040635616
58	0x3fcb0b52	1.586283
59	0x3e9ae3df	0.30251977
60	0xbf98fb8f	-1.195177
61	0xbfc05390	-1.5025501
62	0xbec6e92d	-0.38849774
63	0x3e5d3703	0.21603017
64	0x3d6878f6	0.056755982
65	0x3f419385	0.7561572
66	0x3f355445	0.7083171
67	0x3fd6c544	1.6778951
68	0x3ec436c8	0.38323045
69	0xbf865c87	-1.0496987
70	0xbf602f96	-0.8757261
71	0xbee8680a	-0.45391876
72	0xbf83e126	-1.0303085
73	0xbf63860e	-0.88876426
74	0xbf0b53c5	-0.544247
75	0xbfb977f6	-1.4489734
76	0xbfb82d89	-1.4388896
77	0xbf069687	-0.52573436
78	0x3e1d4d1e	0.15361449
79	0xc019426c	-2.394679
80	0xbec32ad3	-0.3811861
81	0xbfe111e7	-1.7583588
82	0x3f36be7e	0.7138442
83	0x3aca09d4	0.0015414306
84	0x3c38e75a	0.011285627
85	0xbed624a9	-0.41824844
86	0x3e984b68	0.2974503
87	0x3f4e1e1b	0.8051469
88	0xbe9a4e39	-0.30137804
89	0x3f41e829	0.75744873
90	0xbe74acdd	-0.23894067
91	0x3f02ebbf	0.5114097
92	0xbe94219c	-0.28931892
93	0x3e206437	0.15663229
94	0xbf1fa3f6	-0.6235956
95	0x3e530f46	0.20611295
96	0x3f032bb6	0.5123857
97	0xbe55de2d	-0.20885535
98	0x3f2553c2	0.6458093
99	0x3df246ca	0.11829908
100	0xbf1a8d16	-0.6037153
101	0x3eb31a08	0.34980798
102	0x3f75d52c	0.960284
103	0xbfa57454	-1.2926126
104	0xbf067ffd	-0.52539045
105	0x3e72dcfc	0.23717111
106	0xbf770ff9	-0.9650875
107	0x3ebeb854	0.37250006
108	0xbf82f350	-1.0230503
109	0xc0171c3d	-2.3610985
110	0xbe9d1d06	-0.30686206
111	0x3cbfa723	0.023395127
112	0x3dd44bfb	0.103660546
113	0xbebddc02	-0.37081915
114	0xbf909267	-1.1294678
115	0xbfb12433	-1.3839172
116	0xbebf1a63	-0.3732482
117	0x3f843db9	1.0331336
118	0x3ea3c822	0.31988627
119	0x3f8b657b	1.0890344
120	0x3e34103b	0.17584316
121	0x400c9eb0	2.1971855
122	0x3e9e6a01	0.3094025
123	0x3f4853ed	0.7825306
124	0xbfe2454b	-1.7677397
125	0xbedfedaa	-0.4373601
126	0xbe71aa9a	-0.23600236
127	0xbe10fe19	-0.1415943
128	0x3edefbf3	0.43551597
129	0xbed12496	-0.40848225
130	0xbeeb55c5	-0.45963874
131	0xbf00c92d	-0.5030697
132	0x3f09bbb5	0.53802043
133	0xbebbf284	-0.36708462
134	0x3e42ba9b	0.19016497
135	0x3f301a8b	0.687905
136	0x3fe20b3e	1.7659681
137	0x3ebad721	0.36492255
138	0x3f22ddc5	0.63619643
139	0xbeac0915	-0.3360068
140	0x3e676a1a	0.22599068
141	0x3eae6e6c	0.3406862
142	0x3f491bad	0.78557855
143	0xbf4b7f75	-0.7949136
144	0x3f158fd3	0.58422583
145	0x3d4b307c	0.049606785
146	0xbea4e5d3	-0.32206592
147	0x3f090610	0.53524876
148	0x3e9c552e	0.30533737
149	0xbea8967a	-0.32927305
150	0x3f95e0c5	1.1709219
151	0x3fab6544	1.3390279
152	0x3f74de8b	0.95652074
153	0x3f2c1c23	0.67230433
154	0x3f34b4f3	0.70588607
155	0xbf38bb37	-0.7216067
156	0x3e55e0b9	0.20886506
157	0xbf18ba32	-0.5965911
158	0x3e87cc99	0.26523283
159	0xbf619166	-0.88112485
160	0x3dc13cfb	0.09435459
161	0x3f50d540	0.81575394
162	0x3e73b1af	0.2379825
163	0xc0122ce0	-2.283989
164	0xbec33df1	-0.38133195
165	0xbe039860	-0.12851095
166	0xbfcd571e	-1.6042211
167	0xbe88ba5d	-0.26704684
168	0xbf86b7cb	-1.0524839
169	0x3ff4d4bf	1.9127425
170	0x3ef85b2f	0.48507068
171	0xbf64fe05	-0.89450103
172	0x3e8821d2	0.26588303
173	0xbf047244	-0.51736856
174	0x3f62fc98	0.8866668
175	0xbebbd7bd	-0.36688033
176	0x3f5577db	0.8338601
177	0x3eb838cf	0.35980842
178	0x3f3fa336	0.74858415
179	0xbf39e85b	-0.7262017
180	0xbeea3836	-0.4574601
181	0x3e4ee479	0.20204343
182	0xbebae568	-0.36503148
183	0xbe5d57e2	-0.21615556
184	0x3ed6a403	0.41922006
185	0xbe81fe87	-0.253895
186	0xbef52b80	-0.4788475
187	0x3d8feb1d	0.07027266
188	0x3ea07425	0.3133861
189	0x3f11d563	0.5696623
190	0xbf406b70	-0.75163937
191	0x3e09e357	0.1346563

fc1.bias f4 [64]
0	0x3f1e2c66	0.61786497
1	0xbf7529af	-0.9576673
2	0x3e197f5c	0.1498999
3	0x3f289e93	0.65866965
4	0x3f5908ae	0.8477887
5	0xbeadb021	-0.33923438
6	0x3f0afaf2	0.5428916
7	0x3e65c408	0.22438061
8	0x3f110ed7	0.5666327
9	0x3f2955c2	0.6614648
10	0x3f4fdcff	0.8119659
11	0x3e965a90	0.2936597
12	0x3d5f4517	0.05450925
13	0x3ef3515c	0.4752301
14	0xbec69527	-0.3878567
15	0xbfac66d1	-1.3468877
16	0xbf1d2f09	-0.61399895
17	0xbdcec048	-0.100952685
18	0x3f622b2a	0.88347113
19	0xbf42a08d	-0.7602623
20	0x3eff574e	0.49871296
21	0xbfb2101a	-1.3911164
22	0xbe30df6d	-0.1727273
23	0x3f310f94	0.69164395
24	0x3f472317	0.7778792
25	0x3f7ac12e	0.9795102
26	0x3f0a90a7	0.5412697
27	0xbea7ca80	-0.32771683
28	0x3f1ce5bf	0.61288065
29	0xbf104984	-0.56362176
30	0x3f0b4918	0.5440841
31	0x3ef39fc6	0.47582835
32	0xbf5c7452	-0.8611499
33	0x3f54b735	0.8309205
34	0xbec8d466	-0.39224547
35	0x3f3f3ec2	0.74705136
36	0xbdbb675b	-0.09150573
37	0x3f8bdd41	1.0926896
38	0x3f08f902	0.53504956
39	0xbf1bf28c	-0.6091697
40	0x3f00c9a0	0.50307655
41	0xbe9841a5	-0.29737583
42	0x3f02634b	0.5093276
43	0x3f5040be	0.8134879
44	0x3f0ed3c3	0.5579187
45	0xbc7d9d2c	-0.015479367
46	0x3f29a675	0.6626962
47	0xbf35f4e6	-0.7107681
48	0x3f437507	0.76350445
49	0x3f7ecdc2	0.9953271
50	0xbec81d44	-0.39084828
51	0xbe4354bf	-0.19075297
52	0x3f5cf9b1	0.863185
53	0x3f810640	1.0080032
54	0x3ed21e9c	0.41038978
55	0x3f08d1e2	0.53445256
56	0x3ed91985	0.42402282
57	0xbfc5c3d5	-1.5450388
58	0xbe53bd8f	-0.2067778
59	0xbf346575	-0.7046731
60	0x3f3d89e7	0.7403855
61	0x3efeaf5b	0.4974316
62	0x3f2a234e	0.6646012
63	0x3ef1d981	0.47236255

fc2.weight f4 [1, 64]
0	0xbf2ccf9e	-0.675043
1	0x3fc33d22	1.5253031
2	0x3f6673fa	0.90020716
3	0x3f0f46f6	0.5596765
4	0xbe8e0368	-0.27736974
5	0x3c87f878	0.016597971
6	0x3f65ec7d	0.8981398
7	0x3ddabdb0	0.10680711
8	0xbe85974c	-0.26091993
9	0xbdcc5a93	-0.09978213
10	0x3f1e07fe	0.61730945
11	0xbfa844a3	-1.3145946
12	0x3ec3cf27	0.38243982
13	0xbe380d01	-0.1797371
14	0xbcf71392	-0.030160699
15	0xbf91ffbc	-1.1406169
16	0x3ef54bc0	0.47909355
17	0x3effd672	0.49968296
18	0xbf2bcd2c	-0.6710994
19	0x3fda2db8	1.7045202
20	0xbf2debf9	-0.6793819
21	0xbf6d1777	-0.9261393
22	0xbf881e27	-1.0634202
23	0xbeff83ed	-0.4990534
24	0xbee30d78	-0.44346213
25	0xbf3d72e6	-0.74003446
26	0x3f7ae7e3	0.9801008
27	0x3f69f2a1	0.9138585
28	0x3ef156d8	0.4713657
29	0xbf24d66a	-0.6438967
30	0xbe60649c	-0.2191338
31	0x3ee14655	0.43998972
32	0xbf87f3dd	-1.0621296
33	0x3f211696	0.6292509
34	0x3f871521	1.0553323
35	0xbf05530a	-0.5207983
36	0xbf5f4c91	-0.87226206
37	0xbe903c32	-0.28170925
38	0xbf1507d0	-0.58215046
39	0xbf11a250	-0.56888294
40	0xbf28265a	-0.6568352
41	0x3fd2529c	1.643146
42	0x3eadd745	0.339533
43	0xbece05f1	-0.40238908
44	0x3edad99f	0.42744157
45	0xbf8b3303	-1.0874943
46	0x3ebb6830	0.36602926
47	0x3ea83a95	0.32857195
48	0xbe89ecd4	-0.26938498
49	0xbee673e0	-0.4501028
50	0xbf31605b	-0.6928765
51	0x3eef24a8	0.46707654
52	0x3f13d415	0.57745486
53	0x3ee08dde	0.43858236
54	0x3f946e5e	1.1596181
55	0x3f2b1cf3	0.6684105
56	0x3fd07051	1.6284276
57	0x3f7533de	0.9578227
58	0xbf21f516	-0.63264596
59	0x3ee0f93b	0.43940148
60	0xbe4db8f9	-0.20090093
61	0xbe506146	-0.20349607
62	0x3f03fc24	0.5155661
63	0x3e376113	0.17908125
