DDPG_critic.pth (torch, 20343 bytes, 5 tensors)

fc1.weight f4 [64, 4]
0	0x3e47700f	0.1947634
1	0xbfc609b5	-1.5471712
2	0xbe801d2b	-0.25022253
3	0xbdfd4b00	-0.12367821
4	0x3f45c2a1	0.77250105
5	0x3fbad03d	1.4594799
6	0x3d4f2248	0.050569803
7	0x3ea78af8	0.32723212
8	0xbf405886	-0.75135076
9	0xbfdc9af9	-1.7234794
10	0xbe7f3747	-0.2492343
11	0x3d2c3779	0.04204509
12	0xbe46aefc	-0.19402689
13	0xbfb5dd2a	-1.4208119
14	0x3f1cba20	0.61221504
15	0xbde86d0f	-0.11348926
16	0x3f8e03d8	1.1094923
17	0x3fb8997b	1.4421839
18	0x3e318b43	0.1733828
19	0xbdd04360	-0.10169101
20	0x3f105592	0.5638057
21	0x3fb2be5b	1.3964342
22	0x3e8d8f89	0.2764857
23	0xbd1dbe43	-0.038511526
24	0x4004f2d7	2.0773218
25	0x3ef5d4c6	0.48013896
26	0xbe3c937a	-0.18415633
27	0xbd3c2b0e	-0.045939498
28	0x3eb46cf2	0.3523937
29	0xbf3e74b9	-0.74396855
30	0x3e88edb8	0.26743865
31	0x3ea6f0eb	0.3260568
32	0xbeafe473	-0.3435398
33	0xbcca4cb6	-0.024694782
34	0x3ed1ca94	0.40974867
35	0x3e8f4fc1	0.27990535
36	0xbd2cde17	-0.04220399
37	0x3e8af692	0.27141243
38	0x3e28f67d	0.16500278
39	0xbe5c1cc7	-0.21495353
40	0xbf97ceda	-1.1860001
41	0x3ef74ba0	0.48299885
42	0x3e5faae4	0.21842533
43	0xba545d7c	-0.00081010885
44	0x3f15d121	0.5852223
45	0x3e9b0c8d	0.30283013
46	0xbef4afd1	-0.47790387
47	0xbe1e625d	-0.1546721
48	0xbf317db3	-0.69332427
49	0xbe187d32	-0.14891508
50	0x3e3f944a	0.18708912
51	0xbdf5d097	-0.12002676
52	0x3d915b8c	0.07097539
53	0xbfc5eb5f	-1.5462455
54	0xbe1589e7	-0.14603387
55	0x3dfd27fd	0.12361143
56	0x3f312a40	0.69205093
57	0x3fd6d540	1.6783829
58	0x3ec3047a	0.38089353
59	0x3c8d2fe7	0.017234756
60	0x3f5ce24d	0.8628281
61	0x3f1d7555	0.6150716
62	0xbd67c9a7	-0.056588795
63	0x3db24716	0.08704965
64	0x3fb16419	1.3858672
65	0x3dc90a4d	0.09816418
66	0xbd56ed7f	-0.052472588
67	0x3dd92463	0.10602643
68	0x3e418841	0.18899633
69	0xbf1ce1d7	-0.61282104
70	0xbd6590ca	-0.056046285
71	0xbf510a54	-0.81656384
72	0xbf82d00d	-1.0219742
73	0xbd5fc6a9	-0.054632816
74	0x3e3cc22b	0.18433444
75	0x3d47bcda	0.048764087
76	0xbf3b59f7	-0.7318415
77	0x3eb1c032	0.34716946
78	0x3f0ea044	0.55713296
79	0x3e9faa9b	0.3118485
80	0xbe8e2707	-0.2776415
81	0x3f895fd0	1.0732365
82	0x3e475408	0.19465649
83	0xbda4cddc	-0.08047077
84	0xbfac791c	-1.347446
85	0x3f7c1748	0.98473024
86	0x3e9ad4bb	0.30240425
87	0xbdb2e3a3	-0.087348245
88	0x3f96f41f	1.179325
89	0xbe897a5b	-0.26851162
90	0x3f57b840	0.8426552
91	0x3d470010	0.048584044
92	0x3ddde59d	0.10834811
93	0xbfb25c14	-1.393435
94	0xbe506295	-0.20350106
95	0xbdd92583	-0.10602858
96	0x3f477193	0.77907676
97	0x3f13713b	0.5759465
98	0x3e9d8431	0.30764917
99	0xbc8d6800	-0.017261505
100	0xbebd56e9	-0.3698037
101	0x3f9a747e	1.20668
102	0xbdbac33c	-0.09119269
103	0x3e162bcb	0.14665143
104	0xbf5dc33b	-0.86626023
105	0xbf5b8e29	-0.85763794
106	0xbe6f0702	-0.23342517
107	0x3c8856ca	0.016642947
108	0xbe976d2b	-0.29575476
109	0x3e5efbca	0.21775737
110	0x3f1913c2	0.59795773
111	0xbdbbbd23	-0.09166934
112	0xbf8f1aa7	-1.1180009
113	0xbf822de7	-1.0170258
114	0x3b0745b0	0.0020640902
115	0xbe755986	-0.23959932
116	0xbf206a9c	-0.62662673
117	0xbf5bbf10	-0.85838413
118	0xbe9bab39	-0.3040407
119	0xbe0c4c7b	-0.1370105
120	0xbf5bdc33	-0.8588287
121	0x3f7b6b07	0.98210186
122	0x3e022741	0.12710287
123	0xbcd190d1	-0.02558175
124	0xbe65c35c	-0.22437805
125	0x3f8110b7	1.0083226
126	0x3f164a3f	0.5870704
127	0xbdc5896b	-0.09645351
128	0xbf950b4e	-1.1644075
129	0x3f9fc47f	1.2481841
130	0x3e9fc132	0.31202084
131	0xba20911f	-0.00061251404
132	0x3fdf7765	1.7458311
133	0x402d7d38	2.7107677
134	0x3f0c49ff	0.5480041
135	0xbb8c4fe9	-0.004281987
136	0x3ff3ded7	1.905238
137	0x3d0d70e2	0.03453148
138	0xbe1d6d60	-0.15373755
139	0xbe71ec0b	-0.236252
140	0xbf49fe54	-0.789037
141	0xbf4a2b85	-0.78972656
142	0xbe347f5a	-0.17626706
143	0x3e50708d	0.20355435
144	0x3f7b7b98	0.98235464
145	0xbfb917cd	-1.4460388
146	0xbebf3177	-0.37342426
147	0xbd03475f	-0.032050487
148	0xbf2e075e	-0.6797999
149	0x3fe19115	1.76224
150	0x3eb1bff3	0.34716758
151	0x3d2641ed	0.040590215
152	0xbea96265	-0.33082882
153	0xbf5ac0a0	-0.8545017
154	0xbe940f65	-0.28917995
155	0xbda59b31	-0.08086241
156	0xbfa6c29a	-1.3028138
157	0x3ef51c47	0.47873136
158	0x3edb1b1e	0.42794126
159	0xbe50607b	-0.20349304
160	0xbf38c13d	-0.7216986
161	0x3b6e7e3c	0.003639116
162	0x3de22fd4	0.11044279
163	0x3d105fe3	0.035247695
164	0x3df763ba	0.12079568
165	0x3faacea3	1.334431
166	0xbe211f98	-0.15734708
167	0x3e2940ab	0.16528575
168	0xbf5891ff	-0.8459777
169	0xbf51aea6	-0.8190712
170	0x3e4c55be	0.19954583
171	0x3e63b480	0.22236824
172	0xbf5d5334	-0.8645508
173	0x3f32302c	0.69604754
174	0x3e35914b	0.17731206
175	0xbd4e964e	-0.05043631
176	0xbfa251da	-1.2681229
177	0x3f896083	1.0732578
178	0x3ea41114	0.3204428
179	0xbcd259a6	-0.025677513
180	0x3ffa806c	1.9570441
181	0x3fb67fcc	1.425775
182	0x3e8c81df	0.27442834
183	0xbdbe95a1	-0.09305883
184	0xbede7821	-0.43451026
185	0x3fbd21c1	1.4775926
186	0x3e8bba3e	0.2729053
187	0xbd3d5d71	-0.04623169
188	0xbd4ea12c	-0.050446674
189	0xbefc4808	-0.49273705
190	0x3edcccfb	0.43125138
191	0xbe1bde35	-0.15221484
192	0x3e549bf4	0.20762616
193	0x3f85e146	1.0459373
194	0x3e9a923f	0.30189702
195	0x3d580418	0.05273828
196	0x3d45e988	0.048318416
197	0x3e353f7d	0.177
198	0x3bdaf667	0.0066822055
199	0x3dcaaa49	0.098957606
200	0xbdf70259	-0.12060995
201	0xbf958390	-1.1680775
202	0xbe47e23b	-0.19519894
203	0xbe0a1c46	-0.13487348
204	0xbe65434e	-0.22388956
205	0x3ef221a0	0.4729128
206	0xbe6e2176	-0.23254952
207	0xbed2fbc3	-0.41207704
208	0xbf6bdacd	-0.9213074
209	0x3fc898bc	1.5671611
210	0x3eaa91cd	0.33314362
211	0xbdd352a1	-0.103184946
212	0xbf31e569	-0.6949068
213	0xbe9b11f5	-0.30287138
214	0x3e8a3aad	0.2699789
215	0x3c511e99	0.012763643
216	0xbf27ba5c	-0.65518737
217	0xbdb6ece2	-0.089319006
218	0x3e02ff74	0.1279276
219	0xbd8e3a2d	-0.0694469
220	0xbe8af247	-0.27137968
221	0xbf817bbf	-1.0115889
222	0xbe44eb38	-0.19230354
223	0xbde4f179	-0.1117887
224	0x3e795384	0.24348265
225	0xbfac870a	-1.3478711
226	0x3f19f8fc	0.60145545
227	0x3e9c10f0	0.30481672
228	0x3f4790c0	0.77955246
229	0xbfc84fde	-1.5649374
230	0xbf14089f	-0.57825655
231	0x3e4697bd	0.19393821
232	0xbf20b090	-0.62769413
233	0xbf4609a3	-0.77358454
234	0x3e51f4ca	0.20503536
235	0x3a7f3d32	0.0009736597
236	0x3eb29e72	0.3488651
237	0x3f82fa0d	1.023256
238	0x3e2520b2	0.16125754
239	0xbb9a3362	-0.0047058323
240	0xbf1231a1	-0.5710698
241	0x3fb10cdc	1.3832049
242	0x3ebefebd	0.37303725
243	0xbe0194e2	-0.1265445
244	0x3f9bd80e	1.217531
245	0xbf9b577a	-1.2136071
246	0x3d72d3d2	0.05928404
247	0x3ee15a75	0.44014326
248	0xbe8cdf7f	-0.27514264
249	0x3f9ee78a	1.241441
250	0xbe303a0e	-0.17209646
251	0x3e05c35c	0.13062805
252	0xbe9672ed	-0.29384556
253	0x3fb0eb60	1.3821831
254	0x3e77a365	0.24183424
255	0xbc448739	-0.01199513

fc1.bias f4 [64]
0	0x3ed66cf5	0.41880003
1	0xbf62a994	-0.88540006
2	0x3f51e9db	0.8199746
3	0xbef5ad4e	-0.47983783
4	0xbf8ddcb1	-1.1082975
5	0xbee8efd5	-0.45495477
6	0xbc506f4a	-0.012721846
7	0xbf9bbeb8	-1.2167578
8	0xbfa8b258	-1.3179426
9	0x3ec5681f	0.38556
10	0x3f850ee3	1.0395168
11	0xbefbc0df	-0.49170586
12	0x3f8d911f	1.1059912
13	0x3f0d92df	0.5530223
14	0xbf152b0a	-0.582688
15	0xbf8025c1	-1.0011522
16	0x3f85e481	1.0460359
17	0x3f0c6bb3	0.54851836
18	0x3f8f7ccc	1.120996
19	0xbf257d40	-0.6464424
20	0x3e2dcaa1	0.16971828
21	0x3f9a66cd	1.2062622
22	0x3dc72b11	0.09725011
23	0x3efe8a40	0.4971485
24	0xbf637a25	-0.8885825
25	0xbe7b1080	-0.24518013
26	0x3f5c475c	0.86046386
27	0xbf7fcb1e	-0.9991931
28	0x3d079ccc	0.033108518
29	0x3f51ef3b	0.8200566
30	0x3e70f4bc	0.23530859
31	0xbf49bb56	-0.78801477
32	0x3f4e98c6	0.80701864
33	0xbeaa77e1	-0.33294585
34	0xbf95e0b2	-1.1709197
35	0x3f559b2a	0.83439887
36	0xbe7685a7	-0.24074422
37	0x3eb71115	0.3575522
38	0x3f59a63f	0.85019296
39	0x3f33b580	0.7019882
40	0x3f3fbcad	0.7489727
41	0x3f204851	0.62610346
42	0x3f2294cd	0.635083
43	0x3f244d27	0.64180225
44	0x3f8d246e	1.1026742
45	0xbf962eeb	-1.1733068
46	0xbe9aa450	-0.30203485
47	0xbf656756	-0.89610803
48	0xbe6e8f40	-0.23296833
49	0x3f81c5c6	1.0138481
50	0x3f06607b	0.5249097
51	0xbfc3ad01	-1.5287172
52	0x3f1a14fe	0.6018828
53	0x3f76631f	0.96244997
54	0x3f6ac9de	0.91714275
55	0x3f0cb817	0.549684
56	0xbe2ac1f6	-0.16675553
57	0xbf01deb5	-0.5073045
58	0x3f1c2dc1	0.61007315
59	0xbeb78927	-0.35846826
60	0xbf1b33fe	-0.6062621
61	0x3cdead33	0.027182197
62	0x3e8a0207	0.26954672
63	0xbe91af70	-0.2845416

fc2.weight f4 [64, 64]
0	0xc102c0ad	-8.17204
1	0x3f987104	1.190949
2	0xbffb1d4e	-1.9618318
3	0x3fac9568	1.3483095
4	0x3f3173bf	0.6931724
5	0xbda028e9	-0.07820303
6	0x3f146168	0.5796113
7	0x3f4ee3c1	0.80816275
8	0xbed438ef	-0.41449687
9	0xbf9f9db7	-1.2470006
10	0xbdb65052	-0.08902039
11	0x3e8183e1	0.25295928
12	0xbeceaaef	-0.40364787
13	0xbfce8167	-1.613324
14	0x3f6b922b	0.9201991
15	0xbda4bf8e	-0.08044349
16	0x3f2f13a0	0.6838932
17	0xbfaac031	-1.3339902
18	0x3daf625e	0.08563684
19	0xbec26821	-0.3797007
20	0xbd8333c0	-0.06406355
21	0x3e1fba4d	0.15598412
22	0x403d1e3b	2.9549701
23	0xc04127a0	-3.0180435
24	0xbd6c9884	-0.057762638
25	0x3f363cc9	0.711865
26	0x3da9e159	0.08294935
27	0x3fd92b69	1.6966373
28	0xc05c6065	-3.4433835
29	0xbe6b03f2	-0.22950724
30	0xbd237be1	-0.039913062
31	0x3fd2b611	1.6461812
32	0x3da5dda9	0.08098919
33	0x4003a510	2.0569496
34	0xbfb69b4d	-1.4266144
35	0xbd4b2e29	-0.04960457
36	0xc0b343ca	-5.602025
37	0x3e908523	0.28226575
38	0xbea9b342	-0.33144575
39	0xbf08309a	-0.5319916
40	0x3e014c4d	0.12626763
41	0x3f049ddd	0.5180338
42	0xbf632969	-0.8873506
43	0xbe68fee9	-0.2275349
44	0x3e734120	0.23755312
45	0x407a3661	3.909569
46	0xbffc6b53	-1.9720253
47	0x3e48fe34	0.19628221
48	0xbfdf0405	-1.7423102
49	0x3eba8168	0.36426854
50	0xbfe8ff51	-1.8202916
51	0x3fc4517c	1.5337367
52	0x3dd7e961	0.1054256
53	0xbf2b6915	-0.6695722
54	0xbf62ceea	-0.88596976
55	0xc033d64d	-2.809955
56	0x3fa89500	1.3170471
57	0xc003f086	-2.0615554
58	0xbd9514fe	-0.072793946
59	0xbf0ba3ab	-0.5454661
60	0xbfddecc9	-1.7337886
61	0xbff50cc0	-1.9144516
62	0x3f6ceb7f	0.9254684
63	0xc000729a	-2.0069947
64	0xbc5d7530	-0.013516709
65	0xbcc7479e	-0.024326142
66	0x3da45b61	0.08025242
67	0xbdbe1756	-0.09281795
68	0x3d336c60	0.043804526
69	0xbd54856f	-0.051885065
70	0xbdc2f3e8	-0.09519178
71	0xbe131053	-0.14361696
72	0xbe19f4f4	-0.15034848
73	0x3db5a391	0.088690884
74	0xbd867872	-0.06565942
75	0xbcc93995	-0.02456359
76	0xba0af89d	-0.00053013285
77	0x3d81b0eb	0.063325725
78	0x3d8fa974	0.070147425
79	0x3d877dd1	0.066157945
80	0xbe038499	-0.1284355
81	0xbd540a85	-0.051767845
82	0xbdddcfbe	-0.10830639
83	0xbdd84783	-0.10560515
84	0xbbade148	-0.0053063966
85	0x3da74617	0.081676655
86	0xbdfe3f8b	-0.124144636
87	0x3d6c1212	0.05763442
88	0xbdcc83d8	-0.09986085
89	0xbd735dfe	-0.05941581
90	0x3d89e54f	0.0673319
91	0xbd7a383e	-0.061088793
92	0xbbd963c7	-0.006634209
93	0xbdf3f525	-0.11911992
94	0x3d931be4	0.07183054
95	0xbd4ce6d2	-0.050024815
96	0xbe0228aa	-0.12710825
97	0x3b036625	0.0020049897
98	0xbddaeb06	-0.106893584
99	0xbe034f80	-0.12823296
100	0xbc2a6a40	-0.010401309
101	0x3d823518	0.06357783
102	0xbd84fde0	-0.06493735
103	0x3cc9c183	0.024628406
104	0x3d96d664	0.073651105
105	0x3d3fe5e3	0.046850096
106	0xbdcd335e	-0.10019563
107	0xbd4df39b	-0.05028115
108	0xbd992328	-0.07477409
109	0xbe0c09db	-0.13675635
110	0xbd0ed68d	-0.03487258
111	0x3d741493	0.059589934
112	0x3d9015fe	0.07035445
113	0xbcd681d4	-0.026184954
114	0x3b84e179	0.0040551987
115	0xbd93b997	-0.07213133
116	0x3d704520	0.058659673
117	0xbdacc899	-0.084366985
118	0xbdf7ff4c	-0.12109241
119	0xbab6956d	-0.001393003
120	0x3d4a5446	0.049396776
121	0xbe05da41	-0.13071539
122	0x3da0d2f0	0.07852733
123	0x3c0385c6	0.0080275
124	0xbdf9f2d6	-0.122045204
125	0xbcdc93c8	-0.026925936
126	0x3d940c1c	0.07228872
127	0xbe061356	-0.13093314
128	0x3e2c9235	0.16852649
129	0xbe9875d4	-0.29777396
130	0x3e58f34e	0.21186563
131	0xbee3b240	-0.4447193
132	0x3fb4a7ad	1.411367
133	0x3f3438c0	0.70399094
134	0x3f14de40	0.58151627
135	0xbf89c638	-1.0763617
136	0xbf92fe60	-1.1483879
137	0x3e04a266	0.12952575
138	0x3e73abe5	0.23796041
139	0xbe731314	-0.23737746
140	0x3ecef954	0.40424597
141	0x3e5b45b9	0.21413316
142	0x3f8898bd	1.0671612
143	0x3e97a681	0.2961922
144	0x3ef63ef4	0.48094904
145	0x3e2f29a7	0.17105733
146	0x3e855ace	0.2604584
147	0xbeddeb55	-0.43343607
148	0x3e5f2376	0.21790871
149	0x3efc46a4	0.49272645
150	0xbeef6dfd	-0.46763602
151	0x3e9f5f30	0.3112731
152	0x3f1915cf	0.597989
153	0xbccfc2d8	-0.025361463
154	0x3e89b6fb	0.26897416
155	0xbf45da13	-0.7728588
156	0xbd60ba0b	-0.054864924
157	0x3e5e4ecb	0.21709745
158	0x3e3b043f	0.18263339
159	0xbf3ec7a9	-0.7452341
160	0x3eec25b3	0.46122512
161	0xbf937486	-1.1519935
162	0x3f689e0f	0.9086618
163	0x3e716953	0.23575334
164	0x3c3851af	0.011249944
165	0x3f091d7a	0.535606
166	0x3e068788	0.13137639
167	0x3c9caea2	0.01912624
168	0x3e0fa2e2	0.14026979
169	0x3e551ee1	0.2081256
170	0x3e5ba7d7	0.21450745
171	0x3eaffe60	0.3437376
172	0x3eb93a3d	0.36177245
173	0xbfe1805d	-1.7617298
174	0x3bfa8b49	0.0076459986
175	0xbf036195	-0.51320773
176	0x3c9d0611	0.019167932
177	0x3e403e41	0.18773748
178	0x3e126ae4	0.14298588
179	0xbf245f0a	-0.6420752
180	0x3eba7f4f	0.36425254
181	0x3ed8b8d0	0.423285
182	0x3e8719bb	0.26386818
183	0x3e0bbcd8	0.13646257
184	0xbe807cc6	-0.25095195
185	0xbe85059f	-0.2598085
186	0x3d12585a	0.03572879
187	0x3e86c876	0.26324815
188	0xbea1f437	-0.31631634
189	0x3f2dede0	0.67941093
190	0xbd138acb	-0.036021035
191	0x3ce52da1	0.02797586
192	0x3e395d93	0.18102102
193	0xbf949693	-1.1608452
194	0x3ebfd999	0.374707
195	0xbd16019f	-0.03662264
196	0x3f50717a	0.8142315
197	0x3eaa2730	0.33233023
198	0x3f341613	0.7034618
199	0xbea46294	-0.3210646
200	0xbf0cb701	-0.5496674
201	0x3e20e74a	0.1571323
202	0x3ef28a0c	0.47370946
203	0x3c8e8cbf	0.017401097
204	0x3edd4182	0.4321404
205	0x3eb74b8f	0.35799834
206	0x3f649877	0.8929514
207	0x3ec3977d	0.38201514
208	0x3f237351	0.63847834
209	0x3e83d593	0.25748882
210	0x3f187ae5	0.5956252
211	0xbea41fde	-0.32055563
212	0x3d2724c1	0.040806536
213	0x3f0f83f3	0.56060714
214	0xbe5c4d4f	-0.21513866
215	0x3e91403e	0.28369325
216	0x3efd68f7	0.49494144
217	0x3cfead72	0.031088565
218	0x3e40f2b8	0.1884259
219	0xbed87508	-0.42276788
220	0x3e98cac3	0.29842195
221	0x3e951ee3	0.29125127
222	0x3e176f5a	0.14788571
223	0xbf2053b2	-0.6262771
224	0x3ecf11c8	0.40443254
225	0xbfa802c0	-1.3125839
226	0x3f7c444b	0.98541707
227	0x3e6c70a3	0.23089842
228	0xbc199397	-0.009373567
229	0x3eb92ce1	0.36167052
230	0x3e557b4e	0.20847818
231	0x3de5d2fa	0.11221881
232	0x3e8176f2	0.2528606
233	0x3e516f6b	0.20452659
234	0x3f156034	0.5834992
235	0x3ec16327	0.3777096
236	0x3f152c38	0.582706
237	0xc000efb5	-2.0146306
238	0xbe28dcb8	-0.16490448
239	0xbe20b412	-0.15693691
240	0xbe5425f7	-0.20717607
241	0x3df8b9cd	0.12144814
242	0x3e74c8cb	0.23904721
243	0xbf1e1504	-0.6175082
244	0x3ec55778	0.38543296
245	0x3f090c8b	0.53534764
246	0x3e9e4a0d	0.3091587
247	0x3e2c7832	0.16842726
248	0x3ebc6673	0.36796913
249	0xbe86e304	-0.26345074
250	0x3ef94fbd	0.48693648
251	0x3d5e410e	0.05426126
252	0xbe8009b8	-0.25007415
253	0x3f5a9b86	0.8539356
254	0x3d8f8db2	0.07009448
255	0xbe4d47e8	-0.20046961

fc2.bias f4 [64]
0	0x3ed8d574	0.42350352
1	0xbdadc623	-0.08485057
2	0x3f083c1d	0.53216726
3	0x3f195a3e	0.59903324
4	0x3efe9322	0.49721628
5	0x3f131cab	0.5746562
6	0x3f30eb68	0.691092
7	0xbdc703b8	-0.09717506
8	0x3f178200	0.5918274
9	0x3f0c3dc7	0.54781765
10	0x3f01b8f5	0.5067285
11	0xbd9182ae	-0.07105003
12	0x3f09b344	0.5378916
13	0xbdf2e3b1	-0.11859835
14	0xbdde7f88	-0.108641684
15	0x3f3b195e	0.7308558
16	0xbd869ee0	-0.06573272
17	0xbd4e48bf	-0.050362345
18	0x3f24259e	0.641199
19	0x3f08bc64	0.5341246
20	0x3c529724	0.012853418
21	0x3d9801fd	0.07422254
22	0x3f037281	0.51346594
23	0x3f14b092	0.58081925
24	0x3d895571	0.0670575
25	0x3d544f46	0.051833414
26	0xbe1ac90a	-0.15115753
27	0xbe1873df	-0.14887951
28	0x3f030fca	0.5119597
29	0x3f13f060	0.5778866
30	0x3d43b4b8	0.04777977
31	0x3f0af5af	0.54281133
32	0x3f1e19f9	0.6175838
33	0x3f2e88f4	0.68177724
34	0xbe0b7db6	-0.13622174
35	0x3f238f0a	0.63890135
36	0x3f29d070	0.66333675
37	0xbd2724c2	-0.04080654
38	0xbc5247be	-0.0128344875
39	0x3efdd1d8	0.4957416
40	0x3f3603fe	0.7109984
41	0x3f35c7ee	0.71008193
42	0xbc986b06	-0.01860572
43	0x3f2d826a	0.6777712
44	0xbd05f3cc	-0.032703206
45	0x3d43cac5	0.047800798
46	0x3f28c6a0	0.6592808
47	0x3ed8546c	0.4225191
48	0x3f2dcb69	0.67888504
49	0x3ef60482	0.48050314
50	0xbc9b4bd9	-0.018957065
51	0xbd8dad0f	-0.06917774
52	0xbca3b3d9	-0.019983219
53	0x3f24c650	0.643651
54	0x3f395348	0.723927
55	0x3ef9468e	0.4868664
56	0xbccf28e2	-0.02528805
57	0x3f1a2783	0.6021654
58	0x3ee29de4	0.44261086
59	0x3f044bf4	0.51678395
60	0xbda74bb6	-0.081687376
61	0xbd2f19bb	-0.042749148
62	0x3ef70dee	0.48252815
63	0x3f420901	0.7579499

fc_out.weight f4 [1, 64]
0	0xc056e180	-3.3575134
1	0x3cb4fd1b	0.022093346
2	0xbeb96669	-0.36210945
3	0xbef4cc72	-0.4781223
4	0xbed007de	-0.40631002
5	0xbfeca06a	-1.8486454
6	0xbecb89be	-0.39753526
7	0x3de3fc2a	0.11132081
8	0xbf0ce987	-0.55043834
9	0xbed0762a	-0.40715152
10	0xbebef08a	-0.37292892
11	0x3d7fa3b2	0.06241197
12	0xbef5ce53	-0.48008975
13	0x3daec4fd	0.08533666
14	0x3db4528a	0.088048056
15	0xbed6a65e	-0.41923803
16	0x3cc3c01f	0.023895321
17	0x3cb33e3d	0.021880263
18	0xbed3bb93	-0.41354045
19	0xbedeabf2	-0.4349056
20	0x3d9b0ffc	0.07571408
21	0x3d1a8f14	0.037734106
22	0xbedd4082	-0.43213278
23	0xbed9d58a	-0.4254573
24	0x3d236ffc	0.03990172
25	0x3ca17d27	0.019712998
26	0x3bba4b37	0.005685236
27	0x3c28ba00	0.010298252
28	0xbf700456	-0.93756616
29	0xbf010eb5	-0.50413066
30	0xbbe2d720	-0.0069226176
31	0xbebe6fc2	-0.3719464
32	0xbf019ba6	-0.50628126
33	0xbedfcfcb	-0.4371322
34	0x3dc6841d	0.09693167
35	0xbec9b0fe	-0.39392847
36	0xbee137b6	-0.43987817
37	0x3d2c2c15	0.042034227
38	0x3dce73ef	0.10080706
39	0xbf2e8c44	-0.6818278
40	0xbef6176d	-0.48064747
41	0xbefe181a	-0.49627763
42	0x3dbf27f9	0.09333796
43	0xbee3f531	-0.44523004
44	0x3c2f1a60	0.010687441
45	0x3da64fcf	0.08120691
46	0xbee63f45	-0.44970146
47	0xbebfaba0	-0.37435627
48	0xbee3379d	-0.44378367
49	0xbf8b4e55	-1.088328
50	0x3d9e41e9	0.07727415
51	0xbdc760f9	-0.09735293
52	0x3d76a6c5	0.060217638
53	0xbee2c376	-0.4428975
54	0xbee0dab0	-0.43916845
55	0xbec1a06d	-0.37817708
56	0x3d59185f	0.053001758
57	0xbec7a480	-0.3899269
58	0xbf0ef485	-0.5584186
59	0xbec95cb3	-0.39328536
60	0x3b56f5ca	0.003280031
61	0x3b3b7829	0.0028605557
62	0xbeba4851	-0.36383298
63	0xbf072ff6	-0.5280756
