DDPG_critic_test.pth (torch, 20447 bytes, 5 tensors)

fc1.weight f4 [64, 4]
-0.1155243 0.38761383 -0.5751947 -0.7976743 -1.157676 1.1881863 -0.17963377 -0.24945441
-0.805201 0.13100225 -0.2779392 -0.11804465 -0.94290257 -0.3362299 0.29688755 0.61133736
2.3135545 -2.748385 -0.85119724 -0.12279493 -1.2094318 1.1847081 0.5005804 -0.02515038
0.45039132 0.14770499 0.00032209346 -0.02454601 -0.10397514 -2.8842554 -0.572159 0.003672088
-0.9685922 -0.067411475 0.119418666 0.18265161 -1.4286531 -0.3490894 0.18614171 -0.19590442
1.34664 -1.2640743 -0.7853271 0.8753039 -3.8982186 -0.7813582 -0.41312042 -0.093360156
-0.32173765 1.1093428 -0.20043468 0.29020151 -2.0622046 1.3245975 0.6696872 -0.33760172
1.8751589 -0.7177591 0.6686546 0.071699955 -1.0288926 1.9914601 0.1880845 0.108972244
0.906006 -0.9704328 -0.1575822 -0.08719481 -0.70851624 -1.1974332 -0.26343155 0.6748017
-1.2887921 -2.8322518 -0.6875118 -0.05773972 0.6621672 3.7831953 0.58808744 0.21284814
0.115864694 2.3500702 -0.032442134 -0.055540103 -1.7278051 -1.6554853 -0.6344446 -0.224876
-2.3535988 -2.8864546 -0.70992273 0.52857524 -0.6749814 2.4111106 0.7018678 -0.15844974
0.4343191 2.3236647 0.15616949 -0.048571847 2.2726297 1.6584337 0.6127379 0.15583168
-0.10849935 1.435612 -0.31425786 -0.53247786 0.87594604 0.2356327 0.35018635 -0.3228197
-1.9550904 -1.2905171 -0.19686654 0.46260968 -1.5479039 -1.3354301 0.12383688 0.34388357
-2.5739446 -1.9275081 -0.93683296 0.70404565 -1.3494993 1.2737713 0.49751475 -0.31246352
-0.8829239 0.7557259 -0.16245423 0.22545992 -0.009195 0.11508265 -0.326733 0.2454369
-0.6301649 -0.98546475 -0.7712286 -0.66898644 -2.2700796 -1.664107 -0.73794585 0.6983484
-0.5971644 -2.91495 0.30901316 0.5036805 -1.779919 0.683406 0.11555506 -0.21456543
-1.8275644 3.2531736 0.6476088 -0.07967867 -2.6328063 1.6163232 -0.46927118 -0.17032371
-0.8998947 0.48227218 -0.012219434 -0.09377233 0.28186846 0.017234815 0.03462359 -0.071951255
-0.45143062 -0.074574284 0.88353527 -0.17679437 0.55867636 1.8594766 0.3588549 0.19206223
-0.80382395 0.64532506 0.32919577 -0.166915 2.0711958 -1.5375425 -0.729345 -0.019019563
-0.11515333 0.27233297 0.3260801 -0.4879438 -1.0667673 2.2696216 0.7005551 0.13721693
1.2092075 -0.9692651 -0.055763934 0.40970537 -1.0948414 -2.828172 -0.41637197 0.04488723
2.1471224 -4.1416516 -0.94629645 -0.20142843 -0.43126917 0.4390298 -0.024751134 0.039727364
1.7492826 2.841415 0.7207982 0.1436269 -0.5119691 0.9471251 -0.12104889 -0.58816284
0.56546354 2.9525766 0.17047074 0.056181073 2.189278 -0.85053843 0.04307824 0.19163445
-1.191703 1.8470461 0.46863347 -0.39162448 0.17154725 -0.2288503 -0.18684877 0.2862206
0.21889836 -0.086792715 -0.0024308518 -0.14413117 -1.4608828 1.6107575 -0.06839548 -0.5545057
0.3011958 -0.282988 -0.27024612 -0.10770787 -0.7489413 -0.033218194 -0.6838279 1.0388454
-1.0619382 -1.1911545 -0.84918773 -0.3030468 -1.8237714 -0.78146887 0.16537538 0.08294509
00000000: 0198 ecbd 5275 c63e f63f 13bf 6234 4cbf
00000010: ba2e 94bf 7d16 983f eaf1 37be fa70 7fbe
00000020: a721 4ebf 7425 063e 0c4e 8ebe 65c1 f1bd
00000030: 1062 71bf 5326 acbe a501 983e 9b80 1c3f
00000040: 4711 1440 8ae5 2fc0 10e8 59bf e97b fbbd
00000050: a9ce 9abf 84a4 973f 0926 003f 2b08 cebc
00000060: b199 e63e fa3f 173e a7de a839 b714 c9bc
00000070: ebf0 d4bd a497 38c0 0379 12bf 6aa7 703b
00000080: a9f5 77bf 070f 8abd c691 f43d 0609 3b3e
00000090: 1bde b6bf d9bb b2be ef9b 3e3e 2b9b 48be
000000a0: b35e ac3f 30cd a1bf 320b 49bf eb13 603f
000000b0: 6a7c 79c0 1707 48bf 8584 d3be 9c33 bfbd
000000c0: ccba a4be f2fe 8d3f c03e 4dbe 4b95 943e
000000d0: 29fb 03c0 698c a93f 9f70 2b3f 22da acbe
000000e0: 3505 f03f 0fbf 37bf f32c 2b3f 6dd7 923d
000000f0: c1b2 83bf 2ae8 fe3f 3999 403e d72c df3d
00000100: 02f0 673f 496e 78bf 3a5d 21be 3193 b2bd
00000110: 5261 35bf 7e45 99bf 80e0 86be cebf 2c3f
00000120: 24f7 a4bf 9d43 35c0 c600 30bf 7c80 6cbd
00000130: ca83 293f df1f 7240 e68c 163f ddf4 593e
00000140: 784a ed3d 8d67 1640 0be2 04bd 057e 63bd
00000150: b828 ddbf f1e6 d3bf f66a 22bf e545 66be
00000160: 5da1 16c0 acbb 38c0 7fbd 35bf b550 073f
00000170: 95cb 2cbf a34f 1a40 9cad 333f a640 22be
00000180: 135f de3e ecb6 1440 e5ea 1f3e 46f3 46bd
00000190: c472 1140 8e47 d43f 64dc 1c3f 5792 1f3e
000001a0: e834 debd 22c2 b73f 68e6 a0be 7850 08bf
000001b0: 003e 603f b349 713e a04b b33e a048 a5be
000001c0: 6740 fabf aa2f a5bf 6297 49be 2ddb ec3e
000001d0: b721 c6bf 60ef aabf 319e fd3d 8211 b03e
000001e0: 82bb 24c0 96b8 f6bf 49d4 6fbf 563c 343f
000001f0: 65bc acbf f00a a33f 41ba fe3e 38fb 9fbe
00000200: 4d07 62bf 4177 413f 675a 26be f7de 663e
00000210: a0a6 16bc 74b0 eb3d 8c49 a7be d053 7b3e
00000220: 7d52 21bf 6b47 7cbf 3d6f 45bf b242 2bbf
00000230: fc48 11c0 7501 d5bf 05ea 3cbf f6c6 323f
00000240: c4df 18bf 8a8e 3ac0 f936 9e3e 35f1 003f
00000250: 63d4 e3bf b2f3 2e3f 22a8 ec3d 0ab7 5bbe
00000260: a1ed e9bf ff33 5040 b1c9 253f 922e a3bd
00000270: e67f 28c0 aee3 ce3f 5044 f0be 5769 2ebe
00000280: 805f 66bf 61ec f63e 0534 48bc b50b c0bd
00000290: 1051 903e 0730 8d3c 77d1 0d3d 2e5b 93bd
000002a0: ea21 e7be 67ba 98bd 5e2f 623f 9509 35be
000002b0: 6a05 0f3f 5403 ee3f d4bb b73e f6ab 443e
000002c0: 68c7 4dbf 0634 253f 598c a83e c4eb 2abe
000002d0: 798e 0440 31ce c4bf 5bb6 3abf eace 9bbc
000002e0: 82d5 ebbd 3a6f 8b3e f9f3 a63e c5d3 f9be
000002f0: d58b 88bf 7b41 1140 9457 333f 9882 0c3e
00000300: 50c7 9a3f c221 78bf b968 64bd e7c4 d13e
00000310: c323 8cbf c500 35c0 b52e d5be acdb 373d
00000320: 746a 0940 6988 84c0 7c40 72bf 4143 4ebe
00000330: 50cf dcbe 84c8 e03e e4c2 cabc 29b9 223d
00000340: 7ee8 df3f bed9 3540 3b86 383f ee12 133e
00000350: 6810 03bf ca76 723f 7be8 f7bd d791 16bf
00000360: 38c2 103f 04f7 3c40 e28f 2e3e 201e 663d
00000370: 211d 0c40 e3bc 59bf cf72 303d d23b 443e
00000380: b989 98bf 026c ec3f baf0 ef3e 0183 c8be
00000390: 15aa 2f3e bc57 6abe 4955 3fbe 828b 923e
000003a0: e426 603e 61c0 b1bd ed4e 1fbb 1f97 13be
000003b0: 35fe babf 4d2d ce3f ee12 8cbd 16f4 0dbf
000003c0: 5636 9a3e cee3 90be b35d 8abe f295 dcbd
000003d0: 9eba 3fbf cd0f 08bd 580f 2fbf e3f8 843f
000003e0: 97ed 87bf c077 98bf 5e64 59bf f328 9bbe
000003f0: 5771 e9bf 580e 48bf 2a58 293e 1edf a93d

fc1.bias f4 [64]
1.0021112 0.6186988 1.001621 0.33229727 -1.4788721 0.9015974 -1.0178058 -0.49122962
1.0391178 1.467243 -0.53619343 -1.1037216 0.09817538 0.49428794 -2.1192732 0.4810154
1.0333587 0.10889379 0.26459903 -1.6671193 0.4674628 1.549951 -0.60979414 -0.5205142
0.18769558 -2.6795087 0.67246103 -0.22515169 -0.10968293 1.1431283 0.020904295 0.99692625
1.1818383 -0.19171548 0.08977655 0.30103692 -0.2941835 0.486397 0.1511021 -1.4745058
0.45423976 -0.85017705 -0.84914273 0.13797773 0.96382654 -0.82131726 0.6620776 0.72679067
0.39031655 -0.33420575 -2.8318613 0.41906336 -2.2994273 -0.7175081 -1.9135946 -1.8059424
-0.515806 0.63148737 -0.7362064 0.0975126 0.26334953 -0.18786967 0.3252532 0.93191594
00000000: 2e45 803f 0b63 1e3f 1e35 803f de22 aa3e
00000010: ae4b bdbf 16cf 663f 7647 82bf 7382 fbbe
00000020: d001 853f 9ece bb3f f943 09bf c046 8dbf
00000030: 2c10 c93d 4f13 fd3e 2ca2 07c0 a747 f63e
00000040: 1945 843f b503 df3d 8679 873e 2a64 d5bf
00000050: 4957 ef3e cb64 c63f 781b 1cbf 6b40 05bf
00000060: 4533 403e 127d 2bc0 6826 2c3f 2a8e 66be
00000070: 72a1 e0bd 0752 923f 7c3f ab3c 8f36 7f3f
00000080: 7a46 973f 1051 44be c5dc b73d 8321 9a3e
00000090: 389f 96be 0709 f93e 82ba 1a3e 9bbc bcbf
000000a0: 1d92 e83e 34a5 59bf 6b61 59bf 094a 0d3e
000000b0: 56bd 763f d941 52bf eb7d 293f f40e 3a3f
000000c0: 92d7 c73e 041d abbe 373d 35c0 798f d63e
000000d0: d129 13c0 9cae 37bf abf0 f4bf 1f29 e7bf
000000e0: dd0b 04bf 28a9 213f 0678 3cbf b0b4 c73d
000000f0: c0d5 863e e860 40be 9687 a63e 0b92 6e3f

fc2.weight f4 [64, 64]
-0.02137956 -0.013551384 -0.10214281 -0.07152778 -0.13088076 -0.10089965 -0.03794484 -0.19462608
-0.05752912 -0.06824766 0.04747033 0.0966399 0.010496302 -0.013874218 -0.07707162 -0.11139041
-0.0031656004 -0.06576836 -0.083114795 0.12443496 -0.1126219 -0.13321994 -0.11431818 -0.066568255
-0.04418303 -0.017200932 -0.054785267 -0.10655366 0.08466065 0.05237785 -0.03610353 -0.18364224
-0.18976486 0.08486067 -0.029725447 0.026516177 -0.17916533 -0.03842181 -0.15330715 -0.18027179
-0.07140909 -0.07007849 -0.023764476 -0.069190696 -0.08540651 -0.07216208 -0.16721779 0.06693977
-0.059813216 -0.113437176 -0.015071319 -0.024489813 0.064842924 -0.17180042 0.07751723 0.023469476
0.054959536 -0.10425671 -0.08401902 0.08664513 -0.21346766 -0.13052462 -0.09591201 -0.21214141
-0.024226561 0.19088455 0.2831498 0.34001195 3.5697176 0.43950188 0.28731778 -0.11180238
0.28855425 0.75024915 0.76093346 -0.734571 0.07728075 -0.34353855 1.2638687 -0.18589413
0.09772989 0.3496126 0.59906507 -0.76426464 -0.5009414 0.61350375 -0.9351925 -0.95757395
-0.06297979 3.3271887 0.03251813 -0.1153372 -0.6737073 0.20287731 -0.9295383 0.5271254
0.34182054 0.42401284 -0.3392385 0.802944 0.029552424 0.009374424 0.4828873 -0.96379495
0.16369332 -0.016253851 -0.297423 -0.30002606 0.44402906 -2.8441014 0.09289586 0.3179227
0.22595195 0.2963877 1.7612517 0.26024583 1.539486 -0.41691518 -1.4873871 -1.256321
0.09131413 0.46121645 0.0916325 0.34795406 0.358983 0.41310528 0.025840461 0.71711475
-0.13959782 0.70640504 0.5732642 -0.19735137 -0.8931501 0.61903274 0.27313244 -0.7428486
0.40748608 0.974581 -0.642926 1.0929747 0.064793445 -0.44773707 -1.6069279 0.73930866
-0.2928299 -0.07660646 0.594156 -0.23879458 0.6958907 0.83111995 -0.29685825 -1.3031529
0.46529472 1.1487734 -0.0017120912 -0.5822965 0.50855696 0.49148822 -1.1173574 0.59562564
0.5624964 -0.4363578 -1.2277944 1.6764926 -1.2425585 0.8997011 0.80304575 -1.1528708
0.049940605 0.17406063 -1.120204 0.30039555 0.51651 -8.180551 0.04983067 0.78854835
0.33592778 -0.25184643 -1.5106336 0.25826886 1.9537468 0.4415307 -1.5674462 -4.1306014
0.42114848 -0.06930972 0.12530182 1.2183186 -0.47391793 -0.3545071 -0.8206622 0.8883248
-0.011251561 0.26182213 0.23670149 0.25166863 3.6650217 0.48943692 0.26840213 0.34742215
0.5224085 0.6017888 0.65542644 -0.6718994 -0.22023939 -0.42333895 1.293275 -0.3727143
0.009230652 0.21812186 0.77135825 -0.69408613 -0.5368622 0.8086341 -0.63196933 -0.8595385
-0.13365301 3.564596 -0.3034183 0.029443692 -0.8317287 0.31053102 -1.0604923 0.79264677
0.32456416 0.30785057 -0.37974012 0.9419537 0.003869039 -0.22877985 0.61235726 -1.2085024
0.20910408 0.09760471 -0.3368236 -0.20373183 0.5575302 -2.5962138 0.34838453 0.44274318
0.39841598 0.518194 1.7486663 0.041941952 1.5226918 -0.14478435 -1.3903674 -1.1653739
0.040101003 0.2699524 -0.056676388 0.49816367 0.2558551 0.18770733 -0.0332664 0.7583417
00000000: 3024 afbc a006 5ebc 4030 d1bd 287d 92bd
00000010: 9b05 06be 7aa4 cebd 0c6c 1bbd 0f4c 47be
00000020: a8a3 6bbd 6ec5 8bbd 4070 423d 24eb c53d
00000030: aef8 2b3c b050 63bc bad7 9dbd a820 e4bd
00000040: f675 4fbb 90b1 86bd 1738 aabd c2d7 fe3d
00000050: 50a6 e6bd cf6a 08be a61f eabd f054 88bd
00000060: 44f9 34bd f8e8 8cbc 8466 60bd ce38 dabd
00000070: 9062 ad3d 288a 563d 4ce1 13bd b60c 3cbe
00000080: b851 42be 6ecb ad3d c882 f3bc 7438 d93c
00000090: 1e77 37be 3060 1dbd 8dfc 1cbe 2b99 38be
000000a0: ee3e 92bd 5085 8fbd b8ad c2bc dab3 8dbd
000000b0: 9ce9 aebd b6c9 93bd 243b 2bbe b817 893d
000000c0: b4fe 74bd c051 e8bd b2ed 76bc dc9e c8bc
000000d0: 5ecc 843d 73ec 2fbe 5ac1 9e3d 0f43 c03c
000000e0: 401d 613d 8b84 d5bd 2a12 acbd 0073 b13d
000000f0: 4497 5abe 3fa8 05be 846d c4bd 993b 59be
00000100: c876 c6bc 3d77 433e 03f9 903e 0c16 ae3e
00000110: 4176 6440 6406 e13e 511b 933e a5f8 e4bd
00000120: 62bd 933e 5410 403f 89cc 423f d80c 3cbf
00000130: 5f45 9e3d 49e4 afbe 73c6 a13f 085b 3ebe
00000140: 9c26 c83d 6c00 b33e 545c 193f d9a6 43bf
00000150: b23d 00bf 950e 1d3f c768 6fbf 9123 75bf
00000160: 8cfb 80bd a9f0 5440 bb31 053d e935 ecbd
00000170: 1578 2cbf 12bf 4f3e 39f6 6dbf b1f1 063f
00000180: 1a03 af3e 3618 d93e abb0 adbe bd8d 4d3f
00000190: ed17 f23c 2f97 193c 013d f73e 44bb 76bf
000001a0: 399f 273e cc26 85bc d447 98be 049d 99be
000001b0: c757 e33e c205 36c0 2f40 be3d c4c6 a23e
000001c0: f35f 673e 21c0 973e b270 e13f f13e 853e
000001d0: e10d c53f e875 d5be b362 bebf 20cf a0bf
000001e0: e702 bb3d 9024 ec3e d2a9 bb3d 0927 b23e
000001f0: 9fcc b73e 8982 d33e 60af d33c d594 373f
00000200: bbf2 0ebe f6d6 343f 71c1 123f 7a16 4abe
00000210: 7ca5 64bf ee78 1e3f 04d8 8b3e 532b 3ebf
00000220: 04a2 d03e 247e 793f cc96 24bf 98e6 8b3f
00000230: 6db2 843d cb3d e5be d0af cdbf 5543 3d3f
00000240: cded 95be d9e3 9cbd 9c1a 183f 9186 74be
00000250: e525 323f 47c4 543f cefd 97be b7cd a6bf
00000260: 1c3b ee3e 020b 933f 3f68 e0ba 6211 15bf
00000270: ca30 023f 58a4 fb3e 9105 8fbf ec7a 183f
00000280: c4ff 0f3f 4a6a dfbe 5e28 9dbf 4f97 d63f
00000290: 280c 9fbf d052 663f 6894 4d3f 4591 93bf
000002a0: 858e 4c3d f33c 323e d862 8fbf 72cd 993e
000002b0: 003a 043f 89e3 02c1 3f1b 4c3d 4ede 493f
000002c0: bafe ab3e 04f2 80be 715c c1bf d13b 843e
000002d0: 6014 fa3f 5010 e23e 14a2 c8bf e32d 84c0
000002e0: c6a0 d73e 41f2 8dbd 1f4f 003e ddf1 9b3f
000002f0: 5fa5 f2be f481 b5be eb16 52bf 4169 633f
00000300: 7858 38bc 8d0d 863e e061 723e b6da 803e
00000310: b78f 6a40 7a97 fa3e 016c 893e 51e1 b13e
00000320: 90bc 053f d50e 1a3f 07ca 273f 9901 2cbf
00000330: 6f86 61be e2bf d8be 098a a53f 69d4 bebe
00000340: 293c 173c 565b 5f3e bc77 453f a1af 31bf
00000350: cd6f 09bf a502 4f3f bec8 21bf b70a 5cbf
00000360: 56dc 08be 5722 6440 a559 9bbe e633 f13c
00000370: 2cec 54bf ecfd 9e3e 36be 87bf e6ea 4a3f
00000380: 462d a63e 979e 9d3e 4c6d c2be e123 713f
00000390: b48f 7d3b 4445 6abe 72c3 1c3f 35b0 9abf
000003a0: 611f 563e fae4 c73d 2574 acbe 149f 50be
000003b0: 4dba 0e3f 5e28 26c0 755f b23e 3caf e23e
000003c0: 2efd cb3e 5da8 043f 4cd4 df3f 53cb 2b3d
000003d0: 91e7 c23f 5942 14be 8ff7 b1bf f92a 95bf
000003e0: f340 243d 3337 8a3e 8025 68bd 4f0f ff3e
000003f0: 71ff 823e 5a36 403e 5942 08bd af22 423f

fc2.bias f4 [64]
-0.1726572 0.66980535 0.8871546 0.5035961 -0.08520624 0.48579836 0.50705004 -0.17127746
-0.116654664 0.51208156 -0.108389236 -0.18862063 0.6616432 -0.1562052 0.26252663 0.59296983
0.33060902 0.0046918145 0.21049063 -0.09318732 -0.071062595 -0.10542116 -0.050045017 0.17415337
1.270487 -0.1326014 0.027794568 -0.24923512 -0.15206888 0.642656 0.6112621 0.5814755
-0.11454003 -0.005548684 0.33218497 -0.640549 0.28832683 0.0069692484 0.52547866 -0.1759159
-0.21712893 -0.17424828 -0.22233018 0.21217121 -0.05196062 0.50610524 0.60312414 -0.08755105
-0.7804046 0.015662119 0.5564448 0.3689359 -0.050431293 0.44162825 0.39492103 0.2450749
0.6442276 0.63578117 0.050376307 0.5682192 0.6226872 0.590985 -0.26901236 -0.19759957
00000000: 0dcd 30be 5d78 2b3f 901c 633f adeb 003f
00000010: 9c80 aebd 90ba f83e 08ce 013f 5c63 2fbe
00000020: a4e8 eebd c717 033f 2dfb ddbd c425 41be
00000030: 7361 293f 42f4 1fbe e469 863e dfcc 173f
00000040: 9645 a93e cbbd 993b db8a 573e fed8 bebd
00000050: 4489 91bd 0de7 d7bd 01fc 4cbd 4355 323e
00000060: 519f a23f a9c8 07be 6fb1 e33c 7e37 7fbe
00000070: f2b7 1bbe 1b85 243f ac7b 1c3f 94db 143f
00000080: f793 eabd bcd1 b5bb 2614 aa3e 05fb 23bf
00000090: 939f 933e 4b5e e43b c585 063f 4c23 34be
000000a0: 0c57 5ebe 246e 32be 86aa 63be 6943 593e
000000b0: a9d4 54bd 1d90 013f 5866 1a3f f74d b3bd
000000c0: 99c8 47bf d84d 803c 2b73 0e3f 2be5 bc3e
000000d0: 0b91 4ebd 191d e23e 1733 ca3e eaf4 7a3e
000000e0: 1aec 243f 8ec2 223f 6357 4e3d d076 113f
000000f0: 6e68 1f3f cb4a 173f fdbb 89be 8b57 4abe

fc_out.weight f4 [1, 64]
-0.051133543 -0.08868581 -1.3077304 -0.18901989 -0.00814626 3.169067 0.33022472 0.014005178
-0.03421886 -0.052773416 -0.092867605 -0.007354351 -0.60006464 0.06347817 -0.116371326 -0.098407835
-0.84879816 0.01224563 -0.20572652 -0.030997988 0.0076462235 0.005988903 -0.035067637 2.5849252
-1.8110567 -0.021715013 1.9246738 0.006304832 0.048493728 -0.22076045 -0.009433251 0.100908734
-0.0061253225 0.09529347 7.6138616 1.6380638 0.827761 0.06786865 -0.011687565 -0.05928695
-0.014333543 1.1393135 -1.6182579 -0.81430835 0.06329984 -0.19055642 -3.9875615 0.028043231
1.1005874 0.054548908 0.00635571 -0.6789252 0.0029601739 0.4663438 -1.0493443 -0.3278637
0.28525826 -3.1067572 0.027386831 -0.17385988 -1.6578864 -0.20921333 -0.014738976 0.021027809
00000000: 6871 51bd e8a0 b5bd b663 a7bf 6e8e 41be
00000010: e477 05bc fed1 4a40 3713 a93e f975 653c
00000020: 1329 0cbd f028 58bd 5f31 bebd c5fc f0bb
00000030: d69d 19bf d800 823d 1754 eebd 0c8a c9bd
00000040: d64a 59bf e5a1 483c f9a9 52be 7eef fdbc
00000050: 2c8d fa3b 8f3e c43b 15a3 0fbd 6a6f 2540
00000060: b5d0 e7bf afe3 b1bc b65b f63f c498 ce3b
00000070: 5ca1 463d 070f 62be ec8d 1abc 3da9 ce3d
00000080: eeb6 c8bb 3929 c33d c1a4 f340 13ac d13f
00000090: 25e8 533f b8fe 8a3d 337d 3fbc dfd6 72bd
000000a0: 3dd7 6abc 06d5 913f 1323 cfbf 8376 50bf
000000b0: 59a3 813d 3921 43be 3534 7fc0 ebba e53c
000000c0: 0ce0 8c3f ad6e 5f3d 8f43 d03b 0bce 2dbf
000000d0: 7aff 413b 9dc4 ee3e ea50 86bf c0dd a7be
000000e0: 5f0d 923e 1cd5 46c0 595a e03c 5308 32be
000000f0: 9f35 d4bf 053c 56be bf7b 71bc 8342 ac3c
