maddpg0critic.pth (torch, 29975 bytes, 5 tensors)

fc1.weight f4 [64, 43]
00000000: e982 81be 4a7a 27bd fc7e 88be 2e6c 983d
00000010: 8edf 86be 82fb 1b3e bdf9 67be 9447 bc3c
00000020: 984c edbe 5e2c a23d a81b 013d 5715 8fbd
00000030: bee6 543e 5f3c 163b c85f a73e 9ab2 1abe
00000040: 0752 06be ee2b bdbd 911c d9be f757 983e
00000050: 3818 f0bd f699 fcbd 2de8 f03d f0e9 aebd
00000060: cc0f c53d 1ded 85bd d4c3 923b e020 cfbd
00000070: 60a8 30bf 2616 14bf df9e 5dbf 6ced fdbe
00000080: ec3b 41bf b8f4 febe b7f9 2bbf 469f 1abf
00000090: 8f92 06bf 3bc6 1fbf ee8c 96be b814 bdbe
000000a0: cbb0 0fbf 132f 31bf 506e 6bbf 9347 8c3c
000000b0: 2071 1dbe 7f32 b5be 570a 82be 9030 52be
000000c0: 6f65 30be 0147 77be d4ec 86be 624b 31bf
000000d0: 7922 51bf 9872 e23d 78af b3bb a0c2 64bd
000000e0: ef08 143e 0a40 d53e 1f3a 9b3e 9eba 093d
000000f0: 6aec 96bc 56a5 a8be d200 68bf e535 bc3d
00000100: 5a0b 393e de74 c3bd 8e07 1fbd 3dbb 803d
00000110: 8acc 853e 02cf dcbc 246c 143c 2f7a 8cbe
00000120: 7755 0abe 13dc bbbe 6a41 31be aaf3 d0be
00000130: 68b9 90be 2da6 80be e617 a1be d8fb 65be
00000140: a8ee 87be 8e3e 81be 5fae 56be 4777 80be
00000150: 6168 54be 3577 66be ec4f 7dbe 7462 fd3c
00000160: b31e debd 8cb3 52bd 1281 84bd 64dc 87be
00000170: d81e 57be 7ff4 ffbd d7a6 45bf 50ab d3be
00000180: bad4 083e 9af2 54bc d2ee 7d3e 5f15 c13d
00000190: 86bc cc3d 0fee 4f3e 64ab af3d ccda eb3d
000001a0: aa23 32bf ec6f 08bf cd74 283d 103d 163d
000001b0: ac92 3c3a 6ea9 e33d 2863 443e 738c b43d
000001c0: 2a98 a5bd a4f8 433d e958 b1be 3af0 6fbe
000001d0: eb2e b3be 9d29 8cbe e819 eebd 389f 20be
000001e0: ebb1 31be 123a 09be 12a0 84be 4255 31be
000001f0: 6131 30be 17fa 78be f8af 1fbe c74d 3abe
00000200: ae10 8ebe 2d49 b6be fe3f 05be 538a d5bd
00000210: ef95 6ebe 2abe 26be 37af aebc dfff 7cbe
00000220: f5b2 13be 6012 1ebf 34ea 39bf 3d9f 3dbe
00000230: 9245 833d 72bf 953e cf27 88bd 60b1 b93e
00000240: d820 0b3e 93ae 883c cdf6 a6bd 73e8 0abf
00000250: 4120 06bf 806e 1dbd 1b92 643e a32a 623e
00000260: 2aa6 483d 76f1 adbc 86c7 e93d eea9 cb3d
00000270: 8f2e 20bd 5da5 bfbe 3570 4abe 015f cfbe
00000280: eea0 41be 6693 f1be 5b1c babe 8700 a1be
00000290: e615 c9be 9bae 9bbe 4d46 bfbe 3a53 90be
000002a0: 06f0 aebe 1c52 9cbe b01d 92be b9c5 65be
000002b0: da28 1c3e 3590 d5be 5081 a43e b83f adbe
000002c0: 0d54 d13c e6f0 febe 3e08 473e d680 89be
000002d0: 2cd2 cb3e 1a1c 31bf 1b10 9d3d b249 a63d
000002e0: b3fb 193e def5 24be a264 49bd 6633 693e
000002f0: 64ab 28be 32bc c4bd f395 3e3f 417f e6be
00000300: b649 623b 064b ee3d 671e 1d3e 974a 3c3d
00000310: dd48 96be 64a8 b03e 9af4 0cbb 5c57 08bd
00000320: edf7 26bf 6e56 29bf 05f2 15bf 60c4 dabe
00000330: 7e27 25bf 99b4 11bf 1a6c 1bbf a819 fabe
00000340: 653f 0bbf a68c 23bf 4ad2 f5be 71eb 1fbf
00000350: 0c5d eebe b52e f7be 6218 22bf e668 cebe
00000360: 264d 48be 55e3 92be ca39 aaba 286d bcbe
00000370: 8f98 7ebd 7a7d b5bd 05cf 24be cb31 32bf
00000380: 4ea5 0bbe 0263 5bbe 6305 7ebe 571c a53e
00000390: 9bc7 833d 32e2 7d3e a026 a4bd 19c4 42bd
000003a0: 7273 363d 0e89 8bbe 3147 dbbe 5fff 69bc
000003b0: 71de d9bd 9543 403e 2a0a 9f3d 81ac 093e
000003c0: e9e8 4f3e 2d60 49bd 5cae 143e 8ba1 3fbf
000003d0: a5b3 c0be b134 53bf 1915 9cbe ac40 23bf
000003e0: f40e 08bf 8807 f7be 647c ffbe 9fb3 f3be
000003f0: 7582 f4be f02b dabe 96da 8fbe 0524 e0be
-0.2529519 -0.04088811 -0.2665938 0.07442509 -0.26342434 0.15232661 -0.22653861 0.02298335
-0.463475 0.079186186 0.031520516 -0.06986492 0.20791146 0.0022924168 0.32690263 -0.15107194
-0.13117228 -0.092368945 -0.42404607 0.29754612 -0.11723369 -0.12334053 0.11763034 -0.08540714
0.09622154 -0.065393664 0.004478911 -0.10113692 -0.6900692 -0.57846296 -0.86570543 -0.495952
-0.7548206 -0.4979608 -0.6717791 -0.6039928 -0.5256738 -0.6241185 -0.29404396 -0.3692987
-0.5612914 -0.69212455 -0.919652 0.017123973 -0.15375185 -0.35390088 -0.25398514 -0.20526338
-0.17226194 -0.2414818 -0.2635256 -0.6925565 -0.81693226 0.11057013 -0.005483564 -0.05584967
0.14456533 0.4165042 0.3031778 0.033625238 -0.018423278 -0.3293864 -0.9062625 0.09189967
0.18070737 -0.09543775 -0.038825564 0.06285713 0.26132613 -0.026954178 0.009058986 -0.2743697
-0.13509165 -0.3669134 -0.1731011 -0.408109 -0.28266454 -0.25126782 -0.31463546 -0.22459352
-0.26549268 -0.25243038 -0.20964955 -0.25091 -0.20742942 -0.22506411 -0.24737519 0.030930735
-0.10845699 -0.05144076 -0.06469931 -0.26535332 -0.2100786 -0.12497806 -0.772077 -0.4134164
0.13362399 -0.012997294 0.24798134 0.09427904 0.099968955 0.20305656 0.08577612 0.115163416
-0.6958567 -0.5329578 0.041127015 0.036679327 0.00071934867 0.111163005 0.1917845 0.08815851
-0.080856636 0.047844544 -0.34638146 -0.23431483 -0.34996733 -0.27375498 -0.11626035 -0.15685737
-0.17353027 -0.13401058 -0.25903374 -0.1731768 -0.17206337 -0.24314152 -0.1559447 -0.18193732
-0.277471 -0.35602704 -0.13012692 -0.10426774 -0.23299383 -0.1628348 -0.021323783 -0.24706982
-0.14423735 -0.6174679 -0.7262299 -0.18517776 0.06409754 0.29247624 -0.06648218 0.3626814
0.13586748 0.016684806 -0.08152542 -0.5426094 -0.52392966 -0.03843546 0.2232136 0.22086577
0.04898659 -0.021233302 0.11415009 0.09944521 -0.0391069 -0.3743085 -0.19769366 -0.4050217
-0.18909046 -0.4718277 -0.36349759 -0.31445715 -0.3927452 -0.3040665 -0.37358323 -0.28188497
-0.34167498 -0.30531394 -0.28538275 -0.22438706 0.15249959 -0.41711584 0.32129908 -0.33837676
0.025552774 -0.49793166 0.19436738 -0.26856107 0.39808786 -0.69183505 0.076690875 0.08119525
0.15037422 -0.16109416 -0.049168237 0.22773513 -0.1647163 -0.09606208 0.74447554 -0.45018962
0.0034528798 0.11635403 0.15343629 0.045969572 -0.29352465 0.34503472 -0.0021508099 -0.033286437
-0.65222055 -0.66147506 -0.5857242 -0.42727947 -0.64513385 -0.56916195 -0.60711825 -0.488477
-0.5439361 -0.6388649 -0.48012 -0.6246863 -0.46555364 -0.48277822 -0.63318455 -0.40314406
-0.1956068 -0.28689066 -0.0012987193 -0.3680203 -0.06215721 -0.088618234 -0.16094597 -0.6960723
-0.13637277 -0.21424487 -0.24806742 0.32248184 0.06434556 0.24793318 -0.0801518 -0.047550295
0.04454369 -0.27253002 -0.42827752 -0.014282077 -0.106381305 0.1877578 0.077656105 0.13444711
0.20303692 -0.049163986 0.14519638 -0.7485587 -0.37637058 -0.82502276 -0.30484846 -0.63770556
-0.53147817 -0.48247933 -0.4989959 -0.47597978 -0.4775578 -0.42611647 -0.28096455 -0.4377748

fc1.bias f4 [64]
00000000: dff6 2cbf 9b7e 44be 7668 49be 1703 a3be
00000010: 99eb 11bf b2d3 30bf 8cc9 2fbe c1dc 1ebe
00000020: 4f09 d9be a0c4 0dbf 7bcd 0fbf 26d8 e9be
00000030: 02c2 94be 8e26 43bf 0f0f 16bf d686 98be
00000040: 125c b6be 9696 abbe 869f c5bd 6fd7 0fbf
00000050: f664 00bf d468 bcbe e517 f6be d649 c8bd
00000060: a596 66be bc06 2fbf 0e8f e6be c08c d8be
00000070: f9b4 c5be b2ca 1ebf fc55 dbbe a3f5 06bf
00000080: 2b2c 09bf a598 9fbe ab8a 21bf fd68 08be
00000090: c6b9 49bf 461c 16bf 6c15 32bf fad4 a43c
000000a0: 04fd fcbe e34d 09bf 8b80 15bf 03d3 c9be
000000b0: 2e40 42bf 174b a9be 4b63 39bf 86ea f8be
000000c0: 0a10 b23e a90a 8ebe 0ece a4be 2a18 92be
000000d0: e9fe 35bf edd2 59be 586f cabe ceb4 c4be
000000e0: 424e 21be 088d eabe 05d4 d8be c0e4 a2be
000000f0: 3dcb a2be 9a09 33bf e6dd e5be bd40 16bf
-0.67564195 -0.19188921 -0.19668755 -0.31838295 -0.5700012 -0.6907302 -0.17166728 -0.15513898
-0.42389914 -0.5537815 -0.56172913 -0.4567272 -0.29054266 -0.76230705 -0.5861673 -0.29790372
-0.3561712 -0.33513325 -0.09649567 -0.561881 -0.50154054 -0.36798728 -0.48065105 -0.09779708
-0.22518404 -0.6836965 -0.45031017 -0.42294884 -0.38614634 -0.6202804 -0.42839038 -0.5271856
-0.5358302 -0.31171146 -0.63102216 -0.133213 -0.7879909 -0.5863689 -0.6956394 0.020121086
-0.49411786 -0.5363447 -0.58399266 -0.39418802 -0.7587918 -0.33065102 -0.72417134 -0.48616427
0.34777862 -0.27742508 -0.32188457 -0.2853406 -0.7109209 -0.21271868 -0.39538074 -0.38419193
-0.15752509 -0.45810723 -0.42349258 -0.31815147 -0.31795684 -0.69936526 -0.44895858 -0.5869253

fc2.weight f4 [64, 64]
00000000: 03ee f03e fec6 a23e 9745 883e 0e14 2d3e
00000010: b30a 273e bbc0 b23e 5b87 343e e208 503e
00000020: 58c7 193e be53 7a3e a4e7 6c3e 7d19 903e
00000030: e8dc 6b3e bca5 d33d 64ef 41bc a8a5 db3e
00000040: bfed 2c3e bcb2 c93e 4c24 caba d2c8 c0bc
00000050: 5cd2 e83c c86e 003e 491c a43e 42a2 b03e
00000060: a9d1 7c3e 3f4c 853e 0b95 803e 774c 803e
00000070: 70bd b63e faf6 9d3e d1f1 3e3e 8ee1 bc3d
00000080: 7494 bf3e 2e02 a43e 32d3 bf3e cf6b 863c
00000090: d0e5 063f d1d7 473e de6b 853e b80f 063d
000000a0: 30bb 953e 185a b23e 0396 ea3e a6db af3e
000000b0: a734 ce3e 3988 e23e 67a2 043e a679 643e
000000c0: a8f1 7cbc 5d15 353e 5730 953e 728f 2c3e
000000d0: c82e aa3e 8aea 153e 6acd 3c3e 64cd 9b3e
000000e0: 0dc5 393e 1a7d 5b3d 1d11 413e 2156 543e
000000f0: eb41 b43e e585 ab3e e191 383c cfec cd3d
00000100: b54c 79bd 3dca 09bc decb 77bd 4585 39bd
00000110: 2042 953d 45a1 253d 9738 61bd ccc4 57be
00000120: 2ce7 923e 9548 c43c 25a1 8abd a737 f4bc
00000130: 8cf6 8abd 5eab 98bd 77cb c03e 1782 2f3e
00000140: c58a babd 514c 3fbd 2c88 abbd 0394 cc3b
00000150: a4c8 15bd e1d2 a13e e3fe 083e 98cc e3bd
00000160: 83ea 15bd 9e6d 09be cdb8 bc3d 10f6 133e
00000170: 9b9c 31be 141d e63d a3ca a9bc 7c31 ad3d
00000180: 3f38 89be 4791 223d 8480 193e 1186 3dbe
00000190: 88d4 213e ee05 673e 48c5 963e 8428 a5bd
000001a0: 9b38 033d f153 ac3d d886 d3bd bedd b23e
000001b0: 2764 66bd d5b3 813e 9bda 0d3e ca08 a53d
000001c0: ccab a83d 57f5 a23d 9346 1a3e 8b88 993d
000001d0: 5897 05be aa62 7a3e 6592 d83d cf93 9c3d
000001e0: 0f53 71bd 63e8 14bd 473e 97bd 3006 bd3d
000001f0: 3e7b b83d 3186 4a3e 19e5 863d bfdc ae3d
00000200: 7a29 11bd 05c7 4abe ff9f b7bd a8cf 50be
00000210: 07e6 1ebe 38bb d6bc 360f 0cbd 3b13 1ebe
00000220: 7d13 b3bd 700b 20be 6339 e6bd 675d 15be
00000230: 3ff8 1ebe 07be c7bd d853 5fbd f089 48bd
00000240: 715b 17bd bb2d 2ebb baf1 f6bd 2f0a 163d
00000250: e4e8 43bd 066b c0bd 9781 29bd 8b60 92bd
00000260: c688 6dbd 680f 4a3c 7bd3 46be 940e 263d
00000270: f283 dabc e786 f83c ef8b 1abe dfb6 83bc
00000280: da0f 38bb 72fd 3dbe 5084 d8bd 8b27 dabd
00000290: 3b2f f4bd c641 aabc 7054 adbd 8acf bc3a
000002a0: 5d9f 11bd 153e fbbd 3a86 4cbe c070 113d
000002b0: a7aa bbbd 1d87 10be 4ab1 e9bd d7fc 1dbe
000002c0: 6d7a 11be bbd7 56bd 77e6 4dbd 4501 af3c
000002d0: cbe2 17be 28fc cfbc 5689 5dbd 35bc 283d
000002e0: e3e9 b8bc 36c1 50bd 3cee 22bd 0180 f6bd
000002f0: 68c5 18be 19d1 2dbe 2479 76bd 8e77 35bd
00000300: e56d 38bc 2602 44be 0645 b53a 26e5 7bbd
00000310: 86eb 56bd 3cf4 173b b15e 3dbd 45a1 11be
00000320: d63f 38bd afb4 1cbe a850 2dbe a41e 8e3b
00000330: d5c2 e2bd 9ed9 4cbc 82f5 abbd 6250 02be
00000340: 2dfa 523d a568 a03b 4f0d 3bbd 9641 733d
00000350: 1952 33be 7158 253d 05c8 e3bd d8c0 34be
00000360: 3797 3dbe 73bf 83bd 0366 26bd f336 17be
00000370: a866 3bbd bf3f 05be 1ab9 8bbd 2ac3 d3bd
00000380: dba8 dabd a7b7 c6bc 077e 0dbd 4920 743c
00000390: 3d9d 45bc 573c 2e3d b77e 8dbd f663 39be
000003a0: 9886 03be 81bf 0ebd b75d f8bd 885d e5bd
000003b0: 4e66 6cbd 3fbd 53bd 78b0 123d 5b12 d23b
000003c0: c028 e5bd 484b 61bd df2c 0cbe 9f96 3cba
000003d0: e88a 633d d01e a8bd c8fd 90bd f284 ccbd
000003e0: ee34 203c 19f3 13be 3710 473b 43be e8bc
000003f0: f1a0 fbbd e990 e6bd 49a9 c13c 84be 75bc
0.4705659 0.31792444 0.26615593 0.16902182 0.16312675 0.34912667 0.17629759 0.20315889
0.1501745 0.24446008 0.23135239 0.28144446 0.23033488 0.10334346 -0.01183686 0.42899823
0.16887568 0.39394176 -0.0015422194 -0.023533259 0.02842062 0.1254226 0.3205283 0.34498793
0.24689354 0.26034734 0.2511371 0.25058338 0.35691404 0.3085249 0.18646933 0.09222709
0.37417948 0.32032913 0.37465817 0.016408829 0.52694416 0.19515921 0.2605886 0.032729834
0.29244375 0.3483436 0.45817575 0.34347266 0.40274546 0.44244555 0.12952577 0.2231203
-0.015438475 0.1768393 0.29138443 0.16851595 0.33238816 0.14640251 0.18437734 0.30430138
0.18141575 0.053586103 0.18854184 0.2073598 0.3520654 0.3350059 0.011265249 0.10054933
-0.06086417 -0.008410034 -0.060497157 -0.04529311 0.07288003 0.040437 -0.05498561 -0.21071166
0.28691995 0.023960391 -0.06769017 -0.029811693 -0.06785306 -0.07454561 0.3765523 0.17139469
-0.091084994 -0.04670364 -0.08375582 0.0062432303 -0.0365683 0.316062 0.13378482 -0.111230075
-0.0366006 -0.13420722 0.092149355 0.14449334 -0.17344896 0.11236015 -0.020726508 0.08456704
-0.26800725 0.03968933 0.14990431 -0.18508174 0.1580373 0.22560856 0.2944739 -0.08064368
0.032036405 0.08414448 -0.10328454 0.349348 -0.056247856 0.25332513 0.13852923 0.08058317
0.08235893 0.07956951 0.15065984 0.07496747 -0.13046014 0.244517 0.105747975 0.0764538
-0.0589171 -0.036354434 -0.07384925 0.09229696 0.090078816 0.19777752 0.06586666 0.08538198
-0.035439946 -0.19802482 -0.08966064 -0.20391715 -0.15517436 -0.02621232 -0.034194194 -0.15437023
-0.087439515 -0.15629363 -0.112414144 -0.14586411 -0.15524386 -0.09753042 -0.05452332 -0.048959672
-0.03695244 -0.002657755 -0.120578244 0.036630806 -0.047829524 -0.09395413 -0.041383352 -0.0714732
-0.057991765 0.012332775 -0.19416611 0.040541247 -0.026674245 0.030337764 -0.15092443 -0.01607841
-0.002808562 -0.18553713 -0.105721116 -0.106520735 -0.11923071 -0.020783316 -0.08463371 0.0014405113
-0.03555237 -0.122677006 -0.19973078 0.035507917 -0.09163409 -0.14114042 -0.11410768 -0.15428482
-0.14206858 -0.05245183 -0.050268617 0.02136291 -0.14832608 -0.025388792 -0.054086052 0.041195113
-0.022572463 -0.05096551 -0.03977798 -0.120361336 -0.14919055 -0.16974296 -0.060174122 -0.04430347
-0.01125667 -0.19141445 0.0013829775 -0.06149783 -0.052470706 0.0023186347 -0.046232883 -0.14221676
-0.044982754 -0.153033 -0.16925299 0.0043371487 -0.110723175 -0.012503056 -0.08396436 -0.12725976
0.051508117 0.004895287 -0.04566699 0.05938872 -0.17511787 0.040367547 -0.11122135 -0.17651689
-0.18514715 -0.064330004 -0.04062463 -0.14767055 -0.045752198 -0.13012598 -0.06822415 -0.10339959
-0.10676738 -0.024257494 -0.034544017 0.0149002755 -0.012061414 0.042538013 -0.069089346 -0.18104538
-0.12844312 -0.0348506 -0.1212725 -0.1119948 -0.057714753 -0.05169415 0.035812825 0.0064108795
-0.11189413 -0.055003434 -0.13688992 -0.0007194075 0.055552393 -0.08209002 -0.07079655 -0.09986295
0.009778244 -0.14448203 0.0030374655 -0.028411036 -0.122865565 -0.11258108 0.023640292 -0.014999036

fc2.bias f4 [64]
00000000: 9cab 0e3d 9cb0 8fbe ec54 84bd c4d5 c6bd
00000010: 287f a53d 8d0a 3f3f 671a 9e3d c4b5 c5be
00000020: 23b6 20bd edc7 3abd 2283 d8bd 8c7c 6ebf
00000030: ef20 94bd ef1a a5bd 8ff6 5c3c 42f4 ccbe
00000040: a7ca 3bbe b1b7 8dbf c485 18bf a8e5 27be
00000050: 9ab9 353e 3694 8a3c aadf 423d 4c4d 64be
00000060: e259 2bbe 1b11 55bd 9908 88be 0b91 41be
00000070: 7d45 92bd f6f9 cd3d 5122 0cbf 9b23 923d
00000080: d284 873d ff3e b0bc 6122 993d 59b5 f1bc
00000090: 6bd2 ecbd 7801 78bd 87bc 1cbe 3245 0bbe
000000a0: 44a1 f2be 5bdd 45be 12a3 73bc 7e7f e0be
000000b0: 35c4 40be 9116 c5bd 2838 6fbd 7642 4fbd
000000c0: a333 62bd 10e7 2cbe ab0a 65be 8dab 3bbd
000000d0: dca6 3d3d 1c74 8cbf fcfa 60bf ceb1 90bd
000000e0: f331 4ebf b765 41bf 8826 31bd 4c6d 5dbd
000000f0: ebad 51bc 56a4 1dbe df62 18be 02f4 eebe
0.03483163 -0.2806443 -0.0646151 -0.09708741 0.08080894 0.74625474 0.077198796 -0.3861524
-0.0392362 -0.04560082 -0.105718866 -0.93158793 -0.07232844 -0.08061778 0.0134865185 -0.40030104
-0.18339024 -1.1071683 -0.5957911 -0.163962 0.17746583 0.016916376 0.047576584 -0.22295111
-0.16733506 -0.052018266 -0.2656906 -0.18902986 -0.0714216 0.10057442 -0.5473986 0.071356975
0.0661713 -0.021514414 0.074772604 -0.029505419 -0.115635715 -0.060548276 -0.15306292 -0.13600615
-0.4738866 -0.19322722 -0.014870422 -0.4384727 -0.18824847 -0.09623445 -0.058403164 -0.05060049
-0.055225026 -0.16885018 -0.22367351 -0.0458179 0.046301708 -1.0972934 -0.8788297 -0.070651636
-0.80544966 -0.7554583 -0.043249637 -0.05405931 -0.012797813 -0.1539472 -0.14881466 -0.46670538

fc3.weight f4 [1, 64]
00000000: f496 7abe 13aa f2bd 8fcd 293d 5fdc 09bd
00000010: 9524 acbd ce59 bebe 3cff 54be d72b e5bc
00000020: 92ed 56bd b2b7 623d 3ea0 b0ba fe8c cbbe
00000030: fe1c 1cbd f566 41be e6e0 0e3d 4b14 66be
00000040: 0e6f 3abe 5e5d cbbe 7ce3 91be dd97 17bd
00000050: 56ea 69bd 2a84 52be 0b5d 8bbe 134c 88be
00000060: 1dc1 ca3c 6396 873b 0c2c 9bbe 4dd2 60bd
00000070: 980c ba3c 61d7 67be 2ed8 91be 9332 b3bc
00000080: 1c77 97be 466e 83be 46b6 a2be b9cf f23b
00000090: 9ff9 1bbd d042 8d3c 4030 11bd 9cdf 023e
000000a0: 2ffa 7bbe fb34 56bd ccfc a23b f1db 5cbe
000000b0: 876b 8b3c c7f7 6abc d81a 5abc 68bb ba3a
000000c0: d5ba 70bd f027 68be 010f 9fbd 409f 863a
000000d0: da83 95be dea7 dbbe f891 cdbe d175 79bd
000000e0: a466 fdbe 0819 adbe 7b69 433b 4b97 b3b9
000000f0: 8053 8ebe dc88 55be 3602 bebc 0347 7fbe
-0.24471647 -0.11848845 0.0414558 -0.033657428 -0.08405415 -0.3717789 -0.20800489 -0.027975006
-0.05247266 0.055350967 -0.001347549 -0.39756006 -0.038113587 -0.18886931 0.03488245 -0.22468679
-0.18206427 -0.3971967 -0.2849387 -0.037010062 -0.057108246 -0.20558229 -0.27219424 -0.2662054
0.024750287 0.0041378005 -0.30307043 -0.05488806 0.022711083 -0.22640754 -0.28485245 -0.021874702
-0.2958306 -0.2567007 -0.3177969 0.0074100164 -0.038079854 0.017243773 -0.035446405 0.12780613
-0.24607156 -0.05229662 0.0049739834 -0.21568276 0.017019046 -0.014341301 -0.013312064 0.0014246525
-0.058771927 -0.22671485 -0.07766534 0.0010270849 -0.29202157 -0.4290151 -0.40150428 -0.060903374
-0.4949237 -0.3380816 0.002981751 -0.00034254263 -0.2779808 -0.20852989 -0.023194414 -0.24929433
