maddpgzoo2.pth (torch, 22959 bytes, 6 tensors)

layer1.weight f4 [64, 10]
000000 37 65 b6 3e 38 60 21 c0 49 1c 14 be 62 0b 42 be
       0.35624096 -2.5214977 -0.14463915 -0.18949655
000010 3f 32 8b be 6f 49 ca be c2 48 0b bd 87 c2 aa be
       -0.27186772 -0.3950915 -0.034004934 -0.33351538
000020 d3 9c 95 be 5e e4 b8 bd fa be 35 3f c3 a7 cb be
       -0.2922121 -0.090279326 0.7099453 -0.3977643
000030 ef ae 24 3e f2 1a 1a bf b0 bc e7 3e 57 68 84 3e
       0.16082357 -0.60197365 0.45261145 0.25860855
000040 85 95 84 bf 82 9d 66 3f 27 a6 28 3d e2 f5 d9 3d
       -1.035813 0.9008409 0.04117408 0.106426015
000050 1c c4 d8 3f 5d 4c 41 3f 7c ba 6a 3e dc 3e 81 3d
       1.6934848 0.75507146 0.229227 0.063108176
000060 d2 73 ca 3e f6 e1 76 be 12 0e ba be 09 af 5d 3e
       0.3954149 -0.24109635 -0.3633886 0.21648802
000070 d7 ac 01 bf 54 4f e9 3c 41 d3 8a 3f a7 6c d0 3e
       -0.5065436 0.02848021 1.084572 0.40707895
000080 82 71 cd 3d d7 1e cd bd e0 bf fa 3d 04 f1 30 be
       0.100314155 -0.10015648 0.122436285 -0.1727944
000090 c5 2a 80 3d 46 a7 26 3d c0 60 44 be b7 61 5b 3b
       0.06258158 0.040686868 -0.19177532 0.003347499
0000a0 a5 15 17 3f 72 ca 34 bf b7 4e d3 3c d4 ec 65 be
       0.590174 -0.7062141 0.02579437 -0.22453624
0000b0 0f bb f8 3d 72 63 e2 be 4c cc 90 be 72 7b 8b 3e
       0.121450536 -0.44216496 -0.28280866 0.2724262
0000c0 5d 06 0a 3f 42 3c 47 be bc 59 07 bf 61 a2 82 3f
       0.5391596 -0.1945658 -0.528713 1.0205804
0000d0 0e c5 e4 3e ac ef 0a be f5 86 5c be 8e 1b 69 be
       0.4468159 -0.1356799 -0.21535857 -0.22764418
0000e0 0e 19 2c 3f 18 83 c0 bf b4 c4 bb 3b 99 5d 22 3f
       0.6722573 -1.5040007 0.005730236 0.6342407
0000f0 76 9a 4c 3f de 0c cc bf b8 d6 29 3d 2b e6 a5 be
       0.7992319 -1.5941427 0.041464537 -0.32402167
000100 c0 01 24 3e 3c f6 40 bb ae e5 3c be 28 6b fc bd
       0.16016293 -0.0029443642 -0.18446991 -0.12325126
000110 aa f6 c0 3d 8f 78 e1 3d 83 20 e5 3d b3 96 48 bf
       0.094220474 0.11009323 0.11187842 -0.7835495
000120 2c a7 d5 bd 45 cd 3f bf d5 4f 3c be 76 43 c9 3e
       -0.10432276 -0.7492259 -0.18389829 0.3930928
000130 c8 eb d8 3e 42 e3 85 3f 14 83 15 3f 2c 59 81 bf
       0.42367387 1.0459979 0.58403134 -1.0105338
000140 b7 a0 1e bf 41 07 69 bd 71 02 28 be 0c b7 6c 3e
       -0.6196398 -0.056891683 -0.16407181 0.23116702
000150 4c eb da 3e 3d b2 2d 3d 8e 41 fe 3e 1b 7e ca bd
       0.42757642 0.04240631 0.4965939 -0.09887334
000160 ae 77 c9 3f 82 a4 0e 3f 35 f9 af be e0 9e 2f 3f
       1.5739648 0.5571977 -0.34369817 0.686018
000170 08 f5 64 be 35 4f 0f be f5 59 b9 be 04 ee 39 be
       -0.22359097 -0.13995059 -0.36201444 -0.18157202
000180 b4 17 23 be f4 84 8b be 7d ee 2f bc df 47 8f be
       -0.15927011 -0.27249873 -0.010738012 -0.2798452
000190 20 6e bc 3f 3b 61 2e 40 a9 b3 26 3d db 76 d7 3e
       1.4721107 2.7246845 0.04069868 0.42082867
0001a0 81 07 f1 3e 27 9e 9e 3d e0 72 a4 be ee 0c cf 3e
       0.47076038 0.07745009 -0.32118893 0.40439552
0001b0 e6 64 2c 3f 33 76 bf 3d 74 0a 21 bd 9b ea 3a bf
       0.6734146 0.093487166 -0.03931661 -0.7301423
0001c0 d6 b7 d8 be 3b d7 63 3f 92 c4 f4 3d 5c ef 23 be
       -0.42327756 0.8900029 0.11951555 -0.16009277
0001d0 1a 8b 39 bd 12 7b c4 bd bc 7e 00 3f 7b 27 b2 3d
       -0.045298673 -0.09593786 0.5019338 0.086989366
0001e0 e2 b6 0f 40 fe 23 9c 3f b3 b5 a9 3c e2 25 63 3c
       2.2455373 1.2198484 0.020716524 0.013864012
0001f0 ab ff ec 3c 0a 20 f6 bd bc d1 5b 3c 5b 8f 99 3c
       0.028930506 -0.1201783 0.013416704 0.018745115
000200 52 7d b0 3d 7c 58 fa 3d 85 55 61 3e 71 65 f8 bd
       0.08617653 0.12223908 0.2200528 -0.121287234
000210 2b 14 5f be 0a f3 0e be 9d 13 17 be 68 41 16 3e
       -0.21785037 -0.139599 -0.14753576 0.14673388
000220 0e da 28 3f e6 f8 8b 3c 81 8d a2 3d bf 1e 44 3e
       0.65957725 0.017086457 0.07937146 0.19152354
000230 3b cc c9 3f 1e bd 4e be 95 db 62 3e 29 8c 5e bd
       1.5765451 -0.2018933 0.22154076 -0.054332886
000240 bd a0 3c bf 3c c6 83 3e 0e 83 21 bf 9c a8 83 3e
       -0.7368277 0.25737178 -0.630906 0.25714576
000250 80 3c c5 3e 79 89 c5 3d 29 a9 98 3e e6 02 c2 bf
       0.3852272 0.096453615 0.2981656 -1.5157135
000260 8a 56 51 be c7 ef 8a 3f 6a c4 f1 3e 95 3d 8f be
       -0.20443168 1.0854424 0.47220165 -0.2797667
000270 17 96 eb bd 95 4e de be f1 b5 05 3f da 41 e0 3b
       -0.11503237 -0.43419328 0.52230746 0.0068437876
000280 37 27 ae 3e bc 25 49 3e 2a f1 a8 be 9e 37 e3 bd
       0.34014294 0.19643301 -0.32996494 -0.110945925
000290 10 35 5c 3e 80 3b 65 be 50 69 a0 bd 89 40 8f bd
       0.21504617 -0.22385979 -0.07832587 -0.06994731
0002a0 92 8f 04 3f 1c 9b 08 3e a7 bc 18 40 b8 f0 a7 bf
       0.5178157 0.1334042 2.3865144 -1.3120337
0002b0 e8 33 cd 3e b7 2e 82 3e d7 78 93 be 9f 72 98 bd
       0.40078664 0.25426266 -0.2880313 -0.07443737
0002c0 71 10 6f be 6e 52 22 3e 98 20 18 3e b2 2d b2 3e
       -0.23346116 0.15851757 0.14856184 0.34800488
0002d0 9f 23 88 3f c5 88 1a bf c0 b3 2d 3e 26 ba c2 bd
       1.0635871 -0.60364944 0.169631 -0.09508161
0002e0 70 65 74 3e 3f 91 c4 be c0 d6 53 bc d4 6c 01 be
       0.2386682 -0.38392064 -0.012929618 -0.12639171
0002f0 7c 1c 9a bf ca 00 95 3f dc 59 47 3e 77 0a 87 be
       -1.2039943 1.1640866 0.19467872 -0.26375172
000300 9d 75 03 3f a3 39 36 3e 34 84 72 3e 78 00 01 bf
       0.5135134 0.17795424 0.23683244 -0.5039134
000310 18 88 14 be 66 f9 66 be dd 58 ee 3f e8 5c cf 3e
       -0.1450504 -0.22556075 1.8620869 0.4050057
000320 ab 4c 48 3f bc ba 85 bf 48 a6 03 3e 3c 74 3d be
       0.78241986 -1.0447612 0.128564 -0.18501371
000330 7f 5b e5 be 90 e7 46 3f 3c ee 2f bd 22 b5 68 bd
       -0.44796368 0.77697086 -0.042951807 -0.056813367
000340 08 ce f1 be d6 48 46 3e f1 3b e2 3f 68 ae 0f 3d
       -0.47227502 0.19363722 1.7674543 0.035078436
000350 db 3e b9 3e 54 14 ab bd 06 ce 30 3e ef 35 1c 3d
       0.36180767 -0.08353487 0.17266092 0.038137373
000360 a4 d0 8f be 2a 31 b6 be d6 49 37 bf dc a1 10 3e
       -0.28088868 -0.35584384 -0.7159704 0.14124244
000370 22 c0 ec bc 6e 12 72 3e 6f ca 45 be 3c a0 88 bb
       -0.02890021 0.23639843 -0.19315504 -0.004169492
000380 bd 6d 87 3e 65 ce 90 be ee 58 ae 3e 67 4b a2 bd
       0.2645091 -0.28282467 0.34052223 -0.07924538
000390 ef eb b2 3e 84 46 18 3a 57 ff 7a bf 1f 33 e8 3e
       0.34945628 0.00058088475 -0.9804587 0.45351502
0003a0 40 e8 e7 3d 38 2f d7 be 16 f4 fb be a4 f3 b5 be
       0.11323595 -0.42028213 -0.4920966 -0.35537446
0003b0 40 7c 86 bf 13 c1 87 be 52 7d f9 3f 32 59 45 be
       -1.0506668 -0.2651449 1.949137 -0.19272307
0003c0 a8 13 bf 3f 95 bd 68 3e 13 f1 1b 3e 74 ba 97 be
       1.4927874 0.2272857 0.15228681 -0.2963444
0003d0 47 81 30 3e ec 84 05 be 40 c6 eb 3d 4e 09 0c 3d
       0.17236815 -0.13038987 0.115124226 0.03418856
0003e0 7b c6 5a be 57 9b 08 3d 50 74 9b 3f 09 f3 c1 bf
       -0.21364777 0.03335127 1.2144871 -1.5152293
0003f0 9d 46 91 3e 6c 17 4d be 42 00 06 3f 36 a9 00 be
       0.28374186 -0.20028466 0.52344143 -0.12564549

layer1.bias f4 [64]
000000 8f df a3 bd 60 6a 8c be a4 80 79 bf 77 8a 9f bf
       -0.08001625 -0.27424908 -0.97461915 -1.2464131
000010 2e ab a2 bf 01 e4 85 bf f9 ee bc bf a3 69 33 bf
       -1.270849 -1.0460206 -1.4760429 -0.70083064
000020 6f f3 ee bc cb f5 9d bf b9 14 a3 bf 10 f2 34 bf
       -0.029168813 -1.2340635 -1.2740699 -0.7068186
000030 b5 37 1d 3e 21 cc f4 be 38 70 43 bf d1 74 5b bf
       0.15353282 -0.47811988 -0.7634311 -0.8572512
000040 a7 71 85 bf bf 0c 6e 3f b0 fc a3 bd a0 32 69 bf
       -1.0425309 0.929882 -0.08007181 -0.9109287
000050 5d 79 79 be 48 76 ef bd c4 2f e1 be 55 c3 26 bf
       -0.24362703 -0.11692482 -0.43981755 -0.65141803
000060 6e 3e bb bf 7c 36 5e 3e a6 2d 8d bf 9f 60 f4 3e
       -1.4628427 0.21700472 -1.1029556 0.47729966
000070 ea 44 a1 be e3 2f 7c bf 05 cc d5 be 1c 8c a6 bf
       -0.3149789 -0.9851057 -0.41757217 -1.3011508
000080 58 37 c4 bf 1c f8 fe be 5b b7 38 bf 2d df 85 bf
       -1.532939 -0.49798667 -0.7215478 -1.0458733
000090 71 40 e9 3d 16 0f 8c 3e 33 f1 e4 be 12 a9 14 bf
       0.11389244 0.2735526 -0.4471527 -0.5807048
0000a0 98 73 7f bf bb b3 9a be 38 29 03 bf ff 40 4a bf
       -0.9978576 -0.30215248 -0.5123477 -0.79005426
0000b0 f9 37 93 bf 48 9a ee be 01 83 02 bf 1a 52 8b bf
       -1.1501456 -0.46602082 -0.50981146 -1.088443
0000c0 ea 31 a6 bf 23 f8 8f bf 22 ed 90 be 01 08 3d bf
       -1.2983983 -1.12476 -0.28305918 -0.7384034
0000d0 92 8e 19 3f d6 cc 06 bf 07 89 82 be bf 01 25 3e
       0.5998317 -0.52656305 -0.2549517 0.16113947
0000e0 6c 62 49 bd 06 05 cd bf 37 2b 9e bf db e3 fb bd
       -0.049166128 -1.6017158 -1.2356938 -0.12299319
0000f0 1f 8e 71 bf 1e 59 9d be 52 b2 3b be 30 5a b7 bf
       -0.94357485 -0.30732054 -0.18329743 -1.4324398

layer2.weight f4 [64, 64]
000000 6b 7d 03 be f7 8f be bd 6c 35 5c be b4 59 16 bc
       -0.12840812 -0.09304803 -0.21504754 -0.00917666
000010 9b 48 7e be 01 0d c6 bd 5c 03 9d be 2d 5d ff be
       -0.24832384 -0.09670449 -0.30666625 -0.49875775
000020 4b 3a 60 be e0 6b 85 bd b7 3a 25 bd c2 30 c0 be
       -0.21897237 -0.06514716 -0.040339198 -0.375372
000030 d3 28 09 3d a9 0c 85 be 5c 23 7e be 21 ec 56 be
       0.0334862 -0.2598622 -0.24818176 -0.20988514
000040 30 56 a7 ba 51 07 88 be 39 78 a4 be ac 6b 90 be
       -0.0012766775 -0.26568082 -0.32122973 -0.28207147
000050 51 5b ea be 91 55 b1 bd 6c 38 2c be af 06 ef be
       -0.45772794 -0.086588986 -0.16818398 -0.46684787
000060 65 1e df bd 4c 52 70 be bd 30 a8 be 0b 28 3d be
       -0.10894469 -0.23468894 -0.32849684 -0.18472306
000070 9c 99 d0 be bf b7 f8 ba 9c 76 16 be 88 96 3b be
       -0.40742195 -0.0018975659 -0.14693683 -0.18319142
000080 20 ec 87 bd 62 f3 c3 be 0c 34 e0 be 8c 80 f1 be
       -0.06636834 -0.38271624 -0.4378971 -0.47168386
000090 94 56 ce be 1f e6 89 be 76 49 d6 be 41 18 1f 3c
       -0.4030043 -0.2693338 -0.4185292 0.009710372
0000a0 d4 55 cb bd bc d2 c1 be ba 17 73 bc cf 29 35 3c
       -0.0992848 -0.3785609 -0.0148372 0.011057331
0000b0 85 92 f5 3d fb d4 94 be d2 09 d3 be f2 7b 39 bd
       0.11990837 -0.2906874 -0.4121843 -0.04528422
0000c0 2e d4 65 be ae 67 1e 3d 26 4d 2a be ff ac 55 bc
       -0.22444221 0.038673095 -0.16630992 -0.013041734
0000d0 ee 74 2b be 93 63 17 be 8e ea e2 bd 1a 6b fc be
       -0.16743824 -0.14784078 -0.11079894 -0.49300462
0000e0 70 d0 49 be 3d 64 1d 3d c2 2d 19 be 1d 02 1d bf
       -0.19708419 0.038425673 -0.14958861 -0.6133135
0000f0 3b 09 ad bd f4 dc d0 be b4 e5 cc be 1a 39 b5 be
       -0.08449026 -0.40793574 -0.40019 -0.35395128
000100 df 8e f8 bf 59 d1 de 3e aa 2a 45 bf 22 29 0d bf
       -1.9418601 0.43519095 -0.77018225 -0.5514089
000110 0b 85 fe bd 83 49 18 3f 48 22 38 be bf 5d 63 3f
       -0.1242772 0.5948717 -0.17981827 0.8881492
000120 48 d5 1a bd 94 0e 6e be d9 27 69 bf ad f8 d8 3e
       -0.037801057 -0.23247749 -0.9107643 0.42377225
000130 96 5b 21 be 3a a8 08 bf 49 d6 7d be 88 9b 23 bf
       -0.15757594 -0.53381693 -0.24788775 -0.63909197
000140 11 f8 dd be b9 f3 a2 be 4f af d3 3e 11 88 05 bf
       -0.43353322 -0.3182657 0.41344687 -0.52160746
000150 37 1c cc 3e 00 fd 2e be 66 11 5a 3d 38 73 46 3e
       0.39865276 -0.170887 0.05323925 0.1937989
000160 58 27 15 bf bd f4 62 3e a0 19 99 bc e7 0f 0e 3f
       -0.5826316 0.22163673 -0.018688977 0.55493015
000170 b2 4e 09 c0 99 64 95 bd b6 b0 08 bd b1 51 b6 bf
       -2.1454282 -0.07294578 -0.03337165 -1.424368
000180 04 46 85 be ef 2d a1 3e a9 3e 61 be 06 10 9c bf
       -0.2602998 0.31480357 -0.21996559 -1.219239
000190 d2 a5 b7 be b3 7c 86 be eb 1c ef be 39 2b 00 bf
       -0.35868698 -0.26267013 -0.4670175 -0.5006595
0001a0 09 4a c2 3e 6e 8d 47 be 3a 6c 9b 3f 78 e5 88 be
       0.3794711 -0.19487545 1.2142403 -0.2673757
0001b0 1d 3e b4 be c0 cd 74 bf f7 d0 5f bf 47 c4 42 bf
       -0.3520364 -0.9562645 -0.8742823 -0.76080745
0001c0 cc 01 a7 be ee ee 57 3e 70 50 d9 be ae 06 43 be
       -0.32618558 0.21087238 -0.4244418 -0.19045517
0001d0 f2 ff a4 3c 38 5d fa bd e1 38 b6 be 77 88 b0 bf
       0.020141575 -0.12224811 -0.3559027 -1.3791646
0001e0 36 25 aa bf 88 9b 03 bf 13 ba 2e be 6e 4c 51 3f
       -1.3292606 -0.51409197 -0.17063169 0.8175725
0001f0 fc 01 35 bf a4 f0 af bf d1 0b 38 be 41 94 4c 3e
       -0.7070615 -1.3745313 -0.17973258 0.1997843
000200 09 08 19 bc 64 d8 3f bd c7 aa 59 bd 0e cc 0a 3c
       -0.009340295 -0.046837226 -0.05314138 0.008471502
000210 61 36 4f 3c 53 00 72 be 56 5e 48 bc bf f6 e2 bd
       0.012647242 -0.23632936 -0.012229523 -0.11082219
000220 74 eb ff bc cd 4e 2f be 4e bf 09 be 38 68 86 ba
       -0.031240202 -0.17119904 -0.13451883 -0.0010254448
000230 85 35 4c bd 5f 6f c4 3c 5e 42 af bd fc 14 05 bc
       -0.049855728 0.023978887 -0.085575804 -0.008122679
000240 4d 3f c9 bd eb 6f 7d 3b 45 96 88 be 0b 73 36 be
       -0.09826527 0.0038671445 -0.26677147 -0.17817323
000250 27 26 42 be bc f9 59 be 4c 0e c9 bd da 8b 01 be
       -0.18959866 -0.21286672 -0.0981718 -0.12651005
000260 55 85 23 bd d6 ae 4f bd bd b7 85 bc 7c 7d 67 bd
       -0.039922077 -0.050703846 -0.016322965 -0.056516156
000270 55 18 09 be 60 42 b8 3c 77 7d 04 be 25 4c 7c bc
       -0.13388188 0.022492588 -0.12938486 -0.015399014
000280 5a 44 7c bd dd 7d df 3c 45 c9 4a be d4 8f b6 bb
       -0.061588623 0.027281696 -0.1980334 -0.005571345
000290 5e ac 9b bd fe 0c 0a be 8a 02 4d be d6 42 0a bc
       -0.07601236 -0.13481519 -0.200205 -0.0084387865
0002a0 97 05 6d bc 0b 95 1f be 22 69 73 bd 4d 79 ab bd
       -0.014466665 -0.15584199 -0.059426434 -0.08372746
0002b0 1f 45 2a be 13 52 28 be 4a 7c 7d 3c 11 68 01 be
       -0.1662793 -0.16437559 0.015471527 -0.12637354
0002c0 bd b6 06 be 9f a4 45 3d 83 30 a7 bd 4b 96 c6 bd
       -0.13155647 0.048252698 -0.0816355 -0.09696635
0002d0 88 f7 79 bd 76 21 45 be 05 5a 04 be 2e 8f 7d bd
       -0.06102708 -0.19251046 -0.12924965 -0.061904125
0002e0 36 9d c1 bd e9 0f 06 be 1c a7 03 be 42 a2 d9 bd
       -0.09453814 -0.13092007 -0.12856716 -0.10626651
0002f0 72 2b 1c bd b8 9b 41 be 1b 4a 1e bd 47 54 a4 bd
       -0.03812737 -0.18907058 -0.03864489 -0.08023887
000300 c2 a3 8b be 8f 26 8c bd 07 2d 6d 3c 9c 7d 3e be
       -0.27273375 -0.06843292 0.014476067 -0.18602604
000310 f4 d3 78 bd 3f 99 5a 3d c2 bc 68 be fd b5 04 bd
       -0.06074901 0.053368803 -0.22728255 -0.03240012
000320 00 68 d2 bb 0e 88 39 bd c2 0e 04 3d b0 2e 90 bb
       -0.006421089 -0.045295767 0.032240637 -0.004400097
000330 1d 42 f7 bd f7 84 b5 3c 44 ea 79 bd 53 03 4a be
       -0.12073157 0.02215813 -0.06101443 -0.1972783
000340 27 ef 96 3b 59 92 de bd 42 fe bc bd 5a e1 49 3b
       0.004606146 -0.10867757 -0.09228183 0.0030804486
000350 29 08 6c be e8 c9 a4 bd 68 2d 53 bd fe af 13 3d
       -0.23049988 -0.08046323 -0.051556975 0.03605651
000360 fd 1d cb bc 14 6e 96 bd 06 87 1d be ad cc 59 3a
       -0.024794573 -0.073452145 -0.15383539 0.0008308392
000370 4c 6e e7 bd be 40 36 be 56 88 c2 bc 8e 84 73 bd
       -0.11300334 -0.17798135 -0.02374665 -0.059452586
000380 5e a3 b0 bd 8a 76 18 be 31 89 13 be 95 cb 18 be
       -0.0862491 -0.14888969 -0.14407803 -0.1492141
000390 d3 31 84 bd 9a 9a 1c bc b9 e0 a5 bc b7 4f 10 bd
       -0.06454816 -0.009558344 -0.020248758 -0.035232272
0003a0 0e e7 bb 3b 95 97 0f be 21 5b 8a bd 22 d0 9d bd
       0.005734331 -0.14022668 -0.06755663 -0.07705714
0003b0 a8 8b 54 be 7f db 09 be 44 f3 f9 bd 6e db 17 be
       -0.207564 -0.13462637 -0.12204602 -0.148298
0003c0 9d 52 ef bd 1f 5d 90 3d 25 c6 8b 3c 09 7a c5 3c
       -0.11685679 0.070490114 0.017062256 0.024106042
0003d0 ac 4e 25 bc a0 64 4b be 6d 38 93 bd bd 49 f8 bc
       -0.010089558 -0.19862604 -0.07188497 -0.030308599
0003e0 b0 a3 96 be 8d 67 33 bd ec 6f 53 3c be 0f a1 bd
       -0.2942176 -0.043799926 0.012905102 -0.07864331
0003f0 50 f7 10 be a0 a0 0a bd 89 a3 2d 3b ba 21 f1 3b
       -0.14156842 -0.03384459 0.002649518 0.007358757

layer2.bias f4 [64]
000000 c5 24 b2 be 39 1c 6b 3f a3 d7 2d bc 4e a6 3b bd
       -0.34793678 0.9183994 -0.010610494 -0.045812897
000010 3f 63 a2 3c b0 b7 e6 bd a7 7f bb bd 73 31 83 3d
       0.019822715 -0.11265504 -0.09155207 0.06405916
000020 f3 a3 5c 3f d9 6a 3f 3f 00 f4 0e bd 87 79 9a bd
       0.86187667 0.7477241 -0.034900665 -0.07542711
000030 e4 31 99 3d 24 88 09 bd 9f 29 83 bd cf 4f 62 3c
       0.07480219 -0.0335771 -0.06404423 0.013812973
000040 a3 40 f9 bd d4 76 50 bd d9 52 1f be 6c 87 d6 be
       -0.121705316 -0.050894573 -0.15558948 -0.41900194
000050 62 e9 a6 3f 67 82 c0 bc d5 74 01 3f db 06 10 be
       1.3039973 -0.02349968 0.50568897 -0.14065115
000060 20 78 be bd d9 87 e2 3c 8f 23 73 3e ea 76 d7 3c
       -0.09300256 0.027652668 0.23744033 0.02630182
000070 59 46 4b 3e ae d9 6e 3c 43 b1 79 3f 22 ad 8e 3f
       0.19851054 0.014578266 0.97536105 1.1146586
000080 fb 11 51 be f5 ee ba 3b e6 91 20 bd 26 e8 8a 3e
       -0.20417015 0.0057047554 -0.03920164 0.2713024
000090 bc 8a 92 3f b2 21 29 3f c1 56 7f bc b3 95 38 be
       1.1448588 0.6606704 -0.015584649 -0.18025856
0000a0 df e7 7f 3f aa 5a 0e bd af a4 83 3e 52 66 ff bc
       0.9996318 -0.034754433 0.2571158 -0.03117672
0000b0 36 3e 80 3f 29 7a 4f be 46 e3 11 be 7b 97 2a 3c
       1.0018985 -0.20261444 -0.14246854 0.010412092
0000c0 7e 46 a7 3f d3 33 05 be 42 51 14 be 88 a6 5b be
       1.3068388 -0.1300805 -0.14484122 -0.21450245
0000d0 93 8b 89 bd 7f 62 87 bd 8c a0 1b 3f 33 cd a5 bd
       -0.06716075 -0.066105835 0.6079185 -0.08095779
0000e0 66 64 9a 3d bc 13 2f bc 48 66 40 bd e2 a5 53 3e
       0.07538681 -0.010685857 -0.046972543 0.20668748
0000f0 c8 d1 76 3e 6d 2b 9e bc 8a 00 8c bd aa fd 48 be
       0.24103463 -0.019307816 -0.0683604 -0.19628015

layer3.weight f4 [5, 64]
000000 41 f6 17 bd 53 43 0c 3f e6 22 0a 3b f8 b2 ae 3d
       -0.03710008 0.5479023 0.002107793 0.08530229
000010 7b 49 dc bc 85 78 26 bc 89 5c 6d 3d 0d 7f 0a 3e
       -0.026890507 -0.01016057 0.057949577 0.13525029
000020 00 8e cc 3e 35 f8 a5 be b7 a9 8f 3d 04 56 a4 3d
       0.39952087 -0.3241593 0.070147924 0.08024219
000030 a9 95 84 3d 9c 9b 99 3d f9 0d a6 3c 23 e1 04 3e
       0.06473858 0.07500383 0.020270335 0.12976508
000040 21 cc d3 3c e5 8e 2d 3e a2 e8 74 bb 51 5d 09 3e
       0.025854172 0.16949041 -0.0037370105 0.13414504
000050 b4 6d 77 be ff 1b f7 3d 9f 8a 50 3e 2a fa 3e 3d
       -0.24162942 0.12065887 0.2036538 0.046625294
000060 d2 36 0f 3d c0 1a 3c bd a4 53 69 be cd 1e 10 bd
       0.03496439 -0.04592395 -0.22785813 -0.035185624
000070 f8 19 a5 3e 09 3c 24 3c 23 b2 2d 3f c0 fc db be
       0.32246375 0.010024079 0.6784994 -0.4296627
000080 8e 33 10 3d f8 1c 1c 3e b0 06 40 3d ce bd 17 3f
       0.035205416 0.15245426 0.046881378 0.59273994
000090 90 21 2a bf f7 80 89 3b ce ca 36 be 50 3c c2 3d
       -0.6645746 0.004196282 -0.17850801 0.0948416
0000a0 20 eb 74 bb 7b a1 b1 3c 55 b6 8b 3e 8a 45 14 3d
       -0.003737159 0.021683445 0.27287546 0.03619913
0000b0 66 37 c7 bd 32 7c a0 bd c1 29 1f bb 2a 4c 7c 3d
       -0.09727363 -0.078361884 -0.0024286362 0.061596073
0000c0 42 e0 11 3f 5c 92 37 3d 6e cf 1c 3e c1 e6 8a 3d
       0.56982815 0.044817314 0.15313503 0.06782294
0000d0 90 05 a5 3d 60 7b 2a bd 90 6e 53 be 6b 49 05 3e
       0.080577016 -0.041621566 -0.20647645 0.13016288
0000e0 d7 fd 09 be 21 84 79 3e 5c 98 1f 3e 98 e2 c0 bd
       -0.13475738 0.2436681 0.15585464 -0.09418219
0000f0 52 6c a8 be bd 0e e5 3d c9 d1 eb bc 92 69 61 3d
       -0.32895142 0.11184452 -0.028786557 0.05503232
000100 0b 07 52 bd 18 6a ce be 34 e0 e2 3d f6 1a a7 bd
       -0.051276248 -0.40315318 0.110779196 -0.08159439
000110 8c 48 35 be 41 0d fc 3d bc fb 28 be e2 ea 07 be
       -0.17703456 0.123072155 -0.16502279 -0.13273194
000120 76 8e 86 be cc 45 84 bf 51 d8 18 bd ee 6c dd bd
       -0.26280564 -1.03338 -0.03731567 -0.10811792
000130 ab 20 14 bd bd 13 21 be 15 c0 38 bc 4a 87 17 bd
       -0.036163967 -0.15730186 -0.011276265 -0.036994256
000140 02 ec 49 be cf 5e 0f 3d 75 86 c3 bd 00 eb 11 3e
       -0.19718936 0.035002526 -0.0954713 0.14249802
000150 9b 2f 47 3f 13 74 8b bc 9b 6f cb be fe f3 03 be
       0.77807015 -0.017023122 -0.39733586 -0.12886044
000160 29 34 e7 bc 2b ef b2 3b 53 10 4d be c8 f8 41 3c
       -0.028223114 0.00546064 -0.20025758 0.011839099
000170 dc dd 91 be 34 da 00 be 44 52 82 3d d5 bc 12 3f
       -0.28489578 -0.12583238 0.06363347 0.57319385
000180 19 19 4c bd 63 1e 2a 3d e3 d7 63 bc 0f ea a4 be
       -0.049828622 0.041532885 -0.013906452 -0.32209823
000190 91 b9 9e 3f be f9 42 bf 20 27 e6 3d da a7 1b bc
       1.240038 -0.76162326 0.11237931 -0.009500468
0001a0 f7 5f fd 3e 76 f1 b5 bd 6a 34 99 be 38 7f 2d bd
       0.49487278 -0.08883946 -0.299228 -0.042357653
0001b0 9f c4 31 bf 6f ed 31 3e 7d 2b 9f bc c8 6e 1d be
       -0.69440645 0.1737573 -0.019429917 -0.15374291
0001c0 b8 60 81 3e bf cb b5 3c d8 67 17 3d 66 5b 9a bd
       0.25269103 0.02219188 0.036964267 -0.07536964
0001d0 55 fe f4 bd f1 8f 5e bd 67 24 a5 be dc 44 91 bc
       -0.119625725 -0.054336492 -0.32254335 -0.01773303
0001e0 59 05 34 3e 22 ce d9 bc 06 ca a3 bc 19 db f1 3c
       0.17580165 -0.02658755 -0.019993793 0.02952342
0001f0 90 cb f2 3e 2f 1a b6 3d 5f ad 8c bc c7 fa 92 3d
       0.4742093 0.08891713 -0.017172514 0.07176738
000200 1d 78 54 3e 91 12 1c 3d f1 ae 59 3c 72 63 ed 3d
       0.20748945 0.038103644 0.013286338 0.11591233
000210 3e 99 d1 3d 1f 0c 07 3d e5 17 3f 3d fb 62 97 3c
       0.10234307 0.032970544 0.046653647 0.018479815
000220 48 ea 12 bf 44 a7 04 3e b9 d9 67 3e 81 7a 04 3e
       -0.57388735 0.12954432 0.22641648 0.12937357
000230 77 79 3d 3d 71 52 88 3c 07 85 1f be 82 0b 12 bd
       0.046258416 0.016640874 -0.1557809 -0.035655506
000240 ec 4d af bc b7 bb 35 bc 89 02 dc 3d 0c 80 bb 3e
       -0.02139946 -0.011092118 0.10742671 0.3662113
000250 0b 26 f4 3b 53 53 16 3e b5 46 2d 3f 0e c4 b7 bd
       0.007450824 0.14680223 0.67686015 -0.08972941
000260 a5 be f6 bd ac 40 13 3e 52 47 e6 3e ea b0 46 3e
       -0.12048081 0.14380139 0.44976288 0.19403425
000270 96 5c fa 3e 45 c3 ef bd a3 08 a4 be df 5c 67 bf
       0.48898762 -0.117071666 -0.3203784 -0.90376085
000280 c8 5e 7c 3e 8e e5 58 bc c4 a4 68 3d 7a e1 9b bd
       0.24645531 -0.013238324 0.056797758 -0.076113656
000290 62 32 c0 3e cd 91 70 3e fe 0e 8e 3e 3f 81 59 3d
       0.3753844 0.23493119 0.27745813 0.053101774
0002a0 d3 92 8d be 23 6d db bd 16 a2 84 be ef e6 08 3e
       -0.2765108 -0.107141756 -0.25904912 0.13369344
0002b0 27 fa 8d 3f 55 7f c3 3e e9 ad 32 be 84 5b 3f 3e
       1.1091965 0.38183084 -0.17449154 0.18687254
0002c0 50 49 2c bf a6 9e d6 3c 1a 0b ad 3d 1f 3c 1a 3d
       -0.67299366 0.026198696 0.08449383 0.037654992
0002d0 2d d2 19 3b 66 f3 a9 bd 74 0b d7 3c 00 44 13 3d
       0.0023471222 -0.08298378 0.026250578 0.03595352
0002e0 c4 f1 34 3e 3d c9 6d 3b 40 ca 48 3b f6 50 5a 3e
       0.17670351 0.0036283277 0.0030638129 0.21319947
0002f0 c7 78 d9 be 0d e2 25 3d 7e bc c3 3d d8 3c b9 bd
       -0.42474958 0.040498782 0.095574364 -0.09044808
000300 4c 70 f1 bc 40 fe 5c bc 66 49 ec bc d6 bc 22 be
       -0.029472493 -0.013488352 -0.028843593 -0.15892348
000310 54 4e 23 bd 93 17 08 3e af 03 a0 3e 16 7f 26 3c
       -0.03986962 0.13290243 0.3125281 0.010162136
000320 41 12 fe 3e a5 76 ca 3e cf a1 9d bd 60 02 6b bd
       0.49623302 0.39543644 -0.07696878 -0.05737531
000330 13 8a 16 be d9 28 12 bd 66 02 5a bd 89 8e f9 bc
       -0.14701109 -0.035683487 -0.053224944 -0.030463474
000340 b2 2b fd 3c 86 6b 34 3b 30 9e 72 be c0 a2 92 3d
       0.030904625 0.002752991 -0.23693156 0.07159948
000350 be 3e 95 be a6 2f e1 bd 6d 2c a1 be f5 25 17 3d
       -0.2914943 -0.10995416 -0.31479207 0.036901433
000360 b9 68 6b bc 20 ee a7 bc 52 19 e8 3d 63 e4 ba 3c
       -0.01436823 -0.020499289 0.113329545 0.022813981
000370 8d ab c5 be f1 16 15 3d e6 27 49 bf 7e 87 5a 3f
       -0.38607445 0.03639883 -0.78576505 0.85362995
000380 e3 43 19 3e 3c dd 22 3d 87 bd 89 3c f6 aa 45 3d
       0.14967303 0.039761767 0.016814006 0.048258744
000390 48 c3 77 bf ea fb 64 3e f3 ce 3d be 1c 0c f3 bb
       -0.9678235 0.22361723 -0.18535976 -0.007417215
0003a0 73 c0 d1 bd 1d 9d a5 3d cb d8 80 3d 94 f1 bc 3d
       -0.10241785 0.080866076 0.0629135 0.09225765
0003b0 0e d6 a7 be dc 72 9a be 51 c7 31 3d 30 78 b2 bc
       -0.32780498 -0.30165756 0.043402974 -0.021785825
0003c0 f2 27 b3 bd b3 2f c7 bc 25 b6 fd 3c 0e d6 57 3d
       -0.08747853 -0.024314737 0.030970642 0.052694373
0003d0 4c 6c f3 bc 5d 5a 8e 3c 6e 41 1b 3f 22 04 bf bd
       -0.029714726 0.017377073 0.6064671 -0.0932696
0003e0 ed 06 df 3d 10 9e 46 3e a1 ad dd bc 97 65 4f 3e
       0.10889993 0.19396234 -0.027060332 0.20253597
0003f0 40 08 ef bd 42 ce 91 3d 2b f9 50 3c 30 df a4 3c
       -0.116714954 0.07119419 0.012754719 0.020125955

layer3.bias f4 [5]
000000 9c 1d 48 bd 33 f9 23 3f e9 0a 87 be 05 6b 8b 3e
       -0.048856363 0.6405212 -0.2637551 0.27230087
000010 b2 66 57 bf
       -0.84141076
