maddpg0targetcritic.pth (torch, 29975 bytes, 5 tensors)

fc1.weight f4 [64, 43]
0	0xbe8011c2	-0.25013548
1	0xbd2a805a	-0.04162631
2	0xbe87f6df	-0.26555535
3	0x3d91fd72	0.07128419
4	0xbe859f39	-0.2609804
5	0x3e1ae82f	0.15127634
6	0xbe677dc5	-0.22606571
7	0x3cbc9def	0.023024527
8	0xbeea8f03	-0.45812234
9	0x3da059e0	0.07829642
10	0x3d0a5a38	0.033777446
11	0xbd8f165e	-0.06986688
12	0x3e520d61	0.20512916
13	0x3a355c94	0.0006918397
14	0x3ea61f70	0.3244586
15	0xbe199f47	-0.15002166
16	0xbe076026	-0.13220271
17	0xbdbc3a96	-0.09190862
18	0xbed74726	-0.4204647
19	0x3e96d039	0.29455736
20	0xbdeb8f85	-0.115019836
21	0xbdfe1c45	-0.12407736
22	0x3df14442	0.11780597
23	0xbdb7ed7f	-0.08980846
24	0x3dc417d0	0.095748544
25	0xbd8602bd	-0.06543491
26	0x3bb48710	0.005509265
27	0xbdd01248	-0.10159737
28	0xbf30c4a2	-0.6905004
29	0xbf129d05	-0.5727084
30	0xbf5c92a1	-0.8616124
31	0xbef6a9c1	-0.48176387
32	0xbf412029	-0.754397
33	0xbef937f0	-0.4867549
34	0xbf299364	-0.66240525
35	0xbf1bfb97	-0.6093077
36	0xbf08dbdd	-0.53460485
37	0xbf1e139e	-0.61748683
38	0xbe967406	-0.29385394
39	0xbec90af1	-0.3926616
40	0xbf0ce17f	-0.5503158
41	0xbf346817	-0.7047133
42	0xbf66cec4	-0.9015925
43	0x3ca2597d	0.019818062
44	0xbe22fc18	-0.15916479
45	0xbeb5654b	-0.35428843
46	0xbe83ec66	-0.25766295
47	0xbe500f06	-0.20318231
48	0xbe3287c6	-0.17434606
49	0xbe75181a	-0.23934975
50	0xbe8a1150	-0.26966333
51	0xbf30b757	-0.69029754
52	0xbf4afcba	-0.7929188
53	0x3de69879	0.112595506
54	0xbc0f16d4	-0.00873347
55	0xbd711d71	-0.05886597
56	0x3e10b053	0.14129762
57	0x3ed42f4f	0.41442344
58	0x3e9c4b52	0.30526215
59	0x3d10ed6c	0.035382673
60	0xbcaff154	-0.021477379
61	0xbea93425	-0.33047596
62	0xbf617f5a	-0.8808495
63	0x3db973ca	0.09055288
64	0x3e391ce2	0.18077424
65	0xbdce415c	-0.1007106
66	0xbd1908f6	-0.03736206
67	0x3d78baba	0.06072495
68	0x3e88f104	0.2674638
69	0xbceb3494	-0.028711595
70	0x3c4675f1	0.01211308
71	0xbe82c309	-0.25539425
72	0xbe07819a	-0.13233033
73	0xbebe323c	-0.371477
74	0xbe1e914d	-0.15485115
75	0xbeca2685	-0.39482513
76	0xbe8f1014	-0.27941954
77	0xbe74e27c	-0.23914522
78	0xbe9b3952	-0.3031717
79	0xbe72c13d	-0.23706527
80	0xbe83d173	-0.25745735
81	0xbe827593	-0.25480327
82	0xbe32b79f	-0.17452858
83	0xbe7991b6	-0.2437199
84	0xbe4b5249	-0.19855608
85	0xbe680e0c	-0.22661608
86	0xbe846779	-0.25860193
87	0x3d040d73	0.03223939
88	0xbde8476a	-0.11341746
89	0xbd4fd6d3	-0.05074198
90	0xbd88e87c	-0.06684968
91	0xbe86a283	-0.26295862
92	0xbe5be876	-0.21475396
93	0xbe050176	-0.12988839
94	0xbf424cfc	-0.7589872
95	0xbecaae44	-0.3958608
96	0x3deb2108	0.114809096
97	0xbc774f36	-0.015094569
98	0x3e774b7a	0.24149886
99	0x3dba9438	0.09110302
100	0x3dd123f4	0.10211936
101	0x3e4d7a46	0.20066175
102	0x3da46d50	0.08028662
103	0x3ddde114	0.10833946
104	0xbf2cc064	-0.67481065
105	0xbeff8d73	-0.49912605
106	0x3d1640c3	0.036682855
107	0x3d3cca28	0.04609123
108	0x3b951393	0.0045494526
109	0x3df4f62c	0.11961016
110	0x3e492cc3	0.19645981
111	0x3dbe9ade	0.09306882
112	0xbd9a5a15	-0.07536713
113	0x3d5fec32	0.054668613
114	0xbeaa5b16	-0.33272618
115	0xbe839b19	-0.25704268
116	0xbeb8bc6c	-0.36081254
117	0xbe8820f6	-0.26587647
118	0xbdbbe3ef	-0.09174334
119	0xbe182406	-0.14857492
120	0xbe21997d	-0.15781207
121	0xbe165190	-0.14679551
122	0xbe93e8bf	-0.2888851
123	0xbe373363	-0.17890696
124	0xbe323d1a	-0.17406121
125	0xbe7cd31e	-0.2468991
126	0xbe252e2c	-0.16130894
127	0xbe2e2418	-0.17005956
128	0xbe912fcc	-0.2835678
129	0xbeb6f2e7	-0.35732195
130	0xbe147e65	-0.1450134
131	0xbde0b288	-0.10971552
132	0xbe77da72	-0.24204424
133	0xbe29673b	-0.16543286
134	0xbd0185e3	-0.031621825
135	0xbe7c7b14	-0.24656326
136	0xbe21642e	-0.15760872
137	0xbf1cf29e	-0.61307704
138	0xbf3471de	-0.7048625
139	0xbe3c4052	-0.18383911
140	0x3d84ceeb	0.06484779
141	0x3e924d19	0.28574446
142	0xbd809649	-0.062786646
143	0x3ebb05ee	0.36527961
144	0x3e15ac72	0.14616564
145	0x3c9c5e27	0.019087864
146	0xbda7f180	-0.08200359
147	0xbf0b131e	-0.54326046
148	0xbf00374c	-0.50084376
149	0xbd2893f6	-0.04115673
150	0x3e65d16d	0.22443171
151	0x3e5a84e6	0.21339759
152	0x3d5a51de	0.05330073
153	0xbcb2182a	-0.021740038
154	0x3e0294f8	0.1275214
155	0x3dc6be18	0.09704226
156	0xbd1e3951	-0.03862888
157	0xbeb37e52	-0.35057312
158	0xbe4acf0b	-0.19805543
159	0xbeca4f5f	-0.3951368
160	0xbe362372	-0.17786959
161	0xbee7d362	-0.4527846
162	0xbeb5dff7	-0.35522434
163	0xbea1b3be	-0.31582445
164	0xbebe828e	-0.3720898
165	0xbe84a9b9	-0.25910738
166	0xbec0b00f	-0.37634322
167	0xbe8fa9c7	-0.28059217
168	0xbeb2163b	-0.34782586
169	0xbe9a19f6	-0.30097932
170	0xbe792804	-0.24331671
171	0xbe578ad1	-0.21049048
172	0x3e2b5048	0.16729844
173	0xbed2bde7	-0.4116051
174	0x3ea5b0d6	0.32361478
175	0xbea9ba36	-0.3314988
176	0x3d02cb3b	0.031932097
177	0xbefd499d	-0.49470225
178	0x3e489ae7	0.1959034
179	0xbe85fa94	-0.26167738
180	0x3eccc665	0.39995113
181	0xbf2cd56a	-0.67513144
182	0x3da90a8f	0.08253967
183	0x3db30cea	0.087426975
184	0x3e14f11a	0.14545098
185	0xbe161687	-0.14657031
186	0xbd6385db	-0.055547576
187	0x3e65e4ce	0.22450563
188	0xbe2b6d60	-0.16740942
189	0xbdb49b4f	-0.08818685
190	0x3f3fead9	0.74967724
191	0xbee3430e	-0.44387096
192	0x3c342491	0.010995046
193	0x3de91b84	0.11382201
194	0x3e1da4a2	0.15394834
195	0x3d4b937c	0.0497012
196	0xbe971231	-0.29506066
197	0x3ead2222	0.33815104
198	0x3a0e1997	0.00054206833
199	0xbd28993c	-0.04116176
200	0xbf240dab	-0.64083356
201	0xbf23fd47	-0.64058346
202	0xbf10f9aa	-0.5663096
203	0xbedcc257	-0.4311702
204	0xbf24e1ca	-0.64407027
205	0xbf0deb82	-0.5543748
206	0xbf194666	-0.59873044
207	0xbef5c6d4	-0.48003256
208	0xbf07d706	-0.53062475
209	0xbf1ef1fb	-0.6208798
210	0xbef1654b	-0.47147593
211	0xbf1ec0eb	-0.6201312
212	0xbee59799	-0.44842222
213	0xbefb10e9	-0.4903634
214	0xbf1c85bb	-0.61141557
215	0xbecccb6c	-0.3999895
216	0xbe49c51c	-0.19704098
217	0xbe91940f	-0.28433272
218	0xbc2470cf	-0.010036661
219	0xbeba54db	-0.36392865
220	0xbd8c2b91	-0.06844247
221	0xbdb50c2e	-0.08840214
222	0xbe24a01a	-0.16076699
223	0xbf3168f7	-0.6930079
224	0xbe07f292	-0.13276127
225	0xbe5add53	-0.21373491
226	0xbe77e420	-0.24208117
227	0x3ea4a2de	0.32155508
228	0x3d822691	0.06355012
229	0x3e79b19b	0.24384157
230	0xbd974769	-0.07386667
231	0xbd4b8abd	-0.049692858
232	0x3d506137	0.05087396
233	0xbe88f635	-0.2675034
234	0xbedf2613	-0.43583736
235	0xbc340fec	-0.010990124
236	0xbde02e98	-0.10946387
237	0x3e42c44a	0.19020191
238	0x3d7dadab	0.0619332
239	0x3e0973e0	0.13423109
240	0x3e4fba01	0.20285799
241	0xbd4099a9	-0.04702154
242	0x3e0e32fe	0.1388664
243	0xbf3bf1b0	-0.7341566
244	0xbebf16f9	-0.37322214
245	0xbf546dcb	-0.8298003
246	0xbe939357	-0.2882335
247	0xbf215fb4	-0.63036656
248	0xbf06c665	-0.52646476
249	0xbef20d64	-0.4727584
250	0xbef90201	-0.4863434
251	0xbef2db3b	-0.47432885
252	0xbef60deb	-0.48057494
253	0xbed56cfe	-0.41684717
254	0xbe888bc8	-0.26669145
255	0xbedbb472	-0.42911106

fc1.bias f4 [64]
0	0xbf2b5395	-0.6692441
1	0xbe3bb139	-0.18329324
2	0xbe4c4106	-0.1994668
3	0xbe9d61ae	-0.30738586
4	0xbf0e2ae1	-0.5553418
5	0xbf2efc74	-0.6835396
6	0xbe239918	-0.1597637
7	0xbe156171	-0.14587952
8	0xbecc4402	-0.39895636
9	0xbf0b1922	-0.54335225
10	0xbf0c4abb	-0.5480153
11	0xbee391cf	-0.4444718
12	0xbe8dce9d	-0.27696696
13	0xbf432049	-0.7622114
14	0xbf154142	-0.583027
15	0xbe93f274	-0.28895915
16	0xbeb36031	-0.35034326
17	0xbea4be1f	-0.321763
18	0xbdbde690	-0.09272492
19	0xbf0f3940	-0.5594673
20	0xbefe6d92	-0.4969297
21	0xbeb952d1	-0.36195996
22	0xbeefea23	-0.4685832
23	0xbdbe4ddb	-0.092921935
24	0xbe607d23	-0.21922736
25	0xbf2dadc2	-0.6784326
26	0xbee13507	-0.4398577
27	0xbed51dc8	-0.41624284
28	0xbec272de	-0.37978262
29	0xbf1d48c0	-0.6143913
30	0xbed9bf95	-0.42528978
31	0xbf049c59	-0.5180107
32	0xbf07722c	-0.5290859
33	0xbe9ca972	-0.30598027
34	0xbf1c8920	-0.61146736
35	0xbe046fa4	-0.12933213
36	0xbf46fdd8	-0.77731085
37	0xbf143759	-0.57896954
38	0xbf2d9f46	-0.67821157
39	0x3ceb963c	0.02875816
40	0xbefa0d3c	-0.48838222
41	0xbf063fc3	-0.5244104
42	0xbf131564	-0.57454515
43	0xbec6043d	-0.3867511
44	0xbf3fefe7	-0.74975437
45	0xbea6c5b1	-0.32572702
46	0xbf36e513	-0.7144329
47	0xbef01239	-0.46888903
48	0x3eaf293b	0.34211144
49	0xbe892b04	-0.2679063
50	0xbea1a206	-0.31568927
51	0xbe8ebf8a	-0.27880508
52	0xbf33f44d	-0.7029465
53	0xbe52dd8c	-0.20592326
54	0xbec7c07e	-0.39014047
55	0xbebfc4e9	-0.37454918
56	0xbe1de6ff	-0.1542015
57	0xbee6c60b	-0.4507297
58	0xbed2e583	-0.4119073
59	0xbe9bd3f4	-0.30435145
60	0xbea0e1b6	-0.31422204
61	0xbf319a48	-0.6937604
62	0xbedfca8e	-0.43709224
63	0xbf154847	-0.5831341

fc2.weight f4 [64, 64]
0	0x3eef411c	0.46729362
1	0x3e9fb2a4	0.3119098
2	0x3e833ebd	0.25633803
3	0x3e28af5a	0.16473141
4	0x3e26beb6	0.16283688
5	0x3eb29ff1	0.3488765
6	0x3e315b51	0.1731999
7	0x3e4d3743	0.20040612
8	0x3e048e66	0.12944946
9	0x3e7606b5	0.24025996
10	0x3e675388	0.22590458
11	0x3e8ca966	0.2747299
12	0x3e678589	0.22609533
13	0x3dbce278	0.09222883
14	0xbc52b943	-0.012861553
15	0x3ed5bc4a	0.41745216
16	0x3e23b037	0.1598519
17	0x3ec3e822	0.3826304
18	0xbb9ac39f	-0.004723027
19	0xbcf35946	-0.029705655
20	0x3cfe4854	0.031040348
21	0x3e021582	0.12703517
22	0x3ea3a27e	0.3195991
23	0x3eabaa30	0.3352828
24	0x3e7ab3be	0.24482629
25	0x3e8454a9	0.2584584
26	0x3e7dba74	0.24778157
27	0x3e7d8032	0.24755934
28	0x3eb62b09	0.35579708
29	0x3e9be843	0.3045064
30	0x3e3425fe	0.17592618
31	0x3db208a6	0.08693056
32	0x3ebea7cf	0.37237403
33	0x3e9e0884	0.30865872
34	0x3eb8c61c	0.36088645
35	0x3c338402	0.010956766
36	0x3f06bce0	0.5263195
37	0x3e450392	0.19239643
38	0x3e81e3be	0.25369066
39	0x3cd1cc0d	0.025609994
40	0x3e95b0d4	0.29236472
41	0x3eb1010a	0.34571105
42	0x3ee83e03	0.4535981
43	0x3eadf11c	0.33973014
44	0x3ecc444a	0.3989585
45	0x3edf1623	0.43571576
46	0x3e01a149	0.12659182
47	0x3e5e0118	0.21680105
48	0xbc6fb06e	-0.014629466
49	0x3e2c6ca2	0.16838315
50	0x3e917f0f	0.2841725
51	0x3e29d123	0.16583686
52	0x3ea7c14f	0.3276467
53	0x3e08dc41	0.1336527
54	0x3e3a3e50	0.18187833
55	0x3e92b3bd	0.28652754
56	0x3e32721c	0.17426342
57	0x3d2f4545	0.04279067
58	0x3e3d53c8	0.18488991
59	0x3e4eca32	0.20194319
60	0x3eb41268	0.35170293
61	0x3ea9c068	0.33154607
62	0x3bbc0f75	0.0057391473
63	0x3dc891c5	0.09793428
64	0xbd871a98	-0.06596869
65	0xbc0dd187	-0.008655912
66	0xbd84d499	-0.06485862
67	0xbd54e2c7	-0.051974084
68	0x3d9b6992	0.07588495
69	0x3d253bdb	0.040340286
70	0xbd9c9c62	-0.07647015
71	0xbe5e0be7	-0.21684228
72	0x3e89d5b8	0.26920867
73	0x3cc5c0c9	0.024139779
74	0xbd927945	-0.071520366
75	0xbcf34579	-0.029696213
76	0xbdb68eb0	-0.08913934
77	0xbda4667d	-0.080273606
78	0x3ebb639a	0.36599427
79	0x3e2b794f	0.16745494
80	0xbdbc06db	-0.09180995
81	0xbd2decae	-0.042462043
82	0xbdb1d590	-0.08683312
83	0x3b69656b	0.0035613428
84	0xbd1ee9a9	-0.038797054
85	0x3e968805	0.2940065
86	0x3dd777e0	0.10520911
87	0xbdec2540	-0.115305424
88	0xbd00a2d7	-0.031405296
89	0xbe099571	-0.13435914
90	0x3d83e8db	0.06440898
91	0x3e13ff6a	0.14452901
92	0xbe31f6d5	-0.17379315
93	0x3de22289	0.11041743
94	0xbcb63b28	-0.022245005
95	0x3da6b78e	0.08140479
96	0xbe8c9713	-0.2745901
97	0x3d0e904b	0.034805577
98	0x3e1052cf	0.14094089
99	0xbe46ab87	-0.1940137
100	0x3e1fc047	0.15600692
101	0x3e5b63ef	0.2142484
102	0x3e9235de	0.28556722
103	0xbd9fc1b4	-0.07800618
104	0x3ceb6393	0.028734004
105	0x3da9bf7c	0.08288476
106	0xbdf5b83c	-0.119980305
107	0x3eb1cb95	0.34725633
108	0xbd9ff959	-0.07811231
109	0x3e7f0923	0.24905829
110	0x3e0c071d	0.13674589
111	0x3d9af87d	0.07566927
112	0x3dadfff2	0.08496083
113	0x3d9d4b40	0.076803684
114	0x3e012ae2	0.12614015
115	0x3d9d85a3	0.07691505
116	0xbe146b99	-0.1449417
117	0x3e6bee7a	0.2304019
118	0x3daeab84	0.08528808
119	0x3d7f3431	0.062305633
120	0xbd6fe8f2	-0.058571763
121	0xbd1a725f	-0.03770673
122	0xbd9dcba3	-0.07704856
123	0x3dbad9bc	0.09123561
124	0x3d5e60f3	0.054291677
125	0x3e45590a	0.19272247
126	0x3d82dd5e	0.06389879
127	0x3da9b3df	0.08286261
128	0xbd1128ef	-0.035439428
129	0xbe4ac6cb	-0.19802396
130	0xbdb79f9f	-0.08965992
131	0xbe50cf54	-0.2039159
132	0xbe1ee5f8	-0.15517414
133	0xbcd6ba2e	-0.026211824
134	0xbd0c0e9d	-0.034193624
135	0xbe1e1308	-0.15436947
136	0xbdb31334	-0.08743897
137	0xbe200b55	-0.15629323
138	0xbde6395c	-0.11241409
139	0xbe155d58	-0.14586389
140	0xbe1ef7f0	-0.15524268
141	0xbdc7bdd7	-0.09753006
142	0xbd5f5375	-0.05452295
143	0xbd48898c	-0.0489593
144	0xbd175adf	-0.036951896
145	0xbb2e2706	-0.0026573553
146	0xbdf6f169	-0.12057764
147	0x3d160aa6	0.03663125
148	0xbd43e84d	-0.04782896
149	0xbdc06ad7	-0.09395378
150	0xbd298154	-0.041383103
151	0xbd92606b	-0.071472965
152	0xbd6d881d	-0.057991136
153	0x3c4a1137	0.012333206
154	0xbe46d377	-0.19416605
155	0x3d260f0a	0.040541686
156	0xbcda82d0	-0.026673704
157	0x3cf88822	0.03033835
158	0xbe1a8be8	-0.15092432
159	0xbc83b5dc	-0.016077928
160	0xbb38091d	-0.0028081604
161	0xbe3dfd5a	-0.18553677
162	0xbdd883f9	-0.10572047
163	0xbdda2784	-0.10652068
164	0xbdf42f27	-0.11923056
165	0xbcaa4109	-0.020782964
166	0xbdad541d	-0.08463309
167	0x3abcddd5	0.0014409373
168	0xbd119ee0	-0.035551906
169	0xbdfb3dd6	-0.12267654
170	0xbe4c860f	-0.19973014
171	0x3d117152	0.03550846
172	0xbdbbaa6e	-0.09163366
173	0xbe108710	-0.14114022
174	0xbde9b13e	-0.114107594
175	0xbe1dfcc4	-0.15428454
176	0xbe117a6c	-0.14206856
177	0xbd56d737	-0.05245134
178	0xbd4de622	-0.0502683
179	0x3caf0231	0.02136335
180	0xbe17e2a8	-0.14832556
181	0xbccffb57	-0.025388403
182	0xbd5d88dd	-0.0540856
183	0x3d28bc94	0.041195467
184	0xbcb8e8ef	-0.022572009
185	0xbd50c0d4	-0.050965145
186	0xbd22edad	-0.039777447
187	0xbdf67fbc	-0.12036082
188	0xbe18c538	-0.14918983
189	0xbe2dd11d	-0.16974302
190	0xbd7678db	-0.06017385
191	0xbd357702	-0.044302948
192	0xbc386ca6	-0.011256373
193	0xbe4401fb	-0.1914138
194	0x3ab551ab	0.0013833543
195	0xbd7be4c8	-0.06149748
196	0xbd56eb2c	-0.05247037
197	0x3b17fb0d	0.002319041
198	0xbd3d5e1f	-0.04623234
199	0xbe11a118	-0.14221609
200	0xbd383f99	-0.044982526
201	0xbe1cb4a4	-0.15303284
202	0xbe2d5099	-0.16925277
203	0x3b8e21f2	0.0043375427
204	0xbde2c2a5	-0.11072282
205	0xbc4cd854	-0.0125027485
206	0xbdabf555	-0.08396403
207	0xbe025063	-0.12725978
208	0x3d52fa9f	0.051508542
209	0x3ba06b90	0.004895635
210	0xbd3b0cc5	-0.045666475
211	0x3d7341e7	0.05938902
212	0xbe33521a	-0.17511788
213	0x3d2558f8	0.04036805
214	0xbde3c7f9	-0.11122126
215	0xbe34c082	-0.17651561
216	0xbe3d9702	-0.18514636
217	0xbd83bf2f	-0.0643295
218	0xbd2665b0	-0.04062432
219	0xbe1736c8	-0.14766991
220	0xbd3b6634	-0.045751765
221	0xbe053f8f	-0.13012527
222	0xbd8bb8fb	-0.068223916
223	0xbdd3c330	-0.103399634
224	0xbddaa8d0	-0.1067673
225	0xbcc6b6c3	-0.02425707
226	0xbd0d7d7f	-0.03454351
227	0x3c7421b3	0.014900613
228	0xbc459b8d	-0.012061012
229	0x3d2e3cc6	0.042538427
230	0xbd8d7e7f	-0.06908893
231	0xbe39639e	-0.18104407
232	0xbe03868b	-0.12844293
233	0xbd0ebf00	-0.03485012
234	0xbdf85d82	-0.1212721
235	0xbde55d71	-0.11199463
236	0xbd6c6603	-0.057714473
237	0xbd53bcbd	-0.051693667
238	0x3d12b0b3	0.035813045
239	0x3bd215ad	0.0064112754
240	0xbde528b5	-0.11189405
241	0xbd614b12	-0.055003233
242	0xbe0c2c9b	-0.1368889
243	0xba3c7d1a	-0.00071902724
244	0x3d638b3f	0.055552717
245	0xbda81e85	-0.08208946
246	0xbd90fdd0	-0.07079661
247	0xbdcc84e3	-0.09986284
248	0x3c203690	0.009778634
249	0xbe13f2d8	-0.14448106
250	0x3b4716b1	0.0030378515
251	0xbce8bda4	-0.02841074
252	0xbdfba0aa	-0.122865036
253	0xbde690dd	-0.11258099
254	0x3cc1aa2a	0.02364071
255	0xbc75bcee	-0.014998658

fc2.bias f4 [64]
0	0x3d017eb0	0.03161496
1	0xbe8a0c34	-0.26962435
2	0xbd8454c5	-0.06461481
3	0xbdc6d5cf	-0.097087495
4	0x3d980fe7	0.07424908
5	0x3f3d9005	0.7404788
6	0x3d9791f6	0.07400887
7	0xbec352ca	-0.381491
8	0xbd20b5d5	-0.03923591
9	0xbd3a7510	-0.045521796
10	0xbdd48f4a	-0.10378893
11	0xbf6afe96	-0.9179472
12	0xbd9420f0	-0.07232845
13	0xbd86b0a1	-0.06576658
14	0x3c6ff4af	0.014645739
15	0xbec6244a	-0.3869956
16	0xbe478af9	-0.19486608
17	0xbf8bacb4	-1.091208
18	0xbf172bd9	-0.5905128
19	0xbe27e57d	-0.16396137
20	0x3dfb612f	0.12274396
21	0x3c74a7d0	0.014932588
22	0x3d37cd2b	0.044873398
23	0xbe5fe789	-0.21865667
24	0xbe2b59dd	-0.16733499
25	0xbd551065	-0.05201759
26	0xbe85558d	-0.26041833
27	0xbe4190fb	-0.18902962
28	0xbd923bc6	-0.07140307
29	0x3dbf9527	0.093546204
30	0xbf099f67	-0.53758854
31	0x3d771b32	0.06032867
32	0x3d80bab0	0.06285608
33	0xbc9caf6e	-0.01912662
34	0x3d91eaea	0.071248844
35	0xbcf156a8	-0.029460266
36	0xbdecd26d	-0.11563573
37	0xbd77faf4	-0.060542062
38	0xbe1cb46a	-0.15303198
39	0xbe0a11ff	-0.13483427
40	0xbeece884	-0.46271145
41	0xbe457ca5	-0.1928583
42	0xbc69895e	-0.014253942
43	0xbeda75a2	-0.42667872
44	0xbe40b5c5	-0.1881934
45	0xbdc5168b	-0.0962344
46	0xbd6f37d8	-0.058402866
47	0xbd4f4224	-0.050600186
48	0xbd62283d	-0.055214155
49	0xbe1d35ea	-0.15352598
50	0xbe61f0da	-0.22064534
51	0xbd3baaee	-0.045817308
52	0x3d2c1c7d	0.042019356
53	0xbf8b629d	-1.0889469
54	0xbf5e9b5c	-0.8695581
55	0xbd8fe3a4	-0.07025841
56	0xbf4aa96a	-0.79164755
57	0xbf40f08f	-0.75367063
58	0xbd31255c	-0.04324852
59	0xbd5e5fc1	-0.054290537
60	0xbc1226f1	-0.008920417
61	0xbe0f8a59	-0.14017619
62	0xbe16e882	-0.14737132
63	0xbeecda54	-0.4626032

fc3.weight f4 [1, 64]
0	0xbe76212c	-0.24036092
1	0xbddd9f82	-0.10821439
2	0x3d29ce06	0.041456245
3	0xbd09dbd0	-0.033656895
4	0xbda729cf	-0.08162271
5	0xbebafa6b	-0.3651918
6	0xbe5142bc	-0.20435613
7	0xbd018833	-0.03162403
8	0xbd56ed1f	-0.05247223
9	0x3d62cf4d	0.05537348
10	0xbac446e0	-0.0014974736
11	0xbeca0cd3	-0.3946291
12	0xbd1c1c75	-0.038113076
13	0xbe3d923f	-0.1851282
14	0x3d0fa94a	0.035073556
15	0xbe62dd6f	-0.22154783
16	0xbe16b7c9	-0.14718546
17	0xbec92d08	-0.3929217
18	0xbe8f70fd	-0.2801589
19	0xbd179769	-0.03700963
20	0xbd783551	-0.06059772
21	0xbe4ed9e8	-0.20200312
22	0xbe890c2b	-0.26767096
23	0xbe8761b3	-0.26441726
24	0x3ccac1f4	0.024750687
25	0x3b879b40	0.0041383803
26	0xbe97b877	-0.29632923
27	0xbd60d1ea	-0.05488769
28	0x3cba3138	0.022728547
29	0xbe633fc7	-0.22192298
30	0xbe8fc92c	-0.2808317
31	0xbc92fb77	-0.017942173
32	0xbe9545c2	-0.29154783
33	0xbe81496c	-0.2525133
34	0xbea09efb	-0.31371292
35	0x3bf3c36e	0.0074390685
36	0xbd1bf954	-0.038079575
37	0x3c8d44b6	0.017244678
38	0xbd1133ff	-0.035449978
39	0x3debd2fa	0.1151485
40	0xbe79b7df	-0.24386548
41	0xbd56504c	-0.05232267
42	0x3b971ad4	0.0046113525
43	0xbe52402d	-0.20532294
44	0x3c8c4c0d	0.017126108
45	0xbc6af681	-0.014340998
46	0xbc5a1934	-0.013311673
47	0x3abac976	0.0014250714
48	0xbd70baba	-0.058771826
49	0xbe638adb	-0.22220938
50	0xbd95d778	-0.07316488
51	0x3a86acd4	0.0010274895
52	0xbe936708	-0.28789544
53	0xbeda1170	-0.4259143
54	0xbecbb7eb	-0.39788756
55	0xbd7983ac	-0.060916588
56	0xbefc9c1e	-0.49337858
57	0xbeab367a	-0.3344
58	0x3b43cc91	0.002987657
59	0xbaee93c3	-0.0018201995
60	0xbe8c3413	-0.2738348
61	0xbe51e32c	-0.20496815
62	0xbcaaf524	-0.020868845
63	0xbe7a3651	-0.24434783
