maddpg1targetcritic.pth (torch, 29975 bytes, 5 tensors)

fc1.weight f4 [64, 43]
-0.0847544 0.44212645 0.18084303 0.13529664 0.083435744 0.13616812 0.033518977 0.13343085
0.18695386 -0.21898851 0.14536685 0.3262195 0.23556922 -0.15022407 -0.12664561 -0.3274725
-0.121240646 -0.23485708 0.07521839 -0.14930992 0.10033209 0.46082377 0.19151202 0.19516653
-0.049505573 -0.09343618 0.08158395 0.30019093 -0.09815724 -0.25145856 0.029988421 -0.31286666
-0.079242215 0.09422739 -0.08305545 -0.07290949 -0.11266375 -0.20688002 -0.09077482 -0.30888766
-0.04773802 -0.25082573 -0.04457213 -0.0019722902 -0.27171704 -0.24301149 -0.12107509 -0.073194414
-0.12359127 -0.21341383 -0.19365314 -0.5686607 -0.6068019 0.21782058 -0.022246286 0.0655385
0.23816538 0.29144782 0.2349564 0.10083521 0.10857907 -0.51896894 -0.63718516 0.10578211
-0.023379723 0.021893676 0.34498268 0.10402994 0.25038144 0.15982044 0.01634473 0.035611972
0.11441888 0.016619919 0.17471848 -0.022615781 -0.007392284 -0.03890389 -0.023456901 -0.031425815
-0.035500415 -0.05173667 -0.032392964 -0.0059452956 -0.04695239 0.0026266205 -0.17988168 0.31613585
0.10768351 -0.0662504 -0.00096528203 0.1505727 0.019736739 -0.1450877 0.37039033 0.34170583
0.003952294 0.17326266 0.10398169 0.13780373 0.12821478 0.009109362 -0.027593873 -0.36174038
0.33761135 0.40399432 0.017962623 0.40724373 0.19047096 0.12479811 0.12375406 0.17808717
-0.071217164 0.16321014 -0.2926406 -0.27687228 -0.41800106 -0.34087873 -0.3508926 -0.33393395
-0.42150277 -0.3715414 -0.31589064 -0.31768203 -0.2139136 -0.19540805 -0.47286743 -0.35150453
-0.1496126 -0.064334095 0.08530262 0.054815248 -0.15622413 -0.03791937 -0.009014241 0.049668048
0.11711821 0.5700009 -0.29396 0.093805395 -0.066473134 -0.14628382 -0.019190913 0.01402381
0.08791534 -0.32007408 0.13497639 0.79154855 -0.4721774 0.26153085 -0.09444968 0.29590076
-0.00090109545 0.17551604 -0.0003617575 0.29377767 -0.16130888 -0.37682196 -0.2276055 -0.27067894
-0.32052568 -0.25371182 -0.24243933 -0.13929273 -0.25284472 -0.22257829 -0.24318641 -0.26045257
-0.46353316 -0.041362148 0.0194249 -0.35510027 0.2907499 -0.038141537 -0.020582754 0.120285556
0.27278987 0.21467748 0.0990645 0.025305362 0.6704856 0.5096015 -0.002012673 -0.32345167
-0.2793983 -0.053346705 -0.10742096 -0.029491087 -0.106165364 0.09119179 0.56569916 0.59143037
-0.10463542 -0.28013542 -0.13820831 -0.17994033 -0.24958457 -0.08327097 -0.08709688 -0.07195265
-0.08360717 -0.11983745 0.027150199 -0.120683 -0.012222604 -0.09826564 -0.062232003 -0.079337254
-0.075313896 -0.10177076 -0.08494994 -0.097995095 -0.13420448 -0.107859135 -0.13038407 0.026323758
0.00061486056 0.050509244 0.008278017 -0.037023015 0.04382136 0.24717976 0.121491864 -0.8593646
-0.047479164 0.19306245 0.02605973 0.036299337 -0.00091305113 -0.003164257 0.037621077 0.43705422
-0.04199554 -1.0332096 0.16743566 -0.37273994 -0.078577675 -0.2497805 -0.13942614 0.043820586
0.016495334 -0.28469312 0.044778183 -0.048529644 -0.032483246 -0.06353573 -0.056802046 -0.054576978
-0.023514016 -0.025557563 -0.025245197 -0.0024335398 -0.03135747 -0.02057698 0.07396419 -0.24195468
00000000: b793 adbd 665e e23e ea2e 393e 348b 0a3e
00000010: 5ce0 aa3d a86f 0b3e 324b 093d 19a2 083e
00000020: d570 3f3e 863e 60be 0cdb 143e 3e06 a73e
00000030: 0f39 713e 57d4 19be 63af 01be 7aaa a7be
00000040: 044d f8bd 607e 70be 190c 9a3d b3e4 18be
00000050: e97a cd3d 18f1 eb3e ba1b 443e bcd9 473e
00000060: 5bc6 4abd 785b bfbd 7c15 a73d a0b2 993e
00000070: aa06 c9bd 2dbf 80be 47aa f53c 0f30 a0be
00000080: be49 a2bd 4afa c03d fa18 aabd 9251 95bd
00000090: 41bc e6bd 5bd8 53be 26e8 b9bd 8626 9ebe
000000a0: f188 43bd 3b6c 80be 4491 36bd 8a41 01bb
000000b0: 7f1e 8bbe 01d8 78be 37f6 f7bd f4e6 95bd
000000c0: 6b1d fdbd 2889 5abe 024d 46be bf93 11bf
000000d0: 5f57 1bbf 5c0c 5f3e d83d b6bc 0d39 863d
000000e0: a0e1 733e a638 953e 6998 703e b182 ce3d
000000f0: b45e de3d 26db 04bf 911e 23bf 4aa4 d83d
00000100: d586 bfbc 5e5a b33c 92a1 b03e a60d d53d
00000110: ff31 803e f8a7 233e 62e5 853c dcdd 113d
00000120: 7254 ea3d 7f26 883c 67e9 323e bb44 b9bc
00000130: f93a f2bb af59 1fbd b028 c0bc 5bb8 00bd
00000140: e268 11bd d5e9 53bd 7cae 04bd c1d0 c2bb
00000150: 2651 40bd 6123 2c3b e732 38be 8fdc a13e
00000160: 2c89 dc3d 4aae 87bd fb0a 7dba bb2f 1a3e
00000170: f1ae a13c df91 14be cda3 bd3e 11f4 ae3e
00000180: 3f82 813b c46b 313e 5af4 d43d 6c1c 0d3e
00000190: bc4a 033e 6f3f 153c 8c0c e2bc 0936 b9be
000001a0: 65db ac3e 58d8 ce3e 5a26 933c 4082 d03e
000001b0: d20a 433e 2796 ff3d c572 fd3d 7c5c 363e
000001c0: 4eda 91bd 8f20 273e fdd4 95be 34c2 8dbe
000001d0: 3c04 d6be a887 aebe 32a8 b3be 64f9 aabe
000001e0: 36cf d7be ad3a bebe 6bbc a1be 38a7 a2be
000001f0: 2b0c 5bbe 0c19 48be ae1b f2be 67f8 b3be
00000200: 0c34 19be 98c1 83bd 24b3 ae3d f485 603d
00000210: 38f9 1fbe 5751 1bbd 78b0 13bc b970 4b3d
00000220: acdb ef3d 94eb 113f ed81 96be 0b1d c03d
00000230: 1123 88bd 6dcb 15be 4336 9dbc 1fc4 653c
00000240: f50c b43d c0e0 a3be 4037 0a3e eda2 4a3f
00000250: 3cc1 f1be 5fe7 853e d56e c1bd 4e80 973e
00000260: 7e37 6cba 7aba 333e 45aa bdb9 076a 963e
00000270: 282e 25be cfee c0be 6b11 69be 6e96 8abe
00000280: f11b a4be 84e6 81be 0442 78be c1a2 0ebe
00000290: dd74 81be 90eb 63be dc05 79be 0a5a 85be
000002a0: 3854 edbe 5b6b 29bd f820 9f3c b4cf b5be
000002b0: 2cdd 943e 4d3a 1cbd 2a9d a8bc 4658 f63d
000002c0: 1dab 8b3e 6ad4 5b3e 54e2 ca3d 314d cf3c
000002d0: f2a4 2b3f 3e75 023f 0de7 03bb 759b a5be
000002e0: 4b0d 8fbe 1382 5abd 85ff dbbd 4b97 f1bc
000002f0: 3a6d d9bd c3c2 ba3d a9d1 103f fb67 173f
00000300: 184b d6bd e96d 8fbe 7b86 0dbe 4742 38be
00000310: 1993 7fbe f889 aabd d95f b2bd e95b 93bd
00000320: 3c3a abbd 566d f5bd 186a de3c a628 f7bd
00000330: 5141 48bc 7f3f c9bd fce6 7ebd 927b a2bd
00000340: 2c3e 9abd 306d d0bd 3cfa adbd a7b1 c8bd
00000350: e66c 09be 40e5 dcbd 6783 05be eca4 d73c
00000360: 982e 213a c8e2 4e3d 85a0 073c 72a5 17bd
00000370: 077e 333d b11c 7d3e bad0 f83d 52ff 5bbf
00000380: 8379 42bd 2ab2 453e 377b d53c 9dae 143d
00000390: d359 6fba 6c5f 4fbb 8f18 1a3d 92c5 df3e
000003a0: 8403 2cbd 3640 84bf 4174 2b3e c5d7 bebe
000003b0: 55ed a0bd 76c6 7fbe bac5 0ebe 377d 333d
000003c0: 3921 873c 4cc3 91be 5469 373d 05c7 46bd
000003d0: 270d 05bd 051f 82bd 43a9 68bd 1c8c 5fbd
000003e0: 77a0 c0bc 185e d1bc 04cf cebc 067c 1fbb
000003f0: b170 00bd 0e91 a8bc 8a7a 973d f8c2 77be

fc1.bias f4 [64]
-0.10822172 -0.12720157 -0.5695422 -0.16772233 -0.040804897 -0.15891989 -0.20645545 -0.22362588
-0.30463418 -0.3954251 -0.03937164 -0.21316342 -0.36408365 -0.45682278 -0.48363224 -0.21120757
-0.22893909 -0.2480599 -0.2863038 -0.28745905 -0.37656635 -0.24621777 -0.34522378 0.013001845
0.04950829 -0.44939983 -0.13101007 0.17743179 0.13652357 -0.25368124 -0.3364551 -0.5398403
-0.06027281 -0.56532055 -0.07292817 -0.1128446 0.09272059 -0.41924563 0.087572396 -0.52023256
-0.43397447 -0.22474302 -0.31365937 -0.14244473 -0.16408648 -0.42782548 -0.57835466 -0.40444484
-0.0061668237 -0.087326966 -0.28735656 0.032165997 -0.08082055 -0.13148805 -0.044423386 -0.27598137
-0.20356207 -0.069746405 -0.2305218 -0.3206511 -0.35413226 -0.08332 -0.28966343 0.005977406
00000000: 59a3 ddbd 2141 02be 85cd 11bf 67bf 2bbe
00000010: 0923 27bd e5bb 22be 0f69 53be 2ffe 64be
00000020: 03f9 9bbe 2975 cabe 2844 21bd 8347 5abe
00000030: 2c69 babe ade4 e9be a59e f7be cc46 58be
00000040: 026f 6abe 6a03 7ebe 6996 92be d52d 93be
00000050: 4ecd c0be 8320 7cbe 2cc1 b0be b105 553c
00000060: 34c9 4a3d bc17 e6be 8127 06be aeb0 353e
00000070: d6cc 0b3e 82e2 81be d843 acbe f932 0abf
00000080: 9fe0 76bd d9b8 10bf 5d5b 95bd 121b e7bd
00000090: 4be4 bd3d 5da7 d6be 2859 b33d f62d 05bf
000000a0: e731 debe 0923 66be f697 a0be 08dd 11be
000000b0: 4906 28be f10b dbbe 0d0f 14bf 6513 cfbe
000000c0: 1113 cabb 7bd8 b2bd 6620 93be 7ec0 033d
000000d0: 3f85 a5bd cea4 06be 4cf5 35bd 6e4d 8dbe
000000e0: 9372 50be 34d7 8ebd e80d 6cbe 622c a4be
000000f0: d350 b5be ada3 aabd c44e 94be 1ede c33b

fc2.weight f4 [64, 64]
-0.033862703 0.1603798 0.015370937 0.11319986 0.13119173 0.07120624 -0.28927985 0.2261527
0.24255648 0.13003297 0.11357242 0.21483134 -0.5151034 -0.12977353 0.46444777 0.016425712
0.039965115 -0.04307992 0.05072265 0.07860022 0.13342538 0.10181278 0.010757995 0.29606742
0.13288066 0.3388573 -0.1887832 -0.048490644 0.19119097 -0.28219345 0.12950318 -0.32746753
0.18902041 -0.12639385 0.21051854 -0.3689699 -0.048286203 0.27413425 -0.19873294 0.20164572
0.16077909 -0.01482196 -0.005011994 0.11760434 -0.24487117 0.11666814 0.42172837 0.26569024
0.12612972 0.05948058 0.010573698 -0.17254819 0.1297263 -0.13142583 0.037442036 0.08069404
0.113644496 0.05569501 0.087031625 0.09185324 0.036164246 -0.05803405 -0.028856061 0.33063844
0.00741897 -0.19163321 -0.29368424 -0.24687749 -0.0062026186 -0.109032765 -0.039754502 0.03618076
-0.11084914 0.06147182 0.045958903 -0.0025395285 -0.09268177 0.023716373 -0.07977908 -0.029443042
0.03135023 -0.001654505 -0.12962474 -0.030352805 -0.028628029 -0.027347928 -0.054770943 -0.1498361
-0.12792437 -0.067171834 -0.27056655 -0.083484955 0.009288651 -0.13809143 0.07709723 -0.105197996
0.029164141 -0.103264116 -0.061590716 -0.12093381 -0.16086136 -0.12046446 -0.31411538 0.026737828
-0.060587678 -0.15055925 -0.19610448 -0.15570162 -0.2077892 -0.002197792 0.0025864507 -0.12204324
-0.048688307 0.036941107 -0.0460748 -0.014761489 -0.13924061 -0.19419332 0.04433879 -0.12408991
-0.027674247 -0.31797937 0.033758625 -0.053991403 -0.008633187 0.0013536124 -0.074928395 -0.2538762
-0.17241359 0.010519671 0.19505888 0.05195564 -0.32110876 0.1510916 0.2085339 0.010674888
-0.27163017 0.16634932 -0.16414586 -0.0032165737 -0.21097438 0.11209895 -0.076857544 0.15781003
-0.19822046 0.040780444 -0.14417069 -0.20250739 -0.07744682 -0.086097874 0.10448838 -0.19557229
-0.1896233 -0.20085792 -0.1590482 -0.16835989 -0.42262647 0.08743649 0.16400047 -0.117238335
-0.18001306 -0.17646293 -0.14288262 -0.16789965 0.05490769 -0.023767032 0.015484983 0.0489578
0.11329968 0.11654993 0.06936688 -0.24162911 0.23948507 -0.37760308 -0.033567708 0.1488982
-0.14040531 -0.12202593 0.022265906 -0.072812326 -0.32346115 0.11709805 -0.07493218 -0.20363316
-0.07638593 -0.3173747 -0.44340774 0.1345451 0.061423723 -0.18291038 0.0045352946 -0.17217973
0.1436652 0.36882573 -0.08795217 -0.29916364 -0.034438405 -0.3666719 0.15700504 -0.20113719
0.027092876 0.28996247 0.11062962 -0.39629048 0.23071167 0.2126236 0.13758507 0.1773842
-0.13841213 -0.02329227 -0.113854624 0.15897647 -0.0013684778 0.15783988 0.03937162 0.21183962
0.20557666 -0.16136497 -0.016026633 -0.022779549 0.22966804 0.029366089 -0.08771572 0.09927691
0.03884198 0.048719376 0.28722945 0.039950963 -0.20595868 -0.28515705 0.17250726 0.05334139
0.24584626 0.12559326 -0.3333606 0.19227512 -0.06808835 0.09529604 0.27383053 0.22475995
0.18669109 -0.021073295 0.15600649 -0.046376817 0.11147877 0.045860827 0.18220532 -0.28641635
0.08706459 0.22902796 0.29604658 -0.34256485 -0.14413127 0.17353152 0.13446665 0.3333694
00000000: 9eb3 0abd 9a3a 243e 62d6 7b3c 54d5 e73d
00000010: 2057 063e 94d4 913d 7d1c 94be 9394 673e
00000020: ba60 783e 5d27 053e a898 e83d bffc 5b3e
00000030: d1dd 03bf 5ae3 04be 19cc ed3e 378f 863c
00000040: 76b2 233d 9274 30bd 8ec2 4f3d 27f9 a03d
00000050: aaa0 083e 3883 d03d 4d42 303c 2696 973e
00000060: de11 083e b47e ad3e 6250 41be 209e 46bd
00000070: 91c7 433e a97b 90be 7b9c 043e d3a9 a7be
00000080: 918e 413e 646d 01be 2c92 573e 9fe9 bcbe
00000090: c1c7 45bd 535b 8c3e a680 4bbe 377c 4e3e
000000a0: 46a3 243e ced7 72bc a73b a4bb 8bda f03d
000000b0: 82bf 7abe b5ef ee3d c8ec d73e 8d08 883e
000000c0: 2628 013e e9a1 733d 4e3d 2d3c 79b0 30be
000000d0: f9d6 043e 7e94 06be d25c 193d eb42 a53d
000000e0: 72be e83d 7320 643d a33d b23d 8d1d bc3d
000000f0: f620 143d 1db5 6dbd 8c63 ecbc 7149 a93e
00000100: d51a f33b 7f3b 44be c85d 96be 74cd 7cbe
00000110: 563f cbbb 924c dfbd 9ed5 22bd 4732 143d
00000120: e004 e3bd e0c9 7b3d 673f 3c3d 386e 26bb
00000130: f1cf bdbd d748 c23c 3763 a3bd 8932 f1bc
00000140: 1969 003d fadb d8ba 59bc 04be 72a6 f8bc
00000150: 5485 eabc c308 e0bc 7f57 60bd a26e 19be
00000160: 9bfe 02be 6391 89bd b387 8abe 29fa aabd
00000170: 6d2f 183c d767 0dbe 27e5 9d3d 0c72 d7bd
00000180: a3e9 ee3c 237c d3bd 8c46 7cbd 25ac f7bd
00000190: d7b8 24be 12b6 f6bd bbd3 a0be 4a09 db3c
000001a0: c92a 78bd 342c 1abe 9dcf 48be 3f70 1fbe
000001b0: b1c6 54be d508 10bb 7181 293b cef1 f9bd
000001c0: 646d 47bd 8f4f 173d eeb8 3cbd 2cda 71bc
000001d0: 1795 0ebe 9dda 46be 979c 353d da22 febd
000001e0: 1ab5 e2bc 31ce a2be 7c46 0a3d 1726 5dbd
000001f0: 3672 0dbc b26b b13a 0f74 99bd 10fc 81be
00000200: 308d 30be b35a 2c3c 84bd 473e 70cf 543d
00000210: 5e68 a4be c2b7 1a3e e989 553e bae5 2e3c
00000220: 1c13 8bbe 7a57 2a3e da15 28be 27cd 52bb
00000230: ab09 58be 2294 e53d 7d67 9dbd f498 213e
00000240: 4efa 4abe 6509 273d 7ba1 13be 195e 4fbe
00000250: 709c 9ebd 1554 b0bd 01fe d53d 1a44 48be
00000260: 9c2c 42be b3ad 4dbe 88dd 22be 8966 2cbe
00000270: 7f62 d8be e711 b33d bdef 273e a71a f0bd
00000280: 5855 38be b3b2 34be d24f 12be e3ed 2bbe
00000290: e3e6 603d 14b3 c2bc bab4 7d3c f987 483d
000002a0: aa09 e83d bbb1 ee3d 3910 8e3d 9f6d 77be
000002b0: 933b 753e 3155 c1be 4b7e 09bd c578 183e
000002c0: 69c6 0fbe bbe8 f9bd fd66 b63c a11e 95bd
000002d0: b39c a5be 1ad1 ef3d 0b76 99bd 3685 50be
000002e0: 3a70 9cbd f07e a2be 5706 e3be 31c6 093e
000002f0: 7197 7b3d dc4c 3bbe cf9c 943b e24f 30be
00000300: f81c 133e bad6 bc3e 4420 b4bd fa2b 99be
00000310: 490f 0dbd 6bbc bbbe eec5 203e e8f6 4dbe
00000320: e1f1 dd3c f675 943e c891 e23d 96e6 cabe
00000330: ae3f 6c3e 00ba 593e 1ae3 0c3e 34a4 353e
00000340: e9bb 0dbe 6ecf bebc 9d2c e9bd baca 223e
00000350: 7f5e b3ba c7a0 213e 2344 213d 7cec 583e
00000360: b082 523e dc3c 25be 494a 83bc 2d9c babc
00000370: 192e 6b3e 2791 f03c 4da4 b3bd b151 cb3d
00000380: c518 1f3d f88d 473d bd0f 933e 9fa3 233d
00000390: d5e6 52be 1b00 92be bea5 303e 807c 5a3d
000003a0: 1fbf 7b3e 859b 003e 3eae aabe c5e3 443e
000003b0: e871 8bbd 922a c33d 8433 8c3e 7927 663e
000003c0: f32b 3f3e e7a1 acbc 2ac0 1f3e 9ef5 3dbd
000003d0: fb4e e43d 90d8 3b3d 0894 3a3e 2aa5 92be
000003e0: eb4e b23d 4e86 6a3e 6b93 973e a964 afbe
000003f0: 2697 13be 3fb2 313e a0b1 093e 65af aa3e

fc2.bias f4 [64]
-0.22277364 -0.12158089 -0.048553895 0.018511131 -0.07913296 0.00071707385 0.025170537 -0.16913803
-0.029371353 -0.44881302 -0.23507835 -0.07515775 -0.15098989 -0.23568566 0.11815289 0.12840614
-0.056724295 -0.076404825 -0.13525276 -0.3890087 -0.10500448 -0.039044704 -0.02492947 0.020656265
-0.017317884 -0.041785147 0.066462494 -0.01739803 0.20990942 0.034919627 -0.25760987 -0.20299163
0.051320456 -0.23951122 -0.32694292 -0.30081755 -0.3199157 -0.11258025 -0.041540015 -0.2579199
-0.1659015 0.0891542 -0.05755663 -0.08634115 0.061898112 -0.37550566 -0.40755686 -0.0043127136
0.14857706 -0.005760746 -0.2185605 0.14134042 -0.49551117 -0.19431768 -0.09388449 -0.16099901
-0.09115179 -0.31643373 0.12024199 -0.08606995 -0.28570116 -0.22214913 -0.1744427 -0.37536216
00000000: c61e 64be 67ff f8bd 73e0 46bd a8a4 973c
00000010: 7610 a2bd 03fa 3b3a 7132 ce3c 8532 2dbe
00000020: 319c f0bc d2ca e5be 61b8 70be 4eec 99bd
00000030: 189d 1abe 9557 71be 24fa f13d e67c 033e
00000040: bc57 68bd 227a 9cbd b37f 0abe 262c c7be
00000050: 970c d7bd 57ed 1fbd e338 ccbc 5437 a93c
00000060: 3cde 8dbc e726 2bbd 7d1d 883d 5086 8ebc
00000070: 7ff2 563e e207 0f3d 71e5 83be 0add 4fbe
00000080: 6635 523d 6e42 75be 1065 a7be c204 9abe
00000090: fecb a3be 7990 e6bd dd25 2abd 140e 84be
000000a0: 15e2 29be 7a96 b63d 80c0 6bbd a1d3 b0bd
000000b0: e088 7d3d 4742 c0be 4bab d0be aa51 8dbb
000000c0: 9624 183e a4c4 bcbb 53ce 5fbe 8bbb 103e
000000d0: a4b3 fdbe 37fb 46be 8346 c0bd eddc 24be
000000e0: caad babd 9a03 a2be 6f41 f63d 7145 b0bd
000000f0: 6c47 92be 107b 63be 1ba1 32be 782f c0be

fc3.weight f4 [1, 64]
0.17934334 0.045193426 -0.17325826 0.21956068 0.30811375 -0.30012387 -0.21963432 0.043128103
0.038008038 0.49795645 0.13599737 -0.17061134 -0.040295403 0.33702788 0.23560229 0.2730142
0.044234857 -0.32712254 6.496321e-05 -0.35080236 0.28454113 0.30273747 0.13422048 0.1980647
-0.19919673 -0.056163915 0.1642664 0.24767415 0.37346157 -0.22186938 -0.27054003 -0.21030672
-0.3278903 0.25267273 0.4227077 -0.19285293 -0.3806849 0.017176185 -0.29322943 -0.2477642
-0.05762731 -0.24707283 -0.17186049 0.2123609 -0.22951154 -0.357914 0.41354537 0.18811768
0.5293356 -0.46845293 -0.03391762 0.13290986 0.27571025 -0.23967685 -0.035674147 0.00073624955
-0.19120176 -0.44743887 0.41110468 0.096424535 0.24984334 -0.25309455 -0.277688 0.11763319
00000000: c8a5 373e be1c 393d 9d6a 31be 84d4 603e
00000010: 16c1 9d3e d6a9 99be d2e7 60be 18a7 303d
00000020: 51ae 1b3d 26f4 fe3e e542 0b3e bdb4 2ebe
00000030: cb0c 25bd eb8e ac3e ba41 713e 84c8 8b3e
00000040: 9c2f 353d 9b7c a7be dc3c 8838 5e9c b3be
00000050: 60af 913e 6800 9b3e 1871 093e 79d1 4a3e
00000060: 3afa 4bbe 220c 66bd 7335 283e 4b9e 7d3e
00000070: 5b36 bf3e ba31 63be 3984 8abe a55a 57be
00000080: 3de1 a7be 525e 813e 256d d83e 3d7b 45be
00000090: 22e9 c2be 12b5 8c3c 2b22 96be e6b5 7dbe
000000a0: 9d0a 6cbd a900 7dbe 32fc 2fbe 2375 593e
000000b0: 1305 6bbe 8140 b7be 38bc d33e eca1 403e
000000c0: 8a82 073f 10d9 efbe 34ed 0abd 8619 083e
000000d0: e529 8d3e d96d 75be 0e1f 12bd df00 413a
000000e0: 65ca 43be b516 e5be 507c d23e 3a7a c53d
000000f0: efd6 7f3e 9c95 81be 1f2d 8ebe abe9 f03d
