maddpg2critic.pth (torch, 29975 bytes, 5 tensors)

fc1.weight f4 [64, 43]
000000 59 f9 50 be 78 06 ba bd b1 fa 1f be 51 b1 27 3e
       -0.20407619 -0.09083265 -0.15622975 0.16376235
000010 1b 6b 8e be 53 76 17 be cc 25 a7 be e3 e1 32 bd
       -0.2781609 -0.14791231 -0.32646024 -0.043672454
000020 87 fc ef be b8 6c 86 be a3 4d 5d 3e 22 fb 0b bd
       -0.4687235 -0.2625482 0.21611647 -0.034175046
000030 12 b6 ab bd 0a c1 28 3e 7c dc 57 3e f3 de 92 bd
       -0.083843365 0.16479889 0.21080202 -0.071714304
000040 2d 8d 01 3c 2f 13 04 3d 8f 2b 05 bf ee 15 9c be
       0.007907194 0.032244857 -0.5201959 -0.3048548
000050 93 a0 f5 3d a9 ac 9f bd e1 4a ef bb 38 3d a7 3e
       0.11993518 -0.07796604 -0.0073026274 0.32663894
000060 3d 92 06 3d 59 c6 a6 bd be 2a ba 3b 8c 5b 99 3d
       0.032854307 -0.081433006 0.005681365 0.07488164
000070 b2 14 f5 bd 83 16 ee 3d 5d 34 38 be 91 11 34 3d
       -0.11966838 0.116253875 -0.17988725 0.043962065
000080 d2 3d bf 3c d6 0a 00 be 68 9d 96 bd cd b2 23 be
       0.023344908 -0.12504134 -0.073542416 -0.15986176
000090 23 14 20 bc 60 39 b5 bd 99 60 65 bd 18 8f 04 be
       -0.009770426 -0.08848834 -0.056000326 -0.12945211
0000a0 65 81 d7 bd 75 bf 03 bd e4 db 82 3c e8 ab e2 be
       -0.10522727 -0.03216501 0.015973993 -0.4427178
0000b0 08 c7 6e be 04 5b cd be 02 75 aa bd 67 8b 97 be
       -0.23318112 -0.40108502 -0.08323099 -0.29598543
0000c0 c9 37 b8 bd 37 26 6e be 7f 31 a8 be 0f f8 f5 be
       -0.08995015 -0.23256765 -0.32850263 -0.48040816
0000d0 56 3b 08 be 87 2f dc bd a8 2c 6d 3d fd 27 1b bd
       -0.13303885 -0.107512526 0.057903916 -0.037879933
0000e0 48 bf d3 3b 7e ea 84 3e dc c1 73 3e 8d 2f 11 be
       0.0064620115 0.25960153 0.2380442 -0.14178295
0000f0 eb 6f d8 bd 7c 14 3c be f3 31 74 be ef 24 8d bc
       -0.10568222 -0.18367189 -0.23847179 -0.017229525
000100 6d f3 ad bc 86 23 01 3e 40 62 65 bd 00 e3 c4 3d
       -0.021234239 0.12611207 -0.0560019 0.09613609
000110 4b 6e 87 3e ef 64 83 bd 8a b9 4e 3c ed 64 ae be
       0.26451334 -0.06415736 0.012617478 -0.34061375
000120 0c 53 5f be 9b d6 16 bf ba 1d 88 be ec b7 fc be
       -0.21809024 -0.5892121 -0.2658518 -0.4935907
000130 d5 a4 9d be 1e 63 e8 be c8 f3 ea be b2 cc 09 bf
       -0.3078982 -0.4538812 -0.45889115 -0.53827965
000140 04 17 bb be 93 fc a4 be b5 a6 d4 be 0a 49 ae be
       -0.36540997 -0.3222395 -0.41533437 -0.340401
000150 25 a4 d4 be 67 4a cc be 42 19 85 3d 8b 7b 0a 3e
       -0.41531482 -0.39900514 0.06498958 0.1352369
000160 f2 4a 1b be 94 be 21 be 40 83 16 3e 5e dc f1 bc
       -0.15165308 -0.15795356 0.14698505 -0.029524025
000170 24 9c 1f 3d aa c0 b2 bd 3d e5 93 bf 99 7b f5 be
       0.038967267 -0.08728154 -1.1554333 -0.4794586
000180 81 de 04 3d b0 53 10 3d 2b e2 5e be 97 4e 94 bd
       0.03243876 0.03523606 -0.21765964 -0.07241552
000190 49 4b fa bd ad 48 27 be 03 50 28 be 79 66 26 be
       -0.12221391 -0.16336317 -0.16436772 -0.16250028
0001a0 42 76 f5 be 0f 49 d4 be 5d 68 8d bd 2a 59 df 3d
       -0.47941786 -0.4146199 -0.06904671 0.109056786
0001b0 64 08 88 bc 22 1c 3a bd d2 c5 ae 3d 53 04 8f bc
       -0.016605563 -0.045436986 0.08533825 -0.017458117
0001c0 ef de 40 3e 9f 02 8b 3e 9c 58 55 bd 8f 55 95 be
       0.18835042 0.27150437 -0.052086458 -0.2916684
0001d0 8c cd 44 be ae 7e fe bd b5 30 4e be 35 f6 ad bd
       -0.19219035 -0.12426506 -0.20135768 -0.08494226
0001e0 50 17 d9 38 6a 50 bb be 04 e7 61 be bb fe 93 be
       0.000103517086 -0.3658479 -0.22060782 -0.2890528
0001f0 cf fb 3a be fc 2a b0 bd a5 1b 85 bd b6 9d 36 be
       -0.1826012 -0.086019486 -0.064994134 -0.178336
000200 49 62 3c be f1 06 04 3d 2b 65 39 3d 23 fe 34 bc
       -0.18396868 0.032233182 0.045262497 -0.011046919
000210 48 70 c2 bd 96 98 89 3d e3 15 96 be 34 e2 5a 3d
       -0.09494072 0.067185566 -0.29313573 0.05343838
000220 6b 33 17 3e c8 33 14 bf fc b7 9e 3f 7f 28 c9 bd
       0.14765708 -0.5789151 1.2399898 -0.09822177
000230 5c 91 aa 3e 11 c4 e8 3c 1f a7 b5 3e 8d 36 01 be
       0.33314025 0.028413804 0.35479066 -0.12618466
000240 e3 da af 3e c2 81 51 be 1a 56 c3 3e f2 c8 a4 be
       0.34346685 -0.20459655 0.38151628 -0.3218456
000250 87 f7 7b 3f 94 4a f8 ba 6c 1d b4 bd d2 04 aa 3c
       0.9842457 -0.0018943124 -0.08794674 0.020754252
000260 cb b4 43 3d 35 e0 05 3e 21 6d 0e be da ed 60 3e
       0.04777984 0.1307381 -0.13908817 0.21965733
000270 ba 77 cd bd 4f e9 7a be 0e 06 5b be d7 b3 90 be
       -0.10032602 -0.24503063 -0.21389028 -0.28262207
000280 2f 9d 3f be 46 e1 93 be 07 6e 16 be ff 81 ed bd
       -0.18712305 -0.28882807 -0.1469041 -0.115970604
000290 1a 58 ac be cf 9e 16 bf 19 95 2c 3c 49 d5 36 be
       -0.33660966 -0.5883607 0.0105335945 -0.178548
0002a0 87 f2 86 be e2 fa 19 be 03 47 85 be e5 53 45 be
       -0.2635691 -0.1503711 -0.2603074 -0.19270284
0002b0 ad 9e 79 3d a0 d0 12 3e 37 c0 89 3d d2 ae 4f bd
       0.06094234 0.14337397 0.06726115 -0.05070383
0002c0 7d 57 05 3d c1 bf 7c 3d 62 57 a1 bd 74 a8 25 3d
       0.03255414 0.06170631 -0.07877995 0.040443853
0002d0 cf 1d 49 3f f3 17 18 3d 92 40 3f bd 17 53 a7 bd
       0.7856111 0.037132215 -0.04669244 -0.08170145
0002e0 34 39 43 be a6 26 f2 3d a8 ef 8d 3d 49 16 14 3e
       -0.1906479 0.11823778 0.069304764 0.14461626
0002f0 48 f3 94 be 6f 1d 3e 3c 59 f2 6b 3f 98 22 e2 be
       -0.2909186 0.011603697 0.9216667 -0.44167018
000300 5b 3e 0b 3d 6e 13 e9 bd 8b 05 5a 3e d4 2d cb bd
       0.033995014 -0.11380659 0.21291177 -0.099208504
000310 63 4f 11 3d 18 2c 21 3d 34 c9 a0 3e 10 0c 9f 3d
       0.0354761 0.03934869 0.31403506 0.077659726
000320 fc dc ac bd 61 0c 38 be bb ec 1d be 6d 44 0e be
       -0.08440587 -0.17973472 -0.15422337 -0.1389329
000330 ef 22 0e be 71 d2 5e be 7a a8 0c be 5e 0c 16 be
       -0.13880514 -0.21759965 -0.13736144 -0.14653155
000340 37 86 69 be de 20 7b be a8 95 3f be 3a 8e c4 be
       -0.22805105 -0.24524257 -0.18709433 -0.3838976
000350 22 11 41 bd d6 7c 8f bc 7d b7 39 be 96 b4 83 3d
       -0.04713548 -0.017515581 -0.18136401 0.064309284
000360 8c 37 26 3e fa e6 71 be 5a 3a 6e 3c 2c ec d6 3d
       0.16232127 -0.23623267 0.014540279 0.10494265
000370 20 f1 d8 bd d3 ae 8c 3d ae 9d 8f 3d f6 f4 0d bf
       -0.10592866 0.068692826 0.07012497 -0.55451906
000380 3d b4 c0 3d fa 4d b4 bd 5c 67 5a 3e 23 58 9b be
       0.09409378 -0.08803935 0.21328491 -0.3034068
000390 3e 0b 85 3e ac f7 f0 bd 1a 20 02 bd bd a3 ac be
       0.2598514 -0.1176599 -0.031768896 -0.33718672
0003a0 a7 5f a4 3d e1 92 20 bf 47 39 36 3e 0a d4 50 3d
       0.08026057 -0.6272412 0.17795287 0.050983466
0003b0 16 df c4 3d 3e 70 8d bb 27 a1 b5 3d d8 7e 51 3c
       0.09612863 -0.004316359 0.08868628 0.01278659
0003c0 b0 5d 13 3e 04 64 11 3e 33 3f 31 3c 17 b6 12 be
       0.14391208 0.14198309 0.0108182905 -0.14327274
0003d0 02 aa 96 be 76 07 0f be e1 a2 85 be 22 a9 b2 be
       -0.2942658 -0.1396769 -0.2610083 -0.34894663
0003e0 fc ae e0 be 37 da aa be 2e 8e bd be 2e 96 83 be
       -0.43883502 -0.3336961 -0.37022537 -0.25700516
0003f0 a9 06 e0 bd 57 7d 67 be 0b 7a ab be c7 88 b6 be
       -0.1093877 -0.22606407 -0.3349155 -0.35651228

fc1.bias f4 [64]
000000 80 62 84 3d eb ae d6 be 04 fd 7b be 01 5b 80 be
       0.064641 -0.41930327 -0.24608237 -0.2506943
000010 32 81 f4 bd e0 3c 98 be 7a 0d 8f bd 89 33 ae bd
       -0.119387046 -0.29733944 -0.06984992 -0.08505923
000020 a4 fa b7 be 85 37 f8 be 02 c3 cd 3b ee 48 25 be
       -0.3593341 -0.48479858 0.0062793503 -0.16141102
000030 c9 a3 c0 bd 4a b1 46 be 44 40 82 be 91 a6 41 be
       -0.094062395 -0.19403568 -0.25439656 -0.18911196
000040 c1 79 15 be ac f2 19 be a3 20 ac be f0 f6 1f bf
       -0.14597227 -0.15033978 -0.3361865 -0.6248617
000050 4f 92 6b be fc 10 c8 be 97 e6 d8 be b6 7c ed 3d
       -0.23005031 -0.39075458 -0.42363426 0.11596052
000060 0d 6f 35 bd 38 f4 c2 be 86 f6 2c 3d 66 dc 00 be
       -0.04429536 -0.3807695 0.04222729 -0.12584075
000070 17 d6 1b bd f3 83 6f 3d 03 d5 d3 bd f9 2e fc be
       -0.03804597 0.058475446 -0.10343363 -0.49254587
000080 65 7b 9e be c6 70 60 bd 5a 3b 02 3d 54 6f 47 3e
       -0.30953518 -0.05479505 0.031794883 0.19476062
000090 83 90 84 be 7c 1f 99 be 2d 49 6e be c8 b2 c2 be
       -0.25891504 -0.29906833 -0.23270102 -0.38027024
0000a0 09 23 4a 3d 01 cf 60 be cd ed f7 be 9c fa e0 be
       0.04934982 -0.21953966 -0.48423615 -0.439412
0000b0 58 ba e9 bd 75 72 96 3d 5e 8d b6 bd d3 83 83 be
       -0.114124954 0.0734605 -0.089136824 -0.2568651
0000c0 82 ba f9 be f7 8a 07 be f6 81 5b be 7a f8 d8 be
       -0.48775107 -0.13236605 -0.21436295 -0.42377073
0000d0 e2 1f 28 be 53 ea 2c be 57 ed cd be 21 65 c3 be
       -0.16418412 -0.16886263 -0.40220138 -0.38163093
0000e0 c5 d1 a4 be e0 f2 fd bd 48 2d 96 be e7 db 08 be
       -0.3219129 -0.1239984 -0.29331422 -0.13365136
0000f0 e5 68 be be 36 82 8d be 84 40 ac be 0b ac 47 be
       -0.37189403 -0.27638406 -0.33642972 -0.19499223

fc2.weight f4 [64, 64]
000000 92 60 06 3d 9b da 49 bd 88 da 59 be b0 bc f8 bd
       0.03280694 -0.049280744 -0.2127477 -0.12145364
000010 33 e1 6c bd 82 df 20 be a1 62 25 be 80 71 74 3c
       -0.057831954 -0.15710261 -0.16150905 0.014919639
000020 a9 14 03 be d4 9e 7c bd 90 40 94 3e 65 d6 32 be
       -0.1280085 -0.061674908 0.28955507 -0.17464598
000030 8b 93 a8 be ee a4 6f be 9b d8 66 3d 8f 0e 99 3c
       -0.32925066 -0.2340276 0.056358915 0.0186837
000040 04 b3 15 3e e7 eb a0 3d 2e 89 0e be 87 c4 2a 3d
       0.1461907 0.07857495 -0.13919517 0.04169133
000050 39 9f 0f be fb 7a ab 3c b5 e7 19 be 6b a6 8b bd
       -0.14025582 0.020932665 -0.15029795 -0.06818851
000060 47 12 82 bd a6 97 94 be b0 cf 73 bd ac 2b 24 3d
       -0.063511424 -0.2902195 -0.059524238 0.04008071
000070 f6 2b 02 3e 89 c5 33 be 52 d6 4e 3e 8e 3e 94 3d
       0.12712082 -0.17555822 0.20198944 0.07238494
000080 da 68 97 bd b8 c0 e1 3d ae f6 b4 3d 0b 70 65 be
       -0.07393046 0.11023086 0.08836113 -0.22406022
000090 3f 89 6d 3c 7e 3f 50 3d b1 bb dc bd 3d a0 1d 3d
       0.014498054 0.0508418 -0.10777987 0.038482893
0000a0 d2 97 0e bd aa c2 b5 3d f2 f2 21 be 60 dc 9a bd
       -0.034812756 0.0887502 -0.15815333 -0.075615644
0000b0 89 7d 5d bf 09 9e e1 bd c1 9b 50 be 6d 81 2a bd
       -0.86519676 -0.11016471 -0.20371915 -0.041627336
0000c0 55 82 c6 bc 8d 2a 4b be ac b5 b2 be 5e 3e aa bc
       -0.024232069 -0.1984045 -0.3490423 -0.020781692
0000d0 37 79 c6 3c 29 54 af 3d af a2 db bd c7 00 40 bd
       0.024227722 0.08560974 -0.10724389 -0.04687574
0000e0 99 98 9d bc 54 a8 6c be 62 e5 d0 bd c2 36 86 bd
       -0.019237803 -0.23111087 -0.10200001 -0.06553413
0000f0 64 8b fe bd 8c f9 13 be e7 a2 98 bd 9c 8d c9 bd
       -0.124289304 -0.14450663 -0.07452946 -0.09841463
000100 51 5b 9b 3c 96 7d 37 3d 57 ad 40 bd da 43 5b bd
       0.018964441 0.044797502 -0.04704031 -0.053531505
000110 fd fb d4 bd 61 9c 1c 3c 41 8d 28 be 49 77 24 3d
       -0.103996255 0.009558768 -0.16460134 0.04015282
000120 de df 5f 3c 0e b9 c5 bb 1e 62 b0 bd 0a 84 3a bd
       0.013664214 -0.006034023 -0.08612464 -0.04553608
000130 d7 5d 99 bd b2 de 02 be d8 59 92 3d 54 f4 db bd
       -0.07488602 -0.12780264 0.071460426 -0.10739961
000140 19 f8 19 bd 5f b4 9a bd e2 cf d1 3c 62 b8 a9 bd
       -0.03759012 -0.07553934 0.025611822 -0.08287121
000150 4b 09 e4 3c 3c ce 4b bd 97 3f 1e 3d d7 55 06 be
       0.027836462 -0.049757227 0.038634863 -0.13118683
000160 2e b6 cf bd ce 13 08 3d 26 c1 c4 bd 0b db d6 bd
       -0.1014217 0.033222012 -0.09607153 -0.10490998
000170 3d 0d 11 be 26 4f 93 3d 68 51 35 bc 05 1b ab 3d
       -0.14165206 0.07192831 -0.011066772 0.08354763
000180 45 11 66 3d cc 8d a3 3d 10 af 06 3d 6e 9b a2 bc
       0.056168813 0.0798603 0.032881796 -0.019849505
000190 e0 3d 19 bc 7f e0 2c be f6 96 b3 bd e9 e3 bc 3c
       -0.009353131 -0.16882513 -0.08769028 0.023057895
0001a0 0f 26 2c be 46 15 90 bc b7 7c 5a 3b b5 30 9f bd
       -0.16811393 -0.017588269 0.0033338496 -0.07772962
0001b0 b4 65 ac bd 08 8a 0c 3d f8 d2 7e bd a7 ad 59 3d
       -0.08417836 0.034311324 -0.062212914 0.053144123
0001c0 67 54 93 bd f8 e5 0d be 28 9c ef bd a8 c2 39 be
       -0.07193833 -0.13857257 -0.11699706 -0.18140662
0001d0 db 20 8f 3d 61 a8 e6 bd e7 08 b1 bc 1e cd 94 bc
       0.069886886 -0.112625845 -0.02161069 -0.018164214
0001e0 e3 c8 b0 3d 1c 23 33 be a0 7d 29 3d f8 f0 58 3d
       0.08632066 -0.17493862 0.04137957 0.05296418
0001f0 c2 e6 11 bd b8 09 c8 bc d1 9e 7b bd f1 68 b3 3c
       -0.03562046 -0.024418697 -0.061430756 0.021900626
000200 ca 22 8d 3d b3 9b 2f be 32 ad ba be 8b 1b ff 3b
       0.06891401 -0.17149238 -0.36460263 0.007785266
000210 44 1d c9 bc 2a 15 c5 be 41 73 a6 3c 89 4a 0f 3e
       -0.024550088 -0.3849271 0.02031863 0.13993277
000220 6e 24 47 be 7a 5a d2 3d 25 b3 02 bf dd 54 c6 bc
       -0.1944749 0.10271163 -0.510546 -0.024210388
000230 68 6a 3b be 7e 9d 26 3e 90 2b 08 be 62 8e 13 bf
       -0.1830231 0.16271016 -0.13297868 -0.57639134
000240 85 37 00 3e 9a 9a 02 be f0 0d 2e be 8b 16 1d be
       0.12521179 -0.12754288 -0.16997504 -0.1534063
000250 d5 d3 84 be 21 c0 0b be 46 01 e0 3d b5 03 a0 bd
       -0.25942865 -0.1364751 0.10937743 -0.07813207
000260 0c 56 e3 bc e8 91 84 bc 68 f4 23 3e 3c 42 53 3e
       -0.027750991 -0.016182855 0.16011202 0.20630735
000270 59 ab ec 3d 35 d7 bf 3e 91 6d 56 3e 39 b2 57 be
       0.115561195 0.37468877 0.20940234 -0.2106408
000280 3b 07 39 bc ff e3 88 bd fe 13 54 3d 3f ac 4f be
       -0.011293228 -0.06684112 0.05177688 -0.2028055
000290 d6 19 83 bd 95 b0 18 3e c5 a8 49 be 74 f5 97 be
       -0.06401412 0.1491111 -0.19693287 -0.29679453
0002a0 37 07 81 bf b0 c7 1f be c1 83 7d be f2 2a 05 bd
       -1.0080327 -0.15603518 -0.24757291 -0.03251166
0002b0 6a ae 62 bf 43 d9 97 be 80 54 58 3c 52 13 06 bf
       -0.88547385 -0.29657945 0.01320374 -0.5237323
0002c0 14 0b 8b bd 33 76 d5 bc 4b d5 de 3d 5e c4 96 3d
       -0.06789222 -0.026057338 0.10880526 0.07361673
0002d0 7c 37 79 bf 9e 0a e4 be 5c e9 a9 bb 52 5d 4a 3f
       -0.9735029 -0.4453935 -0.0051852893 0.79048645
0002e0 b7 d6 33 be cc 13 6f bd e6 5d b0 3e 20 e8 b9 3e
       -0.17562376 -0.05836849 0.3444664 0.3630991
0002f0 c4 1d a0 bd 5e ac ef bd 0c de 71 3e 81 0e 0d bf
       -0.07818177 -0.11702798 0.2361986 -0.55100256
000300 03 b8 bc bd cf 4b 92 3e 34 c9 5e bd fd 4d 82 bd
       -0.09214785 0.28573462 -0.0543911 -0.06362531
000310 de 51 6d 3e 8d d3 6a be 36 15 6d 3c 86 e0 90 3e
       0.23175761 -0.22932263 0.014470389 0.28296298
000320 8e cc 5c 3e 16 d9 d5 bc 76 20 c6 3d 1c cb 10 3d
       0.21562406 -0.026104491 0.0967416 0.03534995
000330 cb 75 3c 3d 08 ae 2f 3e 0e f8 2b 3e 09 74 93 bd
       0.046010774 0.17156231 0.16793844 -0.07199866
000340 45 5b 9f bd 59 52 6d 3e e8 91 1b 3e 99 ed 97 3e
       -0.0778108 0.23175944 0.15192378 0.2967346
000350 47 d1 92 be f1 d2 56 be ff 4d 19 3e 93 3f 81 3e
       -0.2867529 -0.20978905 0.1497116 0.25243816
000360 72 1c 09 be 8e 13 53 be b7 de 8e 3e 8a 1b ad 3c
       -0.13389757 -0.20612928 0.27904293 0.021131296
000370 2f 45 5f 3e 63 5e be 3d e6 26 d5 3e a9 f9 59 be
       0.21803735 0.092953466 0.4163124 -0.21286644
000380 b8 f0 79 3e 1e 80 0f bd 8e 51 e8 3d 90 7a c2 3d
       0.24408233 -0.03503429 0.1134368 0.09496033
000390 03 d3 7d 3d 85 60 3a bd 8d 0e 69 3d f7 6e 86 be
       0.061968815 -0.045502204 0.056898642 -0.26256534
0003a0 c4 9e 3b be 77 6f 25 bc d3 65 f3 bd 7b c1 ef 3d
       -0.18322283 -0.010097376 -0.11884656 0.11706825
0003b0 81 da 6d be 67 b3 e1 bc 9a 6a e5 3d 1e 89 7b be
       -0.23227884 -0.027551366 0.11201973 -0.24564025
0003c0 91 7a a4 3e fd 56 3a bc ac f0 47 3e a3 f2 8e 3e
       0.3212476 -0.011373279 0.19525403 0.27919492
0003d0 5c 15 3e be 65 81 1c be 1c aa 83 bc 1f 04 df 3d
       -0.18562835 -0.15283735 -0.016072325 0.10889458
0003e0 b0 50 f9 3d e0 f8 1a 3d 5f 1b 11 3e a6 9e 11 be
       0.12173593 0.037835002 0.14170597 -0.14220676
0003f0 8e cf 31 3e 57 2f b2 3c 34 c0 9f 3d 2e 6e ba 3d
       0.17364332 0.021751089 0.07800332 0.09103046

fc2.bias f4 [64]
000000 01 c9 1c 3e 18 2e 19 be dd 4e 45 bf 5b 3f a9 bd
       0.15311052 -0.1495899 -0.7707346 -0.08264037
000010 2d e8 c8 bd 8c 80 20 bd ac dd 80 3b b1 36 7d bd
       -0.09809909 -0.03918509 0.0039326753 -0.061819736
000020 eb 3e 43 3e b3 5f 63 bc 86 f1 5d bd 9d b1 8e bd
       0.1906697 -0.013877797 -0.054185413 -0.06967471
000030 3c fc 4c be 38 ed 4f 3d d2 03 27 3f 78 31 33 be
       -0.20018095 0.05076334 0.65240204 -0.1749934
000040 18 37 10 3e bc 14 51 be 2c c2 84 bd cb 94 e8 3c
       0.14083517 -0.20418066 -0.06482348 0.028391263
000050 09 5a 3d bd b1 c9 90 be 84 34 82 3d f1 49 49 be
       -0.046228442 -0.28278878 0.06357673 -0.19657113
000060 f8 f4 5a bc 66 df b8 bd 2f da 2c 3e 00 7c f5 3d
       -0.013364069 -0.09026985 0.16880105 0.11986542
000070 9b 01 69 3d 78 dd 32 bf 9c 8a 0b be 0e 0c 68 bd
       0.056886297 -0.69869184 -0.13627094 -0.05665212
000080 2e 16 d6 be fa 44 47 be 26 9c 9f 3d 3d b0 76 bc
       -0.41813797 -0.19459906 0.07793455 -0.015056667
000090 12 91 5c be b9 89 c3 3d fc d3 fe bd ed 51 ba bd
       -0.21539715 0.09547753 -0.124427766 -0.09097657
0000a0 95 66 f7 3d 89 db bf bb 27 ad 92 3d 46 de 9f be
       0.12080113 -0.005855028 0.071619324 -0.3122427
0000b0 db 73 8d be 7c e9 0e bf e8 d9 27 3b eb 6c f6 be
       -0.27627453 -0.5582502 0.002561206 -0.48129973
0000c0 22 33 8a bd 1a 5e c3 bc c4 26 ff 3c 31 a1 de bd
       -0.06748034 -0.023848582 0.031146415 -0.108705886
0000d0 e6 66 19 be 81 0b 80 bc 8c e2 30 3b 29 eb 97 bc
       -0.14980659 -0.015630485 0.0026990501 -0.01854475
0000e0 93 f6 bb be 82 90 48 3e 9d fa 23 be 17 f8 94 be
       -0.3671156 0.19586375 -0.1601357 -0.29095528
0000f0 4e 41 e5 bd e9 8d 02 3e 6d e1 74 be 71 27 01 bf
       -0.111940965 0.12749447 -0.23914118 -0.5045081

fc3.weight f4 [1, 64]
000000 2a 1d 84 3d f8 87 88 bd 5b 2e a3 3e b5 1c 0b 3e
       0.06450875 -0.06666559 0.31871304 0.1358517
000010 fa be 42 3e 86 5e 8d 3e 3e 94 4a 3e af c5 28 3e
       0.19018164 0.27611178 0.19783112 0.1648166
000020 42 e3 2e be 1b f6 82 be c9 71 91 be 65 f2 25 bd
       -0.1707888 -0.2557839 -0.28407124 -0.04051437
000030 c2 bd 12 3d 6f d3 e0 bd 68 20 a5 3e 50 f7 b7 3d
       0.0358255 -0.10977828 0.32251287 0.08982718
000040 51 7b 5c be ac 66 a6 be 4c eb 6e be 11 96 99 3b
       -0.21531416 -0.32500207 -0.23331946 0.0046870788
000050 9a 1b 2a 3e 3b e2 42 be a9 31 6a 3f 38 c6 32 3e
       0.16612092 -0.19031613 0.91482025 0.17458427
000060 97 6c d2 bb e5 98 d6 3d b0 d7 4b 3e 6a b4 34 3e
       -0.0064216363 0.10478381 0.19906497 0.17646948
000070 a5 6b 25 3e ba ea 29 3e e9 e3 1d 3d 4b b8 6c 3d
       0.16154344 0.16593447 0.03854743 0.057792943
000080 3d 6b 2f 3e 6a 04 0d 3d 06 e8 12 3e 9b 1f 3e be
       0.17130752 0.034428038 0.14346322 -0.18566744
000090 e8 92 bb be c3 ce ee 3d 45 2a 06 bb d7 4a 19 3e
       -0.36635518 0.116605304 -0.0020471972 0.14969955
0000a0 ef c5 4e 3e 13 f1 26 ba 81 af 7e be f1 03 bd be
       0.20192693 -0.00063683203 -0.24871637 -0.3691707
0000b0 10 a7 2a be 20 09 61 3e bc 0a 13 3e f7 39 42 3e
       -0.16665292 0.21976137 0.14359564 0.18967424
0000c0 07 cb c4 bc 01 35 bd be ab fb 37 3e 52 cf 7b bd
       -0.024022592 -0.369545 0.17967097 -0.061477013
0000d0 55 04 4d 3e 28 e6 3d 3e 83 17 06 be b2 18 86 be
       0.20021184 0.18544829 -0.13094907 -0.26190716
0000e0 54 a7 4f 3e c9 11 d2 3e 6c ec 45 bd 58 58 77 3e
       0.20278674 0.41029194 -0.048321173 0.24154794
0000f0 2a ad 1a be 4d fc 61 3e 4d d1 01 3e 17 13 7d 3e
       -0.1510512 0.22068901 0.12677498 0.24714313
