maddpg1critic.pth (torch, 29975 bytes, 5 tensors)

fc1.weight f4 [64, 43]
-0.088563755 0.45640996 0.18589076 0.15198684 0.08497937 0.12652446 0.03148932 0.13198152
0.16765551 -0.23886572 0.14122936 0.3467213 0.23741502 -0.12987041 -0.12818916 -0.31782863
-0.123634174 -0.22766732 0.06030552 -0.1877146 0.10024587 0.4750763 0.19672492 0.21534051
-0.04747591 -0.091986805 0.08397752 0.2930012 -0.06800222 -0.24057564 0.028625317 -0.2843529
-0.11336934 0.098512284 -0.059343606 -0.11681177 -0.123847805 -0.17935741 -0.10152422 -0.30064717
-0.009902807 -0.22909959 -0.09312401 0.010484887 -0.2599002 -0.24191672 -0.10105759 -0.066344425
-0.13325597 -0.21124382 -0.19693337 -0.57229716 -0.6217831 0.22097185 0.0067189783 0.059675045
0.27144814 0.28459767 0.24462101 0.09899552 0.11465692 -0.5196618 -0.6570957 0.11082015
-0.006414319 0.019372007 0.36641243 0.101859994 0.2536617 0.16166005 0.010266778 0.045960274
0.10414848 0.014362539 0.17119335 -0.022344878 0.0019263149 -0.050800014 -0.027410375 -0.029642602
-0.034809005 -0.053779885 -0.042240832 -0.008121598 -0.06268178 0.016202215 -0.16748722 0.33421803
0.09695017 -0.05585314 -0.0011240755 0.14675222 0.029622149 -0.15930623 0.39795342 0.3569196
0.013702393 0.18728183 0.09581169 0.14768544 0.12837344 0.012929608 -0.016949594 -0.37175184
0.35409057 0.43226588 0.0131005505 0.43289962 0.16829333 0.14811103 0.1138685 0.19230568
-0.08186138 0.17322163 -0.2614181 -0.31874534 -0.41690916 -0.36900753 -0.3992995 -0.29136235
-0.46652773 -0.4091348 -0.33445483 -0.34283802 -0.22793885 -0.20423429 -0.48344746 -0.41521913
-0.13196042 -0.05824463 0.088359565 0.06522656 -0.15644252 -0.031689167 -0.0014944228 0.054512452
0.12303592 0.5743107 -0.29480785 0.09082457 -0.06896298 -0.14736488 -0.024071723 0.007793635
0.08039548 -0.32098818 0.13571104 0.7992569 -0.47592783 0.25936723 -0.102629304 0.29637808
-0.011782518 0.17067139 -0.006279544 0.29469192 -0.16204357 -0.38470304 -0.23156261 -0.32094628
-0.33224306 -0.2819057 -0.26068687 -0.14673817 -0.27161318 -0.2641912 -0.2692546 -0.28957835
-0.47611007 -0.044573832 -0.0058880374 -0.39249808 0.29262668 -0.0669202 -0.06031837 0.12174547
0.27369893 0.20715569 0.088214755 0.029264592 0.67396075 0.5319922 -0.001720069 -0.33843297
-0.30368027 -0.04553555 -0.108330145 -0.02196949 -0.11357379 0.099551804 0.5781179 0.6057582
-0.09445512 -0.30761552 -0.15085939 -0.18442813 -0.23873454 -0.08723014 -0.07968822 -0.08031262
-0.1060252 -0.11379134 0.01705653 -0.14676756 0.0004139084 -0.092287324 -0.06747807 -0.09816906
-0.07766077 -0.111741036 -0.08769652 -0.11476739 -0.120029405 -0.12078522 -0.1435594 0.020707224
-0.007931533 0.02700885 0.002844023 -0.034997422 0.04407911 0.2453736 0.118785165 -0.8646141
-0.033314433 0.1887342 0.020215897 0.0215382 -0.0047332654 -0.0051898146 0.03736326 0.433554
-0.04435248 -1.0356795 0.19240096 -0.3740534 -0.08251497 -0.26424152 -0.14037898 0.045626502
0.019201908 -0.28119314 0.047135144 -0.048020728 -0.021075966 -0.08873238 -0.07040097 -0.04905175
-0.031539742 -0.016840743 -0.040761728 -0.008029777 -0.036889963 -0.03618109 0.08755851 -0.25183195
00000000: ea60 b5bd 91ae e93e 265a 3e3e 70a2 1b3e
00000010: aa09 ae3d a18f 013e f2fa 003d 2a26 073e
00000020: e3ad 2b3e 3799 74be 6e9e 103e 7485 b13e
00000030: ec1c 733e c0fc 04be 0544 03be 6fba a2be
00000040: ea33 fdbd 9f21 69be ec02 773d 4238 40be
00000050: b54d cd3d 333d f33e 4272 493e 3982 5c3e
00000060: 1a76 42bd 9463 bcbd 68fc ab3d 4104 963e
00000070: bf44 8bbd 7659 76be a47f ea3c b496 91be
00000080: 2f2e e8bd cfc0 c93d 4812 73bd 023b efbd
00000090: eba3 fdbd 78a9 37be eeeb cfbd 6dee 99be
000000a0: 623f 22bc 1599 6abe cdb7 bebd cec8 2b3c
000000b0: a411 85be 04b9 77be 48f7 cebd 96df 87bd
000000c0: 4174 08be 4d50 58be e7a8 49be 1182 12bf
000000d0: 2d2d 1fbf 7246 623e e02a dc3b d26d 743d
000000e0: 40fb 8a3e c9b6 913e ee7d 7a3e 2abe ca3d
000000f0: 3fd1 ea3d 8e08 05bf 6c37 28bf adf5 e23d
00000100: 352f d2bb 0bb2 9e3c 699a bb3e f99b d03d
00000110: f2df 813e 368a 253e fd35 283c d740 3c3d
00000120: cc4b d53d db50 6b3c 4f4d 2f3e 9b0c b7bc
00000130: 677c fc3a ad13 50bd b98b e0bc 0bd5 f2bc
00000140: e393 0ebd 4c48 5cbd b904 2dbd 7310 05bc
00000150: 4e5f 80bd 82ba 843c c581 2bbe a01e ab3e
00000160: d08d c63d 43c6 64bd b755 93ba 3746 163e
00000170: 26aa f23c 2c21 23be 8dc0 cb3e 2abe b63e
00000180: 0080 603c cfc6 3f3e eb38 c43d da3a 173e
00000190: 5474 033e b5d6 533c e0d9 8abc 4256 bebe
000001a0: 5c4b b53e f451 dd3e b1a3 563c 05a5 dd3e
000001b0: 1655 2c3e 6baa 173e e333 e93d c8eb 443e
000001c0: f0a6 a7bd 0361 313e 98d8 85be 9732 a3be
000001d0: 1e75 d5be 8eee bcbe fc70 ccbe 722d 95be
000001e0: b9dc eebe 1e7a d1be aa3d abbe 7788 afbe
000001f0: cd68 69be cb22 51be 6d86 f7be 9a97 d4be
00000200: a220 07be ec91 6ebd dcf5 b43d 8195 853d
00000210: 7832 20be 80cc 01bd 82e0 c3ba 7348 5f3d
00000220: 42fa fb3d 0706 133f 0ef1 96be 3b02 ba3d
00000230: 763c 8dbd d2e6 16be 1032 c5bc c061 ff3b
00000240: 63a6 a43d 9058 a4be d6f7 0a3e 1a9c 4c3f
00000250: d0ac f3be c8cb 843e 502f d2bd debe 973e
00000260: 760b 41bc 7bc4 2e3e a2c4 cdbb dce1 963e
00000270: c0ee 25be ccf7 c4be c01e 6dbe 1253 a4be
00000280: c31b aabe f255 90be c078 85be 8842 16be
00000290: e210 8bbe 1244 87be bddb 89be 9d43 94be
000002a0: b3c4 f3be 0d93 36bd 70f0 c0bb 82f5 c8be
000002b0: 2ad3 953e 750d 89bd 6510 77bd b055 f93d
000002c0: 4422 8c3e 9f20 543e f0a9 b43d 4cbc ef3c
000002d0: b188 2c3f a430 083f f073 e1ba 1647 adbe
000002e0: fb7b 9bbe 7c83 3abd 32dc ddbd 5cf9 b3bc
000002f0: 6099 e8bd d1e1 cb3d 89ff 133f f812 1b3f
00000300: b071 c1bd c87f 9dbe e27a 1abe bada 3cbe
00000310: d476 74be b7a5 b2bd 9433 a3bd f17a a4bd
00000320: bd23 d9bd 6f0b e9bd 23ba 8b3c 3c4a 16be
00000330: d801 d939 2301 bdbd f131 8abd dc0c c9bd
00000340: 9c0c 9fbd 7cd8 e4bd 3c9a b3bd 2a0b ebbd
00000350: fad1 f5bd 3e5e f7bd 3c01 13be 32a2 a93c
00000360: 43f3 01bc aa41 dd3c ca62 3a3b 7559 0fbd
00000370: 4c8c 343d 3843 7b3e a345 f33d 5a57 5dbf
00000380: b774 08bd 8a43 413e cf9b a53c e170 b03c
00000390: 8219 9bbb 520f aabb 380a 193d cafa dd3e
000003a0: f2aa 35bd 2591 84bf c204 453e ed83 bfbe
000003b0: 9cfd a8bd aa4a 87be 82bf 0fbe dbe2 3a3d
000003c0: 524d 9d3c 8cf8 8fbe c810 413d 62b1 44bd
000003d0: 81a7 acbc 52b9 b5bd 622e 90bd 7dea 48bd
000003e0: d12f 01bd 99f5 89bc c5f5 26bd 538f 03bc
000003f0: ee19 17bd 9f32 14bd e051 b33d 1ef0 80be

fc1.bias f4 [64]
-0.102047175 -0.1301527 -0.60509604 -0.19441345 -0.048334952 -0.16482721 -0.23454307 -0.24407399
-0.33167714 -0.40316778 -0.038378917 -0.21897171 -0.38298368 -0.4739479 -0.50469035 -0.20703429
-0.2526071 -0.27465704 -0.32041705 -0.2983479 -0.38257784 -0.25652477 -0.3819932 0.009531053
0.04701303 -0.47739905 -0.1298825 0.1969155 0.14588834 -0.2960228 -0.35599235 -0.5624753
-0.0647736 -0.5869985 -0.081517965 -0.13226198 0.08162449 -0.44447854 0.09314563 -0.559132
-0.4590434 -0.22313628 -0.33783436 -0.13640693 -0.18155096 -0.44870207 -0.60002214 -0.43307608
-0.005468728 -0.090789005 -0.31370428 0.030325158 -0.09946326 -0.12374206 -0.04353968 -0.28795362
-0.21018636 -0.07677685 -0.24852711 -0.34445477 -0.38000655 -0.071977474 -0.30837658 0.0041156034
00000000: 1cfe d0bd c046 05be 93e7 1abf 5214 47be
00000010: dffa 45bd 77c8 28be 0f2c 70be 88ee 79be
00000020: 96d1 a9be 026c cebe 3633 1dbd 1f3a 60be
00000030: 7016 c4be 4da9 f2be 6333 01bf cc00 54be
00000040: b855 81be d99f 8cbe b40d a4be 0ec1 98be
00000050: 3ee1 c3be 3757 83be 9d94 c3be 2228 1c3c
00000060: bc90 403d a66d f4be ebff 04be 38a4 493e
00000070: c163 153e 4d90 97be a144 b6be 62fe 0fbf
00000080: 05a8 84bd 8945 16bf e4f2 a6bd af6f 07be
00000090: be2a a73d b192 e3be 23c3 be3d 4623 0fbf
000000a0: bd07 ebbe d67d 64be a0f8 acbe 42ae 0bbe
000000b0: 7fe8 39be 47bc e5be 0d9b 19bf 26bc ddbe
000000c0: 0433 b3bb 96ef b9bd d99d a0be 776c f83c
000000d0: 65b3 cbbd 7a6c fdbd aa56 32bd a86e 93be
000000e0: 183b 57be 2e3d 9dbd e47d 7ebe 605c b0be
000000f0: 3890 c2be ed68 93bd 89e3 9dbe 2fdc 863b

fc2.weight f4 [64, 64]
-0.027004218 0.14794634 0.015073491 0.11877218 0.12599938 0.089092225 -0.28872347 0.24369574
0.259101 0.14816539 0.11479477 0.21334057 -0.5147659 -0.1453812 0.48649564 0.022049008
0.05746976 -0.03938645 0.05304988 0.090866275 0.15389447 0.12341657 0.007904139 0.31920424
0.12913208 0.35587037 -0.19351938 -0.05956403 0.18777363 -0.27896675 0.13031453 -0.3340582
0.20189473 -0.12080777 0.22057135 -0.3475584 -0.05675026 0.30339104 -0.2030027 0.20914069
0.18046014 -0.0018406899 -0.009353511 0.13217704 -0.24368927 0.11491409 0.42908412 0.27448708
0.11799376 0.08484962 0.015590334 -0.16864645 0.14170197 -0.124103 0.040620666 0.0833423
0.12296495 0.06305245 0.09265614 0.09498755 0.031353585 -0.054971326 -0.027953425 0.33025724
0.007404349 -0.19166186 -0.29388815 -0.24701822 -0.0062562185 -0.10903548 -0.040120758 0.036176257
-0.11095985 0.061469022 0.045959353 -0.0029898032 -0.09296086 0.023722034 -0.079831086 -0.029444896
0.031349827 -0.0016553474 -0.12970515 -0.030357193 -0.028694293 -0.027348084 -0.054960363 -0.14984797
-0.1279249 -0.06717248 -0.27057907 -0.08348553 0.009237435 -0.13809231 0.0766598 -0.10519817
0.02916607 -0.10326662 -0.06174738 -0.12092062 -0.16092212 -0.12046506 -0.31412727 0.026728442
-0.06060553 -0.15055962 -0.19609857 -0.15587248 -0.20821846 -0.002164047 0.0025861305 -0.1220438
-0.048776716 0.036887605 -0.046084587 -0.014795837 -0.13924576 -0.19434056 0.044259425 -0.1240905
-0.027673092 -0.31887728 0.03372886 -0.05456169 -0.008686164 0.0013098286 -0.0750854 -0.25388175
-0.15241125 0.005055712 0.23563473 0.05030455 -0.32030904 0.14613639 0.22472432 0.021640107
-0.2788008 0.2040536 -0.16000813 -0.003689312 -0.21285458 0.13735554 -0.068413176 0.15518522
-0.21129684 0.029617244 -0.1582447 -0.20101026 -0.067152485 -0.10594348 0.08981043 -0.2112379
-0.18671218 -0.19836341 -0.17047565 -0.19658618 -0.41657123 0.096271485 0.1698453 -0.1190115
-0.18621963 -0.18364026 -0.124267906 -0.17063177 0.04295985 -0.03072877 0.003317697 0.052821897
0.11990813 0.11333037 0.06793241 -0.21150555 0.2459311 -0.37898263 -0.034706187 0.16023561
-0.14786026 -0.12036909 0.0078112856 -0.09211025 -0.31614015 0.10989853 -0.07200331 -0.20140705
-0.073019646 -0.31222743 -0.44877517 0.15044895 0.075474 -0.19213772 -0.001347206 -0.18959849
0.1667471 0.37590292 -0.077415034 -0.30125582 -0.03782107 -0.35213464 0.16037531 -0.2186276
0.04708511 0.29955992 0.11358874 -0.38665003 0.2318965 0.20449835 0.145806 0.18180026
-0.15301143 -0.026632724 -0.11455041 0.16629551 -0.007240029 0.1622868 0.06022315 0.20416981
0.2150302 -0.124733165 -0.019388633 -0.020834763 0.23463912 0.028323187 -0.09130434 0.09908339
0.067712 0.04427838 0.29258734 0.05055638 -0.21400756 -0.27465624 0.17828014 0.060983483
0.26319396 0.12489449 -0.35543853 0.20897277 -0.061532732 0.10019214 0.29147378 0.23149166
0.192093 -0.028781675 0.1589447 -0.042488217 0.12039846 0.029996889 0.19243741 -0.2930271
0.09634078 0.24431308 0.30796054 -0.34163895 -0.12999876 0.17900367 0.13037923 0.3494286
00000000: f337 ddbc 3f7f 173e cef6 763c d43e f33d
00000010: fb05 013e fc75 b63d 90d3 93be 608b 793e
00000020: e3a8 843e abb8 173e 8519 eb3d f375 5a3e
00000030: b3c7 03bf cfde 14be f515 f93e 1fa0 b43c
00000040: 6965 6b3d b053 21bd d54a 593d 1918 ba3d
00000050: 8396 1d3e d4c1 fc3d 5d80 013c bd6e a33e
00000060: 333b 043e a434 b63e f229 46be 6af9 73bd
00000070: bb47 403e bbd4 8ebe 2c71 053e ad09 abbe
00000080: 7ebd 4e3e 106a f7bd 75dd 613e 2df3 b1be
00000090: f672 68bd 1256 9b3e f1df 4fbe fa28 563e
000000a0: 8bca 383e 4e43 f1ba 783f 19bc 6b59 073e
000000b0: ae89 79be 1458 eb3d eab0 db3e 9289 8c3e
000000c0: b6a6 f13d a3c5 ad3d 9a6e 7f3c a8b1 2cbe
000000d0: 521a 113e b729 febd db61 263d 5eaf aa3d
000000e0: 0cd5 fb3d a521 813d 81c2 bd3d d588 c23d
000000f0: 9e6c 003d 9d29 61bd 95fe e4bc 7a17 a93e
00000100: 2ea0 f23b 0243 44be 8278 96be 58f2 7cbe
00000110: f700 cdbb fe4d dfbd aa55 24bd 8e2d 143d
00000120: eb3e e3bd f1c6 7b3d e03f 3c3d 93f0 43bb
00000130: 4362 bebd b654 c23c 7b7e a3bd 6c36 f1bc
00000140: ad68 003d 3ef8 d8ba 6dd1 04be a6af f8bc
00000150: 4b10 ebbc 1709 e0bc 1e1e 61bd bf71 19be
00000160: bffe 02be ba91 89bd 5789 8abe 76fa aabd
00000170: 9c58 173c 1268 0dbe d0ff 9c3d 2372 d7bd
00000180: afed ee3c 737d d3bd d2ea 7cbd 3ba5 f7bd
00000190: c5c8 24be 63b6 f6bd 4ad5 a0be 9bf5 da3c
000001a0: 813d 78bd 4d2c 1abe 10ce 48be 099d 1fbe
000001b0: 3837 55be afd2 0dbb 127c 293b 1af2 f9bd
000001c0: 18ca 47bd 7517 173d 31c3 3cbd 3d6a 72bc
000001d0: 7196 0ebe 3601 47be 5f49 353d 2923 febd
000001e0: aeb2 e2bc e243 a3be 4627 0a3d 147c 5fbd
000001f0: 6a50 0ebc 8eae ab3a 60c6 99bd cafc 81be
00000200: b211 1cbe 63aa a53b 3b4a 713e 250c 4e3d
00000210: 8cff a3be c7a4 153e 221e 663e 9846 b13c
00000220: fabe 8ebe 6df3 503e 2cd9 23be 62c8 71bb
00000230: 8df6 59be eea6 0c3e 351c 8cbd e0e8 1e3e
00000240: 335e 58be dd9f f23c e60a 22be a2d5 4dbe
00000250: 3e87 89bd e5f8 d8bd 88ee b73d c04e 58be
00000260: 7a31 3fbe c71f 4bbe 2b91 2ebe e34d 49be
00000270: d348 d5be fc29 c53d edeb 2d3e 4dbc f3bd
00000280: 5cb0 3ebe 310c 3cbe 2c80 febd 18ba 2ebe
00000290: abf6 2f3d e7ba fbbc b86d 593b c65b 583d
000002a0: 6592 f53d c119 e83d 2620 8b3d e994 58be
000002b0: 5dd5 7b3e 030a c2be 1328 0ebd ce14 243e
000002c0: ae68 17be 1284 f6bd d0f5 ff3b 4ca4 bcbd
000002d0: 1fdd a1be 7b12 e13d 7976 93bd a63d 4ebe
000002e0: 538b 95bd 46dc 9fbe dcc5 e5be 4a0f 1a3e
000002f0: 1d92 9a3d c0bf 44be bb94 b0ba 1b26 42be
00000300: c0bf 2a3e 5976 c03e c68b 9ebd 343e 9abe
00000310: 44ea 1abd fe4a b4be 6d39 243e eadf 5fbe
00000320: 51dc 403d eb5f 993e 37a1 e83d fef6 c5be
00000330: 4776 6d3e 0468 513e 2b4e 153e d929 3a3e
00000340: 07af 1cbe df2c dabc 6899 eabd 5f49 2a3e
00000350: c43d edbb 832e 263e 8dac 763d e411 513e
00000360: e030 5c3e 1a74 ffbd e9d4 9ebc aaad aabc
00000370: 3d45 703e 0706 e83c c5fd babd 3bec ca3d
00000380: 97ac 8a3d 3f5d 353d 02ce 953e 3514 4f3d
00000390: cc24 5bbe be9f 8cbe 128f 363e d1c9 793d
000003a0: 5cc1 863e afc8 ff3d 0afc b5be f5fc 553e
000003b0: bf09 7cbd 8931 cd3d 0d3c 953e 260c 6d3e
000003c0: 07b4 443e 8cc7 ebbc 66c2 223e 2008 2ebd
000003d0: 7893 f63d 09bc f53c 500e 453e a607 96be
000003e0: 514e c53d 352d 7a3e 01ad 9d3e 4deb aebe
000003f0: 651e 05be bd4c 373e 2282 053e 4ee8 b23e

fc2.bias f4 [64]
-0.24399956 -0.12162567 -0.054996174 0.022731936 -0.07967503 0.012384327 0.017039543 -0.16913831
-0.031357694 -0.47561222 -0.2673265 -0.086447224 -0.15099014 -0.25432447 0.12807196 0.1448157
-0.056724574 -0.074934505 -0.13525306 -0.40655056 -0.104911834 -0.06622988 -0.024184793 0.028600091
-0.015559658 -0.03751646 0.06823434 -0.01648456 0.21375161 0.02953039 -0.2540178 -0.21877679
0.051554278 -0.25603876 -0.36714515 -0.32239932 -0.3137019 -0.11258054 -0.036526315 -0.285863
-0.16590232 0.087326676 -0.06685407 -0.08950795 0.07697088 -0.39733836 -0.44109705 -0.02683091
0.16069067 -0.00559475 -0.21884954 0.14480525 -0.5094865 -0.1942412 -0.09388449 -0.16099948
-0.091495335 -0.34085286 0.13528408 -0.08623972 -0.31946775 -0.23759517 -0.18025401 -0.40986195
00000000: 05db 79be e116 f9bd ab43 61bd 5338 ba3c
00000010: aa2c a3bd a2e7 4a3c 8396 8b3c 9832 2dbe
00000020: ed70 00bd 7283 f3be 05df 88be 3e0b b1bd
00000030: 299d 1abe d136 82be 4c25 033e 914a 143e
00000040: 0758 68bd 4377 99bd c77f 0abe 6527 d0be
00000050: 04dc d6bd 88a3 87bd 301f c6bc bd4a ea3c
00000060: f0ed 7ebc dcaa 19bd 72be 8b3d a10a 87bc
00000070: b4e1 5a3e b7e9 f13c 9f0e 82be 0607 60be
00000080: 942a 533d 8317 83be 73fa bbbe 8611 a5be
00000090: 899d a0be a090 e6bd 9e9c 15bd a35c 92be
000000a0: 4ce2 29be 54d8 b23d c9ea 88bd f24f b7bd
000000b0: e9a2 9d3d ef6f cbbe 79d7 e1be 7fcc dbbc
000000c0: 188c 243e 2a54 b7bb 181a 60be d447 143e
000000d0: b56d 02bf 2ae7 46be 8346 c0bd 0cdd 24be
000000e0: e861 bbbd 4484 aebe e987 0a3e 739e b0bd
000000f0: 4791 a3be 264c 73be 8294 38be 6dd9 d1be

fc3.weight f4 [1, 64]
0.18646158 0.04518521 -0.17931242 0.22404565 0.31582487 -0.30243874 -0.22316803 0.043128517
0.038003623 0.5087808 0.14133346 -0.16831891 -0.040295072 0.34982538 0.24114679 0.27230188
0.044235036 -0.33401945 6.498999e-05 -0.3499059 0.29378396 0.3093404 0.14044866 0.20752017
-0.20276845 -0.061743487 0.16764621 0.25496224 0.3749045 -0.22621728 -0.26568213 -0.21666168
-0.33180496 0.24314542 0.43986073 -0.1965028 -0.3763385 0.017176377 -0.29254746 -0.23721576
-0.05762671 -0.24857128 -0.17601684 0.22151849 -0.21284199 -0.3663392 0.42934248 0.2003357
0.54285187 -0.46462464 -0.033912025 0.13716277 0.28465018 -0.24149844 -0.03567371 0.0007366069
-0.19162697 -0.4536422 0.4255045 0.10541319 0.26300758 -0.25081065 -0.27008522 0.13329186
00000000: c9ef 3e3e 2014 393d ad9d 37be 396c 653e
00000010: ccb3 a13e 40d9 9abe 2986 64be 87a7 303d
00000020: b0a9 1b3d 753f 023f b8b9 103e cb5b 2cbe
00000030: 720c 25bd 501c b33e 2fef 763e 276b 8b3e
00000040: cc2f 353d 9904 abbe 3c4b 8838 de26 b3be
00000050: da6a 963e dd61 9e3e c6d1 0f3e 2b80 543e
00000060: 88a2 4fbe bde6 7cbd 73ab 2b3e 698a 823e
00000070: 7cf3 bf3e 81a5 67be 7d07 88be 8fdc 5dbe
00000080: 57e2 a9be 1dfb 783e 6d35 e13e 0838 49be
00000090: 71af c0be 79b5 8c3c c8c8 95be b0e8 72be
000000a0: fc09 6cbd 7889 7ebe c23d 34be bed5 623e
000000b0: 40f3 59be d090 bbbe c7d2 db3e cd24 4d3e
000000c0: 57f8 0a3f 48e3 edbe 56e7 0abd 6674 0c3e
000000d0: abbd 913e 5e4b 77be 991e 12bd da18 413a
000000e0: dc39 44be ca43 e8be badb d93e dfe2 d73d
000000f0: eea8 863e 416a 80be 9c48 8abe a97d 083e
