maddpg2targetactor.pth (torch, 22551 bytes, 6 tensors)

fc1.weight f4 [64, 10]
-0.25525618 -0.17711608 0.3101197 -0.19546089 -0.20722705 -0.13537322 0.9659455 0.26421916
-0.2052018 0.2699905 -0.11620324 -1.4865241 -0.071253486 -0.2487339 -0.08202955 -0.17397274
-0.10613086 -0.16928108 0.2425435 2.1887574 -0.5841757 0.3832364 0.12573405 0.06550386
-0.17227139 -0.3744752 0.34781584 -0.0985806 -0.48986733 0.30900615 2.2580826 -0.17876211
0.43536708 -0.4954793 0.43208352 0.2990047 0.11107496 0.119318366 0.12748706 0.6311026
-1.1378293 -0.16834648 0.121695995 -0.12982374 0.19000806 -0.09192108 0.46284878 -0.28801364
-0.2667921 0.27430463 0.19459262 -0.25032413 0.018501725 -0.51884526 -0.13481426 -0.31551495
0.06192446 -0.47853068 -0.21966968 1.3748863 2.3681965 -1.5703368 -0.08230521 -0.071471
-0.06869978 -0.043220107 0.1524036 0.399539 -0.1627739 -0.13049135 1.2395048 -0.16481218
0.2748733 -0.029898502 0.33268076 0.26718417 -0.055232164 0.0633628 -2.0130072 0.14367585
-1.0981357 0.8524023 0.24735332 0.20610826 -0.20511921 -0.056906912 -0.4323966 -0.4019513
0.11097727 -0.009052799 0.7122061 -0.8693372 0.060662545 -0.034136105 -0.3000641 0.46614882
-0.4405629 0.097685546 0.07059145 -0.26589197 0.19472285 -0.35041445 -0.45058587 0.42829525
-0.36806756 -0.5056413 -0.27605912 0.27970567 0.084686436 0.055456303 0.37289137 -0.16595294
-0.13770251 -0.5402656 -0.18519877 -0.46466503 -0.72532964 0.5927633 -0.25519663 -0.24958429
-0.5964273 -0.5700204 -0.08763555 0.056139536 0.03181089 0.05561063 0.034243494 -0.021811238
0.6596569 0.66600513 -0.7686342 -1.0270303 -0.017835198 -0.14549258 -0.003511534 0.13404308
-0.33508396 -0.098220825 0.024614723 -0.23828728 0.22954625 -0.09810214 -0.22911343 -0.034548413
-0.3622769 0.77252513 -1.2763894 -0.034912243 -0.36344168 0.23237568 0.19289288 -1.0107921
0.25380543 -0.05894758 -0.16241932 0.37715554 -0.26420894 0.26581803 0.1303497 -0.07387576
-1.6387837 0.037420984 -0.21920103 0.34227383 -0.3578739 0.017004203 -0.2952787 0.25763294
0.06537419 0.16648473 0.04106896 -0.057888445 -0.07149561 0.18203571 -0.26984102 -0.021775233
0.66420674 1.3724089 -0.2690573 -0.26093975 1.3397588 -0.4057461 0.0037051968 -0.11659768
0.041219108 -0.052019194 0.1070041 0.039440963 -1.7709538 0.64667076 -0.08319229 1.596743
-0.29758874 -0.04585025 0.043070488 0.015821462 0.008051413 -0.24812499 0.30165038 0.8687872
-0.09790165 0.1947284 0.114361964 -0.09341034 0.6186843 0.09268635 0.14896238 -0.07270506
-0.35617742 0.29205817 -2.2696102 0.9647721 -0.16364887 -0.06742777 -0.3368646 -0.34289876
0.39187288 0.8050324 -0.48787826 -0.037571568 -0.7414662 -0.56300604 -0.10970958 -0.23203975
-0.082137436 -0.094567984 -0.09925649 -0.11591845 1.1461321 0.9498184 0.7787618 0.5949513
-0.23726322 0.061586786 -0.046051025 0.030784987 -0.20767151 -0.22597197 -1.0996534 -0.8897207
2.18076 2.4193578 0.09205103 -0.031009007 -0.18844944 -0.26037762 -0.018914854 -0.11712976
-0.15087949 -0.09161481 -1.0623646 -0.10593701 -0.383181 0.09243505 -0.8162668 0.058171738
00000000: f0b0 82be eb5d 35be 02c8 9e3e e626 48be
00000010: 5433 54be 479f 0abe 3448 773f bc47 873e
00000020: 6c20 52be 323c 8a3e f7fb edbd 6c46 bebf
00000030: 59ed 91bd 19b4 7ebe 1cff a7bd e925 32be
00000040: 235b d9bd 0558 2dbe 535d 783e 9a14 0c40
00000050: 8a8c 15bf 9037 c43e 6dc0 003e e326 863d
00000060: e967 30be 37bb bfbe eb14 b23e a0e4 c9bd
00000070: e4cf fabe 0e36 9e3e 6d84 1040 6a0d 37be
00000080: 6fe8 de3e 76af fdbe 0d3a dd3e 2517 993e
00000090: 457b e33d 305d f43d f88b 023e f18f 213f
000000a0: 64a4 91bf 0563 2cbe c03b f93d 84f0 04be
000000b0: 7991 423e 1f41 bcbd 84fa ec3e 8676 93be
000000c0: f998 88be a871 8c3e 4a43 473e 7c2a 80be
000000d0: ee90 973c 0bd3 04bf c00c 0abe 2d8b a1be
000000e0: 81a4 7d3d f901 f5be 17f1 60be 46fc af3f
000000f0: 8890 1740 cc00 c9bf a28f a8bd 635f 92bd
00000100: 78b2 8cbd 9107 31bd b00f 1c3e 6090 cc3e
00000110: 34ae 26be 869f 05be 18a8 9e3f 86c4 28be
00000120: 31bc 8c3e b4ed f4bc 2255 aa3e 5dcc 883e
00000130: 1f3b 62bd 5bc4 813d 1cd5 00c0 c31f 133e
00000140: b68f 8cbf 0a37 5a3f 304a 7d3e 0b0e 533e
00000150: c50a 52be 3917 69bd 1663 ddbe 90cc cdbe
00000160: 0d48 e33d 3152 14bc 2453 363f e28c 5ebf
00000170: 4a79 783d 4dd2 0bbd 00a2 99be 0fab ee3e
00000180: 7691 e1be 5c0f c83d 4092 903d fe22 88be
00000190: 6d65 473e 8669 b3be 31b3 e6be 8449 db3e
000001a0: 5a73 bcbe b571 01bf 9f57 8dbe 9535 8f3e
000001b0: 1570 ad3d 2626 633d 9eeb be3e 91ef 29be
000001c0: e301 0dbe d94e 0abf bfa4 3dbe 93e8 edbe
000001d0: 34af 39bf 56bf 173f 22a9 82be 0693 7fbe
000001e0: 76af 18bf dbec 11bf 447a b3bd 92f2 653d
000001f0: 234c 023d f9c7 633d e842 0c3d 7bad b2bc
00000200: 46df 283f 507f 2a3f 36c5 44bf bb75 83bf
00000210: 1f1b 92bc 02fc 14be c421 66bb 9742 093e
00000220: 2090 abbe 0028 c9bd d1a4 c93c 9501 74be
00000230: 2c0e 6b3e c6e9 c8bd b69c 6abe a382 0dbd
00000240: 5c7c b9be 35c4 453f ba60 a3bf 2400 0fbd
00000250: 0715 babe e4f3 6d3e b685 453e a361 81bf
00000260: c9f2 813e 0573 71bd 4051 26be 881a c13e
00000270: 6546 87be 4d19 883e 647a 053e 2d4c 97bd
00000280: aac3 d1bf bf46 193d 3c76 60be 843e af3e
00000290: 3f3b b7be 664c 8b3c c52e 97be 77e8 833e
000002a0: e7e2 853d f97a 2a3e ed37 283d 6f1c 6dbd
000002b0: 4a6c 92bd 9267 3a3e 9a28 8abe f961 b2bc
000002c0: 7409 2a3f 18ab af3f e1c1 89be e599 85be
000002d0: 377d ab3f f4bd cfbe e3d2 723b c4ca eebd
000002e0: 5ed5 283d 1412 55bd f724 db3d d98c 213d
000002f0: 9dae e2bf 378c 253f b860 aabd 1362 cc3f
00000300: 8d5d 98be 79cd 3bbd ae6a 303d 039c 813c
00000310: 13ea 033c 7a14 7ebe eb71 9a3e d768 5e3f
00000320: a980 c8bd e266 473e 9b36 ea3d ec4d bfbd
00000330: 1862 1e3f 57d2 bd3d 9889 183e 64e6 94bd
00000340: e35c b6be a688 953e 4b41 11c0 4efb 763f
00000350: 9293 27be 9217 8abd 8479 acbe 6d90 afbe
00000360: 90a3 c83e 9a16 4e3f 2ecb f9be a5e4 19bd
00000370: bbd0 3dbf 2a21 10bf 6baf e0bd d49b 6dbe
00000380: ac37 a8bd dcac c1bd fd46 cbbd a766 edbd
00000390: 75b4 923f 4c27 733f ef5c 473f ba4e 183f
000003a0: 21f5 72be 6d42 7c3d 00a0 3cbd cc30 fc3c
000003b0: d7a7 54be 3265 67be 71c1 8cbf bcc4 63bf
000003c0: 9291 0b40 c2d6 1a40 4085 bc3d 9a06 febc
000003d0: e4f8 40be 3750 85be 53f3 9abc bae1 efbd
000003e0: 2780 1abe 8ca0 bbbd 90fb 87bf 81f5 d8bd
000003f0: 4d30 c4be 964e bd3d dcf6 50bf 7d45 6e3d

fc1.bias f4 [64]
-0.7088556 -0.17982721 -0.73708665 -0.6185604 0.066309735 -0.29531878 0.0629108 -0.2092366
0.18656257 -0.19899906 -0.1262724 -0.7517195 -0.055782285 -0.65387833 -0.58475393 -0.036593597
-0.81218415 -0.43885005 -0.16493365 0.3485903 -0.14513825 -0.37734106 -0.14474083 -0.38879263
0.31121755 -0.5245289 0.06825711 -1.0552772 -1.0025266 -0.30182087 0.11137832 -0.6266726
-1.056868 -0.71145475 0.17516312 -0.95278144 -0.098702386 -0.74955255 -1.0613906 0.041919846
0.15794832 0.045119025 -0.36128128 -0.70140815 -0.11758148 -0.99473274 -0.2619269 -0.11448173
-0.88571715 -0.3454381 -0.26258674 -1.5221858 -0.4198302 0.085494116 -1.3258739 -0.6088732
0.4400516 0.5683611 -0.8514821 -0.81455165 -0.39281222 -0.9502503 -0.09987374 -0.19807586
00000000: 9077 35bf a024 38be b6b1 3cbf f959 1ebf
00000010: 66cd 873d 0634 97be 61d7 803d 1f42 56be
00000020: 420a 3f3e 69c6 4bbe 8d4d 01be b070 40bf
00000030: f77b 64bd 9264 27bf 6fb2 15bf 2be3 15bd
00000040: 4deb 4fbf f4b0 e0be 5ee4 28be 6e7a b23e
00000050: 1f9f 14be d932 c1be f136 14be d40f c7be
00000060: e857 9f3e 8747 06bf 62ca 8b3d 5313 87bf
00000070: cb52 80bf 4488 9abe 511a e43d 9e6d 20bf
00000080: 7347 87bf e621 36bf f65d 333e 7ce9 73bf
00000090: 7a24 cabd ade2 3fbf a6db 87bf 25b4 2b3d
000000a0: 34bd 213e bace 383d dcf9 b8be 7c8f 33bf
000000b0: 8fce f0bd cea6 7ebf 481b 86be 6675 eabd
000000c0: 5cbe 62bf 43dd b0be c571 86be fcd6 c2bf
000000d0: fcf3 d6be 8a17 af3d 3cb6 a9bf 1ddf 1bbf
000000e0: 714e e13e 1d80 113f bbfa 59bf 7586 50bf
000000f0: af1e c9be 9b43 73bf 9a8a ccbd 66d4 4abe

fc2.weight f4 [64, 64]
-0.23519091 -0.27390298 -0.02175929 0.042149406 0.041897595 0.011509377 -0.032169413 -0.13151406
-0.111535095 0.085268624 -0.09895543 -0.16724409 0.020097269 -0.19293201 -0.08970024 0.035170175
-0.20210047 -0.06220564 0.05878495 -0.1461696 0.03766413 -0.10376024 -0.03427326 0.022350203
-0.19163163 -0.13789622 -0.08999897 -0.014484888 -0.16266795 -0.028003665 -0.003779193 -0.20343262
-0.071084715 -0.1930982 -0.01941716 -0.3034997 -0.16169591 0.015201223 -0.23624797 -0.055681493
0.0124747865 -0.0014073029 -0.21152906 -0.012144461 0.039889183 0.034032665 0.05617537 -0.17698446
-0.012778418 -0.1395068 -0.12433182 -0.21489327 -0.067147076 -0.16102956 0.13270317 0.052472733
-0.35732234 -0.04807771 -0.24344513 -0.25158775 -0.09586327 -0.04145452 0.0056429827 -0.41610423
0.2678572 -0.55173004 -0.12817582 -0.87952757 0.37213174 -0.20195697 -1.495268 -0.19593458
-0.015431259 -0.64554447 -0.4548935 -0.44237605 0.286779 -1.0219427 -0.028242406 -0.09723332
-0.8836009 -0.0636594 -0.2104533 0.2538062 0.26426896 -0.3984647 -0.22087155 -0.29968992
-1.3156621 0.12397082 0.08408691 -0.18324275 -0.81394964 0.090917625 -0.21922387 -0.57347494
-0.045550697 -0.25076354 -1.1395924 -1.1020352 -0.33387575 0.02271654 -0.57188857 -0.24443476
0.2695189 0.21054445 0.060788862 0.2849234 -0.031042052 -0.92094153 0.06877865 -0.09326934
0.12845138 -0.38487855 -0.01626866 -0.31983453 -0.6398936 0.27396926 0.15306742 -0.15834808
-0.21713509 0.60487527 -0.4460774 -0.67427963 -0.19414724 -0.1290468 0.056691002 -0.29267755
0.07781493 -0.32011968 -0.29343945 -0.11755525 0.025056299 -0.042329032 -0.51057005 -0.32781455
-0.06616164 -0.28517514 0.06701125 -0.35437647 0.0013347642 -0.2594176 -0.12656532 -0.06304644
-0.3694088 0.052268844 -0.102426775 -0.041196086 -0.24311833 -0.43649736 -0.064624354 0.08943355
-0.5122838 -0.16763906 -0.17645074 -0.036017865 -0.45136482 -0.047050174 -0.11015284 -0.095644295
-0.035068188 -0.18349664 -0.56956965 -0.062035993 0.00635076 -0.25261346 -0.29343408 -0.35370624
-0.019656356 -0.23102222 -0.09604048 -0.25781807 -0.32562965 -0.45663676 -0.023214448 -0.120421305
-0.15180056 0.07333746 -0.094464324 -0.05351351 -0.3867143 -0.059251815 -0.2985777 -0.13185386
-0.22197491 0.13056879 0.097219974 -0.4316651 -0.28647393 -0.18324997 -0.00022980786 -0.23085298
-0.16053112 -0.059115566 -0.18450412 -0.12998222 -0.030774267 0.026175268 -0.17468426 -0.1702571
-0.10497543 -0.149993 -0.027922785 -0.046350095 0.05034776 -0.16187967 -0.17465445 -0.039601352
0.046417166 -0.1715386 -0.0010070179 -0.052330673 -0.121778 0.021747682 -0.035274412 -0.04396515
-0.16708614 -0.0005639288 -0.08449078 -0.15252769 0.020525796 -0.16373487 -0.01846327 -0.14564782
0.12047489 -0.12612319 -0.07528931 0.038078472 -0.06901591 0.026870828 -0.090523526 -0.029769002
-0.16711594 -0.16961487 -0.028371071 0.043153085 -0.16234161 -0.04601743 0.024431214 -0.15535593
0.003664162 0.024036512 -0.08712606 -0.061289668 -0.06630912 -0.025333848 -0.127905 -0.051219042
-0.08363769 0.0007310883 0.031122938 0.02865996 0.035947233 -0.06690292 -0.001707963 -0.03996686
00000000: e3d5 70be 033d 8cbe 8a40 b2bc dba4 2c3d
00000010: d09c 2b3d d391 3c3c 13c4 03bd 9fab 06be
00000020: 836c e4bd 51a1 ae3d 25a9 cabd 0942 2bbe
00000030: 07a3 a43c f88f 45be c2b4 b7bd 9a0e 103d
00000040: 6df3 4ebe 57cb 7ebd 7dc8 703d 7cad 15be
00000050: b445 1a3d 4080 d4bd 1e62 0cbd c617 b73c
00000060: 153b 44be ab34 0dbe 6151 b8bd 0652 6dbc
00000070: 6d92 26be f167 e5bc 56ac 77bb a450 50be
00000080: dd94 91bd 89bb 45be bc10 9fbc 5064 9bbe
00000090: 9d93 25be 8d0e 793c fdea 71be 4712 64bd
000000a0: 0c63 4c3c 4075 b8ba 139b 58be 90f9 46bc
000000b0: d762 233d d665 0b3d 2518 663d 6a3b 35be
000000c0: 925c 51bc dfda 0ebe aea1 febd fb0c 5cbe
000000d0: 6884 89bd efe4 24be 57e3 073e a6ed 563d
000000e0: f4f2 b6be 22ed 44bd ae49 79be 1cd0 80be
000000f0: f653 c4bd 37cc 29bd c5e8 b83b 9d0b d5be
00000100: 9424 893e 2e3e 0dbf 8640 03be b828 61bf
00000110: 0d88 be3e cfcd 4ebe f164 bfbf 13a3 48be
00000120: 64d3 7cbc 6742 25bf cde7 e8be 1d7f e2be
00000130: b2d4 923e 05cf 82bf 9e5c e7bc 4322 c7bd
00000140: ab33 62bf dc5f 82bd 1281 57be e3f2 813e
00000150: 434e 873e 9103 ccbe 272c 62be f570 99be
00000160: 9e67 a8bf 6ae4 fd3d c235 ac3d fda3 3bbe
00000170: 015f 50bf 0533 ba3d 397c 60be 41cf 12bf
00000180: 5e93 3abd 1464 80be 2ade 91bf 7d0f 8dbf
00000190: c3f1 aabe 0a18 ba3c 4a67 12bf 1b4d 7abe
000001a0: 62fe 893e f798 573e befd 783d 7be1 913e
000001b0: e74b febc d3c2 6bbf d2db 8c3d ff03 bfbd
000001c0: c288 033e cd0e c5be da45 85bc 5ac1 a3be
000001d0: 11d0 23bf b345 8c3e b5bd 1c3e 0026 22be
000001e0: a958 5ebe 1bd9 1a3f 4264 e4be 979d 2cbf
000001f0: 89ce 46be d824 04be d334 683d d5d9 95be
00000200: 6f5d 9f3d bae6 a3be b23d 96be cfc0 f0bd
00000210: de42 cd3c 3561 2dbd b8b4 02bf 4fd7 a7be
00000220: c17f 87bd 7a02 92be 323d 893d d570 b5be
00000230: 41f3 ae3a 62d2 84be 579a 01be 7e1e 81bd
00000240: 2623 bdbe db17 563d 21c5 d1bd 3abd 28bd
00000250: 03f4 78be 957c dfbe c659 84bd f028 b73d
00000260: 0825 03bf 93a9 2bbe 81af 34be 7887 13bd
00000270: 4a19 e7be afb7 40bd d097 e1bd 28e1 c3bd
00000280: a9a3 0fbd 8be6 3bbe 51cf 11bf 7419 7ebd
00000290: 091a d03b 8d56 81be fe3c 96be fc18 b5be
000002a0: 5e06 a1bc 1791 6cbe dfb0 c4bd bb00 84be
000002b0: eeb8 a6be 4bcc e9be 3a2c bebc 729f f6bd
000002c0: 9b71 1bbe f331 963d 8376 c1bd fb30 5bbd
000002d0: 6bff c5be 08b2 72bd 2ddf 98be b304 07be
000002e0: 644d 63be d3b3 053e 441b c73d 3503 ddbe
000002f0: b6ac 92be e1a5 3bbe 94f8 70b9 b964 6cbe
00000300: 4562 24be 2a23 72bd a6ee 3cbe 0f1a 05be
00000310: 511a fcbc 846d d63c 6ee0 32be e157 2ebe
00000320: 5cfd d6bd c497 19be 53be e4bc 99d9 3dbd
00000330: 7439 4e3d c9c3 25be 9ed8 32be 0735 22bd
00000340: ed1f 3e3d d1a7 2fbe eafd 83ba b058 56bd
00000350: be66 f9bd 3228 b23c e77b 10bd cd14 34bd
00000360: a118 2bbe 9fd4 13ba 8109 adbd 3830 1cbe
00000370: b725 a83c 1daa 27be 4940 97bc b424 15be
00000380: 8abb f63d 7026 01be 4831 9abd 2cf8 1b3d
00000390: 3758 8dbd 3620 dc3c 6664 b9bd 1fde f3bc
000003a0: 7120 2bbe 85af 2dbe 736a e8bc 4ac1 303d
000003b0: e13c 26be c67c 3cbd f823 c83c a015 1fbe
000003c0: 7022 703b 38e8 c43c 266f b2bd e00a 7bbd
000003d0: 13cd 87bd ee88 cfbc 87f9 02be 0fcb 51bd
000003e0: 3d4a abbd 81a6 3f3a 88f5 fe3c 4bc8 ea3c
000003f0: 683d 133d 6604 89bd badd dfba 4ab4 23bd

fc2.bias f4 [64]
0.0013071068 0.74523836 0.19431202 -0.1425454 -0.07515967 -0.07717801 0.45005062 -0.08607048
0.43992132 -0.07346938 -0.0037175184 0.93873227 -0.15298265 -0.18899088 -0.18313599 0.7409449
-0.18535498 -0.057460483 -0.1827726 0.6970807 0.88405645 0.7277169 0.82306564 -0.19678418
-0.18819068 -0.025819821 0.74097234 0.7039801 0.124720536 -0.12608445 -0.079000145 0.3802892
-0.18574986 0.06505816 -0.07054049 -0.10446134 0.5855277 1.1052521 -0.005092175 0.43025544
0.9378762 0.64780605 0.18005306 -0.19486342 -0.091543436 0.3398169 -0.17296168 0.5696919
-0.17220917 -0.13144402 -0.17191264 0.3938936 0.048578274 0.87125766 0.7478393 0.28521195
-0.21218455 -0.111467764 -0.03278054 -0.10945771 -0.19624178 -0.13842969 -0.049033318 -0.09320797
00000000: 3a53 ab3a f1c7 3e3f bbf9 463e 6cf7 11be
00000010: 50ed 99bd 810f 9ebd 096d e63e b845 b0bd
00000020: 5e3d e13e 1d77 96bd 9ca1 73bb c250 703f
00000030: 7ca7 1cbe d386 41be 0088 3bbe 91ae 3d3f
00000040: b2cd 3dbe af5b 6bbd be28 3bbe e173 323f
00000050: 8651 623f a84b 3a3f 6eb4 523f cb81 49be
00000060: 0fb5 40be 1784 d3bc 5db0 3d3f 0a38 343f
00000070: 7b6d ff3d 481c 01be d4ca a1bd 44b5 c23e
00000080: 3635 3ebe 363d 853d 8877 90bd d4ef d5bd
00000090: 25e5 153f e778 8d3f 43dc a6bb 714a dc3e
000000a0: a818 703f 9ed6 253f d45f 383e 478a 47be
000000b0: 207b bbbd 7bfc ad3e de1c 31be 54d7 113f
000000c0: 9a57 30be 4399 06be de09 30be 6cac c93e
000000d0: 03fa 463d be0a 5f3f 6572 3f3f 4d07 923e
000000e0: e846 59be 3649 e4bd e344 06bd 5d2b e0bd
000000f0: 9bf3 48be 83c0 0dbe 29d7 48bd d2e3 bebd

fc3.weight f4 [5, 64]
-0.066572115 0.05057811 0.3065864 0.06091544 -0.08982168 0.08314443 0.35522962 0.023805186
-0.09145275 0.041392535 -0.021922221 0.2483225 0.11142252 -0.051296543 -0.07315611 -0.12528926
-0.021958651 0.027658205 -0.021503385 -0.3277844 0.6460972 -0.022892756 -0.27343604 0.039561868
-0.03302955 -0.06585984 0.036658894 -0.15582508 -0.08273848 0.11028547 0.062163822 -0.2529754
0.044395488 0.21620925 -0.03229957 -0.105345726 -0.4145227 -0.3196015 -0.13665645 0.0296552
-0.21147764 -0.12568603 0.14832224 -0.03412127 0.029104533 0.092493005 -0.0244043 -0.14024337
-0.0033791277 0.06508499 -0.03766045 0.04723184 0.07593283 -0.32702032 0.23140915 0.79677635
-0.16322674 -0.13502626 0.011574365 -0.11001278 -0.1299107 0.05159016 -0.09584027 0.036458895
0.008162328 -0.101109214 -0.020251332 -0.11730467 -0.05397208 -0.061628837 -0.28777474 -0.0022772872
0.4842759 -0.06442866 -0.005325438 -0.5409759 -0.017374655 0.015748594 0.019431043 -0.034166377
-0.06805032 0.03432559 -0.030119095 -0.43946132 0.31842726 0.46918696 -0.3476365 -0.093712375
-0.021405173 -0.11561466 -0.6039646 -0.29321322 -0.42686737 -0.049607318 0.013578765 -0.53874755
0.009729694 -0.05437743 -0.061463233 0.035147037 0.33101636 0.47055638 -0.043884967 -0.13290045
0.93014336 -0.12201395 -0.107650794 0.0056454525 -0.02231121 -0.35114935 -0.04538209 -0.105523996
-0.11405534 -0.047318123 0.011767073 0.11710573 -0.13334839 -0.010374018 0.49253687 -0.29722163
-0.074967116 0.032752182 -0.1167317 0.052007716 -0.019335367 -0.013859237 -0.21576679 -0.027848357
-0.05735398 0.54870325 0.10223555 0.05236119 -0.01363155 0.12272277 -0.7587315 -0.03407176
0.40578485 0.09144362 0.06952327 0.4812105 0.18722995 -0.052903824 0.07768106 0.6041406
0.026624333 0.0056992946 0.10136496 -0.31435984 -0.5092077 0.07849782 -0.2635096 0.094774105
-0.02487363 0.057509854 0.5088574 -0.23222348 0.8037914 0.18285874 0.047717474 -0.21888766
0.14599204 0.21022902 -0.11808977 -0.05522152 -0.08187505 -0.09996298 0.02318049 -0.32107022
-0.30335927 0.5757544 0.16964148 -0.02954027 0.106451005 0.33241993 0.040946428 0.008235985
0.050280467 0.057654154 0.03042832 -0.37152404 0.08583721 0.4407424 -0.4240561 -0.15091719
0.1585284 0.10778849 0.09727083 0.007398473 0.0450948 0.1526931 0.03958447 0.18406284
0.009582495 -0.4929682 -0.0011133851 0.093061194 -0.00094456633 0.066514745 0.3696193 0.1543554
-0.29522574 -0.02200269 0.07085845 0.29351598 0.05440275 0.14840007 -0.10243756 -0.2764756
0.17151178 0.08684741 0.021611704 -0.06558179 -0.77626747 -0.32594174 0.9987264 0.056671847
0.06488382 0.021410746 -0.52691644 0.0072404747 -0.16699372 2.4015471e-05 -0.20819558 0.31316498
0.078940846 0.0024766696 -0.08119835 -0.03077072 -0.070274144 -0.32906455 -0.043093562 0.23695299
-0.031468656 -0.3317959 0.004110181 0.17741266 0.08276963 0.19100034 0.07305711 0.5227021
0.09987316 -0.043752275 0.019102942 0.19263175 0.037994582 -0.29774582 0.22622283 -0.24354388
-0.0021237596 0.07114455 -0.08053578 0.09838464 0.13810335 0.108411595 0.021269238 0.033094205
00000000: f656 88bd fe2a 4f3d e5f8 9c3e 7882 793d
00000010: 6ef4 b7bd a047 aa3d a8e0 b53e 1803 c33c
00000020: 944b bbbd 388b 293d 3b96 b3bc 4148 7e3e
00000030: 7d31 e43d 531c 52bd dfd2 95bd d44b 00be
00000040: a1e2 b3bc 7693 e23c de27 b0bc 5bd3 a7be
00000050: a066 253f 9789 bbbc cfff 8bbe a00b 223d
00000060: fe49 07bd 86e1 86bd a327 163d 9c90 1fbe
00000070: cb72 a9bd 59dd e13d 7e9f 7e3d fe85 81be
00000080: 0bd8 353d f565 5d3e 8e4c 04bd 80bf d7bd
00000090: 523c d4be cfa2 a3be abef 0bbe 76ef f23c
000000a0: 988d 58be d7b3 00be c9e1 173e bfc2 0bbd
000000b0: a16c ee3c f96c bd3d 87eb c7bc f59b 0fbe
000000c0: 5b74 5dbb 474b 853d d841 1abd 2d76 413d
000000d0: ac82 9b3d 356f a7be 85f6 6c3e 89f9 4b3f
000000e0: e924 27be 5344 0abe 68a2 3d3c 614e e1bd
000000f0: 4f07 05be 3450 533d e747 c4bd ec55 153d
00000100: 49bb 053c 5912 cfbd 1fe6 a5bc 6e3d f0bd
00000110: d411 5dbd 856e 7cbd 3657 93be 8a3e 15bb
00000120: 03f3 f73e 2cf3 83bd 0381 aebb 667d 0abf
00000130: 4b55 8ebc 3203 813c da2d 9f3c 0bf2 0bbd
00000140: f75d 8bbd fd98 0c3d 52bc f6bc 1301 e1be
00000150: e608 a33e 4639 f03e 69fd b1be 46ec bfbd
00000160: e759 afbc 61c7 ecbd 6d9d 1abf 0b20 96be
00000170: 5c8e dabe 0b31 4bbd 7879 5e3c 5ceb 09bf
00000180: 4b69 1f3c deba 5ebd dfc0 7bbd 57f6 0f3d
00000190: fa7a a93e c4ec f03e b9c0 33bd 0e17 08be
000001a0: e01d 6e3f 73e2 f9bd 0578 dcbd 7dfd b83b
000001b0: 00c6 b6bc d9c9 b3be 92e2 39bd f71c d8bd
000001c0: d995 e9bd a6d0 41bd aeca 403c 21d5 ef3d
000001d0: 7b8c 08be c9f7 29bc cb2d fc3e 6f2d 98be
000001e0: 5c88 99bd 2727 063d 0811 efbd 0b06 553d
000001f0: 3465 9ebc da11 63bc f8f1 5cbe 3d22 e4bc
00000200: 02ec 6abd d177 0c3f df60 d13d b078 563d
00000210: dd56 5fbc 1356 fb3d 3a3c 42bf d48e 0bbd
00000220: 08c3 cf3e cb46 bb3d 3762 8e3d 3961 f63e
00000230: 35b9 3f3e aeb1 58bd 3f17 9f3d f5a8 1a3f
00000240: 461b da3c 26c1 ba3b 6f98 cf3d c6f3 a0be
00000250: 705b 02bf 77c3 a03d bbea 86be ed18 c23d
00000260: c8c3 cbbc 748f 6b3d 7b44 023f fecb 6dbe
00000270: 46c5 4d3f 523f 3b3e 6673 433d 1624 60be
00000280: f07e 153e 4746 573e 0dd9 f1bd f62f 62bd
00000290: 1bae a7bd 64b9 ccbd 03e5 bd3c 5163 a4be
000002a0: e851 9bbe a464 133f 7fb6 2d3e 70fe f1bc
000002b0: fc02 da3d f232 aa3e 71b7 273d 3af0 063c
000002c0: e4f2 4d3d c326 6c3d d044 f93c 6638 bebe
000002d0: 6bcb af3d fda8 e13e e21d d9be 098a 1abe
000002e0: 4555 223e 36c0 dc3d ee35 c73d e46e f23b
000002f0: 53b5 383d 945b 1c3e 5323 223d f87a 3c3e
00000300: e6ff 1c3c 5466 fcbe 01ef 91ba de96 be3d
00000310: c69c 77ba e238 883d be3e bd3e 580f 1e3e
00000320: d427 97be fc3e b4bc 3c1e 913d ba47 963e
00000330: 6bd5 5e3d 30f6 173e c9ca d1bd 368e 8dbe
00000340: c9a0 2f3e 0edd b13d 070b b13c bf4f 86bd
00000350: 77b9 46bf d6e1 a6be 89ac 7f3f bd20 683d
00000360: cfe1 843d 9765 af3c ffe3 06bf 8141 ed3b
00000370: 6700 2bbe d574 c937 3931 55be 2957 a03e
00000380: bdab a13d 9f4f 223b 524b a6bd e112 fcbc
00000390: e4eb 8fbd 267b a8be e082 30bd cea3 723e
000003a0: 47e5 00bd 27e1 a9be b2ae 863b aaab 353e
000003b0: 2083 a93d 9895 433e f79e 953d cecf 053f
000003c0: 4d8a cc3d 9635 33bd c67d 9c3c 4241 453e
000003d0: 35a0 1b3d 2472 98be f5a6 673e 9163 79be
000003e0: c62e 0bbb 3cb4 913d f1ef a4bd e37d c93d
000003f0: f76a 0d3e e606 de3d d33c ae3c ca8d 073d

fc3.bias f4 [5]
-0.2402228 0.5745764 -0.08835395 0.039163258 -0.45412964
00000000: f7fc 75be 7017 133f eaf2 b4bd a769 203d
00000010: ae83 e8be
