maddpg1targetactor.pth (torch, 22551 bytes, 6 tensors)

fc1.weight f4 [64, 10]
000000 d7 b5 21 bc 4d 59 3d 3f 23 9a 80 be 70 62 ce 3e
       -0.009870014 0.7396439 -0.25117597 0.40309477
000010 23 93 5b 3e 39 9f bf 3e 20 74 19 be ac eb 0a 3f
       0.21442847 0.37426165 -0.14985704 0.54265857
000020 ae 12 d6 3e 4d 50 67 bf 3f 70 ad 3f 7d 82 ba 3e
       0.41811126 -0.90356904 1.354988 0.3642768
000030 d8 90 9f 3d ae 55 40 3d 4c 29 f7 be cd 7b a8 be
       0.07791299 0.04695671 -0.48273695 -0.32906953
000040 46 35 4b be d8 79 87 bd bc a6 7f 3e 46 c8 0e be
       -0.19844541 -0.06615037 0.24965948 -0.13943586
000050 f3 51 b7 3b fb d0 36 bf 6e 81 b0 3d b6 7d 91 be
       0.005594486 -0.7141263 0.08618437 -0.28416222
000060 46 ee 84 be a6 78 dd 3e 72 d1 9b bd 96 b7 ab 3e
       -0.25963038 0.4325611 -0.07608308 0.33538502
000070 f6 13 0e 3f 85 1e 4e bf ab 33 48 be 3d f3 52 bd
       0.5549921 -0.8051532 -0.1955096 -0.0515015
000080 90 eb b5 bd ef ee 18 3e e9 c6 ab 3e 9a 87 19 be
       -0.088828206 0.14934896 0.33550194 -0.14993134
000090 67 f4 a1 bc 97 f4 29 be 53 9c b3 3e eb ef 10 be
       -0.01976986 -0.1659721 0.35080203 -0.14154021
0000a0 52 91 f1 3e 5b 88 ac bf 94 85 bf 3e a4 f8 c7 3e
       0.47181183 -1.3479112 0.374066 0.39056885
0000b0 4b bd 8e 3b 00 fe ba 3b 80 95 f1 be da ab 38 3f
       0.0043560616 0.0057065487 -0.47184372 0.72137225
0000c0 1d 65 d4 3e bd ce 9d be 47 ca 15 3f aa b2 a3 3c
       0.41483393 -0.3082179 0.58511776 0.019982655
0000d0 8a 0b ca 3d b4 31 e2 bd 7f b3 f7 bd 63 99 80 be
       0.09865482 -0.11044636 -0.12094783 -0.25117025
0000e0 47 f7 62 be 65 10 22 bf cb 2f 80 be 30 ee 1e 3d
       -0.22164641 -0.63306266 -0.25036463 0.038801372
0000f0 79 c1 02 40 b0 2a ea 3f e3 1c 94 3e 4c 7e d1 bd
       2.0430586 1.8294277 0.2892829 -0.10229167
000100 d8 b7 06 3f ef f3 59 bb 24 09 96 bd fb 35 43 be
       0.52624273 -0.0033256968 -0.07325962 -0.1906356
000110 49 3a e6 bc c4 2a 89 3e 97 dd 27 be 48 47 26 bd
       -0.028103964 0.2679044 -0.16393124 -0.040595323
000120 fa 0d 0a 3e 94 b2 8e bd 20 a7 61 3f 96 20 ef 3e
       0.13481894 -0.06967655 0.8814564 0.4670455
000130 c7 0b 5d be 1f 5c 8e be 9a ee 1f 3f 56 2e a4 be
       -0.21586524 -0.27804658 0.6247345 -0.32066602
000140 d5 16 91 3d ab 73 2b 3e 76 26 e3 3d 88 1b b2 3d
       0.07084433 0.16743343 0.1109132 0.086966574
000150 86 1e a6 3e e8 77 14 3e ce 90 8d 3e 89 a7 8e bd
       0.32445163 0.14498866 0.2764954 -0.069655485
000160 f7 20 6c bd c7 31 7a bf 3a 6f 9f 3d 25 0c 91 3e
       -0.057648625 -0.97732204 0.07784887 0.28329578
000170 7e 82 28 3e 25 24 80 be 29 19 2b 3f c1 f3 0e bf
       0.16456029 -0.25027576 0.66835266 -0.5584069
000180 ff a5 e5 bd 73 50 42 3e e0 e4 36 3c e1 7a 03 3f
       -0.11213302 0.18976001 0.0111629665 0.51359373
000190 ac 0f a3 3f 36 c6 55 be 89 0e c1 3e 93 f2 1e 3e
       1.2739158 -0.20876393 0.37706402 0.15522222
0001a0 29 ff 81 3e b1 2b 53 3d 94 bc 5f be f0 2d e8 3e
       0.25389984 0.05155534 -0.2184928 0.45347548
0001b0 ee c2 50 bd 52 35 1c 3e e4 c5 aa 3f 5d 92 07 bf
       -0.05096715 0.15254715 1.3341641 -0.5295771
0001c0 e4 9e fa 3d d7 4e 6b be 02 de 03 3f 06 0c 20 be
       0.12237337 -0.22979294 0.5151063 -0.15629587
0001d0 cb c4 49 be 9b 73 d7 3d b9 94 3e be 49 36 a1 bd
       -0.19703977 0.10520097 -0.1861142 -0.07871682
0001e0 18 e5 d6 3f 6a 96 ea bf ea 21 34 bd 1b 79 ac be
       1.6788664 -1.8327153 -0.043977655 -0.33686146
0001f0 48 04 69 3e b7 9c 8a be aa f3 ca be ef a3 9f be
       0.2275554 -0.2707269 -0.39639026 -0.3117976
000200 78 f2 9c bd cf 87 ba bd f4 e1 12 be 4c d4 59 3e
       -0.07663435 -0.09107935 -0.14344007 0.21272391
000210 3c 55 3b 3e e7 6a 4b bf 96 a1 84 3e 9c 61 63 bf
       0.18294233 -0.79459995 0.2590453 -0.88820815
000220 ff 96 36 3e 6c 81 52 be 43 bb 79 3e 68 d3 50 3f
       0.17831038 -0.20557183 0.24387841 0.8157258
000230 37 ee e8 3f 54 48 03 40 82 6e a6 3e bd 2a 65 3c
       1.8197697 2.0512896 0.32506186 0.01398724
000240 60 c8 1a 3f 89 a6 ac 3e b1 d1 34 bd a4 8f 42 3e
       0.60462 0.33720806 -0.04414529 0.19000107
000250 48 50 ca 3e f2 2f ce 3d dd 3f 43 3f fa 32 8f 3f
       0.39514375 0.100677386 0.7626932 1.1187432
000260 f1 60 87 3e 30 ff c0 bb ad e0 8b 3e c3 d5 7a bd
       0.26441148 -0.0058897957 0.27319852 -0.061239015
000270 da 53 b6 3d bb e3 ac be f5 3f 90 3e 5e 24 96 3e
       0.08902712 -0.33767495 0.28173795 0.2932462
000280 94 b1 a6 3f 85 79 5e bf bb 5a c6 bb 58 d8 88 be
       1.3022943 -0.86904174 -0.0060532964 -0.26727557
000290 da f5 c9 bc d0 4d 0b be 09 df e6 be 87 9f ef 3e
       -0.024653364 -0.13603902 -0.45092037 0.46801397
0002a0 da 4c 69 3e 56 9c 18 be b4 81 09 bd a5 c1 23 3f
       0.22783223 -0.14903387 -0.03357096 0.63967353
0002b0 b9 b0 09 bc 85 5b 14 3d fd 0e a5 bd d8 86 7f bd
       -0.00840395 0.036220092 -0.080594994 -0.062384456
0002c0 1c bd da 3d dc 97 e9 3d b0 e2 5c 3e 10 46 8b bf
       0.10680601 0.11405918 0.2157085 -1.0880756
0002d0 2c c7 e3 bd 0c 4b e3 be 48 fe 23 bd ae da 73 3a
       -0.111219734 -0.44393194 -0.040037423 0.00093023
0002e0 0d 09 1b 3d 89 2b f3 3d e4 ec 07 bb 72 66 f1 3d
       0.03785043 0.11873538 -0.0020740563 0.11787118
0002f0 b0 f2 94 3e 05 d5 21 3f b1 6c d6 3f d7 95 d0 be
       0.29091406 0.63215667 1.675192 -0.4073932
000300 00 44 a0 3d d6 f0 ce bd db 0c 86 3e b7 9c ac bd
       0.0782547 -0.101045296 0.26181683 -0.084283285
000310 a8 c1 4f be 69 d6 3b 3e a7 7e 00 3f 7d 10 9b be
       -0.20288718 0.1834351 0.50193256 -0.30286017
000320 ac cf 5f 3f 9b eb 46 bf 60 41 b7 bd 8f e7 0c 3d
       0.8742626 -0.77703255 -0.08948016 0.03440052
000330 4f 02 94 3d 97 df a2 be 28 35 72 be ba af 6c bd
       0.07227003 -0.3181121 -0.2365309 -0.057784773
000340 27 29 b7 3e eb 39 a3 be 38 89 42 be 3f 46 c9 be
       0.35773584 -0.31880125 -0.18997657 -0.39311406
000350 fd 7a 2e 3d f3 b1 94 be 4b ce 77 bb d5 46 a9 be
       0.04259776 -0.29042014 -0.003781217 -0.33061853
000360 3d de f5 3d d2 d2 e6 3d 13 0f f6 3d f7 40 21 3f
       0.12005279 0.112706795 0.12014594 0.62989753
000370 83 f6 4b 40 a9 72 0c c0 58 f3 a8 3e 25 76 a9 bd
       3.186921 -2.1944983 0.32998157 -0.082744874
000380 2e e6 e0 3c 7e 61 68 be 5a b4 96 3e 26 af 87 3d
       0.027453508 -0.2269344 0.29434472 0.06625204
000390 ec 7f 1b 3f 37 cb ff be 56 a5 32 bf 76 f7 84 3f
       0.6074207 -0.49959728 -0.6978353 1.0388019
0003a0 cc c4 2f 3d a6 08 e8 3d a8 87 c9 be 5c 17 2e 3e
       0.04291229 0.113297746 -0.3936131 0.17001098
0003b0 69 62 14 3e cd b4 16 bf d8 4f d0 3e 8c 9a 62 3e
       0.14490665 -0.5886963 0.40685916 0.22129267
0003c0 73 5c 16 3f 7c d1 08 3f b3 62 42 3d 99 e7 e9 bb
       0.58734816 0.5344465 0.04745741 -0.0071382043
0003d0 8a bc 90 3d ec 2b 2c bd 35 9b 92 be 23 6f 6c bd
       0.07067211 -0.042034075 -0.2863404 -0.057723176
0003e0 70 0b 0a bf 05 2d 38 bf b2 eb 99 bf 7e cd a7 3f
       -0.539237 -0.71943694 -1.2025054 1.3109586
0003f0 36 5b 4b 3d 33 ed 1c bd 0b 08 29 be 80 70 b5 bd
       0.049647532 -0.03831215 -0.16506974 -0.08859348

fc1.bias f4 [64]
000000 5e 5b 2a bf 1f c7 06 bf f9 02 fc bd 77 39 ff bd
       -0.66545665 -0.52647585 -0.123052545 -0.124621324
000010 fb 87 50 bd 01 ef 33 3e 03 ff 35 3e 72 45 35 bf
       -0.05091093 0.17571642 0.1777306 -0.7080909
000020 87 a0 e3 3e 70 26 2f bf 21 6f 1b be bb 6f 23 3e
       0.4445841 -0.68418026 -0.15179111 0.1596059
000030 9b f8 9b be 4e 60 2e bf ff 7d 56 be 4c f3 1e bf
       -0.30463108 -0.681157 -0.20946501 -0.6208999
000040 87 1c 2b be 62 69 18 bd cb b3 a6 be cc 92 4f bf
       -0.16710101 -0.037209876 -0.32559046 -0.8108337
000050 7a 6a 5a bf 1b ea 55 be cf 2f 24 bf 4c c0 3e bf
       -0.8531872 -0.20890085 -0.6413545 -0.7451217
000060 72 d9 9e be a6 dd 38 bf 0e f7 18 bf 24 30 c3 3d
       -0.31025273 -0.7221321 -0.59751976 0.095306665
000070 dc be 0c bf 75 e1 85 bf d8 cf a8 be 57 f2 3c be
       -0.5497873 -1.0459429 -0.32971072 -0.1845182
000080 20 e8 ae be 98 26 ea 3e 6d f9 18 be 62 09 ac be
       -0.34161472 0.4573257 -0.14938898 -0.3360091
000090 f6 12 b1 be dc 8e fa 3d 42 7a 9d be a5 7f 09 be
       -0.3458478 0.122342795 -0.30757338 -0.13427599
0000a0 df 35 41 bf a2 55 5f bf 7c e5 50 bf dc a5 11 be
       -0.75472826 -0.8724004 -0.81600165 -0.14223427
0000b0 87 8b c4 3d f2 8e 58 bf a7 b4 31 bf 16 6d 13 bf
       0.09596925 -0.8459312 -0.6941628 -0.57588327
0000c0 69 c8 1b bf 86 86 a4 be c5 a6 7f 3e fe 06 99 be
       -0.60852677 -0.32133883 0.24965961 -0.29888147
0000d0 8b 82 3a bf 12 55 ce be 35 19 af bd de da 03 3c
       -0.7285544 -0.40299278 -0.0854973 0.0080477875
0000e0 47 d5 55 be ab df 9d be ac 76 8d bf 7b 70 bd be
       -0.2088214 -0.30834708 -1.1051841 -0.36999878
0000f0 64 0f 20 be 98 97 13 bf 5f b3 3f 3e 61 fa c4 be
       -0.15630871 -0.5765319 0.18720768 -0.38472274

fc2.weight f4 [64, 64]
000000 53 93 39 be 77 42 24 3c c9 b6 c3 bd e0 b9 c1 3d
       -0.18122606 0.010025612 -0.09556348 0.09459281
000010 de 7d db bd 81 91 91 bc d1 b5 e3 3c 26 39 64 be
       -0.10717367 -0.017769577 0.027796658 -0.22287425
000020 52 16 54 be 39 8d 8e bd b0 9c 06 3e 10 34 85 bc
       -0.2071164 -0.0696053 0.13145709 -0.016260177
000030 b4 1d 9f be bf 1f ae bc 2d a9 7a be 2a 9e 44 3d
       -0.3107735 -0.021255372 -0.24478598 0.0480024
000040 44 fe c3 bc 65 27 a1 be 90 ed 41 bd 5b f5 0f bd
       -0.023924954 -0.31475368 -0.047345698 -0.0351461
000050 15 27 f7 3c e4 96 7e bb 07 97 58 bd 0c 06 3e be
       0.030170003 -0.0038847262 -0.052878406 -0.18556994
000060 a1 ab 03 bf bc 00 eb bc 8c 37 86 bd 23 55 4f bd
       -0.5143376 -0.028686874 -0.065535635 -0.050618302
000070 7c a3 19 be 4d ff a6 be aa 4d 09 3d b6 e4 57 3e
       -0.1500377 -0.32616654 0.03352133 0.2108334
000080 1e 69 72 be 80 bd 44 be 5c 6f 25 be 09 ea 41 be
       -0.23672912 -0.19212914 -0.16155761 -0.18936934
000090 51 79 3d be 2a f6 7e 3d d5 6e ef bd 91 5f 44 be
       -0.1850331 0.06224648 -0.116910614 -0.1917708
0000a0 ff 36 9b bc c0 f7 0f be 66 b2 57 3d 92 d8 1d 3d
       -0.018947123 -0.14059353 0.05266037 0.038536616
0000b0 95 66 d4 bd 90 20 01 3d 04 1d d6 bd 34 f6 39 be
       -0.103711285 0.031525195 -0.10454753 -0.18160325
0000c0 49 5f a3 bd ea 37 14 be 89 fb 2a 3d 7a 9e 95 bd
       -0.079771586 -0.14474455 0.04174379 -0.07305618
0000d0 fa f1 df bd 6d e8 39 bd bb c2 a7 bd 61 af 35 be
       -0.10934825 -0.045387674 -0.08191439 -0.17742683
0000e0 e6 95 7e bd 6e d3 91 3d 9f bc 10 bd c4 cd 0e be
       -0.062154673 0.07120405 -0.035336133 -0.13945681
0000f0 b8 63 76 be fa 70 0e be ae e2 3c bd 09 3b 4f 3d
       -0.24061477 -0.13910285 -0.046114616 0.05059341
000100 55 3c 4e be 99 01 05 be 16 dc 55 3d 5a 86 34 be
       -0.20140202 -0.1298889 0.052211843 -0.17629376
000110 e1 20 c2 bb 24 cf 22 be 07 e6 b9 bd b7 96 2b 3c
       -0.0059243296 -0.1589933 -0.09077077 0.010472945
000120 04 80 18 be ae 7d b5 3c f5 85 6d bd 8c 36 df bd
       -0.14892584 0.022154655 -0.05798908 -0.10899076
000130 a4 cf 35 bd 20 ca 71 bd 0a 45 67 bd 17 60 81 be
       -0.044387475 -0.059030652 -0.056462325 -0.25268623
000140 54 af 69 be f9 f1 56 be b8 9c 8e bc d7 60 ca bd
       -0.22820789 -0.20990743 -0.017408714 -0.09881752
000150 28 b3 36 be 15 bb 3d be c4 9a 4a 3d 82 3b 6c be
       -0.1784178 -0.18528397 0.049464002 -0.23069575
000160 20 36 84 be 65 58 22 be 4e 2f 96 3d 3c 7d aa bd
       -0.25822544 -0.15854032 0.073332414 -0.08324668
000170 38 d1 16 be b3 41 03 be 60 d0 37 3d 2f 0c 1e 3d
       -0.14728248 -0.12818031 0.044876456 0.038585838
000180 93 66 91 bd 09 6d ce bc 28 d9 44 be 9b 19 21 bd
       -0.070996426 -0.025198476 -0.19223464 -0.03933106
000190 93 3c c4 bd 1a 48 c5 bd 57 99 cb bd e1 f0 62 be
       -0.09581866 -0.09632893 -0.09941357 -0.221622
0001a0 a7 6c 81 bd 32 12 d5 3d 98 51 2f bd 20 91 19 be
       -0.06319552 0.10403861 -0.042802423 -0.14996767
0001b0 98 9a da bc 13 94 04 be f4 c1 bf 3b 03 7f 01 3b
       -0.026685044 -0.12947111 0.0058519784 0.0019759543
0001c0 ee 97 bf bd cd 77 ac bd f5 2b 90 be 1d 07 6a be
       -0.0935515 -0.08421288 -0.28158537 -0.22854276
0001d0 90 f4 dd bd 53 23 83 bd 91 99 a8 bd 94 da 48 be
       -0.10837662 -0.06403222 -0.082324155 -0.19614631
0001e0 2e 37 f0 bd a5 bd 6f bc 71 93 5f 3c 8d db 84 be
       -0.11729275 -0.014632617 0.013645993 -0.25948754
0001f0 0a f0 66 be 76 8c f7 bd 5f c3 7c be 7a bb 3c be
       -0.22552505 -0.12087338 -0.24683903 -0.18430892
000200 78 ac b5 bc 10 4d 9d 3c 3f 94 b3 bd 80 a6 69 bb
       -0.022176966 0.019201785 -0.0876851 -0.003565222
000210 8d bc 85 3c 40 42 fe 3c 9c 13 f9 bd 4f bf 42 bd
       0.01632526 0.03103745 -0.12161943 -0.047545727
000220 73 c0 04 be 56 04 8f 3c 5c b0 42 bd cf 7c fd bd
       -0.12964039 0.017458122 -0.04753147 -0.12377321
000230 dd 58 0f bc 98 80 36 3a 80 bf b6 bd 58 cd 6e 3d
       -0.008749214 0.0006961911 -0.089232445 0.0583013
000240 ca 36 f0 bd e5 c8 3b 3d ba e1 c3 bd 3c be cc ba
       -0.117292 0.045845885 -0.09564538 -0.0015620659
000250 ef b2 84 bd 08 b1 92 3c 79 3b 70 bd 74 1a d2 bd
       -0.064794414 0.01790668 -0.058650468 -0.10258952
000260 28 83 19 bd d2 dc ec bd f5 68 04 bd a3 10 c7 bb
       -0.037478596 -0.11565556 -0.032326657 -0.0060749813
000270 1a ee b2 bd 84 ee 6e bd c0 48 d9 bc 77 c0 0a bd
       -0.087368205 -0.058332935 -0.026523948 -0.033874955
000280 28 39 14 be eb 82 38 bd f8 07 d1 bd 18 bd d3 bd
       -0.14474928 -0.045046728 -0.10206598 -0.10338801
000290 89 42 2d be 5b 81 c1 bd b0 7f 98 bd fd d0 e0 bd
       -0.16919912 -0.09448501 -0.074462295 -0.10977361
0002a0 cf e3 0c be 24 d0 46 be 94 5d 17 bd 2d c2 4c bc
       -0.13758777 -0.19415337 -0.036954477 -0.012497467
0002b0 c2 52 75 bd 00 65 5e ba c0 15 6b bb f6 6d 70 bd
       -0.059893377 -0.0008483678 -0.0035871118 -0.058698617
0002c0 80 10 76 bd 83 09 1f 3b 55 64 e6 bd b2 e6 40 3d
       -0.06007433 0.0024267144 -0.112496056 0.04709501
0002d0 8a d8 80 bd 38 99 cc bd 1e f0 9d bb 73 69 87 bd
       -0.062913015 -0.09990162 -0.004819884 -0.0661191
0002e0 1c 61 02 3c 91 78 87 bd 09 e3 63 3d fc 0c 0a bd
       0.007957723 -0.06614793 0.05563644 -0.03370379
0002f0 3b cc 0f be 50 55 11 be c3 d4 93 3d 2e 05 2d bc
       -0.14042751 -0.141927 0.072183155 -0.010560317
000300 3c b8 5b bd c4 d5 ef bd 02 fa d3 39 a0 b4 51 be
       -0.053642496 -0.117106944 0.00040431326 -0.20479059
000310 a1 f1 da bd 0f 39 8e bd d2 24 30 be 0b 09 83 bd
       -0.10690618 -0.06944477 -0.17201546 -0.06398209
000320 ef 9f 43 be cd f5 db bd 01 b3 87 bd 41 85 28 be
       -0.19103979 -0.10740242 -0.06625939 -0.16457082
000330 94 4c f2 bd a3 9e 59 ba 93 9b 61 3c 07 2d bc bd
       -0.11831012 -0.0008301532 0.013770002 -0.09188276
000340 43 1d 0a be 22 ef 0e bd 36 f6 c7 bd c3 9a db bc
       -0.13487725 -0.034896024 -0.09763758 -0.026807195
000350 fb c9 f7 bd 4e 28 56 bd ce 49 8b bd f1 31 26 be
       -0.120990716 -0.05228453 -0.068011865 -0.16229989
000360 fc d7 73 bb e5 ac 2f be 87 d4 04 be 58 97 03 be
       -0.0037207594 -0.17155798 -0.12971698 -0.12850702
000370 69 e8 2e be 5d d2 4a bd 88 bf 44 3b df 6c 70 bc
       -0.17080845 -0.049517024 0.0030021388 -0.014674394
000380 9f b1 c5 3d 49 9a 2e be 8b 1c 2d bc 50 56 15 be
       0.09653019 -0.17051043 -0.010565887 -0.14583707
000390 7e 3d b5 3c a6 a8 f8 bd 88 46 8b bc 41 84 24 be
       0.022124048 -0.12141542 -0.017001405 -0.16066076
0003a0 0c 2e 74 3c 20 14 19 be c6 04 d8 bd f4 18 58 be
       0.014903557 -0.14949083 -0.105477855 -0.21103269
0003b0 7e a7 e9 bd a7 32 ed bd 7b e4 4a be 9a 3b a9 bd
       -0.114089 -0.11581927 -0.19813721 -0.08263321
0003c0 e4 7b 5b bd 05 ea a1 bd f3 3d cf bd 8c e9 18 be
       -0.05358495 -0.07905964 -0.10119238 -0.14932841
0003d0 3b 7d 3e bd 19 54 62 be 7e 2d 0c bd 0c 58 51 be
       -0.046506148 -0.22102393 -0.034223072 -0.20443743
0003e0 a8 28 5d be a9 35 b4 bb 7e f8 1a be 76 0f 16 bd
       -0.2159754 -0.005499561 -0.15133855 -0.03663584
0003f0 56 c0 38 be 59 a5 ef bd 46 ef 32 be fd 24 1e be
       -0.1804212 -0.117014594 -0.17474088 -0.15443797

fc2.bias f4 [64]
000000 cf 6a 55 3d 38 4d 4f be b3 02 4a be 44 45 8a bd
       0.052103814 -0.202443 -0.19727592 -0.067514926
000010 7b df 6f 3e 53 99 2b bd ea e8 5d bd 04 74 da bc
       0.23425095 -0.04189427 -0.054177202 -0.026666649
000020 f4 73 2a be 5c 94 31 3d f5 03 e2 bd ed 68 76 3e
       -0.16645795 0.043354377 -0.11035911 0.24063464
000030 8e bc 16 3d 90 76 fc bd 9d b8 08 3e 9d 09 49 bd
       0.036800914 -0.123273015 0.13351674 -0.049081434
000040 7d e5 90 3d 5b 1c e4 3e d9 33 48 bd 86 d4 02 bb
       0.070750214 0.44552884 -0.04887757 -0.00199631
000050 37 0e 58 3f 6d 69 8a 3f 43 88 7f bd b3 75 fc bd
       0.8439669 1.0813423 -0.06238581 -0.12327137
000060 a8 52 89 bd b7 83 f7 bd 9f 19 c3 bd d8 75 aa 3e
       -0.067052186 -0.120856695 -0.09526371 0.33293033
000070 32 f4 4f bd 91 8b 09 3c e8 02 47 3d 6b 8b a8 bd
       -0.050769992 0.008395092 0.048586756 -0.08229717
000080 12 b5 32 be d0 ce dc bd 30 3c bc 3d 16 40 35 bd
       -0.17451885 -0.10781634 0.09191167 -0.04425057
000090 37 0a e3 3d 47 40 0e bd 32 d0 95 be 6b 2c d4 3e
       0.11085933 -0.03472927 -0.29260403 0.41440138
0000a0 0e 57 d4 bd eb 59 6c be 6a 80 49 3f 8e 81 06 3e
       -0.10368167 -0.23081176 0.7871157 0.13135359
0000b0 a6 b4 35 be 8a 3a d1 3f fb 52 99 3d fa ef 37 bd
       -0.17744693 1.634599 0.074865304 -0.044906594
0000c0 ff ef 10 3f 4e f5 e8 3d e7 db 96 3f 23 5f 9b bd
       0.56616205 0.11374913 1.1785859 -0.07586505
0000d0 1f d0 02 be 93 b5 4c bd a6 7a b5 3d 9d 2a 55 3e
       -0.12774704 -0.04997785 0.08861284 0.20817037
0000e0 d8 11 47 3e 78 a2 62 3f d9 80 00 3f 91 d1 3f 3f
       0.194404 0.8852916 0.50196606 0.7492915
0000f0 bb d7 c7 bd be 97 2d 3d 85 bd 80 bd ab 5d a5 bd
       -0.09757944 0.04238104 -0.06286148 -0.08074506

fc3.weight f4 [5, 64]
000000 73 6e 77 bd 70 f2 f5 bc 70 60 b1 bd 6b 69 6a 3d
       -0.060408067 -0.03002283 -0.08660972 0.05722944
000010 5c ef 58 3e 7d 09 22 be 7e 58 25 bd 6c 00 8d bc
       0.21185058 -0.15823932 -0.040367596 -0.017212115
000020 26 04 47 be 71 e6 2e be 88 28 50 3e 59 b0 c3 3d
       -0.19435176 -0.17080094 0.20327961 0.0955512
000030 74 4e e1 bd 68 e2 62 3d 36 5a 99 3e 45 9e 73 bd
       -0.11001292 0.0553917 0.29951638 -0.05947711
000040 cc 4d 55 3e d1 20 24 3f 5c 38 91 bd 4e 01 4b 3c
       0.20830458 0.64112574 -0.07090828 0.012390448
000050 b3 a0 af bd 82 6f 87 bd 77 9e 31 3c ee ee 2d 3b
       -0.08575573 -0.06613065 0.010841004 0.0026540118
000060 e3 5c 18 bd 47 85 cb bd d8 59 29 3e 44 07 66 be
       -0.03719796 -0.0993753 0.16538179 -0.22463709
000070 d0 4a 8a 3c 3d 5c a8 bd c9 89 b2 3e ae 5b 1a 3e
       0.016881377 -0.08220718 0.34870747 0.15074036
000080 21 72 b3 3c b2 4f f9 bd a6 8f 0a 3e b3 c3 cb bd
       0.021905007 -0.12173404 0.1353136 -0.09949436
000090 28 1d 86 3e 63 50 db bd 97 5e e2 3e b7 0d 8f be
       0.2619412 -0.10708692 0.4421279 -0.2794015
0000a0 87 84 9f bd 50 27 d1 be e4 44 60 3e e9 dc 3c 3e
       -0.077889495 -0.40850306 0.2190128 0.18443646
0000b0 93 ae d0 bc 72 21 fa bb ae cc 96 3d d2 d6 8b bd
       -0.025473868 -0.0076333815 0.07363258 -0.06828083
0000c0 9f 71 7a bd d8 bb cf bd f9 46 f4 be 17 61 ec 3d
       -0.061143514 -0.1014325 -0.47710398 0.11541956
0000d0 e0 79 16 bd 16 af 67 3e 14 b2 a6 3d c9 59 cc 3c
       -0.036737323 0.22625384 0.081394345 0.024945157
0000e0 44 43 c0 3e 51 d8 24 bd 90 58 37 be 2c 05 63 3c
       0.3755132 -0.040245358 -0.17904878 0.013856214
0000f0 73 c2 10 3e 16 38 4a bd e4 70 9d bd 81 b8 d7 bc
       0.14136676 -0.049369894 -0.07687548 -0.026333096
000100 a0 bc 59 3e e0 0f b3 bd 2f 84 ca bc 37 0b 08 3d
       0.21263361 -0.08743262 -0.024721233 0.03321382
000110 26 0b ed 3c 17 32 a0 3d 4b 57 4d 3c 46 49 ed bd
       0.02893598 0.07822054 0.012533019 -0.115862414
000120 23 12 da 3d c4 ec a1 ba 6a 95 09 bd 4f e9 fb be
       0.106479906 -0.0012353887 -0.033589758 -0.49201438
000130 11 10 46 3e b7 1f 18 3e 01 61 2a bc 7e 58 76 3d
       0.19342066 0.14855848 -0.010399104 0.060142986
000140 aa 53 15 3e 49 a6 dd 3e ab 91 4a be 8f 42 7c 3c
       0.14582697 0.43290928 -0.1978213 0.015396728
000150 9f e7 0c 3f c3 9e 12 bf 33 0b dd 3d cc 66 31 be
       0.55040926 -0.572735 0.10793152 -0.1732437
000160 b4 5c b6 3d 96 5c 39 be 46 a0 95 3d a1 62 0e 3f
       0.089044005 -0.18101725 0.0730596 0.55619246
000170 fc 65 a3 bd 08 8c 5b 3e 35 ae 85 bd 18 87 4f 3e
       -0.07978436 0.21440136 -0.06527368 0.20266378
000180 98 b5 18 be 9d 8b ea 3c dc d6 6e 3e ce 3c 3d bd
       -0.14913023 0.028631026 0.2332415 -0.046200566
000190 84 fb 2f 3e f5 5a 28 3e 2f fc c8 3e 24 9b b4 be
       0.1718579 0.16440947 0.392549 -0.35274613
0001a0 ca e8 bc bd 67 5d 1b be 58 e3 0a 3f c1 ff 84 3d
       -0.092240885 -0.15172349 0.5425315 0.06494094
0001b0 1a b5 7a 3d 4b e8 74 bf 52 21 36 bd 28 5f 58 3e
       0.06120787 -0.9566695 -0.04446537 0.21130049
0001c0 12 60 f1 be b5 88 27 3e 51 9e ae 3d 93 79 4c bc
       -0.47143608 0.16360743 0.0852629 -0.012480157
0001d0 5b 63 89 bc 01 1f 92 3d 1d 3c 3a 3e b7 d5 20 3f
       -0.01677101 0.0713482 0.18186994 0.628261
0001e0 c2 85 88 bd 3d 90 23 bf 48 4c 32 3f 30 99 9a 3d
       -0.06666137 -0.63891965 0.69647646 0.075487494
0001f0 7a e4 05 3e 9a c7 25 3e 8f 2f 80 3d 68 32 12 be
       0.13075438 0.16189423 0.06259071 -0.14277041
000200 6d 7e 29 3e 23 81 85 bc 70 aa ed bd a3 64 c8 3d
       0.16552134 -0.016296929 -0.11604774 0.0978482
000210 46 51 90 be 43 85 01 3e c0 9f 95 3d 64 e0 01 bd
       -0.28187007 0.12648492 0.073058605 -0.031708136
000220 db e9 a8 be aa 88 9a 3e 95 3e bc 3c 7c a4 00 bd
       -0.32990918 0.3018239 0.02297906 -0.031406865
000230 37 24 45 3b 9e 84 92 bb 10 e3 5b bd cc 76 17 3e
       0.00300814 -0.0044713756 -0.05368334 0.14791411
000240 8b 78 3a 3d 59 32 4b 3e 70 31 04 3d e6 df c3 3d
       0.045525115 0.19843425 0.03227371 0.095641896
000250 a4 8b 03 3f 84 9f 1a bf 70 81 42 bd 01 c9 6c 3e
       0.5138495 -0.6039965 -0.047486722 0.23123552
000260 46 da 9a be 1f b8 c6 3d 4f 2c ef bd 39 9b 8f bc
       -0.30244654 0.09703087 -0.11678373 -0.01753007
000270 90 8b ea 3d e3 4c 8d 3d 4f 39 7b bd 8f 95 0d 3d
       0.11452401 0.068994306 -0.06133395 0.03456646
000280 d3 47 36 ba b2 08 26 bc 08 6e 38 bd 76 d1 eb bc
       -0.00069534517 -0.010133909 -0.04502681 -0.028786402
000290 0d 52 22 be 38 ff 23 3d 25 19 f0 be 04 39 1b bd
       -0.15851612 0.040038317 -0.46894184 -0.03789617
0002a0 21 14 b2 bd 77 2f 01 be 4c 26 b9 be e2 e9 18 be
       -0.086952455 -0.12615763 -0.3616203 -0.14932969
0002b0 bf 8a 8c 3d ce 02 da 3e 82 85 93 3d 71 e4 ae 3c
       0.06862401 0.42580265 0.07203199 0.021349164
0002c0 90 4c fe 3b 49 40 ce bd 11 f2 87 3f db 5c c5 3d
       0.007760592 -0.10070855 1.0620748 0.096368514
0002d0 19 e8 e9 bc ea 5d 4e 3e 0a 4c f0 3d 69 39 12 3d
       -0.028553056 0.20153013 0.11733253 0.03569928
0002e0 fa d5 1c 3e ba a3 c2 3e 07 94 c7 be 84 99 1a 3f
       0.15316 0.38015538 -0.38980123 0.60390496
0002f0 eb 57 09 be 03 4e b3 be 82 3f fd 3c 96 1a 84 3d
       -0.13412444 -0.35020456 0.030914072 0.06450383
000300 ba 85 69 bd 51 e4 84 3d 9e 33 41 bd 43 ee 15 3c
       -0.057012297 0.064888604 -0.047168367 0.009151044
000310 60 f1 58 bd dd 72 eb 3d 3b 72 43 3e 9a 92 2d bf
       -0.05296457 0.11496518 0.19086544 -0.6780182
000320 c5 2d 8a 3e 9f 63 7e bd b9 ec 71 bd d3 b7 c7 bd
       0.26988044 -0.062106725 -0.059063647 -0.097518586
000330 83 90 b0 bd fa 06 83 bc 13 7b aa bd 18 35 2d be
       -0.086213134 -0.015994538 -0.08324256 -0.16914785
000340 40 fc 33 bc b3 2b fe be 45 f9 f1 bc e5 63 83 3d
       -0.010985434 -0.49642715 -0.029537806 0.06415538
000350 d0 11 04 bf 7c 81 93 3f 1d 69 22 be 7a 8a f6 bd
       -0.5158968 1.152389 -0.1586041 -0.12038131
000360 dd 09 1c bf 3d 96 2e bb 68 9e 13 3c 32 ca 06 be
       -0.6095255 -0.0026639842 0.009009935 -0.13163069
000370 ba f9 95 bc c7 af c7 bd ce e8 9c be f3 93 92 bd
       -0.018307555 -0.09750324 -0.30646366 -0.07157125
000380 1c 7b cf bc 47 f8 96 bd 5c 2e 48 be 1f 40 79 bd
       -0.025327258 -0.07371574 -0.19548935 -0.060852166
000390 78 4c 41 3a ce 35 5b bd 1b 17 5f 3e 73 6d 13 3e
       0.00073737605 -0.05351811 0.21786158 0.1439722
0003a0 58 75 51 be b6 a8 28 3e 14 99 46 3e 89 4d 62 3d
       -0.2045492 0.16470608 0.19394332 0.055249725
0003b0 30 d5 a9 3c 4f 02 8e 3f 46 cb 05 3d 11 93 c9 bc
       0.020731539 1.1094455 0.03266456 -0.02460626
0003c0 08 a0 ae bd 50 4d 87 bd 82 08 a1 be 98 2b c6 bc
       -0.08526617 -0.06606543 -0.31451803 -0.024190709
0003d0 da c2 00 3d f9 bf ad be a9 02 db bd 47 ef df be
       0.031435825 -0.33935526 -0.10693867 -0.43737242
0003e0 d7 a3 d6 bd b6 1d a2 be 93 f0 8c bd b0 89 a4 be
       -0.10480469 -0.31663293 -0.068818234 -0.32136297
0003f0 19 6e 68 3d 81 87 88 be 85 89 48 be 85 03 1b bd
       0.056745622 -0.2666588 -0.1958371 -0.037845153

fc3.bias f4 [5]
000000 15 78 55 bf bf f8 20 3f f8 15 45 be bf 01 52 be
       -0.83386356 0.62879556 -0.19246662 -0.20508479
000010 b0 c5 43 3e
       0.1911838
