maddpg2targetcritic.pth (torch, 29975 bytes, 5 tensors)

fc1.weight f4 [64, 43]
00000000: e5fd 5fbe 2460 b8bd a115 1bbe d76e 103e
00000010: 2865 8dbe ca56 15be eb24 a7be e525 4cbd
00000020: eefc ecbe 38df 82be fa9f 463e 10f5 11bd
00000030: 0214 a3bd 6572 163e 88d0 553e 241e 97bd
00000040: f61a d53b e720 d63c 0e76 03bf f784 93be
00000050: 39c7 d93d 746f 8fbd 7914 20bb 7009 a23e
00000060: 118b 063d 6824 9abd 442a e83b fbdc a53d
00000070: 74a5 f2bd fff2 d43d b856 37be 0286 663d
00000080: 2d3a 243d fad4 f1bd a5fa 82bd d1d4 30be
00000090: 8cc5 503c 1d25 b8bd 78f4 5abd 7c6c cbbd
000000a0: d333 e0bd 58a1 99bc 75d6 c53b f4cf e0be
000000b0: d325 56be e45c c7be 4a50 97bd 600f 98be
000000c0: 517f a1bd 9ae6 68be 30c7 a2be fc83 ebbe
000000d0: 4378 02be 2306 cdbd dc6e 833d 8c5e 8cbc
000000e0: 3ff6 d23a 786e 853e b665 683e e8f6 08be
000000f0: 60e7 debd 8c1f 37be 686e 64be b96d bcbc
00000100: 6cf0 1bbb 5bbd 043e 3a74 6dbd b263 ba3d
00000110: f603 823e 52d6 93bd 723a 813c 4099 95be
00000120: b51d 3fbe cf01 15bf f5c6 5ebe 03c8 f3be
00000130: 3686 9bbe 13ff e3be ade1 e0be db88 ebbe
00000140: 9d16 abbe 97d4 a6be 4aa2 c2be b453 9abe
00000150: 9335 c9be 2c21 c3be a454 773d edf5 f33d
00000160: 6103 02be c2de 26be df8a 193e d998 19bd
00000170: 1ea1 463d bb55 a6bd 5a5f 91bf 6328 ebbe
00000180: f5b6 d03c e7a5 e93c f521 51be 8d03 89bd
00000190: 4b2d 00be 0d1e 1fbe 4a23 22be a0fa 17be
000001a0: d266 f4be a0ab d5be db3d a5bd 8b6a b43d
000001b0: 928e 8ebc 7735 64bd 6643 9b3d 4db0 c0bc
000001c0: 36b2 3a3e b6cc 833e 7598 cbbc 41fa 82be
000001d0: be0e 36be 10b9 06be c1b7 1fbe 1640 8abd
000001e0: d766 ca3b 1d47 a6be 2bb6 52be 67e3 86be
000001f0: 32ab 17be ec0a 8bbd b297 22bd a7df 2cbe
00000200: 1fec 2fbe c3bb 053d 09c4 7a3d 543d 15bc
00000210: 48e9 c8bd f1e6 743d 9474 99be fa52 463d
00000220: 0305 183e 7e23 0ebf 828a 9e3f f5cd adbd
00000230: ac4f b33e c55c 2e3d 2256 b83e 0248 f3bd
00000240: 9839 b33e b74f 54be 168c c63e 9e9b 9fbe
00000250: 12c5 793f ae49 b23b 293f 9fbd 61e8 ed3c
00000260: 9f1a 373d 1904 0b3e b83e 0fbe d7bb 633e
00000270: 924f dabd 5f4d 5fbe a8fd 48be ed09 75be
00000280: 47a9 29be 5f6b 93be 322a f1bd b8da abbd
00000290: 2c34 a0be c736 0bbf 8e37 9fbc 2d85 25be
000002a0: c78b 77be ac59 f5bd 5390 82be a953 32be
000002b0: c868 6c3d 7d70 0e3e c414 8b3d e5d9 32bd
000002c0: 8ee6 c63c c32a 733d 6ddd a1bd a8aa 1f3d
000002d0: c83a 483f 5f4d 163d c857 25bd f5e2 a8bd
000002e0: 16a3 3abe 50ff fd3d c8e1 9e3d 917b 163e
000002f0: db20 92be 1edf 443c 370c 683f 5372 e3be
00000300: aecd 023d e046 f0bd 39f4 5a3e 107a b2bd
00000310: 6e5b 123d 022a 273d c5f6 9d3e e533 9e3d
00000320: 475c b8bd 0c2a 2cbe 06d2 0bbe 343b 0abe
00000330: 4db1 efbd 4c06 41be 93d2 0dbe 7b30 1ebe
00000340: a755 56be 3ab7 63be 70a4 22be 0499 b1be
00000350: f911 0dbd 9a65 fbbc 38b2 49be b843 853d
00000360: 89f2 313e 55b5 77be 5f2e 6a3c 845a c73d
00000370: 45dc b3bd fdaf 923d 25d5 903d 01a2 07bf
00000380: ce39 1a3d 0822 a4bd e68c 4e3e e661 99be
00000390: 9262 733e 0966 e1bd f049 4cbd c425 a9be
000003a0: c015 843d e19d 1cbf 3516 1e3e e09a 433d
000003b0: 06dc d13d 23c8 39bc 3d52 b43d d875 213c
000003c0: ffc1 123e 0e68 0a3e 62c7 d93c d69a 09be
000003d0: cb80 87be bc65 1ebe c007 8bbe f5f3 96be
000003e0: 1e41 dbbe 3c1c a6be c6aa a2be f328 8abe
000003f0: e68a fabd e2ad 52be 387a a0be 8114 afbe
-0.21874197 -0.09002712 -0.1514497 0.14104782 -0.2761624 -0.14583889 -0.32645354 -0.049840827
-0.4628672 -0.25560927 0.19396964 -0.0356341 -0.079628006 0.14692076 0.2088033 -0.07378796
0.006503458 0.026138736 -0.5135201 -0.28812382 0.10633702 -0.0700368 -0.0024426265 0.31647825
0.032847468 -0.07526475 0.0070851166 0.08098789 -0.11847964 0.1039791 -0.17904174 0.056280144
0.040094543 -0.118082 -0.06395463 -0.17268683 0.012742411 -0.08991454 -0.0534558 -0.09932801
-0.10947385 -0.018753693 0.006037528 -0.43908656 -0.20912866 -0.38938057 -0.07388361 -0.2969923
-0.07885612 -0.22744218 -0.31792593 -0.45999134 -0.12741189 -0.10010936 0.06417629 -0.017134927
0.0016095116 0.26060843 0.2269505 -0.13375437 -0.10883975 -0.17883128 -0.22307742 -0.023001539
-0.0023794426 0.12962858 -0.05797217 0.091010466 0.25393647 -0.07218613 0.01577494 -0.29218483
-0.18663676 -0.58205885 -0.21755584 -0.47613534 -0.30375832 -0.44530544 -0.43922177 -0.4600285
-0.3341569 -0.32584068 -0.38014442 -0.30141985 -0.39298686 -0.38111246 0.060383454 0.11912141
-0.12696601 -0.16295913 0.14994381 -0.037499283 0.048493497 -0.081218205 -1.1357224 -0.4592925
0.025477866 0.028521491 -0.2042311 -0.066901304 -0.12517278 -0.15538807 -0.15833774 -0.148417
-0.47734696 -0.41732502 -0.080684386 0.08809384 -0.017401967 -0.05571505 0.075812146 -0.023521567
0.18232045 0.2574212 -0.02485297 -0.25581554 -0.17779061 -0.13156533 -0.1559744 -0.06750505
0.0061768102 -0.3247613 -0.20577304 -0.2634537 -0.148114 -0.067891926 -0.03969545 -0.16882192
-0.17179917 0.032649767 0.06122211 -0.00910886 -0.0981012 0.059790555 -0.29971755 0.048418976
0.14845662 -0.55522907 1.2386019 -0.08486549 0.35021722 0.04256894 0.36003214 -0.11878969
0.35004878 -0.20733534 0.38778752 -0.31173414 0.9756633 0.005440912 -0.07775719 0.029041471
0.044703122 0.13575782 -0.13988769 0.22239624 -0.10659708 -0.21806858 -0.19628012 -0.23929568
-0.1656848 -0.28792855 -0.11775626 -0.08391327 -0.31289804 -0.5438046 -0.01943567 -0.16164084
-0.24174415 -0.11979994 -0.25500736 -0.17414726 0.057717115 0.13910098 0.0679107 -0.04366483
0.024279859 0.059366953 -0.07903562 0.03898111 0.78214693 0.03669488 -0.040366918 -0.082464136
-0.18226275 0.124022126 0.07757908 0.14695574 -0.28540692 0.012016086 0.9064364 -0.4442316
0.031934433 -0.11732268 0.21382226 -0.08714688 0.035731725 0.040811546 0.30852333 0.07724742
-0.090019755 -0.16812915 -0.13654336 -0.13499147 -0.11703739 -0.18850058 -0.13849859 -0.15448181
-0.20931111 -0.22237864 -0.1588304 -0.34687054 -0.03444097 -0.030688096 -0.19696891 0.06507057
0.17377676 -0.24190266 0.014293282 0.09734061 -0.087822475 0.07162473 0.07071904 -0.52981573
0.037652783 -0.080143034 0.20170936 -0.29957503 0.2376807 -0.1100579 -0.0498752 -0.33036625
0.06449461 -0.61178404 0.15438159 0.047755122 0.10247044 -0.01133922 0.08804748 0.009854756
0.14331816 0.13516256 0.026584331 -0.13437971 -0.2646545 -0.15468496 -0.2715435 -0.29483
-0.42823118 -0.32443416 -0.31770915 -0.26984367 -0.12233524 -0.20574144 -0.31343246 -0.3419533

fc1.bias f4 [64]
00000000: fdb2 8d3d 1592 c5be 386a 5ebe aca4 64be
00000010: c6a4 d6bd 7bd6 8ebe 1a96 8abd 390b b5bd
00000020: a010 a7be 3d93 efbe dbe5 2b3b 26e3 12be
00000030: be84 b5bd 518d 29be b310 74be 1fbf 25be
00000040: c8b1 0bbe 7761 12be ff0a aabe 6afb 1bbf
00000050: 1b87 41be 9a68 bdbe 5ddc d2be 2895 e53d
00000060: fd90 3ebd 657c bfbe 3db7 2d3d 5883 ebbd
00000070: 6b4a 0abd 61c8 7f3d 237b d6bd 0037 f2be
00000080: 0cfa 93be 237a 40bd 96d4 9e3c e67a 3e3e
00000090: 44c7 71be 2e30 8cbe a044 6cbe 199e b6be
000000a0: 521c 743d 29ab 4bbe 1d71 e9be 4d68 cdbe
000000b0: aebf 01be e9c5 903d 9240 9fbd a88b 6ebe
000000c0: 59b9 f1be 8338 d6bd d267 5bbe 7664 cabe
000000d0: f836 16be 25d6 1dbe 42af bdbe 9710 b5be
000000e0: a125 9fbe c899 d9bd 0400 8dbe 5d36 04be
000000f0: 4ec9 abbe 9417 88be baf1 a7be 9313 3cbe
0.06918905 -0.38588014 -0.21720207 -0.22328442 -0.10480647 -0.2789801 -0.06766911 -0.08840031
-0.3262987 -0.4679202 0.0026229534 -0.14344463 -0.08863209 -0.16557814 -0.23834495 -0.16186188
-0.13642037 -0.14294992 -0.33211514 -0.609305 -0.18899195 -0.36993867 -0.4118375 0.1121009
-0.04652499 -0.37399593 0.042411078 -0.11499661 -0.033762377 0.062446956 -0.10472705 -0.47307587
-0.28901708 -0.04699148 0.019388478 0.1860157 -0.2361117 -0.27380508 -0.23073053 -0.35667494
0.05959732 -0.19889511 -0.4559411 -0.40118638 -0.12670776 0.07068998 -0.07775988 -0.23295462
-0.47211722 -0.104599975 -0.21426323 -0.3952977 -0.14669406 -0.15413721 -0.37047774 -0.3536422
-0.31083396 -0.106250346 -0.27539074 -0.12911363 -0.3355202 -0.2658049 -0.3280161 -0.18366842

fc2.weight f4 [64, 64]
00000000: e730 693c ac4d 28bd e568 1abe 0507 f7bd
00000010: 5bb7 7fbd e30d f0bd c5f6 11be b966 e83c
00000020: 6c1e fcbd 3adc 5bbd 1e4e 633e 1588 21be
00000030: 0a57 94be 3d87 68be 7e48 403d 25db 893d
00000040: 0237 ad3d 3f9b cb3d a98f 08be dc7c 2c3d
00000050: 2c03 10be 6942 c83c eac5 2ebe 188c 3cbd
00000060: 5881 29bd a681 a0be 9d0c 42bd 7ae2 253d
00000070: a7a6 013e 0c46 02be 1353 053e 0736 943d
00000080: 2f07 84bd 24fa c33d 9dd3 de3d d3fc 21be
00000090: 6e43 9c3c 7b91 823d 3d76 82bd f1c9 283c
000000a0: fdac 8dbd 2071 8c3d a40d 07be d44f 66bd
000000b0: e526 3cbf 04cf aebd 32b6 19be d43b c1bd
000000c0: 407c a53b 37b4 58be 5da1 99be bca8 b7bc
000000d0: 691f 7fbc 0633 7e3d 573c c9bd 9581 4dbd
000000e0: 4592 90bc 6cc0 3dbe b642 adbd d13d 38bd
000000f0: 65d9 fdbd 8960 f3bd 5c6b 9dbd 5cc2 35be
00000100: de5b 9b3c cf7d 373d e6ac 40bd bc43 5bbd
00000110: b0fb d4bd 6b9d 1c3c f58c 28be 5c77 243d
00000120: 56df 5f3c 6eb7 c5bb 2662 b0bd c183 3abd
00000130: 905d 99bd 93de 02be 3f5a 923d 10f4 dbbd
00000140: cef7 19bd 24b4 9abd 13d0 d13c 49b8 a9bd
00000150: ca09 e43c e2cd 4bbd 1240 1e3d af55 06be
00000160: 76b6 cfbd 9a14 083d ffc0 c4bd fcda d6bd
00000170: 0c0d 11be 8f4f 933d 6e51 35bc 5c1b ab3d
00000180: 8811 663d 288e a33d 22af 063d f19a a2bc
00000190: 713c 19bc 7de0 2cbe da96 b3bd 6ce4 bc3c
000001a0: c525 2cbe d114 90bc a982 5a3b 9430 9fbd
000001b0: d465 acbd 668a 0c3d fad2 7ebd 27ae 593d
000001c0: 4054 93bd 9fe5 0dbe 109c efbd 8ac2 39be
000001d0: db20 8f3d 4da8 e6bd 9308 b1bc 57cc 94bc
000001e0: 45c9 b03d d622 33be d47d 293d 6ef1 583d
000001f0: 8ae6 11bd 3c09 c8bc 919e 7bbd 8f69 b33c
00000200: 2625 ed3c 9779 2cbe dc51 bbbe 581b 8e3c
00000210: c91b abbc ec7d a9be 8134 9c3c 3497 ff3d
00000220: 0391 25be 7c1a cd3d 55d9 04bf 7234 043c
00000230: d352 22be 4fb5 ee3d 7d79 0abe fb73 17bf
00000240: f31a e03d a33d f3bd 0c21 11be ab2f 4fbe
00000250: ff65 6abe ee2f 18be a322 07bc 347e 5cbd
00000260: e515 c0bd 5d1b 62bd 76a9 053e ce77 383e
00000270: 5e42 ec3d 0971 bd3e a8d0 523e 190a 74be
00000280: f160 8ebc abb8 8abd 260d 453d 8e36 70be
00000290: d180 d7bd 79d5 093e 60f2 3cbe 06a1 9abe
000002a0: 119f 83bf 62a7 1bbe 9c90 66be 323f 22bd
000002b0: ab87 68bf c66b aabe 67ee 3cbc fdb2 03bf
000002c0: 740a 8bbd d2da 18bd 9920 a43d c931 643c
000002d0: 3daa 68bf e527 ebbe 99c2 96bc a60e 3b3f
000002e0: 46f7 2abe cded 6dbd 7006 a53e b040 a33e
000002f0: 56bd c0bd 26a7 9dbe 86cc 5f3e 1cbe 16bf
00000300: a793 9dbd 679f 8d3e c7b8 42bd 853e 82bd
00000310: bb4c 673e 4ced 56be 7859 073d 164b 8f3e
00000320: c3d3 583e ba7f 8ebc f407 dc3d 2f15 1c3d
00000330: 3a05 5f3d 5608 263e 4d88 243e 7ed2 96bd
00000340: 2a45 47bd a4b3 663e 3d4b 1f3e 4dd1 983e
00000350: a7dd 90be 3a01 4dbe e0d2 223e 436a 873e
00000360: 125f eebd a553 5dbe 4cae 8d3e c09c 093d
00000370: 741e 6b3e 18c8 b83d a39d cf3e 8f12 4dbe
00000380: fff6 783e 8b06 19bd 9b02 de3d 78c1 ae3d
00000390: 851d 8b3d 8a71 09bd b522 5f3d 9e19 83be
000003a0: 6ae5 24be 87b3 aabc 11d3 e8bd 1f45 d63d
000003b0: ee2e 69be 9b68 7dbc 092b f13d c623 76be
000003c0: dd99 9d3e 58b3 afbc 1177 413e 2669 893e
000003d0: 6080 3abe 2c65 0abe 8bcf 83bc 90f5 e13d
000003e0: 83e1 023e 4580 343d 0310 123e 7d6f 06be
000003f0: 434a 303e 2407 083d 5c7d b33d 2392 a83d
0.014232851 -0.0410897 -0.15079077 -0.12061886 -0.06243072 -0.11721399 -0.14254291 0.028369294
-0.1231049 -0.05367682 0.22197768 -0.15774567 -0.28972656 -0.2270784 0.046944134 0.067312516
0.084577575 0.0994172 -0.13336052 0.042111263 -0.1406371 0.02444573 -0.17067686 -0.04603204
-0.041383117 -0.31348914 -0.04737531 0.040499188 0.12661229 -0.12722033 0.13019972 0.072368674
-0.06446683 0.09569195 0.10880206 -0.15819101 0.019075122 0.063754044 -0.063702084 0.010302053
-0.069177605 0.068575144 -0.13188797 -0.056228474 -0.7349685 -0.08535579 -0.15010908 -0.094352394
0.005050212 -0.21162497 -0.30005923 -0.022419326 -0.015571454 0.06206038 -0.09825962 -0.050172407
-0.017647872 -0.18530434 -0.0845999 -0.044980828 -0.1239498 -0.11883647 -0.07686493 -0.17749923
0.018964704 0.044797715 -0.04703989 -0.053531393 -0.10399568 0.009559016 -0.16460021 0.040152892
0.013664087 -0.0060338294 -0.0861247 -0.045535807 -0.07488549 -0.12780218 0.07146119 -0.107399106
-0.03758984 -0.0755389 0.025611913 -0.08287103 0.027836699 -0.049756892 0.03863532 -0.13118623
-0.101422235 0.033222772 -0.096071236 -0.10490987 -0.14165133 0.07192909 -0.011066778 0.08354828
0.056169063 0.079860985 0.032881863 -0.019849272 -0.009352789 -0.1688251 -0.08769007 0.023058139
-0.16811283 -0.017588051 0.003334204 -0.077729374 -0.0841786 0.034311675 -0.06221292 0.0531446
-0.07193804 -0.13857125 -0.116996884 -0.18140617 0.069886886 -0.112625696 -0.021610534 -0.018163843
0.08632139 -0.17493758 0.041379765 0.05296462 -0.03562025 -0.024418466 -0.061430518 0.02190092
0.028948378 -0.16843258 -0.3658589 0.017347023 -0.020887272 -0.33103883 0.019068005 0.124800116
-0.16168599 0.10014817 -0.5189412 0.008069145 -0.15851907 0.116556756 -0.13522907 -0.5916135
0.1094264 -0.11876991 -0.14172763 -0.20233028 -0.22890471 -0.14862034 -0.008248004 -0.053831294
-0.09379176 -0.055201877 0.13052925 0.18014452 0.11536096 0.370003 0.20587409 -0.23831977
-0.01738021 -0.06773504 0.048108242 -0.23458311 -0.10522617 0.1346034 -0.18451834 -0.30200976
-1.0282918 -0.1520057 -0.22516102 -0.03961105 -0.9083201 -0.3328535 -0.011531449 -0.5144499
-0.06789103 -0.03731806 0.0801403 0.013927885 -0.90884763 -0.45928875 -0.018403338 0.73069227
-0.1669589 -0.058088113 0.32231474 0.3188529 -0.09411113 -0.30791587 0.21855363 -0.58883834
-0.07694178 0.27660677 -0.0475395 -0.06359581 0.22587864 -0.20988959 0.03304431 0.27986974
0.2117453 -0.01739489 0.107437044 0.03810614 0.054448344 0.16214117 0.1606762 -0.07364367
-0.048649944 0.22529465 0.15556045 0.29847184 -0.28294107 -0.20019999 0.15900755 0.2644826
-0.11639227 -0.21613939 0.2767204 0.033596754 0.22960836 0.0902254 0.40549955 -0.20026611
0.24312972 -0.037359755 0.10840341 0.08532995 0.0679274 -0.033555545 0.05447646 -0.25605482
-0.1610314 -0.020837558 -0.11368383 0.104624026 -0.22771809 -0.015466834 0.117757864 -0.24037084
0.3078145 -0.021447822 0.18893076 0.26838034 -0.18213034 -0.13515157 -0.016090175 0.110331655
0.12781338 0.04406764 0.1426392 -0.13128467 0.17215829 0.033209935 0.08764145 0.08230998

fc2.bias f4 [64]
00000000: 4f2c 103e e82d 19be a5fb 30bf 6893 9dbd
00000010: b8fb adbd b2b1 1cbd 83d2 193b ad7a 39bd
00000020: 31ef 143e 64e7 a33c 45a7 81bd 87b1 8ebd
00000030: 68c1 3fbe b223 1b3d d15e 153f e453 20be
00000040: f124 023e 6f9b 45be 0539 97bd ba1f f73c
00000050: 14eb 37bd 4e20 89be c366 8e3d 04a9 29be
00000060: db8a 75bc c7ef 92bd 3c0d 2d3e 7572 023e
00000070: be87 8b3d 86b4 27bf 8fbf 07be 6e0b 68bd
00000080: ec03 cabe ba0d 2cbe a6c1 a53d b019 4ebb
00000090: 6f9b 60be e789 dd3d 7dad fdbd 1e47 a2bd
000000a0: 216b 0f3e 8683 c7bb c269 893d 887f 90be
000000b0: d2a3 7fbe 445b 06bf 3d3b 8a3c 80ea e2be
000000c0: 079c 88bd e8ca a6bc 12b0 353d a795 debd
000000d0: 40fe 11be bbac b33b 5ab1 c1ba 5a74 f0bc
000000e0: 4dc8 b2be dfce 463e f295 23be f8c7 89be
000000f0: 92c5 92bd b86e 0b3e fd99 74be 2f3b ecbe
0.14079402 -0.14958918 -0.6913398 -0.07694131 -0.08495277 -0.0382554 0.0023471422 -0.04528301
0.1454437 0.020007797 -0.06330732 -0.069674544 -0.18726122 0.03787584 0.58347803 -0.15657002
0.12709405 -0.19297574 -0.073839225 0.030166496 -0.044901922 -0.2678246 0.06953194 -0.1656838
-0.014986719 -0.0717464 0.1689958 0.12738974 0.06813 -0.6550983 -0.13256668 -0.056651525
-0.39456117 -0.16802111 0.08093576 -0.0031448416 -0.21934293 0.108173184 -0.12386606 -0.07923721
0.1400571 -0.006088677 0.06709625 -0.282223 -0.24964836 -0.5248301 0.01687395 -0.44319534
-0.06670385 -0.020360425 0.044357367 -0.10868388 -0.14257145 0.0054832376 -0.0014777586 -0.029352356
-0.34918442 0.19414853 -0.15975168 -0.26910377 -0.0716659 0.13616455 -0.23886867 -0.46138903

fc3.weight f4 [1, 64]
00000000: 6acc 5a3d 2e88 88bd 9557 883e 0799 083e
00000010: f50a 4e3e d9b5 8b3e bdad 473e 76b4 243e
00000020: afea 37be 97a6 85be c85f 90be d6f2 25bd
00000030: 430c 013d 3160 bbbd 1811 8f3e c2e1 b33d
00000040: fe03 5cbe 01b1 a0be 6277 6cbe eb24 b73b
00000050: 06a9 223e 8279 43be c845 673f c6d1 2e3e
00000060: 1724 b9bb 46dd ce3d 64f6 473e a107 2e3e
00000070: e5f6 233e d7de 1e3e 8864 133d 11b8 6c3d
00000080: 0e09 243e 656f 2c3d 508e 103e d536 46be
00000090: 4b36 d1be 1343 fb3d a435 c5ba 1ea0 153e
000000a0: b784 483e fdd4 9fba c438 79be a097 babe
000000b0: f225 11be 491b 583e d6ee 123e 644f 333e
000000c0: daa5 babc 4965 bbbe 93cd 393e 63d2 7bbd
000000d0: e1a8 423e 4869 3a3e 3eaf d7bd e452 81be
000000e0: 5f31 433e 917e ca3e b93f 46bd ed65 743e
000000f0: aa3d f5bd 273e 663e 12a1 013e a917 703e
0.0534176 -0.06666599 0.2662932 0.13339625 0.20121367 0.27287176 0.1949987 0.16084465
-0.17960618 -0.2610366 -0.28198075 -0.04051479 0.031505834 -0.091492064 0.2794273 0.08783294
-0.21485898 -0.31385043 -0.23092416 0.0055891178 0.1588479 -0.1908932 0.9034085 0.1707221
-0.005650054 0.10100798 0.19527584 0.16995098 0.16012152 0.15514694 0.035984546 0.057792727
0.16019079 0.04209842 0.14116788 -0.19356854 -0.40861735 0.12268653 -0.0015045893 0.14611861
0.19581877 -0.0012194213 -0.2433806 -0.36443806 -0.14174631 0.21104158 0.14348921 0.17510754
-0.022784162 -0.36600712 0.18144827 -0.061479937 0.19009735 0.18204224 -0.10531472 -0.25258553
0.19061802 0.39549688 -0.048400614 0.23867007 -0.11974652 0.22484647 0.126591 0.23446526
