maddpg2.pth (torch, 22551 bytes, 6 tensors)

fc1.weight f4 [64, 10]
000000 f1 63 83 be b7 3d 20 be 51 84 8e 3e 21 9a 47 be
       -0.25662187 -0.15648542 0.27835324 -0.1949239
000010 91 57 6f be 25 69 7e bd a4 c4 6f 3f 8d b5 94 3e
       -0.23373248 -0.062111992 0.93659425 0.29044762
000020 ad 17 16 be aa 4d 95 3e e3 40 0b be e2 27 cb bf
       -0.14657469 0.29160815 -0.13598971 -1.5871546
000030 45 cc d9 bd 18 30 87 be db 6a 0b be 00 f2 50 be
       -0.106346644 -0.2640388 -0.13614981 -0.20404816
000040 0d d3 1e be eb f3 2a be 89 ac 84 3e 15 56 11 40
       -0.15510197 -0.1669461 0.25912884 2.270879
000050 8a 52 1c bf fb e9 b7 3e 82 db c8 3d d3 e0 51 3d
       -0.61063445 0.359207 0.09807493 0.0512398
000060 5f d9 13 be 77 64 ba be 6d cd bd 3e 7f 57 91 bd
       -0.14438389 -0.36404774 0.3707079 -0.07096767
000070 fa ec 0e bf 5f b7 a6 3e 89 ec 13 40 67 e7 c2 bd
       -0.5583035 0.32561776 2.311312 -0.09516793
000080 2f 4f ae 3e 31 5c d1 be 84 f1 05 3f b0 b3 da 3e
       0.34044787 -0.4089065 0.5232165 0.42715216
000090 7b 50 9a 3d a2 b6 2d 3e 7a 74 20 3e 42 59 13 3f
       0.07534882 0.169642 0.15669432 0.5755807
0000a0 05 cc 88 bf 00 dc 53 be 2e 80 7d 3e 28 ad b2 bd
       -1.0687262 -0.20689392 0.24755928 -0.08724433
0000b0 32 34 ef 3d 48 47 65 be 18 3b 26 3f e6 03 b7 be
       0.11679877 -0.22390473 0.6493392 -0.35745162
0000c0 77 f2 b3 be 42 64 bc 3e 93 e1 82 3e d8 01 8b be
       -0.35145923 0.3679524 0.25562724 -0.27149844
0000d0 30 6e 80 bd aa 13 e0 be 67 39 32 be 4a 2e 71 be
       -0.062710166 -0.43765002 -0.1740471 -0.23552814
0000e0 16 b9 e4 3b aa e4 eb be 9b c4 33 be bb 55 b9 3f
       0.006980072 -0.46072894 -0.17555468 1.4479288
0000f0 02 76 18 40 3d 24 cc bf e7 94 38 bd 76 1a d9 bd
       2.3822026 -1.5948559 -0.04506388 -0.1060075
000100 b2 5e 13 bd 46 b1 21 bd 17 42 2e 3e e1 d2 ca 3e
       -0.03597898 -0.0394757 0.17017399 0.39614013
000110 1d 10 61 be 00 1d f9 bd ac 86 92 3f 12 f7 7f be
       -0.21978803 -0.121637344 1.1447349 -0.24996594
000120 ea d8 1e 3e cf 7a a1 bc 2a 6d 9f 3e 33 fc a9 3e
       0.15512434 -0.01971188 0.31137973 0.33200225
000130 b3 a2 cc bd fd 6c 9e 3d 44 e7 0a c0 79 22 e1 3d
       -0.0999197 0.077356316 -2.1703653 0.10992903
000140 a0 80 8c bf 0b e4 4c 3f 96 d0 89 3e 58 e6 4d 3e
       -1.0976753 0.80035466 0.2691695 0.201074
000150 d0 25 9b be be b1 67 be 65 e4 e8 be 9e cc e4 be
       -0.30302286 -0.22626397 -0.4548675 -0.4468736
000160 91 ca eb 3d 8e d3 ba bc 16 39 32 3f a8 13 51 bf
       0.11513246 -0.022805955 0.69618356 -0.8167062
000170 9c 36 31 3d 7b e8 a4 bd 59 4d 01 bf d2 69 fe 3e
       0.04326497 -0.08052155 -0.5050865 0.4969011
000180 2b 32 0c bf 22 44 ae 3d e7 16 63 bc 5e af 9b be
       -0.5476405 0.08509089 -0.013860441 -0.30407232
000190 13 0b 48 3e e3 a3 a9 be 08 8b eb be 6a 2b 05 3f
       0.19535474 -0.33132848 -0.4600451 0.5201937
0001a0 5c 72 65 be 3d b8 0a bf d0 81 be be 3e 70 47 3e
       -0.22406906 -0.54187375 -0.37208414 0.19476411
0001b0 ec f5 30 3e 6a 1b e4 3d 78 cd be 3e 8e d0 41 be
       0.17281312 0.11138041 0.37266135 -0.18927214
0001c0 7a 2e c9 be c7 28 5a bf 80 5a e0 bd 31 66 16 bf
       -0.3929327 -0.8521847 -0.109547615 -0.5874968
0001d0 82 9c 78 bf d3 e0 a3 3e 33 03 8e be 4f fb 98 be
       -0.9711381 0.32007465 -0.27736816 -0.29879233
0001e0 e0 39 25 bf b8 05 16 bf 17 b0 25 be 7f 70 36 3c
       -0.64541435 -0.58602476 -0.16180454 0.01113522
0001f0 61 e9 61 bd 36 4f a8 3c df 51 44 bc a6 de 33 bd
       -0.055154208 0.020545583 -0.01198241 -0.043913506
000200 1c 9d 31 3f dc c3 2f 3f 27 da 41 bf a4 1d 83 bf
       0.69380355 0.6865823 -0.757235 -1.0243421
000210 d0 f8 75 bd 38 c9 78 be 33 9c fe 3c 9c 6f 6e 3e
       -0.06005174 -0.24295509 0.031080341 0.23284763
000220 49 fc b9 be 09 66 6e be ff 84 c6 3d 3c b4 76 be
       -0.3632529 -0.23281111 0.09693336 -0.24092191
000230 32 d2 4a 3e 16 8c 47 be 1b 76 d7 be 45 7d 2e be
       0.19806746 -0.19487032 -0.42082295 -0.17039974
000240 36 17 c5 be 20 0d 2d 3f 89 70 a4 bf d3 4c 1c be
       -0.3849427 0.6759815 -1.2846843 -0.15263681
000250 82 2a f1 be ec 0b 8d 3e ac 66 67 3e c1 9c 77 bf
       -0.47102743 0.27548158 0.2259776 -0.9672356
000260 e5 bb 27 3e 7b 61 06 be 8e 79 b8 be 87 1b d8 3e
       0.1638027 -0.13123123 -0.3603024 0.42208502
000270 5f 7c ea be cd 5f 8f 3e 87 a2 46 3d 43 2b 82 3d
       -0.45798013 0.28002778 0.048494842 0.06355908
000280 3a eb d4 bf bc b5 09 3d 0a d2 53 be 61 18 9a 3e
       -1.6634285 0.03362058 -0.20685592 0.30096725
000290 91 d2 bc be 79 78 e1 3b 6b 62 24 be 75 54 80 3e
       -0.368794 0.0068808165 -0.16053168 0.25064436
0002a0 b0 79 dc 3d bf f2 05 3e da 17 3c bd f2 d8 d9 3d
       0.107653975 0.13080882 -0.045921184 0.10637082
0002b0 0b 32 6b bc 49 7e 96 3e 1a 0f 16 be 50 51 da 3d
       -0.014355193 0.29393223 -0.14654198 0.106600404
0002c0 c3 23 2d 3f a1 ba b5 3f 05 4a 8d be 64 0e a9 be
       0.67632693 1.419758 -0.27595535 -0.33018792
0002d0 f3 22 ab 3f a6 0e 05 bf 95 af b4 3c c7 de a9 bd
       1.3370041 -0.51975477 0.02205638 -0.082944445
0002e0 f5 6f fd bc 23 8f 62 bd 5f af c1 3d 78 0e ec 3c
       -0.030937174 -0.055312287 0.094572775 0.028815493
0002f0 41 3c ec bf 0d 12 26 3f b8 be a8 bd b5 5d cd 3f
       -1.8455888 0.64871293 -0.08239502 1.6044222
000300 34 4d a5 be 33 3d 1c 3b 82 dd 9d bc b0 c3 4a be
       -0.32285464 0.0023840189 -0.019270662 -0.19801211
000310 ca 14 20 bd 1d d5 82 be 0a dd cf 3e 73 59 70 3f
       -0.039082326 -0.25553218 0.40598327 0.9388649
000320 df ca e5 bd 32 86 9b 3e e6 62 19 3e 11 73 11 be
       -0.11220335 0.3037582 0.14979133 -0.1420405
000330 7b 33 2b 3f 1f b1 83 3d cb 31 3b 3e 14 bf 18 be
       0.6687543 0.064302675 0.18280713 -0.1491664
000340 f5 9e a4 be 0b 04 a8 3e 5b 78 10 c0 39 c9 7f 3f
       -0.32152525 0.32815585 -2.257346 0.99916416
000350 73 b1 27 be 76 69 56 bd 93 54 df be e4 57 c8 be
       -0.16376285 -0.05234667 -0.43619213 -0.39129555
000360 4e 25 c7 3e d1 29 48 3f 82 de 04 bf 7f 62 7a bd
       0.3889565 0.78188807 -0.5190202 -0.06112909
000370 d7 64 50 bf 07 37 1e bf bc 89 f8 bd 95 dd 97 be
       -0.8140387 -0.61802715 -0.12135646 -0.2966124
000380 5d 19 e8 bd 77 07 c2 bd df 76 14 be 1b ea 30 be
       -0.11332963 -0.0947408 -0.1449847 -0.17276804
000390 a3 4d 9b 3f 39 2b 7e 3f d9 6b 3f 3f d5 b9 44 3f
       1.2133068 0.992847 0.7477394 0.7684606
0003a0 8b d1 a4 be 7a 5f 01 bd d7 1d bf bd e9 d9 e2 3b
       -0.3219112 -0.031585194 -0.093318634 0.0069229496
0003b0 93 a4 93 be d3 38 c1 be 31 6f 93 bf ec e3 69 bf
       -0.28836498 -0.37738666 -1.1518308 -0.91363406
0003c0 0b d9 0f 40 10 4f 1d 40 17 49 d0 bb c4 8e a0 3c
       2.2476223 2.4579506 -0.0063563692 0.019599326
0003d0 ce ee 7d be fd 25 96 be 3d d3 64 be 12 9e 42 be
       -0.24798128 -0.29325858 -0.22346206 -0.19005612
0003e0 9f b2 13 be 3f e8 80 be 42 79 86 bf 7f 6f 0d be
       -0.14423607 -0.2517719 -1.0505755 -0.13812064
0003f0 d4 b6 bf be b6 9a 9b 3d 98 71 6c bf 80 4c 69 3d
       -0.37444174 0.07597868 -0.9236083 0.05695772

fc1.bias f4 [64]
000000 f6 7c 48 bf 42 a6 6d be 57 67 40 bf 60 7e 3c bf
       -0.78315675 -0.23207954 -0.75157684 -0.7363033
000010 2e 43 0e 3e 6a 75 e4 be 7b c6 83 3c 32 83 96 be
       0.13892815 -0.4462083 0.016085854 -0.2939697
000020 2c 81 43 3e fa 61 3a be f6 31 8d be b7 57 60 bf
       0.19092244 -0.18201438 -0.2757718 -0.8763384
000030 88 48 de bd 34 02 31 bf 3d 91 1a bf 06 cd 00 3d
       -0.10853678 -0.69143987 -0.60377866 0.031445526
000040 bf 51 61 bf 1f 5d 12 bf fa 8c 82 be 97 36 9e 3e
       -0.8801536 -0.5717334 -0.25498182 0.30901024
000050 ba 36 e7 bd 4f 73 dd be 74 c2 15 be 61 2b de be
       -0.11289735 -0.43252036 -0.14624959 -0.4339247
000060 14 10 48 3e 6b 56 06 bf 9a 2e 91 3d bf db 81 bf
       0.19537383 -0.52475613 0.07088967 -1.0145186
000070 8b e8 82 bf 29 6b c4 be 6c 09 3a 3d ee fd 2d bf
       -1.0227216 -0.38363007 0.04541914 -0.6796559
000080 db d7 98 bf 6f 0c 40 bf f9 a3 54 3e d2 de 5b bf
       -1.1940874 -0.7501897 0.20765676 -0.8588687
000090 3b 82 cc bd 80 81 51 bf b9 93 8b bf 00 b9 e2 bd
       -0.09985777 -0.81838226 -1.0904456 -0.11070442
0000a0 68 23 85 3e 93 32 c7 3d 31 5c f0 be 0d d4 41 bf
       0.26003575 0.09726443 -0.46945336 -0.7571419
0000b0 b3 f4 25 be ad 80 89 bf 50 ad 9f be e9 cc 0b be
       -0.16206627 -1.0742394 -0.31186914 -0.13652386
0000c0 fe 22 69 bf e3 d9 b4 be a8 1e a8 be 30 1b c0 bf
       -0.9106902 -0.35322484 -0.3283589 -1.5008297
0000d0 0e 65 d6 be 52 39 ca 3d 5c 44 ba bf 03 65 29 bf
       -0.41873974 0.09874214 -1.4552112 -0.66169757
0000e0 b3 4b b5 3e 80 e8 04 3f 3a 80 7f bf 01 72 6b bf
       0.35409316 0.51917267 -0.99805033 -0.9197083
0000f0 4a ec f9 be 00 21 74 bf 98 23 c5 bd 16 4c 88 be
       -0.48813087 -0.95362854 -0.096259296 -0.2662055

fc2.weight f4 [64, 64]
000000 73 d6 70 be 3a 3d 8c be d2 42 b2 bc 77 a4 2c 3d
       -0.23519306 -0.27390462 -0.021760378 0.042149033
000010 8a 9c 2b 3d 09 90 3c 3c ce c3 03 bd ce ab 06 be
       0.041897334 0.01150895 -0.032169156 -0.13151476
000020 d4 6c e4 bd 97 a1 ae 3d bf a9 ca bd 18 42 2b be
       -0.1115357 0.085269146 -0.09895658 -0.16724432
000030 80 a2 a4 3c 4a 90 45 be 0d b5 b7 bd 0b 0e 10 3d
       0.020097017 -0.19293323 -0.089700796 0.035169642
000040 de f3 4e be d8 cb 7e bd 5a c8 70 3d f0 ad 15 be
       -0.20210215 -0.06220612 0.05878482 -0.14617133
000050 8f 46 1a 3d 73 80 d4 bd c0 61 0c bd d8 16 b7 3c
       0.037664946 -0.10376062 -0.03427291 0.02234976
000060 5f 3b 44 be ac 34 0d be 03 52 b8 bd 74 53 6d bc
       -0.19163273 -0.13789624 -0.090000175 -0.014485229
000070 81 92 26 be 21 69 e5 bc 52 b8 77 bb d5 50 50 be
       -0.16266824 -0.028004231 -0.0037799072 -0.20343335
000080 30 95 91 bd cb bb 45 be 1b 11 9f bc 66 64 9b be
       -0.071085334 -0.19309919 -0.019417336 -0.30350035
000090 01 94 25 be 8a 0c 79 3c 12 eb 71 be fa 12 64 bd
       -0.1616974 0.015200743 -0.23624828 -0.05568216
0000a0 3e 65 4c 3c 11 6b b8 ba b6 9b 58 be 55 fd 46 bc
       0.01247531 -0.0014069994 -0.21153149 -0.01214536
0000b0 b8 63 23 3d 56 65 0b 3d 9f 17 66 3d 83 3b 35 be
       0.03989002 0.03403219 0.05617487 -0.17698483
0000c0 4b 5f 51 bc 04 db 0e be 18 a2 fe bd 2b 0d 5c be
       -0.012779067 -0.13950735 -0.12433261 -0.21489398
0000d0 1e 85 89 bd 5d e5 24 be 4f e3 07 3e 99 ec 56 3d
       -0.06714843 -0.1610312 0.13270305 0.05247173
0000e0 45 f3 b6 be ea ec 44 bd 1d 4a 79 be 5a d0 80 be
       -0.35732475 -0.0480775 -0.24344678 -0.2515896
0000f0 fa 53 c4 bd d2 cb 29 bd 7b e2 b8 3b ce 0b d5 be
       -0.0958633 -0.041454144 0.005642233 -0.4161057
000100 d4 3d 75 3e 24 a5 1e bf b0 5c 53 be dc 7e 6f bf
       0.23949367 -0.61970735 -0.20640826 -0.9355295
000110 b6 65 f7 3e 2f a1 8c be dc 44 c8 bf 65 ba 8b be
       0.48319787 -0.27466723 -1.5646014 -0.27290645
000120 a0 63 75 3b 95 49 41 bf 87 4f 16 bf 7b 99 11 bf
       0.0037443414 -0.755029 -0.587151 -0.5687482
000130 17 fc 59 3e 11 50 8b bf 3f 20 41 be 56 06 95 be
       0.21287571 -1.0883809 -0.18859957 -0.29106396
000140 5e eb 80 bf ec 64 2f 3c 4b c2 5c be 0d bc ba 3e
       -1.0071828 0.010705214 -0.21558492 0.36471596
000150 3c 02 86 3e aa 0f a2 be 1f 54 90 be 93 70 da be
       0.2617358 -0.31652576 -0.2818918 -0.42664012
000160 1c 92 84 bf bc 42 b9 3d dd e7 65 3e 63 1c 59 be
       -1.0357089 0.09045932 0.2245173 -0.21202235
000170 53 cb 63 bf 9e db c3 3d e0 9d ec bd df 7b 54 bf
       -0.88982123 0.09563373 -0.1155355 -0.8300151
000180 ac 85 73 3b 12 73 b7 be 5d ba ac bf 4a 30 aa bf
       0.0037158532 -0.3582998 -1.3494374 -1.3295987
000190 7a 62 96 be 77 ff e8 3d 1e 94 15 bf 84 77 ae be
       -0.29372007 0.11376851 -0.58429134 -0.34075558
0001a0 ca 56 54 3e 38 e8 2e 3e 9a 75 2a be df 3b bf 3e
       0.20736232 0.17080772 -0.16646424 0.37350366
0001b0 e6 df b8 bd 57 e9 77 bf 04 6b 80 3c 70 a8 2c be
       -0.0902708 -0.96840423 0.015676029 -0.16861129
0001c0 9a f2 fb 3d 1b 7a ec be 51 2b 44 3d 86 ab a7 be
       0.12302132 -0.4618691 0.047892872 -0.3274805
0001d0 87 d2 37 bf c0 cd 82 3e 6a 8f 01 3e 19 fa 96 be
       -0.71805614 0.255476 0.12652364 -0.29487684
0001e0 9c 79 6d bc af 1e 27 3f 94 4d 09 bf 8e 25 2c bf
       -0.014494326 0.65281194 -0.53634 -0.67244804
0001f0 4d e3 4c be f0 79 0f be 84 ad 57 3e e8 36 bd be
       -0.20008583 -0.14011359 0.21062285 -0.36955953
000200 cc f3 a5 3d ec ac a2 be f7 3d 96 be 1a c2 f0 bd
       0.08103141 -0.31772554 -0.2934415 -0.11755772
000210 e1 8d e3 3c 79 07 1f bd 2f f8 02 bf b3 10 a7 be
       0.027777614 -0.038825486 -0.5115995 -0.32629928
000220 24 dd a2 bd d3 02 92 be 90 42 38 3d 0d 71 b5 be
       -0.079523355 -0.2851778 0.044985354 -0.35437813
000230 a2 0a c4 3b d7 d2 84 be 38 af 03 be 0f 7e 84 bd
       0.005982713 -0.25942108 -0.1285981 -0.06469356
000240 dc 43 bd be 32 d9 5e 3d b6 a8 d1 bd 47 58 33 bd
       -0.36965835 0.054406352 -0.10237257 -0.04378536
000250 4b bd 79 be b5 4b e0 be 28 b2 7a bd f5 a4 b3 3d
       -0.24388616 -0.4380776 -0.06120506 0.087716974
000260 24 2e 03 bf 0b 1c 2b be 4a 25 41 be 2e 88 13 bd
       -0.5124228 -0.16709916 -0.18861881 -0.036018543
000270 e1 19 e7 be ee 04 40 bd 09 8a e8 bd ab 7d a7 bd
       -0.45136932 -0.0468797 -0.11354453 -0.08178266
000280 66 a4 0f bd 18 66 3c be f8 d3 12 bf 6c 1b 7e bd
       -0.035068892 -0.1839832 -0.5735469 -0.06203787
000290 c0 56 f7 3b 71 4b 81 be 48 3d 96 be 9c 63 b5 be
       0.007548183 -0.2525287 -0.2934363 -0.35427558
0002a0 f8 fb d1 bc 7d 5c 70 be 14 cd ca bd 0f bd 83 be
       -0.025632843 -0.23472781 -0.09902397 -0.25730178
0002b0 b1 b0 a6 be 96 cc e9 be f1 ed a7 bc 23 2a ea bd
       -0.3255668 -0.456639 -0.020499201 -0.11433818
0002c0 0d 72 1b be ae b3 9f 3d ea 23 c0 bd 3e 31 5b bd
       -0.15180226 0.07797943 -0.0938185 -0.053513758
0002d0 4e 00 c6 be a4 59 89 bd 8c df 98 be c5 42 07 be
       -0.38672107 -0.06706551 -0.29858053 -0.13209064
0002e0 b5 cc 64 be 50 f3 01 3e 95 2d d2 3d cb 03 dd be
       -0.22343715 0.12690473 0.102626 -0.43166956
0002f0 71 b0 92 be 5c a6 3b be 94 66 de 3a 6c a5 68 be
       -0.2865024 -0.1832518 0.0016967827 -0.22719353
000300 90 62 24 be 61 23 72 bd f0 ee 3c be 4e 1a 05 be
       -0.16053224 -0.05911577 -0.18450522 -0.12998316
000310 02 1b fc bc a0 6c d6 3c 95 e0 32 be d9 57 2e be
       -0.030774597 0.026174843 -0.17468484 -0.17025699
000320 67 fd d6 bd 16 98 19 be 18 bf e4 bc c9 d9 3d bd
       -0.104975514 -0.14999422 -0.027923152 -0.046350274
000330 f9 38 4e 3d 15 c4 25 be ca d8 32 be aa 34 22 bd
       0.050347302 -0.1618808 -0.17465511 -0.039601006
000340 a3 1f 3e 3d 03 a8 2f be fb 09 84 ba fd 58 56 bd
       0.04641689 -0.17153935 -0.0010073775 -0.05233096
000350 09 67 f9 bd 5b 27 b2 3c 66 7c 10 bd 26 15 34 bd
       -0.121778555 0.021747282 -0.035274886 -0.04396548
000360 b7 18 2b be bb ec 13 ba 99 09 ad bd 84 30 1c be
       -0.16708647 -0.00056428806 -0.08449096 -0.15252882
000370 bd 24 a8 3c 1f aa 27 be 65 3f 97 bc bc 24 15 be
       0.02052533 -0.1637349 -0.018462846 -0.14564794
000380 9a bb f6 3d a5 26 01 be 45 31 9a bd ed f7 1b 3d
       0.12047501 -0.12612398 -0.07528929 0.038078237
000390 3b 58 8d bd b9 1f dc 3c a9 64 b9 bd d9 de f3 bc
       -0.06901594 0.026870595 -0.090524025 -0.029769348
0003a0 bc 20 2b be 83 af 2d be 25 6b e8 bc f2 c0 30 3d
       -0.16711706 -0.16961484 -0.028371403 0.043152757
0003b0 0f 3d 26 be 03 7d 3c bd 3a 23 c8 3c c5 15 1f be
       -0.1623423 -0.046017658 0.02443086 -0.15535648
0003c0 1e 1d 70 3b 3d e7 c4 3c 3b 6f b2 bd 03 0b 7b bd
       0.003663845 0.024036044 -0.08712622 -0.0612898
0003d0 5a cd 87 bd c7 89 cf bc a3 f9 02 be 40 cb 51 bd
       -0.066309646 -0.025334252 -0.12790541 -0.051219225
0003e0 72 4a ab bd 6c 8d 3f 3a ea f4 fe 3c a6 c7 ea 3c
       -0.08363809 0.0007307145 0.031122644 0.028659653
0003f0 de 3c 13 3d 94 04 89 bd a5 ea df ba c9 b4 23 bd
       0.03594672 -0.06690326 -0.0017083479 -0.039967332

fc2.bias f4 [64]
000000 8d 44 ab 3a ea b6 5d 3f b3 90 39 3e a1 f7 11 be
       0.0013066694 0.8660723 0.18121605 -0.14254619
000010 58 ed 99 bd c2 0f 9e bd 66 c6 08 3f 60 88 b0 bd
       -0.07515973 -0.07717849 0.5342773 -0.086197615
000020 78 af d9 3e 87 b1 96 bd 90 a8 73 bb ff 21 8c 3f
       0.42516685 -0.073580794 -0.0037179329 1.0947875
000030 66 2c 1d be d9 86 41 be fa 92 41 be f4 81 2d 3f
       -0.15348968 -0.18899097 -0.18903723 0.6777642
000040 fc cd 3d be c5 68 6b bd c4 28 3b be ea 61 39 3f
       -0.18535608 -0.057472963 -0.1827727 0.7241503
000050 45 70 9a 3f 03 3d 30 3f 89 d2 3f 3f 0c 82 49 be
       1.2065512 0.68843096 0.74930626 -0.19678515
000060 64 b5 40 be 17 85 d3 bc c3 1c 43 3f 8d 90 37 3f
       -0.18819195 -0.025820298 0.7621576 0.7170494
000070 dc 18 90 3d 84 1c 01 be 0a d2 bd be da f2 a5 3e
       0.070359915 -0.12608534 -0.3707431 0.32411844
000080 67 35 3e be 1f 3d 85 3d 67 57 9b bd 26 f0 d5 bd
       -0.18575059 0.065057985 -0.0758503 -0.10446195
000090 4d 1e f6 3e 2f 7e 86 3f b4 e0 a6 bb 2e 65 b1 3e
       0.48069993 1.0507258 -0.0050927047 0.34647506
0000a0 d0 5c 67 3f 75 4e 41 3f 70 34 2e 3e 97 8a 47 be
       0.90375996 0.7551034 0.17012191 -0.19486462
0000b0 3b 7e bb bd 21 65 ae 3e 01 1d 31 be 0a 98 f2 3e
       -0.09154936 0.3406153 -0.1729622 0.47381622
0000c0 99 57 30 be 4e 99 06 be f3 09 30 be 1d 3b ae 3e
       -0.17220916 -0.13144419 -0.17191295 0.34029475
0000d0 8f f9 46 3d b8 e3 5b 3f a4 3e 49 3f c0 7a e7 3e
       0.04857784 0.85894346 0.78611207 0.45210838
0000e0 e4 46 59 be 67 49 e4 bd e9 44 06 bd 8e 2b e0 bd
       -0.21218449 -0.11146813 -0.03278056 -0.109458074
0000f0 e6 f3 48 be 91 c0 0d be bb d7 48 bd 0a e4 be bd
       -0.1962429 -0.1384299 -0.04903386 -0.09320839

fc3.weight f4 [5, 64]
000000 32 57 88 bd 01 1d 1f 3e 8e 51 9c 3e 07 82 79 3d
       -0.06657256 0.15538408 0.3053097 0.06091502
000010 96 f4 b7 bd c8 47 aa 3d c3 46 d9 3e 5c b1 c2 3c
       -0.08982198 0.083144724 0.424368 0.023766212
000020 4b 88 58 be cb e7 29 3d fc 96 b3 bc 2c a6 eb 3e
       -0.21145742 0.04148082 -0.02192258 0.46025217
000030 e8 bb e3 3d 95 1c 52 bd af 95 94 bd 77 b2 55 bd
       0.11119825 -0.05129679 -0.072551124 -0.05217215
000040 41 e2 b3 bc 8c 9b e2 3c f8 26 b0 bc 62 2f 80 be
       -0.021958472 0.027662061 -0.021502957 -0.2503615
000050 ac ba 77 3f 50 97 80 3d c1 3d 8f be 24 0c 22 3d
       0.96769214 0.062788606 -0.27976802 0.03956236
000060 70 4a 07 bd 1a e1 86 bd 92 94 5b 3d f1 17 21 be
       -0.033029974 -0.065859035 0.053608485 -0.15731789
000070 3a 8e 7a 3d 70 dd e1 3d 66 3e 87 3c b0 6d 92 be
       0.061170794 0.11028564 0.016509246 -0.2859931
000080 8f d7 35 3d f5 65 5d 3e 1f 8b 8b bc 98 bf d7 bd
       0.044395026 0.21620925 -0.017034112 -0.105345905
000090 13 ca c4 be 42 b2 9d be c1 ef 0b be 97 fa 83 3d
       -0.3843542 -0.30800062 -0.13665678 0.064442806
0000a0 64 0b c5 bd 8e 50 a1 bc ca e3 18 3e bd c2 0b bd
       -0.09621313 -0.019691732 0.14930645 -0.034121264
0000b0 61 6b ee 3c 43 ed 8a 3d 0f eb c7 bc 6f 30 19 be
       0.029103937 0.06783535 -0.024404077 -0.14959882
0000c0 2e 7c 5d bb 66 4b 85 3d 3b 42 1a bd da 54 6e 3d
       -0.003379594 0.06508522 -0.03766082 0.05818639
0000d0 ea 82 9b 3d ef 8a 83 be ca 1e ed 3e 87 6f 5c 3f
       0.07593329 -0.25691935 0.46312553 0.8610768
0000e0 29 25 27 be 9a 44 0a be 40 a4 3d 3c 78 4e e1 bd
       -0.16322769 -0.13502732 0.011574805 -0.11001295
0000f0 81 07 05 be 8d 4f 53 3d ed 47 c4 bd eb 55 15 3d
       -0.12991144 0.051589537 -0.09584031 0.03645889
000100 d8 bc 05 3c c1 0d 27 be 88 1b a1 bc c1 3d f0 bd
       0.0081627 -0.1631384 -0.019666448 -0.117305286
000110 0d 12 5d bd 2c 6e 7c bd 10 c2 9d be 24 0f 06 bb
       -0.053972293 -0.061628506 -0.3081212 -0.0020455802
000120 8b 6b 04 3f 53 d1 83 bd bd 84 ae bb 8e 79 30 bf
       0.517266 -0.0643641 -0.005325882 -0.6893548
000130 a7 ab 91 bc 2c 02 81 3c 02 62 a0 3c c7 2f 67 bd
       -0.017782046 0.015748106 0.019577984 -0.05644205
000140 0e 5e 8b bd 94 a3 0c 3d 71 bc f6 bc 27 c0 e5 be
       -0.06805049 0.034335688 -0.030119153 -0.44873163
000150 71 02 34 3e 45 94 eb 3e 42 d1 a0 be 98 ec bf bd
       0.17579056 0.46011558 -0.3140965 -0.093712986
000160 99 5a af bc 79 c7 ec bd 94 a2 25 bf c3 09 8f be
       -0.021405505 -0.11561484 -0.647012 -0.27937135
000170 d5 45 15 bf 40 31 4b bd 02 e5 c7 3d 68 88 03 bf
       -0.5830968 -0.049607515 0.09760477 -0.51380014
000180 3f 67 1f 3c 32 bd 5e bd 0d 78 62 bd cd f5 0f 3d
       0.009729206 -0.05437965 -0.05529027 0.035146523
000190 5b e5 a8 3e 8d a9 f5 3e 45 c1 33 bd 70 d4 b6 bd
       0.32987484 0.4798092 -0.043885488 -0.08927238
0001a0 67 0c 6a 3f 61 79 71 be 26 79 dc bd b3 fa b8 3b
       0.91425174 -0.23581459 -0.10765295 0.00564512
0001b0 25 c4 b6 bc bb 53 d3 be ca e2 39 bd f5 65 52 bd
       -0.022310326 -0.4127482 -0.0453823 -0.051366765
0001c0 2a 96 e9 bd 5c d0 41 bd 01 c9 40 3c 38 e7 09 3e
       -0.11405595 -0.047317848 0.011766673 0.13467109
0001d0 bf 8c 08 be 7c 31 84 bd 49 e8 f6 3e bb cc a0 be
       -0.1333494 -0.06454751 0.48224095 -0.31406197
0001e0 c1 88 99 bd 7b 26 06 3d ce 10 ef bd a2 05 55 3d
       -0.07496787 0.03275154 -0.11673127 0.052007325
0001f0 6e 66 9e bc 95 13 63 bc 17 f2 5c be 40 23 e4 bc
       -0.019335952 -0.013859649 -0.21576725 -0.02784884
000200 d5 ec 6a bd b6 ac 1d 3f e2 5c d3 3d 1d 79 56 3d
       -0.057354767 0.6159166 0.1032045 0.052361596
000210 8d 55 5f bc a4 56 fb 3d 07 95 46 bf 13 de 0b bd
       -0.013631237 0.12272385 -0.7757115 -0.034147333
000220 1a 8d cb 3e a7 34 bb 3d 42 62 8e 3d ee 64 fa 3e
       0.3975609 0.09140902 0.06952335 0.48905128
000230 0b c0 3f 3e 3f b1 58 bd b5 ee 9b 3d c3 9f 09 3f
       0.18725602 -0.05290341 0.07613889 0.537594
000240 73 1c da 3c d9 c5 ba 3b e8 98 cf 3d d5 36 b6 be
       0.026624894 0.005699855 0.101365864 -0.3558871
000250 6f ef 38 bf 7a b4 b6 3d 8b 8c 64 be 66 19 c2 3d
       -0.72240347 0.08921142 -0.22319238 0.094775006
000260 c1 c2 cb bc 54 90 6b 3d 9a 3e 01 3f 04 43 71 be
       -0.02487314 0.05751069 0.5048615 -0.2356072
000270 b2 de 73 3f 70 3f 3b 3e 31 e0 33 be 1a b0 5e be
       0.9526168 0.18285918 -0.17565991 -0.21746865
000280 15 7f 15 3e 6e 46 57 3e e6 dd 1f be 6c 2f 62 bd
       0.14599259 0.2102296 -0.15611991 -0.055221006
000290 06 72 34 be 4a ec db bd 40 e6 bd 3c 49 a4 97 be
       -0.17621621 -0.10738428 0.02318108 -0.29617527
0002a0 b3 d6 ec be ef 1d 28 3f 6f 1c 2d 3e cc fd f1 bc
       -0.46257553 0.65670675 0.16905378 -0.029539965
0002b0 0c fd d9 3d c9 b5 c0 3e 56 b8 27 3d df 78 53 bd
       0.10643968 0.3763869 0.04094728 -0.051628944
0002c0 5a f3 4d 3d 8f 27 6c 3d 96 45 f9 3c 28 f7 bb be
       0.050280906 0.057654914 0.030428689 -0.36712003
0002d0 c6 cb af 3d 3f 9e ec 3e 4e c6 02 bf 9a e7 50 be
       0.085837886 0.46214482 -0.5108384 -0.20400849
0002e0 99 55 22 3e 92 c0 dc 3d 8c 36 c7 3d f7 71 f2 3b
       0.15852965 0.10778917 0.09727201 0.0073988396
0002f0 fb b5 38 3d df 5b 1c 3e 5f 24 22 3d 19 7b 3c 3e
       0.045095425 0.15269421 0.039585467 0.18406333
000300 3d 02 1d 3c 7a 08 15 bf ce 84 c9 ba db 96 be 3d
       0.009583053 -0.5821606 -0.0015374662 0.09306117
000310 a1 b2 77 ba ca 38 88 3d eb 46 a4 3e 2b f2 1d 3e
       -0.000944892 0.06651457 0.32085356 0.15424411
000320 c9 b2 8c be cb c3 b5 bc 63 1e 91 3d 10 59 96 3e
       -0.27480152 -0.022188088 0.07085874 0.29364824
000330 ed da 5e 3d 37 f6 17 3e 6c aa d6 bd 21 ce 94 be
       0.054408003 0.14840017 -0.10481724 -0.29063514
000340 ec a0 2f 3e 40 dd b1 3d 4b 0a b1 3c 72 26 db bd
       0.1715123 0.08684778 0.021611353 -0.10700692
000350 86 38 3a bf f7 1a c5 be 9a 05 78 3f 12 20 68 3d
       -0.727425 -0.38497135 0.9688355 0.05667121
000360 06 e2 84 3d 10 66 af 3c 10 c9 15 bf 84 b8 79 3a
       0.06488423 0.021410972 -0.5850992 0.0009526091
000370 8e 43 0e be cf b6 c7 37 33 82 ae be cf b3 b2 3e
       -0.13892958 2.3807776e-05 -0.3408371 0.34902808
000380 ce ab a1 3d 01 41 22 3b b8 e0 83 bd f0 11 fc bc
       0.07894097 0.0024757984 -0.06439346 -0.030770272
000390 a3 7c 42 bc 87 29 ad be 39 82 30 bd 33 90 a6 3d
       -0.011870536 -0.33820745 -0.04309294 0.081329726
0003a0 0d 33 5b 3c a7 39 e1 be fb c1 94 3b c6 ab 35 3e
       0.013378871 -0.43989298 0.004539726 0.17741308
0003b0 7f 83 a9 3d f3 75 4d 3e 91 9e 95 3d a7 ce 0a 3f
       0.08277034 0.20064525 0.07305635 0.54221576
0003c0 ac 8a cc 3d a6 35 33 bd 86 7e 9c 3c d6 f1 26 3e
       0.09987387 -0.043752335 0.0191033 0.1630319
0003d0 ca 9f 1b 3d 54 a4 e9 be a5 4b 25 3e 68 fb 60 be
       0.037994184 -0.45633185 0.16142137 -0.21970904
0003e0 f4 26 0b bb 58 b4 91 3d 48 f0 a4 bd 10 7e c9 3d
       -0.0021232935 0.07114476 -0.080536425 0.09838498
0003f0 f5 6a 0d 3e 12 07 de 3d 9b 3d ae 3c a8 8d 07 3d
       0.13810332 0.10841192 0.02126961 0.03309408

fc3.bias f4 [5]
000000 4e 36 2a be 52 e9 16 3f e7 c5 a5 bd 14 97 c7 3c
       -0.16622278 0.5894977 -0.080943875 0.024364032
000010 23 df 02 bf
       -0.5112173
