maddpgzoo1.pth (torch, 22959 bytes, 6 tensors)

layer1.weight f4 [64, 10]
0	0xbf944428	-1.15833
1	0xbf1646f9	-0.58702046
2	0x3bbcf283	0.0057662143
3	0x3c6db5d4	0.014508683
4	0x3e53eab2	0.20694998
5	0x3d4bb470	0.049732625
6	0xbd8d9516	-0.069132015
7	0xbdf89b3a	-0.12138982
8	0xbe5a453d	-0.21315475
9	0x3dddbf40	0.10827494
10	0xbf146ee9	-0.57981735
11	0x3fb30985	1.398728
12	0xbde69c3c	-0.11260268
13	0x3ec53130	0.3851409
14	0x3ebdaa56	0.37044019
15	0x3dee41f4	0.11633673
16	0x3f391d4a	0.72310317
17	0x3e8d82ed	0.2763895
18	0xbf5e5bf4	-0.8685906
19	0x3cdee8f4	0.02721069
20	0x3de282c9	0.110601015
21	0x3cce3784	0.025172956
22	0xbde603d8	-0.11231202
23	0xbe578f05	-0.21050651
24	0x3c1ebb90	0.009688273
25	0xbdfe4f36	-0.12417452
26	0x3e48035e	0.19532534
27	0xbfa7b3d6	-1.3101757
28	0xbe84cc32	-0.2593704
29	0xbe107a8a	-0.14109245
30	0xbd3c70b8	-0.046005934
31	0x3c3498a7	0.011022723
32	0xbe685ec6	-0.22692403
33	0x3da583c4	0.08081773
34	0x3ca6b24a	0.020348687
35	0xbeff89d8	-0.49909854
36	0x3f23be70	0.6396246
37	0x3e4dbb42	0.20090964
38	0xbe94f8b3	-0.29095992
39	0x3ea88868	0.3291657
40	0x3ebf6fca	0.37389976
41	0x3e5e4f35	0.21709903
42	0x3c3ababf	0.011397063
43	0x3e8f7298	0.28017116
44	0x3ef8515f	0.4849958
45	0x3e9f76a3	0.311452
46	0x3d24e047	0.04025295
47	0xbdf84e6a	-0.12124331
48	0xbf942023	-1.1572307
49	0xbeff3eb9	-0.4985254
50	0xc024807b	-2.5703418
51	0xbf14ed5e	-0.58174694
52	0xbe529b46	-0.20567045
53	0x3e0311c0	0.1279974
54	0x3dfc3e33	0.12316551
55	0x3dc82caa	0.09774144
56	0x3edeaf06	0.43492907
57	0x3ebad8f6	0.36493653
58	0xbec8490c	-0.3911823
59	0x3cf03207	0.02932073
60	0xbfd4cb33	-1.6624511
61	0x4005cb50	2.0905342
62	0xbf1a7d5f	-0.6034755
63	0x3e06ab15	0.131512
64	0xbd8bba98	-0.06822699
65	0x3e8fc282	0.28078085
66	0x3eeda8a9	0.4641774
67	0x3e9b3f8f	0.3032193
68	0xbf197535	-0.5994447
69	0x3e19941a	0.14997903
70	0x3f2d3304	0.6765597
71	0x3f54544f	0.82941145
72	0xbf062271	-0.52396303
73	0xbf0e21d1	-0.5552035
74	0xbd3ed6da	-0.046591617
75	0x3edee75b	0.43535885
76	0x3e0bef16	0.13665423
77	0xbedbb2d5	-0.42909876
78	0xbea23f58	-0.31688952
79	0x3d0fed4e	0.03513842
80	0xbd30308b	-0.043015044
81	0x3e003e83	0.12523846
82	0x3ded26ab	0.11579641
83	0xbcc9a586	-0.02461506
84	0x3e241c7a	0.16026488
85	0xbe083474	-0.1330126
86	0xbe9d1649	-0.30681065
87	0xbe1812e8	-0.14850962
88	0xbe4a1c26	-0.197373
89	0x3e3129dc	0.17301124
90	0xbf9efbb3	-1.2420563
91	0xbf8cf615	-1.1012598
92	0x3e30781d	0.1723332
93	0xbe448cfa	-0.19194403
94	0xbe064afc	-0.13114542
95	0xbdcd62d7	-0.10028618
96	0xbe16ed66	-0.14738998
97	0xbe7ee8b9	-0.24893464
98	0x3d9009db	0.0703313
99	0xbe0a3f75	-0.1350077
100	0xbb65027d	-0.003494411
101	0xbeb3b578	-0.35099387
102	0x3cf86402	0.030321125
103	0x3eca4bba	0.395109
104	0x3e81cbe7	0.25350878
105	0x3e208533	0.15675811
106	0xbe55c40a	-0.20875564
107	0x3e5eb164	0.21747357
108	0xbe9f4309	-0.3110583
109	0xbde48c90	-0.11159623
110	0xbff4ec50	-1.9134617
111	0xbedc255b	-0.4299725
112	0x3eb9c32f	0.36281726
113	0x3e1c6955	0.15274556
114	0xbf0479d7	-0.5174841
115	0x3d058e4a	0.0326064
116	0xbde0d3ff	-0.10977935
117	0x3e3ba477	0.18324457
118	0xbeac94a3	-0.3370715
119	0x3e5f735c	0.2182135
120	0xbfbecf94	-1.4907098
121	0xbd94ee82	-0.07272054
122	0x3df17f53	0.11791863
123	0x3e324858	0.1741041
124	0xbe93752d	-0.28800336
125	0xbe572bf7	-0.21012865
126	0x3dc87c9b	0.097893916
127	0x3f1f7f28	0.623034
128	0x3d644e00	0.05573845
129	0x3f1749ff	0.59097284
130	0x3efe9ccf	0.4972901
131	0x3f4c5ba4	0.7982733
132	0x3e5a66c9	0.21328272
133	0x3e3134cc	0.17305297
134	0x3e372794	0.17886192
135	0x3ed3dde0	0.41380215
136	0x3e3f4dd4	0.18682033
137	0xbe40a4e1	-0.18812896
138	0xbf8c5f7d	-1.0966641
139	0xbf8d9903	-1.106232
140	0xc0232474	-2.5491
141	0xbfe30663	-1.7736324
142	0x3d0d29c7	0.03446367
143	0xbdfc04e7	-0.123056225
144	0x3d4c8edc	0.04994093
145	0x3dd8315f	0.10556292
146	0x3f07a8d0	0.5299196
147	0x3e36f873	0.17868213
148	0xbe679063	-0.22613673
149	0xbcf814d1	-0.030283364
150	0xbf9274e1	-1.1441919
151	0xbe80b3de	-0.25137228
152	0xbe4ad57f	-0.19808005
153	0xbe4ca03f	-0.19983004
154	0xbf22ccdc	-0.6359384
155	0xbd939edf	-0.07208037
156	0xbd4d8d96	-0.050183855
157	0xbdfc3ab7	-0.123158865
158	0x3efe105c	0.49621856
159	0x3e9c427b	0.3051947
160	0xbf83ea62	-1.0305903
161	0xbf4159be	-0.7552756
162	0x3e816c2c	0.2527784
163	0xbecba287	-0.39772436
164	0xbea7660b	-0.3269504
165	0xbe24dac1	-0.16099073
166	0xbdd4caf9	-0.103902765
167	0x3d640dce	0.055677228
168	0x3e8bda3a	0.2731493
169	0x3ed77501	0.42081454
170	0xbf3b9d79	-0.7328716
171	0x3ff5180b	1.9147962
172	0xbd682d42	-0.056683786
173	0x3de86745	0.11347822
174	0x3d55bbb5	0.052180964
175	0x3dfabf0f	0.12243473
176	0xbdb18785	-0.086684264
177	0xbd028f60	-0.031875014
178	0xbe89dd76	-0.26926774
179	0xbe587445	-0.21138103
180	0x3dfd2095	0.1235973
181	0xbe68e62b	-0.22744052
182	0x3e11ff64	0.1425758
183	0xbef87582	-0.4852715
184	0x3da41cc8	0.08013302
185	0xbcf316e9	-0.02967401
186	0xbea61524	-0.32438004
187	0xbf20da41	-0.6283303
188	0x3f62d2cd	0.88602906
189	0xbeb1be27	-0.34715387
190	0xbe538edf	-0.2065997
191	0xbcdc8a30	-0.026921362
192	0xbc26d158	-0.010181747
193	0xbc6bebc4	-0.014399473
194	0x3cd17a8e	0.025571134
195	0xbd5ed9e7	-0.054407027
196	0x3db596b0	0.08866632
197	0x3d40b623	0.0470487
198	0xbea1d051	-0.31604245
199	0x3ee902aa	0.45509845
200	0xbf923815	-1.1423365
201	0x3e35c149	0.17749514
202	0x3e0e9a66	0.13926086
203	0xbeb76928	-0.35822415
204	0x3e3f3de8	0.18675959
205	0xbe747a33	-0.2387474
206	0x3f7b5929	0.9818292
207	0x3c4038da	0.0117323045
208	0xbefd2bdd	-0.49447528
209	0x3e301cd3	0.17198496
210	0xbf5cb1e9	-0.8620897
211	0x3f8c73b5	1.0972811
212	0x3db435de	0.08799337
213	0xbe507f86	-0.20361146
214	0xbdf74318	-0.12073344
215	0x3cf02d3d	0.029318446
216	0x3f72b5af	0.9480848
217	0xbf66b498	-0.90119314
218	0x3d364bc1	0.04450584
219	0x3e98aea9	0.29820755
220	0xbed85e4d	-0.42259446
221	0xbffc6034	-1.9716859
222	0x3e71f56e	0.2362878
223	0x3e6206f4	0.22072965
224	0x3d7f066d	0.062261987
225	0xbd96d194	-0.073641926
226	0x3cca6cf4	0.024710156
227	0xbe31d7d4	-0.17367488
228	0xbedffc60	-0.43747234
229	0xbec1ad83	-0.3782769
230	0x3f93ab33	1.1536621
231	0xbe17b9d8	-0.14816988
232	0x3f4ee04d	0.80811006
233	0xbe75e17b	-0.24011795
234	0x3e2c6caa	0.16838327
235	0xbeba8ffc	-0.36437976
236	0xbf51dc12	-0.81976426
237	0xbf8f4833	-1.1193908
238	0x3dcbdf7a	0.09954734
239	0x3e57e532	0.21083525
240	0x3ffddf3b	1.983375
241	0xbf392650	-0.72324085
242	0xbec24649	-0.37944248
243	0xbe06466f	-0.13112806
244	0x3ddae18a	0.106875494
245	0xbe711c64	-0.23545986
246	0xbfce5205	-1.611878
247	0x3e98b89e	0.29828352
248	0x3e2a51f7	0.1663283
249	0xbe982c98	-0.29721522
250	0xbf6c6e81	-0.92356116
251	0xc03de9ff	-2.967407
252	0xbe451bdb	-0.19248907
253	0xbe2ee3c2	-0.1707907
254	0x3de8e65c	0.113720626
255	0x3ed73526	0.42032737

layer1.bias f4 [64]
0	0xbf5ffd44	-0.8749583
1	0xbfa3fc4e	-1.2811372
2	0xbf4f471a	-0.8096787
3	0xbf8da025	-1.1064497
4	0xbeb65b7f	-0.3561668
5	0x3cb29f91	0.021804603
6	0xbf8611d8	-1.0474195
7	0xbf802850	-1.0012302
8	0xbf306fce	-0.689206
9	0x3f51f9cb	0.8202178
10	0xbf408337	-0.7520022
11	0xbf961024	-1.1723676
12	0xbee10731	-0.439508
13	0xbe8fe6b7	-0.2810571
14	0x3e2e87b0	0.17043948
15	0xbf5b3428	-0.8562646
16	0xbf7022d9	-0.93803173
17	0x3dbc679c	0.091994494
18	0x3e261a3e	0.16220948
19	0xbf6cbe26	-0.92477643
20	0xbed00338	-0.40627456
21	0xbd5c5404	-0.05379106
22	0x3eb28d98	0.34873652
23	0xbfd7a667	-1.6847657
24	0x3ea10e77	0.31456348
25	0xbf897cee	-1.074125
26	0x3eff1586	0.4982111
27	0xbe4b331b	-0.19843714
28	0x3f2e5533	0.68098754
29	0xbf94116e	-1.1567819
30	0xbf2f739e	-0.6853579
31	0xbf748c2f	-0.95526403
32	0x3dd5e9c1	0.10444976
33	0xbf1bb0ec	-0.60816836
34	0xbc9ed60d	-0.019389177
35	0xbf0aca2c	-0.5421474
36	0xbf7196b2	-0.9437057
37	0xbf8b8924	-1.0901227
38	0xbeb6ab48	-0.35677552
39	0xbeda3e24	-0.42625535
40	0x3f02f4ca	0.5115477
41	0x3eae375c	0.3402661
42	0xbe7e3879	-0.2482623
43	0xbe129b52	-0.14317062
44	0xbed1b9c1	-0.4096203
45	0xbe9c722d	-0.3055586
46	0xbef929b0	-0.48664618
47	0xbf999b9d	-1.2000614
48	0xbfc029bb	-1.5012735
49	0xbfbe2ac7	-1.4856805
50	0xbef2e886	-0.47443026
51	0xbe0a9eb4	-0.13537103
52	0xbe9bd6a1	-0.30437186
53	0xc0029550	-2.0403633
54	0xbf65c816	-0.8975843
55	0xbf64897b	-0.8927228
56	0xbfa80b01	-1.3128358
57	0x3cd44140	0.02591002
58	0x3f0fb171	0.5613013
59	0xbea06011	-0.31323293
60	0xbec41197	-0.3829467
61	0xbf1288e4	-0.5724013
62	0xbf721397	-0.9456114
63	0xbf125946	-0.5716747

layer2.weight f4 [64, 64]
0	0xbe2301b0	-0.15918612
1	0x3cab576e	0.020915713
2	0xbd69813c	-0.057008013
3	0xbce29842	-0.027660493
4	0x3e037e0f	0.12841056
5	0xbe25b1b3	-0.16181068
6	0xbe5831d1	-0.21112753
7	0x3caed038	0.02133952
8	0xbdc75637	-0.09733241
9	0xbe2fe2d2	-0.17176369
10	0xbde736c0	-0.112897396
11	0xbe15b37f	-0.14619254
12	0xbd085097	-0.03327998
13	0xbc432169	-0.011909821
14	0xbcb39473	-0.021921372
15	0xbe6dabfa	-0.23210135
16	0x3d420871	0.04737133
17	0xbe418b5c	-0.18900818
18	0xbe2fc332	-0.17164305
19	0xbdc1c180	-0.09460735
20	0xbe1b4902	-0.15164569
21	0x3d8e9960	0.06962848
22	0xbe02d153	-0.12775163
23	0xbdbff17b	-0.093722306
24	0xbdde9dc8	-0.10869938
25	0xbd11807f	-0.035522934
26	0xbe029007	-0.12750255
27	0xbd7f11b0	-0.062272727
28	0xbe325742	-0.17416099
29	0x3d62d3ad	0.05537765
30	0xbe2f006c	-0.17090005
31	0xbd130b8d	-0.035899688
32	0xbe71230d	-0.23548527
33	0xbe153872	-0.14572313
34	0xbe17dc0a	-0.14830032
35	0xbdb8f844	-0.09031728
36	0xbd2649d0	-0.040597737
37	0xbcb192ef	-0.021676509
38	0xbe3d9112	-0.18512371
39	0x3b6bd136	0.0035982854
40	0xbc100871	-0.008791075
41	0xbe422fae	-0.18963501
42	0xbd4b3ff1	-0.049621526
43	0xbe378783	-0.17922787
44	0x3d13cfd5	0.036086876
45	0xbd00a781	-0.031409744
46	0x3d4e94e8	0.050434977
47	0xbdf63df0	-0.120235324
48	0xbe1f3fad	-0.15551634
49	0xbddf98dc	-0.109178275
50	0xbd93ce4f	-0.072170846
51	0x3cc893fa	0.024484623
52	0xbd2cae78	-0.042158574
53	0x3d0737d7	0.033012237
54	0xbdbd8b22	-0.09255053
55	0xbc9a4ccc	-0.018835448
56	0x3d0653ab	0.032794636
57	0xbe1de7dd	-0.1542048
58	0xbdbd8552	-0.092539445
59	0xbc5c7ee2	-0.013457986
60	0xbe5b5c74	-0.21421987
61	0xbe6056ae	-0.21908066
62	0xbdb45b32	-0.088064566
63	0xbd9b6b47	-0.07588821
64	0xbcb0f9b5	-0.021603445
65	0xbe2df64d	-0.16988488
66	0x3e0bb249	0.13642229
67	0xbe05adac	-0.13054532
68	0xbdf23f35	-0.11828462
69	0xbe620d8e	-0.22075483
70	0xbd8f38cb	-0.06993254
71	0x3dc239bf	0.094836704
72	0xbe0260f1	-0.12732293
73	0xbd77b923	-0.060479295
74	0x3d3eaa35	0.04654904
75	0xbbe909b6	-0.0071117533
76	0xbd260aac	-0.04053752
77	0x3cae50f6	0.02127884
78	0xbe33cc14	-0.17558318
79	0xbd235134	-0.039872363
80	0xbcdd61b5	-0.02702413
81	0xbdbe7405	-0.09299473
82	0xbe3b3007	-0.1828004
83	0xbe5271be	-0.20551202
84	0xbe55adf0	-0.20867133
85	0x3cc75b0a	0.024335403
86	0xbe0aeac4	-0.13566118
87	0xbe16ac75	-0.14714225
88	0xbcadbae5	-0.021207282
89	0xbd890082	-0.0668955
90	0xbe0616d0	-0.1309464
91	0xbe81b8d5	-0.25336328
92	0xbbd4b20a	-0.0064909505
93	0xbe253bc7	-0.16136084
94	0xbd8cf665	-0.068829335
95	0xbe1d6f57	-0.15374504
96	0xbe3818fe	-0.17978284
97	0xbe028028	-0.127442
98	0xbde1a488	-0.1101771
99	0xbe7d9624	-0.24764305
100	0xbe98d662	-0.2985106
101	0x3cff85d7	0.03119175
102	0xbe8097ca	-0.25115806
103	0x3d4d6311	0.050143305
104	0xbe08f267	-0.13373719
105	0xbd5286a5	-0.05139794
106	0x3dde4692	0.10853304
107	0xbe2aac5c	-0.16667312
108	0xbe76a6c5	-0.24087055
109	0xbea8358a	-0.32853347
110	0x3d6a06d1	0.057135407
111	0xbe2b3987	-0.16721164
112	0x3d8ceb30	0.06880796
113	0xbe152354	-0.14564258
114	0xbdf1e24c	-0.11810741
115	0x3d12ac3b	0.035808783
116	0xbe5b2837	-0.2140206
117	0x3dee8112	0.11645712
118	0xbde246c5	-0.110486545
119	0xbe6321f1	-0.22180916
120	0xbe37a426	-0.17933711
121	0xbe86a29a	-0.2629593
122	0xbd3eacae	-0.0465514
123	0xbe3c14c8	-0.18367302
124	0xbe546f19	-0.20745505
125	0xbe34de17	-0.17662846
126	0xbd49832a	-0.049197353
127	0xbe1825d0	-0.14858174
128	0xbf43090a	-0.7618567
129	0xbb5423c4	-0.003236995
130	0xbf14a60c	-0.5806587
131	0xbf20659b	-0.6265504
132	0x3eaf72c1	0.34267238
133	0x3d58fbb2	0.05297441
134	0xbd580728	-0.0527412
135	0xbf1414ae	-0.57844055
136	0x3e93b0e1	0.28845885
137	0xbf9669ac	-1.1750998
138	0x3da0fdb8	0.07860893
139	0xbea74954	-0.32673132
140	0x3e882d4d	0.26597062
141	0xbf10bdc2	-0.5653955
142	0xbf1c849f	-0.61139864
143	0xbf0309ad	-0.5118664
144	0xbf08fcc2	-0.5351068
145	0x3e82d05e	0.25549597
146	0xbfb1df61	-1.3896295
147	0xbe125d31	-0.14293362
148	0xbe4b5076	-0.19854912
149	0xbeb85cb0	-0.36008215
150	0xbeb23823	-0.34808454
151	0xbea40d7a	-0.32041532
152	0x3f74b668	0.9559083
153	0xbef6fcbc	-0.48239696
154	0x3dbc0e65	0.09182433
155	0x3e9f95ea	0.31169063
156	0xbf1c81f8	-0.61135817
157	0x3e3c005a	0.18359509
158	0x3f02610d	0.5092934
159	0x3d3877de	0.04503619
160	0x3e369da6	0.17833576
161	0xbedc8c71	-0.43075898
162	0xbd4fd417	-0.050739374
163	0x3ee90620	0.45512486
164	0xbebdbff3	-0.37060508
165	0xbda4ebcf	-0.080527894
166	0xbf06e781	-0.52696997
167	0xc03cd531	-2.9505122
168	0x3f5271cd	0.82204896
169	0xbf6bb376	-0.9207071
170	0xbf701acb	-0.9379088
171	0xbf2cfcb3	-0.6757309
172	0x3d839762	0.06425358
173	0x3f0a3e12	0.5400096
174	0xbe533f45	-0.20629604
175	0xbdddc904	-0.10829356
176	0x3d8d8c06	0.06911473
177	0xbf0f6d14	-0.56025815
178	0x3e5f1ac1	0.2178755
179	0x3e891825	0.26776233
180	0xbec8406d	-0.39111653
181	0xbfd15fa1	-1.6357309
182	0xbd586e62	-0.052839644
183	0xbee1dd16	-0.44113988
184	0xbfaffa40	-1.3748245
185	0x3e8a673e	0.27031893
186	0xbd1dd162	-0.03852976
187	0x3f125efa	0.5717617
188	0xbb6fc494	-0.0036585676
189	0x3c4950b1	0.012287305
190	0xbec7d824	-0.3903209
191	0xbdc1891e	-0.09449981
192	0xbd9e8f9a	-0.077422336
193	0xbe012e9a	-0.12615433
194	0xbde2c55a	-0.11072798
195	0xbe0cb33d	-0.13740249
196	0xbe26113f	-0.16217516
197	0xbc8107d4	-0.015750803
198	0xbd42e339	-0.047579978
199	0xbdc12623	-0.09431102
200	0xbe2a7e5f	-0.16649769
201	0xbe527af5	-0.20554717
202	0xbdc18b35	-0.0945038
203	0xbe66bd60	-0.22533178
204	0xbe0442c5	-0.12916096
205	0xbd8aa20a	-0.06769188
206	0xbe3f8a78	-0.18705165
207	0xbe79e19b	-0.24402468
208	0xbdfce7c3	-0.123488925
209	0xbe51cef8	-0.20489109
210	0xbda2b2d9	-0.07944269
211	0x3cac1128	0.021004274
212	0xbc9692f2	-0.018380616
213	0xbe41b5b2	-0.18916968
214	0xbe0de08d	-0.1385519
215	0xbe32495b	-0.17410795
216	0xbe166bea	-0.14689603
217	0xbdd1ba09	-0.102405615
218	0xbd7485be	-0.05969786
219	0x3b1872b0	0.0023261718
220	0xbdf7119c	-0.120639056
221	0xbdf682cb	-0.120366655
222	0xbdb85438	-0.090004385
223	0xbdfd5d5a	-0.12371321
224	0xbd8db892	-0.069199696
225	0xbe0e355f	-0.13887547
226	0xbd82476c	-0.06361279
227	0xbdb83c45	-0.089958705
228	0xbcae2902	-0.021259788
229	0xbdc63521	-0.09678102
230	0xbdcd6072	-0.10028161
231	0x3ceff616	0.029292148
232	0xbd65f607	-0.056142833
233	0xbd643dea	-0.05572311
234	0xbe23e35b	-0.16004698
235	0xbd4fca08	-0.05072978
236	0x3d327546	0.043568872
237	0xbddd89a1	-0.10817266
238	0xbca97531	-0.020685764
239	0xbd8b15f8	-0.067912996
240	0xbd142c46	-0.036175035
241	0xbdedf5cc	-0.11619148
242	0x3c46d00b	0.012134562
243	0x3d110336	0.035403453
244	0xbdd33d6a	-0.10314448
245	0x3d7923f9	0.06082532
246	0xbe224c35	-0.15849383
247	0xbe190b4f	-0.1494572
248	0xbdc385ad	-0.09546981
249	0x3c9fa2c3	0.01948679
250	0x3d4c87e5	0.049934287
251	0x3d44981e	0.047996633
252	0xbd886396	-0.066596195
253	0xbe0861f0	-0.1331861
254	0xba9f9ba5	-0.0012177123
255	0xbe394023	-0.18090872

layer2.bias f4 [64]
0	0xbd0c3efa	-0.034239747
1	0xbdee7a59	-0.1164443
2	0x3e750bf2	0.23930338
3	0x3b7c0ad5	0.0038458605
4	0xbce16108	-0.027512088
5	0xbdc189d7	-0.09450119
6	0xbdde640e	-0.10858928
7	0xbda0b679	-0.07847304
8	0xbe054eef	-0.13018392
9	0xbe1f5f3f	-0.15563677
10	0xbec00139	-0.37500933
11	0xbe666485	-0.22499283
12	0xbd033482	-0.032032497
13	0xbd93afab	-0.072112404
14	0x3d0ea339	0.03482363
15	0xbe1f6bd0	-0.15568471
16	0xbdb1c290	-0.08679688
17	0xbe78fcb1	-0.24315144
18	0xbe35a8d3	-0.17740183
19	0x3f6bea2e	0.92154205
20	0x3fba0063	1.4531368
21	0x3ffb515b	1.9634203
22	0x3f91dc39	1.1395332
23	0x3c7e949b	0.01553836
24	0x3f0a134a	0.5393568
25	0xbdc56436	-0.09638254
26	0x3caf7ed4	0.021422781
27	0xbc9a1419	-0.018808411
28	0x3be6b589	0.0070406836
29	0xbd77a11f	-0.06045639
30	0xbdeaf98d	-0.11473379
31	0x3f1a2c11	0.6022349
32	0x3e03dc81	0.12877084
33	0xbdb3536d	-0.087561466
34	0xbe3402a2	-0.1757913
35	0xbe3cc516	-0.18434557
36	0xbc4cea6c	-0.012507062
37	0xbdb19ff8	-0.0867309
38	0xbe16f432	-0.1474159
39	0x3c432fa5	0.011913215
40	0xbd36ce5a	-0.044630386
41	0xbde0285a	-0.109451964
42	0x3ef104f4	0.4707409
43	0xbdb8406c	-0.089966625
44	0x3f522eed	0.82102853
45	0xbda062c9	-0.07831342
46	0xbe06a932	-0.1315048
47	0x3f28f693	0.6600124
48	0x3f870a17	1.0549954
49	0xbd95ee1c	-0.073208064
50	0xbd0d99c4	-0.03457047
51	0xbd9cc5ea	-0.076549366
52	0xbe174e3b	-0.14775936
53	0xbde66007	-0.112487845
54	0x3f8370d6	1.026881
55	0xbdead76b	-0.11466869
56	0xbd90820e	-0.07056056
57	0x3f9257be	1.1433027
58	0xbca1b02a	-0.019737322
59	0x3e354bde	0.17704722
60	0x3c5d9fb8	0.013526849
61	0xbdaf628b	-0.085637175
62	0xbd54dc9b	-0.0519682
63	0xbeda42bd	-0.42629042

layer3.weight f4 [5, 64]
0	0x3d027a8e	0.03185516
1	0xbe048257	-0.12940346
2	0x3eb75cf6	0.3581311
3	0xbd483143	-0.048875105
4	0xbce6b9d6	-0.028164785
5	0x3e261a6e	0.1622102
6	0x3d0cefcf	0.034408387
7	0x3db7053f	0.089365475
8	0x3ebf4cb8	0.3736322
9	0x3bc51752	0.006014743
10	0xbde9dab2	-0.11418666
11	0x3e713d67	0.2355858
12	0xbcdec9e6	-0.027195882
13	0x3e2e3bba	0.17014971
14	0x3dbccaf5	0.092183985
15	0x3e323146	0.17401609
16	0x3c42ccf5	0.011889686
17	0xbe28518b	-0.16437356
18	0x3ab6d937	0.0013950233
19	0x3c9acdc8	0.018896952
20	0x3dda6fc4	0.10665849
21	0xbe3376e4	-0.17525822
22	0xbdfa2020	-0.122131586
23	0x3e113341	0.14179708
24	0xbd082f1f	-0.033248063
25	0xbc0387c5	-0.008027975
26	0x3d9dd6eb	0.07707008
27	0x3ceb7a3f	0.028744815
28	0xbc577714	-0.013150949
29	0x3df8f376	0.121558115
30	0xbc0b51e7	-0.008503414
31	0xbd48088a	-0.04883627
32	0xbde1dabf	-0.11028051
33	0xbbedc500	-0.0072561502
34	0xbca677e1	-0.020320835
35	0xbd561ea0	-0.0522753
36	0xbd358bfd	-0.044322956
37	0x3e1fa94b	0.15591924
38	0xbcadba76	-0.021207076
39	0xbbf6e194	-0.007534215
40	0xbdd6dd76	-0.10491459
41	0xbd8c56d1	-0.068524964
42	0xbc99f34c	-0.01879277
43	0xbde07ada	-0.10960932
44	0xbe1a64c6	-0.15077505
45	0xbc8bd8db	-0.017071178
46	0x3e7c93f5	0.24665816
47	0x3e287323	0.16450171
48	0xbd7be5f0	-0.061498582
49	0x3d9d5158	0.07681531
50	0xbcabb065	-0.020958135
51	0xbd043106	-0.032273315
52	0x3e301fe8	0.17199671
53	0x3da67196	0.081271335
54	0xbdbea27b	-0.093083344
55	0x3c8381d6	0.016053122
56	0xbd497c37	-0.049190726
57	0xbe94203f	-0.28930852
58	0xbd464937	-0.048409667
59	0xbb97d725	-0.0046338015
60	0xbe01edc9	-0.12688364
61	0x3e497671	0.19674088
62	0xbd7adba7	-0.061244633
63	0x3ea1b134	0.31580508
64	0x3e112937	0.14175878
65	0x3d424722	0.04743112
66	0xbea51830	-0.32245016
67	0x3d433046	0.04765346
68	0x3d876797	0.06611555
69	0xbd05dc3a	-0.032680728
70	0x3e3352ee	0.17512104
71	0x3d164c7b	0.03669403
72	0x3cabfb24	0.020993777
73	0x3e60130a	0.21882263
74	0x3e8983e6	0.26858443
75	0x3e86cc76	0.26327866
76	0x3dacac7a	0.08431335
77	0xbcd7d82c	-0.026348196
78	0x3e03f607	0.1288682
79	0x3ddc2a2f	0.107502334
80	0x3dc5ff56	0.09667842
81	0x3ce8b0b9	0.02840458
82	0x3c658540	0.01400882
83	0xbd13fff8	-0.036132783
84	0x3e1c9c16	0.15293917
85	0xbf187b42	-0.59563076
86	0x3eca278f	0.39483306
87	0x3e524d91	0.20537402
88	0x3d997b15	0.07494179
89	0x3e25703d	0.16156097
90	0x3de8d79f	0.113692515
91	0x3d8e2f58	0.06942624
92	0x3e46994e	0.19394419
93	0x3dfacb17	0.122457676
94	0xbd57b649	-0.052664075
95	0xbd170eea	-0.036879458
96	0x3f131620	0.57455635
97	0xbcf0d61c	-0.02939897
98	0x3e0f8fbc	0.14019674
99	0x3c926d90	0.01787451
100	0x3e0a74c5	0.13521107
101	0x3ddc0fd8	0.107452095
102	0x3e5f5d8f	0.21813034
103	0xba7c926f	-0.00096348574
104	0x3d34059c	0.043950662
105	0x3e35372f	0.17696832
106	0xbf203717	-0.6258406
107	0x3e388bcd	0.1802208
108	0xbe61c070	-0.22046065
109	0x3e347164	0.1762138
110	0x3d7d2ba2	0.06180919
111	0x3cc9cb39	0.024633037
112	0xbec0fe8a	-0.37694198
113	0x3d98c178	0.07458776
114	0x3e182d31	0.14860989
115	0xbccc47a6	-0.024936508
116	0x3cfce6a0	0.03087169
117	0xbc8e859d	-0.017397696
118	0xbecaf081	-0.39636615
119	0x3d6069ed	0.05478852
120	0x3e0773ab	0.13227718
121	0xbe60e709	-0.21963133
122	0x3e7c5d1a	0.2464489
123	0x3f22f70c	0.63658214
124	0x3dce8890	0.10084641
125	0xbdf28ef1	-0.1184367
126	0x3e1ce9d4	0.15323573
127	0xbeaa0cc7	-0.33212873
128	0xbddf2209	-0.108951636
129	0xbe005aa4	-0.12534577
130	0xbe7c148e	-0.24617216
131	0xbdc857a2	-0.0978234
132	0xbdda33e5	-0.10654429
133	0xbd8af3b9	-0.06784768
134	0xbda6485a	-0.08119269
135	0xbe4c8824	-0.19973809
136	0xbda032dc	-0.07822201
137	0x3d3a7170	0.04551834
138	0x3ed07703	0.407158
139	0xbe8c91bf	-0.27454945
140	0xbddcdca5	-0.10784272
141	0xbd51c616	-0.0512143
142	0xbd239e7d	-0.039946068
143	0x3e449bc0	0.19200039
144	0xbdf18f8a	-0.11794956
145	0xbdd19412	-0.1023332
146	0x3e0c32fa	0.13691321
147	0x3edade83	0.42747888
148	0x3f23f1a0	0.64040565
149	0x3f1dcf92	0.6164485
150	0xbe90e301	-0.2829819
151	0x3dc7179a	0.097212985
152	0xbf12039f	-0.57036775
153	0x3de8cbf8	0.11367029
154	0xbe02000a	-0.12695327
155	0xbd8ba685	-0.068188705
156	0xbc48c2ce	-0.012253476
157	0xbd157a17	-0.036493387
158	0xbcb924ac	-0.022600494
159	0x3e726353	0.23670702
160	0xbe9fc13a	-0.31202108
161	0xbc16dbca	-0.009207675
162	0xbcd2475e	-0.025668796
163	0x3c9126a4	0.01771862
164	0x3cac55bd	0.021036977
165	0x3e6890b3	0.22711448
166	0xbc418417	-0.011811278
167	0xbc624e1a	-0.013812566
168	0xbd3233aa	-0.043506302
169	0xbcf964d0	-0.030443579
170	0xbe3329b5	-0.17496379
171	0x3c5d2e3f	0.013499795
172	0xbe4795aa	-0.19490686
173	0xbdae433f	-0.0850892
174	0xbdebdb2e	-0.115164146
175	0xbf01ba1d	-0.5067461
176	0xbe521097	-0.20514141
177	0x3d2dbcad	0.042416263
178	0x3cb3bd68	0.021940902
179	0xbe10c464	-0.14137417
180	0x3e19632e	0.1497924
181	0xbd83a748	-0.06428391
182	0x3b86a67e	0.004109203
183	0xbd34b678	-0.04411933
184	0xbd852589	-0.065013
185	0x3f31b1c6	0.69411886
186	0x3cd7d9d2	0.026348982
187	0xbe0e9064	-0.13922268
188	0xbd391895	-0.04518946
189	0xbdc06989	-0.09395129
190	0xbb84580d	-0.004038817
191	0xbe236581	-0.1595669
192	0xbc719ed3	-0.014747339
193	0x3d98d937	0.074633054
194	0x3ae9dbd3	0.0017842002
195	0xbddd515a	-0.10806532
196	0x3d9c3a38	0.07628292
197	0x3d0c26ef	0.034216817
198	0x3c4f9b47	0.012671298
199	0x3e2ef7ad	0.17086668
200	0x3dcc6165	0.09979514
201	0x3d8043b5	0.06262914
202	0x3e5dea4b	0.21671407
203	0x3d259362	0.04042376
204	0x3e0d94f4	0.13826352
205	0x3cc6bb72	0.024259303
206	0x3d44b24b	0.048021596
207	0x3d35b12a	0.04435841
208	0x3e0ea413	0.13929777
209	0x3df008d7	0.11720436
210	0x3d4bbd86	0.04974129
211	0x3d0b6430	0.034031093
212	0xbde4b64d	-0.111675836
213	0xbecfad00	-0.40561676
214	0xbe757d4b	-0.23973577
215	0x3d1f71b5	0.0389268
216	0x3e66ed3b	0.22551434
217	0x3b038216	0.002006655
218	0x3e0e6e44	0.1390925
219	0xbd5d4f40	-0.054030657
220	0x3ba01be9	0.0048861396
221	0x3d00b48b	0.03142218
222	0x3d2e58b6	0.04256507
223	0x3b935663	0.004496382
224	0x3c2ebed3	0.010665613
225	0xbe13dddf	-0.14440106
226	0xb9b6170d	-0.0003473092
227	0x3c9eb903	0.01937533
228	0xbd0ab017	-0.03385934
229	0xbca0a01a	-0.019607592
230	0x3dad7b53	0.08470788
231	0xbd8d6432	-0.06903876
232	0xbdb1214b	-0.08648928
233	0x3c474483	0.012162331
234	0x3cd9a8c6	0.026569735
235	0x3c71d913	0.014761227
236	0x3f4f9b06	0.8109592
237	0x3dd61a41	0.10454226
238	0x3de6e6f6	0.11274521
239	0x3e235cf1	0.15953423
240	0xbc99ce49	-0.018775122
241	0xbdad14ec	-0.08451256
242	0xbcf3a6ce	-0.029742625
243	0x3d9db614	0.07700744
244	0x3d10cb3b	0.035350066
245	0xbdb22501	-0.08698464
246	0xbd2a999a	-0.041650392
247	0xba8b1e34	-0.001061386
248	0x3defeaf1	0.117147334
249	0xbf09c44c	-0.5381515
250	0x3dd99268	0.10623628
251	0xbd292f16	-0.04130467
252	0x3e0b6679	0.13613309
253	0x3e15ee55	0.14641698
254	0xbd57cfc7	-0.052688386
255	0xbde14402	-0.109992996

layer3.bias f4 [5]
0	0xbee1b8dc	-0.4408635
1	0x3dd21761	0.102583654
2	0x3ea91b80	0.33028793
3	0xbe8825ea	-0.26591426
4	0x3e2606d2	0.16213539
