net.pkl (torch, 11047 bytes, 8 tensors)

weight f4 [128, 4]
000000 00 54 75 bb 5e 54 89 3e 16 b3 d2 be 80 66 bc be
       -0.00374341 0.2682218 -0.41152257 -0.3679695
000010 f4 32 45 be ec 4b 09 3e 40 4f 22 bc ce fa ca 3e
       -0.19257718 0.13407868 -0.00990659 0.39644474
000020 70 bf 35 bd 4c 7b 07 3e ac bb 1a be 70 48 c9 bd
       -0.044372022 0.13230628 -0.15110654 -0.098282695
000030 b8 91 f4 be 52 8b a9 be e8 0e 53 be 00 bb 97 3c
       -0.47767425 -0.33114105 -0.20611155 0.018521786
000040 60 69 4a 3e 18 9b 99 3e 8c 8d ad be fc f4 5e be
       0.1976676 0.3000114 -0.33897054 -0.21773142
000050 98 f7 39 3e 4e 94 d4 3e 48 bd d2 bd 5c 91 bf 3e
       0.18160856 0.41519397 -0.10290009 0.37415588
000060 40 0d a5 bd 10 b5 58 3d 4a cd e7 3e ce 7b ed be
       -0.08059168 0.05290705 0.4527381 -0.46383518
000070 66 29 a1 be e0 9e 01 be dc 93 47 be 28 2f dd 3e
       -0.31476897 -0.12658262 -0.19489998 0.4320004
000080 1a ef a5 be c0 b0 6b be 1a da b2 be 76 c2 ef be
       -0.32408983 -0.23016644 -0.34932023 -0.4682805
000090 04 70 95 be 9e 0e dc 3e bc 76 64 3e 00 27 78 3e
       -0.29187024 0.42979902 0.22310919 0.24233627
0000a0 40 6a d7 3c 3a 3f 83 be c0 3e ad 3d 9e 06 ef be
       0.026295781 -0.25634176 0.08459234 -0.46684736
0000b0 1a fa b8 be c6 f9 83 be 26 85 a1 3e 26 19 96 3e
       -0.36128312 -0.257765 0.31546897 0.29316062
0000c0 c8 11 63 be 20 cb 93 bc 40 ba a3 3e 82 7f fe 3e
       -0.22174752 -0.018041193 0.31978035 0.49706656
0000d0 24 34 4b 3e c8 55 8a 3d fe a4 ab 3e c0 bb 96 be
       0.19844109 0.06754643 0.33524317 -0.29440117
0000e0 f8 d0 be 3d 6c 7a c6 be 18 6e b1 be d2 3e 84 be
       0.093172014 -0.38765275 -0.34654307 -0.25829178
0000f0 8c aa 67 3e f8 e7 4d 3e 6a a4 97 be c8 ad 1a 3e
       0.22623652 0.2010802 -0.29617625 0.15105355
000100 6e 89 8c 3e 20 3f 81 bd 40 64 9c 3c 00 44 ed 3d
       0.274486 -0.06310868 0.019090772 0.115852356
000110 00 d1 9e 3e 48 cf f5 3e 96 47 c5 be ec a1 3b be
       0.3101883 0.48009706 -0.38531178 -0.18323487
000120 98 38 49 3e d0 1b d4 3e e8 c5 de 3e 22 e2 e1 3e
       0.19650495 0.4142747 0.43510365 0.44117838
000130 78 ca cb 3d f8 9c de be 90 66 3c 3d ac 27 a0 be
       0.09950727 -0.43479133 0.04599625 -0.31280267
000140 8c 94 ee be 3e 74 e3 3e f0 a6 c2 3e fe 5d ff be
       -0.46597707 0.44424623 0.38017988 -0.49876398
000150 08 aa bf 3d c8 80 ac bd b8 82 a8 bd 1c 5f 6a be
       0.09358603 -0.084230006 -0.082280576 -0.22887844
000160 8c e4 44 3e 34 a1 97 be dc b1 3b 3e 16 76 81 3e
       0.19227809 -0.29615176 0.18329567 0.25285405
000170 5c 43 b7 3e 48 71 3f 3e 4a 5f fd be 00 11 a6 be
       0.3579358 0.18695557 -0.49486762 -0.32434845
000180 38 a6 7f 3e 18 53 d6 3d 96 b3 c7 be e8 68 93 be
       0.24965751 0.104650676 -0.390042 -0.28790975
000190 f2 d4 f0 3e 54 7f ac 3e b0 3e 5f be d4 dc 00 be
       0.47037464 0.33690894 -0.21801257 -0.12584239
0001a0 78 dd f3 be 80 3e 13 bc 78 c8 c0 be a2 77 c5 be
       -0.47629905 -0.008987069 -0.37652946 -0.38567835
0001b0 20 b0 e1 bc a0 bf 99 3d f4 ad 51 be 98 e7 97 3e
       -0.027549803 0.07507253 -0.20476514 0.2966888
0001c0 38 c9 9b be 68 49 e8 3e d0 6f af 3e 64 e1 d7 be
       -0.30426955 0.45368505 0.34264994 -0.42164147
0001d0 88 db fe bd 80 d2 b8 3c 18 67 95 3d d0 dd f2 3d
       -0.12444216 0.022561312 0.07295054 0.118587136
0001e0 5c ec 48 3e e0 59 f5 3c cc d1 79 be d4 45 72 3e
       0.19621414 0.029950082 -0.24396437 0.2365945
0001f0 56 91 f5 be a0 bb 97 be 3c 2b 00 be ec 66 79 be
       -0.47962445 -0.29635334 -0.12516493 -0.24355668
000200 5c 1d 33 be ba d2 d1 be 00 d2 d9 bd f8 e2 da 3d
       -0.17491668 -0.40981084 -0.106357574 0.10687822
000210 76 c6 a6 be 40 34 d2 bc 00 42 b7 3e f0 88 52 bd
       -0.3257329 -0.02565968 0.35792542 -0.051400125
000220 80 ac 63 3c c0 ad 30 bd 10 3d cf 3d 60 c6 a2 3e
       0.013896108 -0.04313445 0.101190686 0.31791973
000230 ba 7e f2 3e 06 93 a2 3e c4 0c f3 3e 60 1d 14 bd
       0.4736231 0.31752795 0.47470677 -0.036160827
000240 66 f8 e5 be 40 ba 72 be ce 4f ae 3e 00 6b 54 bb
       -0.44916075 -0.23703861 0.3404526 -0.003241241
000250 dc 7c 7e be 02 2d c4 be 00 94 ef be ec 10 d8 be
       -0.24852318 -0.38315588 -0.46792603 -0.4220041
000260 70 b4 cf bd 56 64 8c 3e 74 67 8a 3e 02 e5 f6 be
       -0.101418376 0.274203 0.27032053 -0.48221594
000270 2e b0 9f 3e 8a 52 c8 be f0 7b d8 bd 1c 9a 4f be
       0.31189102 -0.39125472 -0.10570514 -0.20273632
000280 f0 3c c5 bd 10 0e c9 bd ba b8 e5 be 44 0a dd be
       -0.096307635 -0.09817135 -0.44867498 -0.43171895
000290 28 3c a0 bd 80 e1 d3 3b b8 96 68 be b8 de 40 3e
       -0.07823974 0.0064660907 -0.22713745 0.1883496
0002a0 3a 6a e6 be c0 36 0a bd a2 21 e1 3e 38 d7 50 be
       -0.4500292 -0.03374362 0.43970972 -0.203946
0002b0 36 2b e7 3e 38 6c 39 3e ae 07 e7 be 74 f8 a1 3e
       0.45150155 0.18107688 -0.45123047 0.31634867
0002c0 f0 53 6c bd 70 8f 64 be 14 b6 cc 3e 54 df ce be
       -0.057697237 -0.22320342 0.39982665 -0.4040476
0002d0 b0 c2 5b 3d c0 64 d6 bd 16 d0 b6 3e 08 ec 0e 3e
       0.053652465 -0.10468435 0.35705632 0.13957226
0002e0 cc 04 76 3e 40 d1 34 3e 00 3f f6 bd 50 5a d7 bd
       0.24025267 0.17657948 -0.12023735 -0.105152726
0002f0 00 f7 d2 be 4c b6 8a 3e 26 42 cb 3e 5c 29 af 3e
       -0.4120407 0.27092206 0.39698905 0.34211242
000300 ac 93 b4 be 60 ae b6 3c 90 76 b4 be 88 ec 8c be
       -0.35268915 0.022299945 -0.35246706 -0.2752421
000310 30 2c 95 be 34 f9 2e 3e c4 8d 98 be 00 ba 32 bc
       -0.29135275 0.17087251 -0.2979566 -0.010908604
000320 a0 4f ac 3c 04 06 a5 3e fa 83 c1 be 44 bf af be
       0.021034062 0.32231152 -0.37796003 -0.34325612
000330 3c a6 94 be d6 2e b3 3e cc 0b 38 be e0 ee d7 3e
       -0.29033077 0.3499667 -0.1797325 0.42174435
000340 a0 24 39 3e 40 aa 81 3d 00 ed 73 bb 08 6d ca bd
       0.18080378 0.06331301 -0.003722012 -0.09884077
000350 40 7a 80 3d 30 d3 e9 bd 00 3e 66 bb c0 a7 82 3d
       0.06273317 -0.11417234 -0.003513217 0.06379652
000360 98 3e c8 be 7a 2d 86 be d8 b7 ce 3e 86 c1 cf be
       -0.39110255 -0.2620657 0.40374637 -0.40577334
000370 20 0f 13 bd c0 3e fd 3e 10 f4 38 3e c0 f0 67 3c
       -0.035903096 0.49461937 0.18061852 0.01415652
000380 26 da dd be 2c a2 7d 3e 08 58 b6 be a8 56 11 be
       -0.43330497 0.24768895 -0.35614038 -0.14193213
000390 cc c8 2b be 38 a4 97 bd 80 36 b3 3b 96 26 d3 3e
       -0.16775817 -0.07404369 0.0054691434 0.41240376
0003a0 80 ab 7f 3d 20 4c e5 3e 30 99 9c 3e c6 d8 a1 be
       0.062419415 0.4478464 0.30585623 -0.31610698
0003b0 54 a2 65 3e 24 f7 b4 be 9c ff 58 be 40 97 16 3e
       0.22425205 -0.35344803 -0.21191257 0.14706135
0003c0 f0 0e 29 3e f2 0e c0 3e 28 d2 24 be 00 d4 51 3a
       0.16509604 0.37511402 -0.16095793 0.0008004308
0003d0 7a cb 83 3e 5a 93 f7 be 42 15 b9 3e 30 b1 d3 be
       0.25741178 -0.48354608 0.3614903 -0.4134612
0003e0 00 d0 e1 3b e0 18 ae bd 0a d4 86 be d8 57 87 3d
       0.0068912506 -0.08500838 -0.26333648 0.06608552
0003f0 f2 b0 d3 3e e8 aa 15 be 56 fc 97 be 84 5b 3d be
       0.41345936 -0.14615977 -0.29684705 -0.18491942

bias f4 [128]
000000 88 0e 0e be 14 df 3e be 40 e5 00 3e 68 9a 35 3e
       -0.1387273 -0.18639785 0.12587452 0.17734683
000010 10 26 7a be 30 0a 35 3d 74 5c 94 3e f0 c4 4b bd
       -0.24428582 0.04419917 0.28976786 -0.04974836
000020 a8 d1 1b 3e b8 f9 f6 bd b0 74 33 3e e6 71 b9 be
       0.15216696 -0.12059349 0.17524981 -0.3621971
000030 0e 89 96 be 74 f1 81 be 4c 44 eb 3e 64 c5 09 be
       -0.2940144 -0.25379527 0.45950544 -0.13454205
000040 00 f0 b2 ba cc 0f 78 be f0 8f ff 3e 0e 07 fa 3e
       -0.0013651848 -0.24224776 0.49914503 0.48833507
000050 60 12 c1 be 10 88 cf be d4 0b c2 be 00 08 1e bb
       -0.37709332 -0.40533495 -0.3789965 -0.0024113655
000060 c4 82 02 be 4e 90 a7 be e0 a3 37 be 18 77 c1 3d
       -0.12745196 -0.32727283 -0.17933607 0.094465435
000070 f4 c1 85 be 88 e6 e2 3d c8 d1 ea bd b0 18 78 be
       -0.26124537 0.110791266 -0.11465794 -0.24228168
000080 c8 ae 8c 3d 84 7f d2 3e 88 13 ad be 00 32 be 3c
       0.068692744 0.41112912 -0.33803964 0.023217201
000090 20 cf 3c be e4 36 fb 3e 26 e2 f2 be d2 6a f5 be
       -0.18438387 0.49065316 -0.47438163 -0.4793306
0000a0 30 42 fc 3e f8 f7 a1 be 20 53 c4 3d 40 c1 30 bd
       0.49269247 -0.31634498 0.09586167 -0.043153048
0000b0 78 b6 d7 bd 48 b5 e4 bd 3c ac a2 3e c0 c6 c3 3c
       -0.1053285 -0.11167389 0.3177203 0.023898482
0000c0 ce 3e f9 be d8 21 97 be 7c 8a 2e be ca d2 80 3e
       -0.4868073 -0.29518008 -0.17045015 0.2516082
0000d0 8e aa a5 be 2e 63 f1 3e 28 13 e4 bd 18 df b7 bd
       -0.32356685 0.4714598 -0.11136466 -0.08978099
0000e0 42 97 c8 3e e6 aa 80 3e 6a 1e d9 3e ee 14 94 3e
       0.391779 0.25130385 0.42406017 0.28922218
0000f0 34 51 1b be 54 d9 a9 be a0 60 18 bd 0e e0 d3 3e
       -0.15167695 -0.3317362 -0.037201524 0.41381878
000100 5c d6 2b be 1e 68 ed be 24 e2 51 3e 6c 35 f9 3e
       -0.1678099 -0.46368498 0.20496422 0.4867357
000110 00 c2 11 be 5a f9 d3 be 10 35 e8 be 90 4e 00 3e
       -0.14234161 -0.41401178 -0.45352983 0.12529969
000120 f0 12 1b bd d8 46 81 be a8 fb ce 3d c0 6f 42 3e
       -0.037859857 -0.25249362 0.10106593 0.18987942
000130 06 9a cb 3e fc c0 c6 3e b0 46 99 bd 7e bb e1 be
       0.39765948 0.3881911 -0.07484186 -0.44088358
000140 d8 53 e7 be 48 06 ef 3e 10 55 62 3e 40 2f 5f 3e
       -0.45181155 0.4668448 0.22102761 0.21795368
000150 20 7f dd be 5e 0f ed 3e 14 85 f2 3e da 21 e7 3e
       -0.4326105 0.46300787 0.47367156 0.45143014
000160 30 f5 d7 be 88 30 41 be 4a 11 b0 be 56 6c f2 3e
       -0.4217925 -0.1886617 -0.3438819 0.4734828
000170 04 ff 5b be 84 c1 69 be 28 1f 86 3e e8 d8 6c be
       -0.21484 -0.22827727 0.26195645 -0.23129618
000180 dc 2b 7c be 40 24 33 bd 50 da 44 bd 22 6b c7 be
       -0.24626106 -0.043735743 -0.04805976 -0.38948923
000190 46 6b d5 3e b4 da 61 be 30 9d 35 3e 24 aa de 3e
       0.41683406 -0.22056085 0.17735744 0.43489182
0001a0 e2 1a 81 3e 50 fa 90 3d c4 d1 d9 3e 08 a7 89 3d
       0.25215822 0.07078993 0.4254285 0.06721312
0001b0 54 e1 6c be 06 2d f2 3e 60 5c f2 3d 38 c6 f9 be
       -0.23132831 0.47299975 0.118340254 -0.4878404
0001c0 18 c3 11 be fe 60 ae be e2 72 e0 3e 00 1c a9 bd
       -0.14234579 -0.34058374 0.4383765 -0.08257294
0001d0 b2 59 e9 be 80 be 00 bd 74 c5 a0 3e 90 04 05 3e
       -0.45576245 -0.031431675 0.31400645 0.12990022
0001e0 8c e5 21 3e 50 34 3e 3d 18 e2 3e 3e e8 7f f9 bd
       0.15810221 0.046436608 0.18640935 -0.12182599
0001f0 78 ac 4b be 0e 49 ef be b0 da c0 be f0 e6 5d 3e
       -0.1989001 -0.46735424 -0.37666845 0.21670127

weight f4 [2, 128]
000000 31 5e 56 bd f8 c2 4f 3c 8c 1e e7 3c e0 11 cd 3b
       -0.05233592 0.0126807615 0.028212808 0.0062582344
000010 4a ba 6a bd 2b 1d ad 3d 79 86 52 bd 75 e3 94 3d
       -0.057306565 0.08452829 -0.051397774 0.072699465
000020 9c 00 90 bd fc 2c ae bc 0e f0 44 3d 08 ec 13 bd
       -0.07031366 -0.021261685 0.048080496 -0.03611377
000030 63 10 98 3d a6 23 79 bd cf 03 98 bd 0b 40 23 bd
       0.074250005 -0.060825013 -0.074226014 -0.039855998
000040 48 18 6a 3c b3 ac a6 3d 6c d6 2c bd aa 79 01 3d
       0.014288016 0.081384085 -0.042196676 0.03161017
000050 00 88 b5 bc 6c 06 9d bc a9 1a 85 3d 95 49 8c bd
       -0.022159576 -0.019168101 0.06499226 -0.06849972
000060 38 d0 19 3c 75 3b aa 3d 80 fe 46 bc e1 8c 8c 3d
       0.009388022 0.08312122 -0.0121456385 0.06862808
000070 0c fc de bc b5 b6 91 3d 02 1b af bd a0 b6 50 bc
       -0.027219795 0.07114927 -0.08550073 -0.012738854
000080 f8 5c 7e bc a0 a9 ea 3c a6 09 0e 3d 5d fd 8a 3d
       -0.015525095 0.028645337 0.03467717 0.067866065
000090 38 c1 57 bc 00 b5 65 bb 9a ed 77 3d 78 ea c3 bc
       -0.0131686255 -0.0035050511 0.06052933 -0.023915514
0000a0 09 b0 9e 3d bc 0c 71 bd 60 b4 1c bc 40 90 9b bb
       0.0774842 -0.058850035 -0.009564489 -0.0047474205
0000b0 96 8b 21 3d 66 84 77 3d b8 89 65 bc 94 f8 95 bd
       0.03943976 0.060429 -0.0140098855 -0.07322803
0000c0 2a 63 33 3d 34 98 d8 3c 42 6e 11 3d 77 54 5f bd
       0.043795742 0.026439764 0.03550554 -0.05452391
0000d0 aa 01 69 3d 0f 74 ab 3d 10 51 fb 3b b1 14 a9 bd
       0.056886353 0.08371746 0.0076695755 -0.082559
0000e0 c2 25 7e 3d 8e 37 86 bd f8 71 a6 3c 50 71 52 3c
       0.062047727 -0.06553565 0.020318016 0.012844399
0000f0 84 72 29 bd d8 1e fc 3c dc e8 a1 bd 5c ea a4 3c
       -0.041368976 0.030776426 -0.079057425 0.020131283
000100 c7 83 65 bd 20 98 1c bc 40 46 3a 3c eb 37 9a 3d
       -0.056033876 -0.009557754 0.011369288 0.07530197
000110 6a bc 2c bd 5e ef 67 3d f0 f6 37 bc 35 f1 2b bd
       -0.042171873 0.056624763 -0.011228308 -0.04197808
000120 af a1 9d bd ac 16 a6 bd 11 c9 b0 3d a4 95 b4 bc
       -0.07696854 -0.08109793 0.086321004 -0.02204401
000130 d0 aa 90 3b 68 4e c4 3c de 16 76 3d cd 7e 9a 3d
       0.0044148937 0.023963168 0.0600804 0.075437166
000140 4f cf 92 3d 3a 1d 86 bd c8 04 68 bc 5e 3b 56 bd
       0.07168447 -0.06548543 -0.014161296 -0.05230271
000150 f7 d9 4e bd 98 c1 ab 3c d7 e9 a9 3d eb 03 91 bd
       -0.050500836 0.020966336 0.082965545 -0.070808254
000160 7e 1b 5b 3d 7b b4 3b bd 18 08 8d bc 19 b0 8f 3d
       0.053493015 -0.045826416 -0.017215773 0.0701601
000170 c8 c3 a3 bc e0 dc 03 3c aa 13 7d bd 4f 17 9a 3d
       -0.019990817 0.008048266 -0.06178633 0.07523977
000180 e8 33 3b bc 54 65 84 bd 70 04 d4 3c 38 b5 80 bd
       -0.01142595 -0.06464639 0.025881022 -0.06284565
000190 e2 a3 8f bd d0 70 b0 3b 1f 85 8f 3d fc e6 cc bc
       -0.0701368 0.005384542 0.07007813 -0.025012486
0001a0 4e 66 2a 3d c3 8d 9b 3d 4a 20 70 3d 50 e9 3d bd
       0.04160147 0.07595398 0.058624543 -0.046365082
0001b0 18 bf 1e bc 2e db e3 bc d2 8f 91 bd 00 30 19 38
       -0.009689115 -0.027814474 -0.0710751 3.6522746e-05
0001c0 8f 34 88 3d f9 82 98 3d 28 1d 07 3c 64 74 a4 3c
       0.0665065 0.07446856 0.0082466975 0.02007503
0001d0 00 bc 1c bd 1d a4 88 3d ba a5 16 bd be 7d 7b bd
       -0.03826523 0.06671927 -0.036779143 -0.061399214
0001e0 a0 01 5f 3c 2e 00 59 3d 9c 34 a3 bd b7 a2 a3 3d
       0.013611227 0.052978687 -0.07969019 0.0799002
0001f0 90 3c 02 3d 20 a6 7d bd c0 f8 9b bc 7b 0c 9d 3d
       0.03179604 -0.061926007 -0.019039512 0.07668396
000200 62 e2 8a bd 9c a1 d3 bc ac 7b ed 3c 9d 96 9e bd
       -0.0678146 -0.025833897 0.028989635 -0.07743571
000210 0e 78 46 3d 56 75 3c 3d d2 89 60 3d 14 d1 66 bd
       0.048454337 0.046010338 0.054818936 -0.056351736
000220 a1 4b b4 3d 43 9a 56 bd 0b b8 b4 3d f7 b8 ad bd
       0.088034876 -0.05239321 0.08824166 -0.08482545
000230 65 48 a1 bd e2 5c 5e 3d d0 59 17 3c 10 16 a7 3b
       -0.07875136 0.0542878 0.009237722 0.0050990656
000240 61 7b 48 bd c8 dd 17 bd 0c b6 d3 bc 4a 57 b0 bd
       -0.04894579 -0.03707674 -0.025843643 -0.08610399
000250 70 84 96 3b 3c 0f 80 3c 00 f0 9c b8 98 d3 e9 3c
       0.0045934245 0.015632264 -7.483363e-05 0.028543279
000260 a7 c2 ab 3d 48 85 c0 3c 49 88 04 bd ee fe 14 bd
       0.08386736 0.023501053 -0.032356534 -0.036375932
000270 65 a2 67 bd d6 f8 7a bd a0 39 69 bc 78 10 80 bc
       -0.056551356 -0.061272465 -0.01423493 -0.015632853
000280 b2 0e 21 3d a8 bf 1a bd 2d 4f 90 3d 0d 09 7e bd
       0.039320655 -0.037780434 0.070463516 -0.06202035
000290 00 b6 83 39 cd b8 a2 3d c1 00 b4 3d 20 b7 51 bd
       0.00025121868 0.07945404 0.08789206 -0.051200032
0002a0 a8 fa 80 3c 58 0f 2b 3c 10 be 29 bd 3e 2a fa bc
       0.015744522 0.01044067 -0.041441023 -0.03053772
0002b0 88 1e c4 3c c4 bf 7b bd 70 f0 6e 3c be a9 1c 3d
       0.02394034 -0.06146218 0.014583692 0.038247816
0002c0 2b ab 0e bd b3 5c 96 3d 80 9b be bb f6 42 24 3d
       -0.034831207 0.073419 -0.005816877 0.04010292
0002d0 bd 43 b3 3d d8 53 dd bc 1a bc 44 3d 78 1b cf bc
       0.087531544 -0.027017519 0.04803095 -0.025281653
0002e0 48 89 53 bc a0 6b 75 bc 00 f3 0f ba 4b c4 08 bd
       -0.012911148 -0.014979273 -0.0005491227 -0.033390325
0002f0 d8 b6 a9 3c a0 44 5a 3b 1e 7e 65 3d a0 8e 92 bc
       0.02071707 0.0033305064 0.056028478 -0.017890275
000300 a0 38 11 3c c5 ac 06 bd 66 98 97 bd 54 81 12 3d
       0.008863598 -0.03287961 -0.074021146 0.03576787
000310 88 4d 39 3c 98 fd 10 bd 6c d0 f4 bc 98 5c bd 3c
       0.011309989 -0.035398096 -0.02988454 0.023115441
000320 e8 ec 82 bc 62 95 6c 3d 50 0e a4 3b 5a c1 08 3d
       -0.015982106 0.05775965 0.005006589 0.03338752
000330 26 bd 1d 3d 08 aa b1 bc 32 a4 1c 3d 87 94 85 3d
       0.038510464 -0.021687523 0.038242526 0.0652247
000340 90 48 85 3b 60 b2 8d 3c 60 7a 52 3b ee a9 7a 3d
       0.004067488 0.01729697 0.0032116398 0.061197214
000350 dd d9 18 bd e7 72 40 bd 7a c2 1d 3d 2f 8b 9d bd
       -0.037317146 -0.04698458 0.038515545 -0.07692563
000360 80 bd b9 3a 94 7f 26 bd 2a f5 6e 3d 3c 89 a8 bd
       0.0014170855 -0.04064901 0.058339275 -0.082293004
000370 0e 84 5b 3d bb 17 b3 3d 88 82 92 3c b0 f8 c0 bb
       0.053592734 0.087447606 0.017884508 -0.005889021
000380 b5 2f b2 3d d3 b7 1a bd 70 17 e8 bb dd 89 1e bd
       0.08700506 -0.037772965 -0.007082872 -0.038705695
000390 b8 e7 47 bc c4 5e 9d 3c e0 6a 41 3c 94 c2 88 bc
       -0.012201242 0.019210227 0.011805266 -0.016694345
0003a0 90 fd b4 bd 90 4d 94 3b c0 96 2b bb 10 db 59 3c
       -0.08837426 0.0045258477 -0.0026182383 0.0132968575
0003b0 c3 b4 8a 3d d7 f3 af 3d 8b ca 56 bd 00 99 b4 bb
       0.06772759 0.08591431 -0.052439254 -0.005511403
0003c0 31 0f 11 bd ef d5 a6 bd 6a b8 83 bd cf e5 a9 3d
       -0.03541488 -0.08146273 -0.064316586 0.08295786
0003d0 36 17 53 3d 2e 78 42 3d 56 33 49 3d e9 d0 8f bd
       0.051535808 0.047477894 0.049121223 -0.07022268
0003e0 88 15 18 3c 33 7a a8 3d 76 0c 4a bd a5 08 a1 3d
       0.009282477 0.08226433 -0.04932829 0.07862977
0003f0 bc 50 be 3c c2 b5 7e 3d c8 17 1b bd fe e7 26 3d
       0.023231857 0.062185057 -0.037864476 0.04074859

bias f4 [2]
000000 af 78 a0 bd 10 e7 b7 bb
       -0.078355186 -0.0056122616

weight f4 [128, 4]
000000 38 c7 2a 3e c4 8b 19 3e 0e 39 d6 3e 6a 8f fb 3e
       0.16677558 0.14994723 0.41840404 0.49132854
000010 d6 e5 e8 3e 5c e0 ab 3e e0 fb b3 3e 60 20 84 bd
       0.4548785 0.3356961 0.35153103 -0.064514875
000020 02 ab c6 be 7c 11 3e be f0 ea 65 bd c6 56 8a be
       -0.38802344 -0.18561357 -0.056132257 -0.27019328
000030 18 dc 82 3e d8 b9 33 3e 70 39 a5 3d b0 5b f7 3d
       0.25558543 0.17551363 0.08067596 0.12078035
000040 40 e2 e0 3e 88 7c 3a 3e 1a 7f e0 be 52 d3 b9 be
       0.43922615 0.18211567 -0.4384697 -0.36294037
000050 f0 a9 61 3e c8 8c 8b 3d b8 b2 79 3e 1c ac ff be
       0.22037482 0.06813961 0.24384582 -0.49935997
000060 2a 41 ec be 68 fc 9c 3e d2 bf a3 3e 24 9b e7 be
       -0.46143466 0.3066132 0.31982285 -0.4523555
000070 00 59 42 3e 68 e5 c7 be ec de c1 3e 24 a9 20 3e
       0.18979263 -0.3904221 0.37865388 0.15689522
000080 24 21 fd 3e f8 69 fc be f2 71 f6 be 06 15 ad 3e
       0.49439347 -0.49299598 -0.48133808 0.33805102
000090 60 48 e3 3e 98 d8 9c 3e 4a 32 aa 3e 18 9f d7 be
       0.44391155 0.30633998 0.33241493 -0.42113566
0000a0 da 4b b9 3e a0 b3 f1 be 68 c3 e4 3d 5c b0 a7 be
       0.36190683 -0.47207355 0.11170083 -0.3275174
0000b0 34 5d 4b be 88 51 b5 3d e4 4e 49 be 30 05 a2 bd
       -0.19859773 0.088534415 -0.19659 -0.07911146
0000c0 9e a4 f2 be 24 60 f1 be 74 54 46 3e f4 b7 58 be
       -0.47391218 -0.47143662 0.19368154 -0.21163923
0000d0 6c bf 9b be b0 06 4a be 2c 4c d1 be 7e a5 cc be
       -0.3041948 -0.19729114 -0.40878427 -0.3997001
0000e0 ee 2e 99 3e 28 1c 82 3e 80 66 88 3d ac d7 8b be
       0.29918617 0.25412107 0.06660175 -0.27312982
0000f0 c8 57 2a 3e 80 03 b8 3c cc f4 b6 be b8 5a dc 3d
       0.16635048 0.022462606 -0.3573364 0.10759491
000100 68 19 e9 3e a0 cd fb be 7c 90 fe be 30 33 83 3d
       0.45527196 -0.49180317 -0.49719608 0.064062476
000110 12 c6 c0 3e fc c5 9b be a0 6b e1 3d d8 f6 b3 3e
       0.37651116 -0.30424488 0.11006856 0.35149264
000120 a4 db 1d 3e c8 9a dd 3d f8 6a ff 3e ea c6 a6 3e
       0.15415817 0.10820538 0.49886298 0.32573634
000130 38 fb 8f be a0 05 31 3d 88 c8 82 3e d2 c4 e1 3e
       -0.28121352 0.043218255 0.25543618 0.44095474
000140 ec b3 fe be 18 a0 8a 3e 60 a6 14 be 3e ae fa be
       -0.49746644 0.27075267 -0.14516592 -0.4896106
000150 28 4d e3 3d b2 5e 8b be 00 1d 91 3d 0c 35 a6 be
       0.11098701 -0.27220684 0.070856094 -0.32462347
000160 be a5 c0 be 60 c6 2d bd 74 fe 2b be b2 b9 95 3e
       -0.3762645 -0.042425513 -0.16796285 0.29243237
000170 20 93 30 3d b0 d2 c7 3e 90 e6 bf 3d b0 a3 24 be
       0.04310906 0.3902793 0.09370148 -0.16078067
000180 bc 65 ad 3e 80 d3 df 3c 40 32 c0 3d b8 ab 24 be
       0.3386668 0.02732253 0.093845844 -0.1608113
000190 00 32 eb 3a 40 e3 c4 bd 90 1d 2e bd 2c a6 c7 be
       0.0017943978 -0.09613657 -0.04250866 -0.38993967
0001a0 00 85 49 bb c8 7d d4 be 40 4b dc bd 24 5d 94 3e
       -0.003074944 -0.41502213 -0.1075654 0.2897731
0001b0 7a 02 b2 be a8 8e ac be 68 09 fa bd 4c 5b 0c be
       -0.34767514 -0.33702588 -0.12208825 -0.13706702
0001c0 b0 59 ad 3d 00 00 aa 3d 14 d1 81 3e 7a 5a b0 be
       0.08464372 0.08300781 0.25354826 -0.34444028
0001d0 a0 87 10 bd b6 2d 8f 3e c6 6e dd 3e 70 64 15 bd
       -0.035285592 0.27964562 0.43248576 -0.036472738
0001e0 74 20 94 be 4c 2e 13 3e 44 c9 91 3e 9c ef 9f be
       -0.2893101 0.1437313 0.28473866 -0.31237495
0001f0 1c 8e 94 be 98 4d 62 3e c0 7e 0f bd aa ca f1 be
       -0.2901467 0.22099912 -0.035032988 -0.47224933
000200 14 9b 93 be 00 a2 4f 3e 70 a8 2d be da b2 b0 3e
       -0.28829253 0.20276642 -0.16958785 0.34511453
000210 d2 60 ca 3e 10 f6 94 3d f0 f1 21 bd d0 85 22 be
       0.39526993 0.07273495 -0.03953737 -0.15871358
000220 20 1e cf bc b0 63 ba 3d be 8b c3 be 48 bb f4 bd
       -0.02528292 0.09101045 -0.38192552 -0.119497836
000230 e8 f0 d4 be 0a 1f 9d 3e b4 07 a3 be 02 de e9 3e
       -0.41590047 0.30687743 -0.31841815 0.4567719
000240 d8 fb 03 be f4 a7 92 be f4 fd 75 3e 30 a8 98 3d
       -0.1288904 -0.28643763 0.24022657 0.07453954
000250 cc 44 b1 3e 98 be 55 3e 6a 9d f6 be e4 ea a1 3e
       0.346228 0.20873487 -0.48166972 0.3162452
000260 58 d5 c0 bd 08 4a 62 be e4 92 a2 3e 64 b5 ba 3e
       -0.09415692 -0.22098553 0.31752694 0.36466515
000270 9a 01 e1 be e0 2f 39 bd 98 3a d2 3e 74 4a 46 3e
       -0.43946534 -0.045211673 0.41060328 0.19364339
000280 12 ac d7 3e 34 76 2f be 70 38 8d be 0a 23 dc 3e
       0.42123467 -0.17134935 -0.2758212 0.42995483
000290 d0 69 55 3e 6a c1 f5 3e 54 dc 55 be 7e 5e a4 be
       0.20841146 0.47999126 -0.2088483 -0.32103342
0002a0 50 0d 70 bd 62 0b f1 be f8 b0 48 3e 98 d2 bc 3e
       -0.058606446 -0.47078997 0.19598758 0.3687942
0002b0 78 d1 f5 3d 40 5b 4a bd 54 da 7d 3e 10 7f a2 be
       0.120028436 -0.04940343 0.24790317 -0.31737566
0002c0 24 6e fa 3e 4e 8d fe be e6 3b f5 be 10 f9 f1 bd
       0.48912156 -0.49717182 -0.4789726 -0.11815083
0002d0 b8 1c d1 3e c0 0e 4d 3d a4 a1 44 3e 56 a6 bb be
       0.40842223 0.050062895 0.19202286 -0.36650342
0002e0 18 b8 3a 3e c0 d9 64 bd c0 38 4d 3e 50 cc b4 3e
       0.18234289 -0.055871725 0.2004118 0.35312128
0002f0 68 8e 5e 3e 20 36 2e bd 60 4f fc bc e2 8e a0 be
       0.21734011 -0.042532086 -0.030799568 -0.3135901
000300 04 31 39 be ca 5b a6 3e 6c 4f 4d be 76 fc 9e 3e
       -0.18085104 0.32491904 -0.20049828 0.31051987
000310 3c 06 4b be 08 7d ee bd 00 58 2e 3c 20 ec ea be
       -0.19826597 -0.116449416 0.010641098 -0.45883274
000320 00 98 a3 bb 00 6e 4e bd 20 fc 37 bd b0 b3 cc bd
       -0.004992485 -0.050397873 -0.04491818 -0.0999521
000330 18 d3 c9 3e ba ec bc 3e 80 81 ad be 74 d6 6d 3e
       0.39418864 0.36899358 -0.33887863 0.23226339
000340 4c cd c8 be 32 f0 d9 be 58 82 1c 3e 80 c9 f0 3b
       -0.3921913 -0.42566067 0.15284097 0.0073482394
000350 ec d9 6e be b8 e9 f6 be b4 36 46 be fc 01 2b 3e
       -0.23325318 -0.48225188 -0.19356805 0.16699976
000360 38 f4 ec be f6 b1 f8 be e0 ea 81 3d 68 6c b8 be
       -0.46280074 -0.48573273 0.06343627 -0.36020207
000370 cc 46 e0 be 3c 44 45 be 68 dd a4 bd e8 a0 e8 be
       -0.43804014 -0.1926431 -0.080500424 -0.45435262
000380 34 f0 aa be 70 48 06 3d 98 66 f1 be 80 ed 8f bd
       -0.33386385 0.032783926 -0.47148585 -0.070277214
000390 c6 4c a5 be 00 78 b1 be 5c 3b 49 3e 62 0a c5 be
       -0.32285136 -0.34661865 0.1965155 -0.38484484
0003a0 6c 01 c2 be f8 fd 91 3e 18 74 bf 3d 7a 24 e9 3e
       -0.3789171 0.28514075 0.09348315 0.45535642
0003b0 f4 da 08 be c0 4d 77 be 00 89 3d bd 00 c9 25 3b
       -0.13364774 -0.24150753 -0.04627323 0.0025296807
0003c0 a8 3c c3 3e 18 ff fe be b0 d1 11 bd fc 7b 62 3e
       0.38132215 -0.49803996 -0.035600364 0.22117609
0003d0 90 f9 8c be 84 15 82 be e0 6e 77 3e a0 4b f5 be
       -0.2753415 -0.2540704 0.24163389 -0.4790926
0003e0 88 a4 f2 3d 16 31 c6 be e4 7e 7e 3e ee e3 da be
       0.11847788 -0.38709325 0.24853092 -0.42752022
0003f0 d8 63 9d 3e 84 56 f2 be 62 2f d7 be 00 73 f1 3b
       0.30740237 -0.4733163 -0.42028338 0.0073684454

bias f4 [128]
000000 38 2c d4 3d 18 c7 e9 bd 9c 48 b3 3e 16 de df 3e
       0.103599966 -0.11414927 0.35016334 0.43724126
000010 92 57 de 3e 60 41 b8 3c 20 f6 96 3e 88 c7 ff be
       0.43426186 0.02249211 0.29484653 -0.49956918
000020 0a 2b 96 be 38 03 b7 3d 00 bf 36 3b 8a fa c8 be
       -0.2932971 0.08936161 0.002788484 -0.39253646
000030 fc 9d 62 be b8 21 6f be 96 a2 fd be c0 51 43 3d
       -0.22130579 -0.23352706 -0.49538106 0.047685385
000040 80 83 ae 3e 54 cd 4f 3e a0 44 73 be 6e 13 eb be
       0.34084702 0.2029317 -0.23756647 -0.4591326
000050 f0 88 ce be 80 f4 17 3c 16 1b b0 3e 90 58 4f be
       -0.4033885 0.009274602 0.34395665 -0.20248628
000060 16 4d 8b be 9a 90 88 be f0 4a 31 bd 92 1c f3 be
       -0.2720725 -0.26672822 -0.043284357 -0.47482735
000070 e2 e7 e1 be 06 01 fc 3e 58 2e 74 be 40 b1 b8 bd
       -0.44122225 0.4921953 -0.23845804 -0.09018183
000080 ac fc 08 be c8 e5 e0 be 30 86 b4 bd 54 bb 1c 3e
       -0.13377637 -0.4392531 -0.08814657 0.15305835
000090 c8 e6 4f be 20 92 ae bc 00 bf 1c bb 68 d9 fe be
       -0.2030288 -0.021309912 -0.0023917556 -0.49775243
0000a0 16 0a ba 3e 32 ca ce 3e ce 8a ae 3e d4 23 28 be
       0.3633582 0.40388638 0.34090275 -0.16419917
0000b0 b4 c6 85 3e 26 da ef be f0 52 fd bd f8 43 d0 bd
       0.2612816 -0.46846122 -0.12369335 -0.10169214
0000c0 08 d0 34 be 40 0a 57 3e fc 4b 69 be 00 5f 6d bd
       -0.17657483 0.21000004 -0.22782892 -0.057951927
0000d0 7c d7 13 be be 67 f0 be a0 1a a9 bd 34 f4 d8 be
       -0.1443767 -0.4695415 -0.082570314 -0.42373812
0000e0 50 46 95 3e 90 d2 88 3e 9a d1 ef 3e 58 ee 2b be
       0.29155207 0.26723146 0.468396 -0.1679014
0000f0 60 4a d0 3c 90 97 c8 3d 40 8b ff 3e 2e a7 ea 3e
       0.02542609 0.09794533 0.49910927 0.45830673
000100 78 7d 84 be c2 d4 d9 be d4 ba e6 be 00 8f 76 be
       -0.25876975 -0.42545134 -0.45064414 -0.24077988
000110 ca 3d d7 3e 7c f4 2b 3e 9e 00 f7 3e a6 c0 bd 3e
       0.4203933 0.16792482 0.48242658 0.37061042
000120 80 87 ed 3b 9a a9 9e be f2 fb f9 3e 18 5b cd 3e
       0.007248819 -0.3098877 0.48825032 0.40108562
000130 b4 aa 5d 3e ec d7 8b be e8 ab c9 3e 90 66 3a 3d
       0.2164715 -0.27313173 0.39388967 0.045507967
000140 a0 46 a9 3e 18 b1 55 3e 2a f0 87 3e 44 a2 e0 be
       0.33061695 0.20868337 0.26550418 -0.438738
000150 7a f2 8d be a0 8a 99 3e 00 56 d5 bd fe b6 de be
       -0.27724057 0.29988575 -0.10416794 -0.43498987
000160 64 ce e8 3e 00 28 31 bc d6 82 ce 3e 0a 18 c8 be
       0.45469964 -0.010812759 0.40334195 -0.3908084
000170 48 47 30 3e b8 da 40 be 1c 75 57 be 50 93 d5 bd
       0.17214692 -0.18833435 -0.21040767 -0.10428488
000180 c4 83 3d be 1e 47 8c 3e 20 8f c2 bd 8e 1a c2 3e
       -0.18507296 0.27398008 -0.09499955 0.37910885
000190 d8 a8 e9 3d 40 39 9e bd 8e dd 93 be 8c 69 ea be
       0.114091575 -0.07725763 -0.2887997 -0.4578365
0001a0 a0 5c 15 be 68 10 ed be 98 b7 bd bd 80 e4 05 3c
       -0.14586115 -0.4630158 -0.09263533 0.008172154
0001b0 20 fb 03 bd c8 80 7b be 28 ae b1 3e 8e 2c 90 3e
       -0.032221913 -0.24560845 0.34703183 0.28158993
0001c0 48 4a fc bd 50 4b 4a be d6 f1 a0 3e ea b9 de 3e
       -0.123188555 -0.19755292 0.31434506 0.43501216
0001d0 4a 67 ea be a0 3e dd bd 10 0f 3e bd 0c 60 39 be
       -0.45781928 -0.108029604 -0.046401083 -0.18103045
0001e0 ae 8c da 3e a8 41 97 bd 9a 0c d9 3e 00 fe 21 3b
       0.42685455 -0.0738557 0.42392427 0.0024718046
0001f0 30 26 5e bd 42 53 95 be 48 3e 2a be 48 fb 24 3e
       -0.054235637 -0.29165083 -0.16625321 0.16111481

weight f4 [2, 128]
000000 ae 24 20 3d 20 1a 4e bb a5 7b ac 3d 30 94 7a bd
       0.03909748 -0.0031448677 0.08422021 -0.06117648
000010 7c cf 0a 3d 2b 0a a3 3d 00 cf 7b bc 81 b6 8f 3d
       0.03388928 0.07960924 -0.015369177 0.07017232
000020 c0 f9 be 3a 2e 8e 87 bd cf 9e 46 bd a4 c1 06 3d
       0.0014570281 -0.066189155 -0.048491295 0.032899514
000030 fe ab 1c bd 0c 26 ae 3c 53 2b b2 3d 74 f4 f5 3c
       -0.038249962 0.021258377 0.0869967 0.03002379
000040 50 88 07 bc 98 fc b4 3c 19 96 50 bd 20 1a 98 bd
       -0.0082722455 0.022093102 -0.050924394 -0.07426858
000050 79 12 88 bd ce e4 97 bd 44 98 94 3c c0 09 8d 3c
       -0.066441484 -0.07416688 0.018139012 0.017216563
000060 d7 da 19 bd 6d 10 b1 bd 3a 1e 44 3d 92 6c 4d bd
       -0.037562218 -0.08645711 0.04788039 -0.05015237
000070 20 c4 71 bc 0c c8 97 bd 41 3f 4c bd 2e 07 17 3d
       -0.0147562325 -0.07411203 -0.04986501 0.03687208
000080 1c a9 a8 bd e5 72 4e bd 35 b7 87 3d cb ab 39 bd
       -0.0823538 -0.05040254 0.06626741 -0.04532985
000090 1f aa 16 bd 4c 4d cb bc ba c1 1a 3d 82 7c 6d bd
       -0.036783334 -0.024817131 0.03778241 -0.057980068
0000a0 28 33 11 3c 8a db 13 3d a0 40 d2 bb 3c ed 82 3c
       0.008862294 0.03609804 -0.0064163953 0.015982263
0000b0 14 17 8a bd 6e ad 23 3d f4 4d 07 3d 28 a5 35 bc
       -0.06742683 0.039960317 0.033033326 -0.01108674
0000c0 f5 ad 95 bd 7e ce 10 3d ca 3e 6c 3d 30 4b 7d bc
       -0.0730857 0.035353176 0.057677068 -0.015459821
0000d0 7a a4 2a 3d 64 31 06 3d c1 cd 10 bd 10 10 c9 bb
       0.041660763 0.032761946 -0.035352472 -0.006135948
0000e0 91 31 b4 3d 00 c7 da 39 a8 1c 90 bd 10 39 d3 bb
       0.087985165 0.00041728467 -0.07036716 -0.0064460114
0000f0 92 1c 34 3d 20 5b ec bc fc 97 3d bd ab 1e 95 3d
       0.04397256 -0.028852046 -0.04628752 0.0728124
000100 ce 85 3f 3d 00 08 76 bc 20 f8 93 3b 28 29 19 bc
       0.046758465 -0.015016556 0.004515663 -0.009348191
000110 18 1b a8 3c e0 dd 4d 3b 0f 15 5b bd 24 27 86 3c
       0.020520732 0.0031412765 -0.05348688 0.016376086
000120 20 81 17 3b b0 41 bb 3b f3 f7 09 bd 64 86 b9 3c
       0.0023117736 0.0057146177 -0.03368373 0.02264709
000130 6d 61 92 bd 88 71 d8 3c b6 2f 44 3d c0 5f 1f bc
       -0.07147489 0.026421323 0.047897063 -0.009727418
000140 a8 9d 8c bd 00 75 a8 b9 00 90 03 39 12 70 9c bd
       -0.06866008 -0.0003213063 0.00012546778 -0.07638563
000150 bb 08 80 bd 89 6e a7 3d a1 5e 87 3d 96 a4 48 3d
       -0.06251665 0.0817538 0.06609846 0.048985086
000160 32 ce 7a 3d 18 5f 0b 3d 52 c0 4b 3d 3a c9 6f 3d
       0.0612318 0.034026235 0.049743958 0.058541514
000170 68 26 a9 bc a8 17 38 bc 3f 13 81 3d 00 80 05 b8
       -0.020648196 -0.011236109 0.06302499 -3.182888e-05
000180 dc 92 6b bd b8 5c 8c bd b6 7a 4a 3d 1b f1 95 3d
       -0.057513103 -0.06853622 0.049433433 0.07321378
000190 f3 94 8c 3d 20 00 71 3c 82 e8 79 3d 2b 33 a6 bd
       0.06864347 0.014709502 0.061012752 -0.08115228
0001a0 f0 6a 82 bd ac 2e ae bd 43 d8 91 3d 00 a9 51 ba
       -0.06368053 -0.08504996 0.07121327 -0.00079979
0001b0 be b4 26 bd 28 02 f5 3c e2 85 07 bd ff 30 68 bd
       -0.040699713 0.029908255 -0.033086665 -0.05668735
0001c0 40 a3 0b 3d e4 93 84 3c 9c a1 81 bd 0a 76 6e bd
       0.034091234 0.016183801 -0.06329653 -0.05821804
0001d0 ba bf 29 3d 95 a4 89 3d b0 c7 eb 3b ba d8 35 bd
       0.04144261 0.06720845 0.0071954355 -0.04439614
0001e0 b6 d1 2e 3d e8 90 7c 3c 8b 7a 9e bd 09 9e 6a bd
       0.042680465 0.015415408 -0.07738217 -0.05727962
0001f0 d8 7b 9e 3c 2e 05 60 3d ae 9e e8 bc ce 0e 2f 3d
       0.019346163 0.05469244 -0.028395977 0.04273873
000200 15 37 60 bd 37 39 ad 3d f9 fb 80 3d fc 9f 87 3c
       -0.05474003 0.084581785 0.0629806 0.016555779
000210 7a 11 21 3d ac 17 fc 3c 54 a3 55 bd 80 0b 4a ba
       0.039323308 0.030773006 -0.052157715 -0.0007707402
000220 30 15 c1 3c 40 6f a3 bc 71 96 ad 3d 85 9d 0b bd
       0.023569673 -0.01995051 0.0847596 -0.03408577
000230 b2 a9 a1 bd a4 5b 2c bd 55 00 a8 bd 2d 2b 95 3d
       -0.07893695 -0.042079583 -0.08203188 0.07283626
000240 c4 85 22 bd 80 b8 7e bd 30 8b 1c bc d9 f1 73 bd
       -0.03967835 -0.06218767 -0.009554669 -0.059556816
000250 90 1e 3d bd 2a 92 38 3d 95 e8 87 bd 12 bc 2a 3d
       -0.046171725 0.045061268 -0.066361584 0.041683264
000260 9b 01 84 3d 00 e4 4f b9 26 c2 20 3d 90 cc 4a bd
       0.06445619 -0.00019825995 0.039247654 -0.049511492
000270 73 29 8d 3d 85 d9 af 3d 3c 11 ac 3c 63 f5 a4 3d
       0.068926714 0.085864104 0.021004312 0.08054616
000280 40 c8 b3 bd 30 02 1f bc 80 de 8f 3c f2 56 9d bd
       -0.08778429 -0.009705111 0.017562151 -0.07682599
000290 f6 2d 30 3d 6a fa 09 bd 6d f1 02 bd 93 9f 8f bd
       0.04301258 -0.03368608 -0.031968523 -0.07012858
0002a0 02 02 14 3d ee b6 83 bd 40 a7 99 bc 36 d4 20 3d
       0.036134727 -0.064313754 -0.018756509 0.03926488
0002b0 c7 5e 88 3d 70 bb a3 3c 4e 0e 07 bd 6b 79 1d bd
       0.06658702 0.019986838 -0.032972626 -0.03844587
0002c0 c2 34 4b 3d f8 57 86 3c ff 61 98 3d b4 56 08 3d
       0.04961086 0.016399369 0.07440566 0.03328581
0002d0 71 d3 91 3d f0 dd 91 bd c9 86 91 3d 16 57 26 bd
       0.071204074 -0.07122409 0.07105786 -0.040610395
0002e0 08 d3 c1 bc 00 af 0a 3a 9c c9 87 bc 08 3a 8f 3c
       -0.023660198 0.0005290359 -0.016575627 0.017483726
0002f0 45 4e a1 3d 10 50 58 bd 08 bb df 3c 6b 7c 91 bd
       0.07876257 -0.05281073 0.027310863 -0.07103809
000300 f8 61 63 3c 33 20 95 3d da 1d 74 3d a7 04 9b 3d
       0.013878338 0.07281532 0.05959878 0.07569247
000310 f6 fa 43 3d 40 a0 ef bb dc 0d bd 3c 90 47 17 bd
       0.047846757 -0.0073128045 0.023077898 -0.03693348
000320 41 a7 99 3d 46 46 35 3d de 7d 84 bd 01 85 9c 3d
       0.07502604 0.04425647 -0.0646932 0.07642556
000330 40 ea ab ba 50 bf 80 bb 54 2b c6 bc 70 0a bf bc
       -0.0013116077 -0.003929056 -0.024190582 -0.023320407
000340 20 f6 90 3b 56 be 30 bd ac 62 a8 bd 00 7d 3a bd
       0.0044238716 -0.04315027 -0.08221945 -0.045529366
000350 e4 16 90 bc 1d b2 88 3d f7 2a 85 3d 93 ea 58 bd
       -0.01758904 0.066745974 0.065023355 -0.052958082
000360 c0 6b 5e bb 08 fb d0 bc e5 ad 41 bd 80 a7 7e bc
       -0.0033938736 -0.025510326 -0.04728498 -0.015542865
000370 ba 3c fb bc 9a 5c 4a 3d 7b 8c 33 bd 80 cd 5e 3c
       -0.030668605 0.049404718 -0.043835144 0.0135988
000380 ba 4d 4c bd fa fc e1 bc b3 80 8e 3d e5 bc 31 bd
       -0.049878813 -0.027586449 0.06958141 -0.043393034
000390 20 28 ae bb df e1 ac 3d f8 d3 f7 3c fb 46 38 bd
       -0.005314842 0.08441519 0.030252442 -0.044989567
0003a0 7f 5e 59 bd 4a ea fd bc 86 be e2 bc 7a a0 1d 3d
       -0.053068634 -0.030995507 -0.02767874 0.03848312
0003b0 fc fa a0 bc 91 ab 98 3d db a4 46 bd f4 6b e2 bc
       -0.019650929 0.07454599 -0.048497062 -0.027639367
0003c0 a8 cf 03 3d 6b 92 90 3d 6d 29 ad 3d e0 c9 67 3c
       0.03218046 0.07059177 0.08455167 0.014147252
0003d0 40 2a 74 3b c7 34 22 bd 02 8f 4c 3d fa da 51 bd
       0.0037256628 -0.039601114 0.04994107 -0.051234223
0003e0 18 52 be bc 9d 4b 97 bd 8e 05 ae bd ba 5c 4a 3d
       -0.023232505 -0.07387469 -0.08497153 0.049404837
0003f0 50 c4 c4 3b d5 4d 90 3d ed 0a 90 3d 1e fb 3d 3d
       0.0060048476 0.07046095 0.07033334 0.046382062

bias f4 [2]
000000 c4 e2 10 3d 1c e9 bb bc
       0.03537251 -0.022938304
