sac_target_critic101.pth (torch, 22675 bytes, 5 tensors)

net.0.weight f4 [64, 9]
00000000: 8faf b93f 82e0 bebe e529 3dbe 39d5 fe3f
00000010: a62a dbbf 4759 4bbe a5d7 c8bf 8f99 0c40
00000020: f3b7 7fbe f92e 9b3e b80a 3c3f a4ba e33d
00000030: 72c7 a0be 1aa3 1040 52db 18be e7ef 9fbd
00000040: 7b37 803f ddb9 04be ca1e 6cbf e7ec be3d
00000050: 016d 3d3e e757 debf 1b3b ae3e 2c7f 413f
00000060: c217 b93e 0e50 33bf 9096 ffbe 537b c43e
00000070: cf10 96bd 71ef 90be 0553 a63e 3edf c1be
00000080: c479 55bf 5fe6 c83f d3d5 a0be d7a9 15bf
00000090: b7a2 b9bd 666c 63bf d196 57bf 3226 a53e
000000a0: 5b33 d5bf 386e 25be b8fc 193e 9884 d3be
000000b0: 5075 f93e f7ca d7be 1626 973f 4509 92bf
000000c0: 99a8 963e 26b9 863f 4316 58bf 148c 75be
000000d0: 42b4 15bf 4e70 883f 1689 abbe 6224 71bf
000000e0: 5a0e 343f d3c7 413f f530 bdbe d3f6 b3be
000000f0: 5c74 8f3e f5c0 b7bb 7a02 c93e 66f1 343c
00000100: 7863 b73e e3bd 0b3a c619 fc3f bbbe ed3d
00000110: ab6f 72be 4a0e 91bf 9321 52bf b9e6 dcbf
00000120: 4bbc 49bd 1020 b73e adf1 74be 49b7 0abf
00000130: fd31 493f 4a88 fe3e edb1 35bd 23a5 96bf
00000140: cb31 97bf 906a 8b3e ed02 1b3f a406 6fbe
00000150: c855 5ebf f09f 973f d20f 0c3f be6a 713f
00000160: e962 8abf d963 b1be 3de5 243f 741d 953e
00000170: 580c a63e 4a01 1c3f 659a 283f b3de 5c3f
00000180: 327a a3be 1063 88bf 9b21 c13d f73d 203e
00000190: fdd0 003e f077 583e 941e 9abe e716 463f
000001a0: 4d02 e23f 1489 ee3f 8e10 5e3f 54a9 2fbf
000001b0: 3626 6dbd 8e40 cfbe 5465 6b3f e1c0 863f
000001c0: e8f8 1cbe 9fa1 83bf 6b0b 033f f1f7 28bf
000001d0: 4bc3 0540 39f9 f5be b8a0 abbd 965a 803e
000001e0: 6ec2 f5bf 50f9 bf3d adda 2c3f b685 ed3e
000001f0: 1823 d7be 375d 5bbf ce11 30bf d5dc 01bf
00000200: 7213 bd3e 4302 ce3f 08d2 debf cd46 a9be
00000210: 8ef8 26bf 66d7 093f 7614 8abe f091 2a3e
00000220: 0269 073f 04be 76be ca10 cd3e 46a0 b63f
00000230: 4ae7 9b3e 385c 99be 3e72 e2bf a9a7 233f
00000240: c3c4 133e 61f8 1fbd 7cf0 f13e aa29 75be
00000250: 8903 55bf 62f8 a43f 6af7 bb3f acd9 ddbe
00000260: 04eb 65c0 0917 273e b57b f8bd 89ef 9abe
00000270: cbc6 67be 83fc 86bd 2cda 8d3f 2632 4740
00000280: 9788 81bf d85f d83e 7adb 423f c99b 223e
00000290: 64a8 3f3d fc50 8d3f 1c42 c7bf 4526 1dbf
000002a0: 28c9 0f3f 877b ec3f 4bbe 3e3e bb47 debe
000002b0: 93cc 233c 1271 21bf a2f9 3e40 2d50 423f
000002c0: f18c 3c3f c417 00bf 3586 693f 0c3b bbbf
000002d0: e42d fdbd 54f0 e03e c5bd 09bf 1775 95be
000002e0: b045 753f d991 7d3f f332 1b3f 2af9 94bf
000002f0: 0767 84bf e88d 663e b435 a63d 1ec7 253f
00000300: c7b3 9bbe 3132 c03f 588c ee3e dafa 963f
00000310: 76d3 9d3d b1eb 72bf 779f b0be f6ec 8d3f
00000320: ae2a 87bf 7028 133e ccfc 963f 29a6 5bbf
00000330: fc2d b5be dfaf 35bf dfee 623f 5470 823e
00000340: 483b 273f 44b3 a9be 26a2 babd 7411 863f
00000350: 9f92 4d3d cfb9 a63e 8615 9abf ee40 a23d
00000360: 0b0e eebe f881 303e 1e52 4fbe 78eb ba3f
00000370: 8a50 25be 080c 4c3f 490b 1140 cc04 a8bf
00000380: a34f f43f a705 f4be 81a3 b9be edfd afbf
00000390: ec52 0a3e 2dfc 19be ed9a e93e d281 f4bf
000003a0: 4a6a 5c3e d851 4dbf ed21 bcbd 40c9 46bf
000003b0: d8b5 7e3f 1233 8f3e e099 e6bf e479 383f
000003c0: 2937 aebe 8c41 5f3f fc5e 88bd e5c9 a1bf
000003d0: d184 6a3e d99e 023f 3e5d 03c0 757c 7f3e
000003e0: 318d 56bd 8a40 483f 95f2 59bf 3c25 f5be
000003f0: 7d5b e5be eeca 7cbe 14a7 e3be 8f0b c93e
1.4506701 -0.3728066 -0.18473013 1.990882 -1.712239 -0.19858275 -1.569081 2.1968725
-0.24972515 0.30309275 0.73453856 0.11119583 -0.31402165 2.259955 -0.14927414 -0.078094296
1.0016931 -0.12961526 -0.9223448 0.09322529 0.18498613 -1.7370576 0.3402947 0.75584674
0.36150938 -0.7004403 -0.49919558 0.3837534 -0.07327425 -0.2830768 0.32485214 -0.37865633
-0.83388925 1.5695304 -0.31413135 -0.5846228 -0.090642385 -0.8883728 -0.842145 0.32255703
-1.6656297 -0.16155326 0.15037811 -0.41312099 0.48722315 -0.42147037 1.1808498 -1.1409079
0.29425505 1.0525253 -0.8440897 -0.23979217 -0.58478177 1.0659273 -0.33503026 -0.9419614
0.703344 0.7569553 -0.36951414 -0.3514925 0.28018463 -0.005607719 0.39259702 0.011043882
0.35818076 0.00053307245 1.9695365 0.116086446 -0.2367541 -1.1332486 -0.8208248 -1.7257911
-0.049251836 0.3576665 -0.23920317 -0.5418592 0.785919 0.49713355 -0.044359136 -1.1769146
-1.1812071 0.27229738 0.6055134 -0.23342377 -0.8684964 1.1845684 0.5471164 0.943035
-1.0811435 -0.3464649 0.6441229 0.29124033 0.32431293 0.60939467 0.6586059 0.8627731
-0.31929165 -1.0655231 0.09430238 0.15648638 0.12579723 0.21139503 -0.30101454 0.77378696
1.7656952 1.8635583 0.8674401 -0.6861775 -0.05789777 -0.4047894 0.9195149 1.0527612
-0.15329325 -1.0283698 0.511893 -0.6600333 2.0900447 -0.48041704 -0.08380264 0.25069112
-1.919996 0.093737245 0.6752117 0.46391076 -0.42018962 -0.8568911 -0.6877717 -0.5072759
0.36928898 1.609444 -1.7407846 -0.3306183 -0.65223014 0.53844297 -0.26968735 0.16657233
0.52894604 -0.24095923 0.40051872 1.4267662 0.30449897 -0.2995317 -1.7691114 0.63927704
0.14430527 -0.039055232 0.47253788 -0.23941675 -0.8320852 1.28883 1.468488 -0.43330133
-3.5924692 0.16317381 -0.1213297 -0.30260876 -0.22634427 -0.065911315 1.1082206 3.1124358
-1.0119809 0.42260623 0.76116145 0.1587974 0.04679145 1.104034 -1.556705 -0.6138652
0.56166315 1.8475198 0.18627279 -0.434141 0.009997505 -0.63063157 2.9839864 0.7590359
0.7365256 -0.50036263 0.9122041 -1.4627395 -0.123622686 0.43933356 -0.5380519 -0.29190895
0.9580946 0.9905067 0.6062462 -1.1638539 -1.0343941 0.2251507 0.08115712 0.64756954
-0.30410597 1.5015317 0.4659145 1.1795304 0.077063486 -0.94890887 -0.34496662 1.108794
-1.05599 0.14370894 1.1795897 -0.85800415 -0.35386646 -0.70971483 0.8864574 0.25476325
0.6532483 -0.3314458 -0.091129586 1.0474076 0.050188657 0.32563636 -1.2037818 0.079225406
-0.4649509 0.17237079 -0.20246169 1.4603109 -0.16144004 0.7970586 2.2663138 -1.3126464
1.9086803 -0.47660562 -0.36257556 -1.3749367 0.13508195 -0.15037604 0.45626011 -1.9102118
0.21524921 -0.8020301 -0.09186158 -0.77650833 0.9949622 0.2796865 -1.8015709 0.7206099
-0.3402646 0.8720939 -0.06658742 -1.2639738 0.22902228 0.5102363 -2.052566 0.2494982
-0.052380744 0.7822348 -0.85135776 -0.4787997 -0.44796363 -0.24686787 -0.44463408 0.3926663

net.0.bias f4 [64]
00000000: 6c8f 12c0 758a 1bc0 5dd5 a43f 1194 a840
00000010: 32c2 183f 1b95 8b3e 349d 95bf 4651 1dc0
00000020: b75f b13e 1faf c43f 7a6b ba3e d6c0 583f
00000030: 2171 c7bf 0274 2440 0c35 cd3f 2b99 0c3f
00000040: 7939 773e 953c 2840 16fc 4bc0 ec44 fe3d
00000050: fa41 853f 0091 73bf 7665 2ebe ed40 623f
00000060: 688b 26bf ca52 493d 8c81 60c0 fd37 263f
00000070: 6870 a5c0 836a 9abe d530 1c40 ec78 903c
00000080: e4c2 bfbc 1e33 39c0 52b2 673f 6fb2 db40
00000090: 5a2e 96be 6793 3ac0 65f2 b93f 89b1 5f3f
000000a0: 05a8 b63f 667d 99be 634f bf3c 3a7c c33e
000000b0: 0070 883f bf65 9fbf 897b 5bc0 474d 773f
000000c0: 4d2a 8ac0 f80e 6ebf 286b 8a3f 0778 9ebd
000000d0: 49c4 1840 26b0 993f 5c41 adc0 526d 1440
000000e0: fab7 b63f f981 c3bf b128 943f 7e8b e2bf
000000f0: ea43 abbf 9c58 9f3f 9504 9ebf 8402 a3bf
-2.2900038 -2.4303257 1.2877613 5.2680745 0.5967132 0.27262196 -1.16886 -2.4580855
0.34643337 1.5365943 0.36410123 0.84669244 -1.5581399 2.5695806 1.6031814 0.54921216
0.24143018 2.6286976 -3.187261 0.124154896 1.041076 -0.9514313 -0.17030892 0.8838032
-0.6505647 0.04915122 -3.507907 0.6492918 -5.1699715 -0.30159387 2.4404805 0.017635785
-0.02340836 -2.893745 0.9050647 6.8655314 -0.29332238 -2.9152467 1.4527098 0.8738027
1.4270025 -0.29978484 0.023353284 0.38180715 1.065918 -1.2452925 -3.429415 0.9660229
-4.3176637 -0.9299159 1.0813951 -0.07737737 2.3869803 1.2006881 -5.4142284 2.3191724
1.4274895 -1.527404 1.1574918 -1.769882 -1.3380101 1.2448916 -1.2345148 -1.2735143

net.2.weight f4 [64, 64]
00000000: aedd babf 546a b4bf ed0d 783f 86fd 2b40
00000010: ff2f 21be efc5 433e ee15 c03e 1814 153e
00000020: c7a8 25be d085 09bd 979d 5cbf 8b41 11bf
00000030: 0479 8cbf b5c3 403f 3c75 803f 9cf5 d4be
00000040: 4a65 f8be 1001 983f 22b4 ed3f dd1a 753f
00000050: 1703 9d3c b2cf c9be 9ccd c23d 4fcd e1bd
00000060: 9a20 a63d f651 b63e 87ea b3bf b44e be3e
00000070: 8bcf 8540 e84c 65be 678b 613f 4003 09bf
00000080: 790c 94be f2ac 89bf 7d96 b6be 513f dabf
00000090: 4eb1 883f e35b fcbf 4bf4 b23f 3659 48bf
000000a0: f46b 98bd 7df8 0a40 0652 7bbf 5181 13bf
000000b0: 39f5 a0bf 4366 143f b7f2 e4bf 0ec4 363e
000000c0: e855 45c0 87b2 0a3f cfcd 02be b6c6 0e3f
000000d0: 848d 22be b7f6 a03f a615 1cc0 7e05 8b3f
000000e0: 39a6 5b3f 5551 363f d8cc 0d3f f1db 153f
000000f0: 73cf 08bf 01ee 1240 32ed 243f f6f0 87bf
00000100: 87b1 3fc0 94b7 eb3e ce06 de3e c2d6 d33f
00000110: 91d6 823f 0f21 7b3f 564c b33e ac65 253f
00000120: d6b0 8fbd 5f41 553e e23e e03e 4ee1 a03e
00000130: fdb3 01c0 8a0f 623f ea50 d4bd 7add d23e
00000140: 2fd2 75be d35a 043f 60ff 8a3f 8580 ac3f
00000150: 4e60 bcbd 5f7f 143f 32aa 953f 063b 163e
00000160: 641d 273f 8259 6d3f 8336 35c0 2b90 9a3f
00000170: 8d99 1140 ae96 713f b0c3 ec3e 9c49 983e
00000180: e880 ea3d 5924 f7be b267 3a3e b655 4bc0
00000190: 74bd 253f 1a43 02c0 d9c2 5a3f bc7d ca3e
000001a0: 4436 563e bf6c 2640 d35c 1c3f 4210 d53e
000001b0: d2ef f03e 0be9 043e 6d86 60be 62f0 213f
000001c0: ec02 52c0 bc55 8c3e 0ba8 9f3f cac7 eb3e
000001d0: c2f5 9c3f 97d7 ce3b e652 57c0 dbb7 8a3f
000001e0: 63ad 903f 019d b83f 7556 743f cb65 f43f
000001f0: 49b6 263f 2bd3 9bbe 34f3 8d3f 1257 de3e
00000200: 27cc 0fc0 d48d ddbe f51a 653f c6f4 2040
00000210: 0a0f a33f 79fe 8a3f 8dd7 263f a7dc 863f
00000220: 727e 8c3e 6f47 343f ec8c ea3e 3894 063f
00000230: 9ae7 abbf a81a 9a3f b66e 18bf 93de 2b3f
00000240: 849d 573f e7ef a73f cac9 a83f b150 f13f
00000250: 80ca 003f e4f3 0a3e 322d 873f e527 0d3f
00000260: 0439 b53f a957 573f b80a 00c0 dafc be3f
00000270: 1d97 3e40 933d 603f fa88 6b3f 4737 e33e
00000280: f18d 083f d8dd 8fbe 974a 773f 90cc 3bc0
00000290: 6320 893f c85e c7bf 6be2 c23f d8ed ec3e
000002a0: 3874 2f3f a80a dd3f f545 d13d c2ab 113f
000002b0: 907e 193f 78e4 333f f8b7 97be 98aa b63f
000002c0: 26b1 1ac0 617b ec3e d918 173f 4561 7f3f
000002d0: 9a7a ce3f ccab 953f ba31 33c0 c6f4 d33f
000002e0: 75eb 8c3f ccd6 a03f 38fc 753f 2aa4 e13f
000002f0: 61f5 473f b2c6 503f 116f 913f d5ee e33d
00000300: a329 fdbf f438 c3bf 4091 963e c0db 7e40
00000310: d48c f0be 33b5 743e 748f a73d 4676 ae3e
00000320: 695d cfbd e0bc 1e3e 15f2 1dbf be56 1b3d
00000330: 5ac7 d0bf d5d1 573f b488 a13f c7de bebe
00000340: 4e9e 18bf 68f5 1c40 2417 c13f 4055 d13f
00000350: 4d1d 673e a76b 3abe 4e5f 093e 9c45 333e
00000360: d8f3 bf3f 97e2 fe3c 5212 c6bf 7cbc 63be
00000370: 1ece a840 53b9 d7bd 2480 ab3f f47b 9fbe
00000380: 92b8 8c3e 805c fcbe 6512 06be 0161 86bf
00000390: 5e4a 263f 8672 09c0 2640 173f 7634 a6be
000003a0: ea1d 9c3e f84a d43f 77be 49bf 5f64 08bf
000003b0: f61c b5bf fbae 833e 0946 c6bf fe34 cc3d
000003c0: 0005 64c0 1a2f 303f 1d3e e0be 2216 063e
000003d0: a1e5 b73e 754d 153f 5b6e bcbf 9dab b43f
000003e0: b340 f23e 2648 a0bd 6809 043f bbc6 db3e
000003f0: 5d29 f9be eb9b 3b3f a3c5 173e 5b92 84bf
-1.4598901 -1.4094949 0.9689625 2.6873488 -0.15740965 0.19118474 0.3751673 0.14558446
-0.16177665 -0.03357488 -0.86177963 -0.56740636 -1.0974431 0.75298625 1.0035777 -0.41593635
-0.48514777 1.1875324 1.8570597 0.95744115 0.019166512 -0.3941627 0.09511873 -0.11025488
0.08111687 0.35609406 -1.4055947 0.3716942 4.181585 -0.22392619 0.88103336 -0.53520584
-0.28915766 -1.0755904 -0.35661688 -1.7050573 1.0679109 -1.9715542 1.3980802 -0.78261125
-0.074424654 2.1714165 -0.9817203 -0.57619196 -1.2574836 0.5796854 -1.7886571 0.17848226
-3.0833683 0.5417866 -0.12773822 0.5577196 -0.15874296 1.2575291 -2.4388213 1.0861051
0.8580051 0.7121785 0.5539069 0.5853873 -0.5344154 2.2957766 0.6442443 -1.062041
-2.9952104 0.46038496 0.43364567 1.6549914 1.022173 0.9809732 0.35019177 0.64608264
-0.07016151 0.20825718 0.43797976 0.31421894 -2.0266106 0.8830496 -0.10366996 0.41184598
-0.2400596 0.51701087 1.0859184 1.3476721 -0.09198056 0.5800685 1.1692564 0.14670953
0.6527922 0.92714703 -2.8314521 1.2075247 2.274997 0.94370544 0.46243048 0.2974366
0.11450368 -0.4826992 0.18203619 -3.1771064 0.6474221 -2.0353456 0.85453564 0.39549053
0.20919138 2.6003873 0.6107914 0.41613966 0.47057968 0.12979524 -0.2192628 0.6325742
-3.2814283 0.2740916 1.2473158 0.46050864 1.2262499 0.0063123214 -3.3644347 1.0837358
1.1302913 1.4422914 0.9544442 1.9093565 0.65121895 -0.30434546 1.1089845 0.43425804
-2.2468355 -0.4327227 0.8949426 2.5149398 1.2738965 1.0858909 0.65172654 1.0536088
0.2744022 0.704215 0.4581064 0.52569914 -1.3430054 1.2039385 -0.5954393 0.67136496
0.84224725 1.3120087 1.3186581 1.885275 0.5030899 0.135696 1.0560668 0.55139
1.4158025 0.84118134 -2.0006542 1.4920914 2.9779732 0.87593955 0.92005885 0.4437811
0.53341585 -0.2809894 0.9659819 -2.9343605 1.0713009 -1.55758 1.5225347 0.4627521
0.6853671 1.7268877 0.10218421 0.56902707 0.59958744 0.7027049 -0.29632545 1.4270811
-2.4170623 0.4618788 0.5902229 0.99757797 1.6131165 1.1693053 -2.79991 1.6559074
1.1009356 1.2565551 0.9608798 1.7628224 0.78108793 0.81553185 1.136202 0.11129538
-1.9778332 -1.5251756 0.29407692 3.9821625 -0.46982443 0.23897247 0.081816584 0.3407461
-0.101252384 0.15501738 -0.6169751 0.03792452 -1.6310837 0.84304553 1.2619843 -0.3727934
-0.59616554 2.4524784 1.5085187 1.6354141 0.22569771 -0.18205129 0.13415262 0.17507023
1.499629 0.031113906 -1.5474341 -0.2223987 5.275161 -0.10533395 1.339848 -0.31149256
0.27484566 -0.49289322 -0.13092954 -1.0498353 0.64957225 -2.147615 0.5908226 -0.324619
0.30491573 1.6585379 -0.7880625 -0.53278154 -1.4149463 0.25719437 -1.5490123 0.09971045
-3.5628052 0.6882187 -0.4379739 0.1309438 0.3591738 0.58321315 -1.4721178 1.4114872
0.47314987 -0.07826261 0.5157685 0.42925057 -0.4866437 0.73284787 0.14821486 -1.0357164

net.2.bias f4 [64]
00000000: e1ba a240 11e3 2340 a05e 7440 fd6e cf40
00000010: 142f 8940 d109 0840 0789 7840 e0cf a340
00000020: c594 1440 b90f 8440 7c67 9440 5391 7f40
00000030: 3788 6140 92c4 1840 635f 3240 8347 8440
00000040: 66d0 0f40 3397 8c40 f72e 8a40 f532 1240
00000050: 3fad 2940 cdba 7f40 36e9 1440 a245 8e40
00000060: 8ae7 8840 0fbd 2a40 f106 8940 2bdb 2e40
00000070: de18 6c40 806a 1140 ac1e 6940 ed1e 1240
00000080: 2fb8 1140 cd07 7c40 0ad5 9740 e848 9e40
00000090: dafc 5940 f02a 6640 ad1e 1040 0e23 2840
000000a0: 409f 8540 9a2c bbbf b43d 8240 2329 8d40
000000b0: 071b 1640 9978 7840 4677 c240 51eb 8a40
000000c0: 06d8 8540 18b9 8140 9056 0b40 44bf 7240
000000d0: c6f7 0a40 f14e 1c40 80e5 8240 024f 6f40
000000e0: fa0c 8040 b308 8140 52c7 7b40 9841 1a40
000000f0: 2199 1b40 06eb 4f3f 6bbb 1040 047f 0e40
5.0853124 2.560734 3.8182755 6.4822984 4.286997 2.1255991 3.8833635 5.1191254
2.3215802 4.1269193 4.6376324 3.993245 3.523939 2.3869977 2.787072 4.1337295
2.2470946 4.393457 4.318233 2.2843602 2.651199 3.9957764 2.326734 4.446
4.278264 2.6677892 4.2820973 2.732127 3.6890178 2.2721252 3.642497 2.2831376
2.2768667 3.9379761 4.7447557 4.9463997 3.4060578 3.5963707 2.2518723 2.6271396
4.1756897 -1.4622986 4.070032 4.4112716 2.3453996 3.8823607 6.0770597 4.341225
4.18262 4.0538445 2.1771584 3.792924 2.171373 2.4423182 4.090515 3.7391973
4.001584 4.032312 3.9340405 2.4102535 2.4312212 0.8121799 2.261439 2.2265024

fc_out.weight f4 [1, 64]
00000000: 3d43 a140 0d9f 01c0 c9e7 debf 584a d140
00000010: b4f0 eabf dce9 e3bf efca d8bf bb47 a740
00000020: b504 5ac0 5ea8 3b40 c7e2 7a40 8776 dcbf
00000030: 4fab 3640 6a41 f9bf e761 20c0 88bb 5f40
00000040: 1628 65c0 10c0 5f40 d52b e9bf 69a2 37c0
00000050: ac7d 26c0 b0b3 4640 29ce 63c0 4a0d 8740
00000060: 4bfa 5040 1565 1ec0 8389 3240 5d56 11c0
00000070: 6f5d d3bf 85b7 f2bf 3e61 4340 75da 5fc0
00000080: 5467 56c0 25d9 d7bf 947d 9440 35d0 9740
00000090: 6bbf e3bf 53d2 3140 7d94 0dc0 4c55 20c0
000000a0: e5c1 3240 9ac0 c240 aaa2 3f40 f192 5840
000000b0: aceb 4ac0 229c ddbf 01d7 ba40 1193 7e40
000000c0: d4c3 4440 5b77 3e40 c65d f5bf cff6 e3bf
000000d0: a939 f5bf c837 05c0 1bf5 3d40 d7a6 3a40
000000e0: 4e9b dbbf c41e e9bf faed d8bf 7d61 00c0
000000f0: a4d2 00c0 a170 8340 d344 ecbf 6781 6dc0
5.039458 -2.0253327 -1.7414485 6.540325 -1.8354707 -1.7805743 -1.693693 5.227506
-3.4065373 2.9321513 3.9200914 -1.7223672 2.8542058 -1.9473088 -2.5059755 3.495821
-3.5805717 3.4960976 -1.8216501 -2.8692877 -2.6014204 3.1047173 -3.559458 4.220372
3.2652767 -2.4749196 2.789643 -2.2708962 -1.6512889 -1.8962256 3.0528102 -3.4977086
-3.3500566 -1.6863142 4.6403294 4.744166 -1.7792791 2.7784622 -2.212188 -2.505206
2.7930844 6.086011 2.9943032 3.3839686 -3.1706343 -1.7313273 5.8387456 3.9777262
3.0744524 2.9760349 -1.9169242 -1.7809695 -1.9158221 -2.0815296 2.968085 2.916433
-1.715677 -1.8212514 -1.6947625 -2.0059502 -2.0128565 4.1074986 -1.8458503 -3.711023
