sac_critic201.pth (torch, 22598 bytes, 5 tensors)

net.0.weight f4 [64, 9]
-1.0964577 0.03455957 0.49863413 -1.3415916 0.6872248 -0.6070462 1.3007815 -1.2836705
0.043003023 0.039006136 0.2849823 0.4671232 -1.2127163 1.4112602 1.9312093 -0.26021144
1.01538 0.09253001 -0.3832128 -0.9023838 0.03510743 0.6704645 -0.72742325 -0.3977222
0.67827034 2.0747151 -0.09149048 0.36986825 0.51448953 -0.37192515 0.89637697 0.3993401
-0.9841806 -1.1974252 0.9790823 2.323669 1.1144936 -0.017262701 -0.24744976 1.1696917
-1.8561376 -0.26014873 -0.40101296 0.85132515 0.5628755 0.9606803 0.22011958 -0.20166254
0.7769784 0.42473447 0.23193069 -2.1226225 -1.5640292 -0.0843869 0.24723372 0.8554328
0.165908 -0.93832463 2.166917 0.4774838 0.90350026 -0.39076605 -0.21352969 -0.4660733
-0.23455708 -0.13555601 2.6810572 0.8328511 0.52833885 1.7240157 1.4293628 -1.6151667
-0.6170877 0.891928 -0.9516184 0.71771896 0.66102517 -1.1041574 -1.2187542 -0.253195
0.63803405 0.66081256 0.9122502 -0.68956506 0.014306096 0.89031035 -1.0779172 0.21689841
-0.11529293 -0.04469164 0.21321005 -0.5799851 -0.12976679 0.3211254 -2.087845 0.018942246
0.5810851 1.1623448 -0.39965788 -0.2762604 0.73249143 -0.91446304 0.31684586 1.8916978
-0.61401147 0.7889138 -0.9678913 1.2922231 -0.019811196 -0.92422575 -0.75175804 0.36575904
-2.0419705 -0.62242687 -0.1389249 -1.5065825 1.0774318 0.7269553 0.72267145 -0.06630156
-0.10042563 1.3746071 0.75153965 -0.23257306 -1.3078325 0.45605958 -0.18265668 -0.11232439
0.32900783 -1.0820159 0.7496315 1.2316922 -1.5853037 0.22615209 1.2925806 -0.63629854
-0.0022858607 -0.03644127 -1.1592344 -1.2858571 1.3233838 0.7554067 -0.5924479 0.40188894
0.35715112 0.36089385 0.047790572 0.39385742 -0.3194751 1.3038323 2.5698316 0.18685822
-2.0729327 -0.57054836 0.2703585 0.32700944 -1.0322136 0.50560814 1.190752 0.34922352
-0.458604 0.23573925 -0.7652859 0.04859006 -0.005002021 -2.1046255 0.7124698 1.0114508
1.6388972 -0.99969316 -0.8335129 0.2708544 -0.08679995 -0.11156796 -0.22423393 -1.5612395
-0.9529529 -1.2500693 -0.5054801 0.16574484 0.9358827 -0.21524638 0.07393892 -1.5903326
1.3075999 1.5196704 -0.041666094 -1.7111092 -3.1803188 0.22643338 0.22079691 0.23985268
2.5902343 -0.82670516 -0.16675824 -0.584573 0.2213974 -1.153126 -0.2974273 0.951236
-0.87213606 -0.17042416 1.5225468 -1.3948103 0.03695199 -1.4409828 0.55071175 -0.44343346
0.7021989 0.5713058 -0.40987605 1.5904843 -0.11752258 0.6530702 -0.7015028 -0.08678349
1.5396574 -0.35692123 -0.46300098 1.4542955 -1.5343438 -0.2266172 -1.4669135 1.3978372
0.101853006 0.5014775 -1.0101887 0.056887113 0.07293108 -1.8352176 0.43976066 -0.27962738
0.14245348 0.37155628 -1.7090795 -0.19599247 0.03897472 -0.10291898 -0.8858072 -0.9564852
-0.22315189 0.15685499 -0.48388898 1.3730894 -0.27034596 -0.23714073 0.5418281 0.17855862
1.4630128 -0.3008817 0.18362406 -0.63273025 -0.7649617 -0.80327284 -1.0999062 -1.6703234
00000000: ba58 8cbf 568e 0d3d f94c ff3e 46b9 abbf
00000010: f7ed 2f3f 6167 1bbf 0280 a63f 514f a4bf
00000020: f023 303d e6c4 1f3d 33e9 913e c62a ef3e
00000030: 4a3a 9bbf 2da4 b43f de31 f73f 6f3a 85be
00000040: f9f7 813f 6080 bd3d 7834 c4be a002 67bf
00000050: cfcc 0f3d 90a3 2b3f 6938 3abf 3fa2 cbbe
00000060: 20a3 2d3f 22c8 0440 5c5f bbbd 5f5f bd3e
00000070: 96b5 033f f96c bebe f678 653f 4e76 cc3e
00000080: 43f3 7bbf 3b45 99bf 23a5 7a3f feb6 1440
00000090: baa7 8e3f 826a 8dbc 7863 7dbe 75b8 953f
000000a0: eb95 edbf 3732 85be 9251 cdbe 72f0 593f
000000b0: 9c18 103f 25ef 753f 0767 613e a080 4ebe
000000c0: 0ee8 463f cc76 d93e 3d7f 6d3e 0cd9 07c0
000000d0: 1c32 c8bf 0ad3 acbd d62a 7d3e a5fd 5a3f
000000e0: c9e3 293e 0b36 70bf c5ae 0a40 c278 f43e
000000f0: cb4b 673f 7d12 c8be 87a7 5abe 29a1 eebe
00000100: bb2f 70be 32cf 0abe 7196 2b40 bb35 553f
00000110: 3741 073f 8cac dc3f 5cf5 b63f c8bd cebf
00000120: 76f9 1dbf 6555 643f 439d 73bf 6ebc 373f
00000130: f238 293f 0855 8dbf 2300 9cbf c6a2 81be
00000140: 3356 233f 032b 293f 3b89 693f 5687 30bf
00000150: 1e64 6a3c 61eb 633f 31f9 89bf 9e1a 5e3e
00000160: b31e ecbd 950e 37bd bc53 5a3e e779 14bf
00000170: 96e1 04be 8c6a a43e 419f 05c0 c52c 9b3c
00000180: fec1 143f b7c7 943f f59f ccbe 0172 8dbe
00000190: 8f84 3b3f 401a 6abf 9f39 a23e 2723 f23f
000001a0: db2f 1dbf 41f6 493f b9c7 77bf 9167 a53f
000001b0: 174b a2bc 0f9a 6cbf 3773 40bf c544 bb3e
000001c0: a5af 02c0 5e57 1fbf 5442 0ebe b2d7 c0bf
000001d0: 49e9 893f be19 3a3f ff00 393f 1dc9 87bd
000001e0: f4ab cdbd 20f3 af3f e764 403f a227 6ebe
000001f0: 0e67 a7bf a480 e93e 5a0a 3bbe 540a e6bd
00000200: b773 a83e 7f7f 8abf dae7 3f3f 17a8 9d3f
00000210: 3beb cabf 6a94 673e 4873 a53f 76e4 22bf
00000220: 61ce 15bb 7143 15bd cb61 94bf f796 a4bf
00000230: a464 a93f 5562 413f aaaa 17bf 63c4 cd3e
00000240: 83dc b63e 14c7 b83e 0cc0 433d aea7 c93e
00000250: 3e92 a3be fae3 a63f 1f78 2440 c357 3f3e
00000260: eeaa 04c0 750f 12bf 6e6c 8a3e c86d a73e
00000270: 931f 84bf 896f 013f 906a 983f 6dcd b23e
00000280: 25ce eabe a165 713e c7e9 43bf 5f06 473d
00000290: fee7 a3bb 2fb2 06c0 6c64 363f 3877 813f
000002a0: 62c7 d13f e4eb 7fbf 1a61 55bf 6ead 8a3e
000002b0: 2cc4 b1bd be7d e4bd 949d 65be b2d6 c7bf
000002c0: b9f4 73bf 4502 a0bf 2567 01bf 04b9 293e
000002d0: 0296 6f3f 8c69 5cbe 4a6d 973d 0590 cbbf
000002e0: 6f5f a73f 8f84 c23f 11aa 2abd a005 dbbf
000002f0: 588a 4bc0 27de 673e 9618 623e f19b 753e
00000300: 66c6 2540 f3a2 53bf acc2 2abe 93a6 15bf
00000310: 00b6 623e a299 93bf 6448 98be 3484 733f
00000320: 4f44 5fbf ac83 2ebe d0e2 c23f 2589 b2bf
00000330: f85a 173d 2072 b8bf 72fb 0c3f b609 e3be
00000340: 4fc3 333f 1941 123f 46db d1be fd94 cb3f
00000350: aeaf f0bd 9c2f 273f b095 33bf 8bbb b1bd
00000360: 7e13 c53f 61be b6be 770e edbe 5b26 ba3f
00000370: 6165 c4bf 570e 68be d2c3 bbbf 54ec b23f
00000380: 4f98 d03d d460 003f dd4d 81bf 7602 693d
00000390: e45c 953d 69e8 eabf 4f28 e13e 522b 8fbe
000003a0: 53df 113e a03c be3e 1ec3 dabf 40b2 48be
000003b0: f5a3 1f3d 30c7 d2bd 43c4 62bf 37dc 74bf
000003c0: ee81 64be 989e 203e 4cc0 f7be 65c1 af3f
000003d0: c96a 8abe 05d5 72be 3fb5 0a3f 12d8 363e
000003e0: 0144 bb3f 2b0d 9abe f207 3c3e 9cfa 21bf
000003f0: 88d4 43bf 4aa3 4dbf bac9 8cbf 28cd d5bf

net.0.bias f4 [64]
1.8811358 -1.6812601 0.4728553 0.8953074 -2.0823622 -0.32616773 1.223341 1.4422297
1.9039683 1.2981621 6.21783 0.041420296 0.47413304 1.358865 1.9454137 0.3237476
-3.1419582 0.8634605 1.4259868 -2.2149704 -0.0001254871 -2.4399407 -1.384356 -6.7567244
-3.2758794 2.921276 -4.244258 -1.8300426 1.2120713 1.4057086 -0.15787628 -0.77743906
2.3076732 1.3339353 -0.8522938 0.11245488 -3.97611 1.49107 1.6297326 0.20553543
-3.9665139 0.31880617 -0.9232698 0.66105264 5.1203914 -0.026530543 5.0348663 2.6750212
1.4648415 1.6809727 0.15645376 0.07095846 -0.46204102 -1.3594121 -1.125957 1.6984128
-2.1267922 -5.175352 2.4786944 0.796272 -4.81356 0.19257611 -0.8546802 -1.1410352
00000000: 0fc9 f03f 8833 d7bf 171a f23e de32 653f
00000010: 6c45 05c0 75ff a6be 7096 9c3f fc9a b83f
00000020: 3cb5 f33f 2d2a a63f 77f8 c640 54a8 293d
00000030: 91c1 f23e 4aef ad3f 5103 f93f 3fc2 a53e
00000040: d815 49c0 bf0b 5d3f bc86 b63f 13c2 0dc0
00000050: 3095 03b9 fd27 1cc0 9432 b1bf 1637 d8c0
00000060: 02a8 51c0 30f6 3a40 f6d0 87c0 d63e eabf
00000070: 2725 9b3f 42ee b33f 52aa 21be 3f06 47bf
00000080: ebb0 1340 64be aa3f ed2f 5abf be4e e63d
00000090: 9678 7ec0 62db be3f 149b d03f e177 523e
000000a0: 5ddb 7dc0 903a a33e 695b 6cbf bf3a 293f
000000b0: 3fda a340 9556 d9bc a01d a140 8c33 2b40
000000c0: ed7f bb3f 1d2a d73f 6a35 203e ab52 913d
000000d0: a490 ecbe 3701 aebf 5c1f 90bf 9765 d93f
000000e0: 5d1d 08c0 7c9c a5c0 eea2 1e40 7bd8 4b3f
000000f0: af08 9ac0 ac32 453e 52cc 5abf 710d 92bf

net.2.weight f4 [64, 64]
0.8375055 0.7176401 0.5558734 -0.4006308 -1.7371113 -0.3524012 0.7121254 1.2149867
0.61421 0.04049865 -3.268604 0.8040123 1.2530848 0.1667315 -0.25129735 -0.07314327
0.5377912 -0.12430746 0.5457537 0.32908902 0.14959554 0.8312114 0.86256117 -6.090968
-2.849793 0.4385362 -3.9096234 0.91520077 1.3873978 0.5343243 0.33651412 1.2501327
0.44245356 0.51064324 0.20332672 1.0873845 1.64609 0.20908017 0.8997744 0.89636123
-3.754896 0.22470284 -0.6588146 -0.11821 2.069794 0.97843575 1.5769659 0.49029866
0.42164055 0.5247258 0.43888497 0.6919143 0.43770647 0.8174451 -2.8651264 0.036145043
1.153433 1.557478 0.3214873 0.51686436 -3.742325 0.9417378 0.5487762 -0.062359814
1.4809327 -0.056875784 0.19695386 0.83270186 -1.1770763 0.7556952 0.7792947 2.1222863
1.2343161 0.72730255 -2.2228243 0.5960685 0.8851528 0.99233073 0.64276344 -0.15910706
1.5651017 0.6705289 1.2732085 0.61645687 2.214268 0.95069206 0.5197416 -4.906989
-2.6270134 0.035176042 -2.250188 1.3213502 1.0760902 0.8448282 0.56966025 1.2407438
1.1054354 1.0655478 0.8558541 2.2276795 1.3644465 0.82440096 1.9243026 0.49212545
-2.9621017 0.8151497 1.2378414 1.5368581 2.6507192 1.7032157 2.9139419 0.18717818
0.8111934 1.5006716 0.90234673 1.4327583 1.331074 1.2892095 -2.2244081 1.1616479
0.79627395 2.6441116 1.405578 0.9382196 -2.919147 1.146648 0.6681399 0.9110809
-0.33459216 -1.4366356 0.7110474 0.5287891 -1.6511661 0.7436619 0.82290745 -0.49181655
0.67778957 0.9923348 -1.1297631 0.82448155 -0.3163562 0.76747763 -0.89010644 -1.0893266
-1.7137871 0.0636565 -0.09203844 -0.9333114 -0.24472636 -0.9212632 1.1081969 -3.514869
-1.5639788 1.1034132 -2.4510417 0.6356632 -0.44964477 0.57461023 -0.21708088 -0.27649194
1.0180073 -0.14319532 -0.023652464 0.69640404 -1.400669 0.23274204 -0.15400904 -0.6889573
-1.9000378 -0.956708 -0.087687925 0.07622622 -1.3191638 -0.329565 1.0881181 1.2944888
0.3993179 0.16388637 -0.7501928 -2.0124426 0.064368375 0.20741275 -0.6928377 -1.2447652
1.0963573 0.38555074 -0.6026739 -0.22052033 -2.566586 -0.23463565 -0.2297934 -0.25440428
0.7551588 -1.5212376 0.8860206 1.0293624 -1.8837684 0.13961107 0.15166521 0.6716604
-0.042592306 -0.041535873 -1.5843076 -0.19702251 -0.37456962 0.57867134 0.7400507 -0.80861735
0.34086373 0.18507968 0.37154216 -0.858781 0.7828697 -1.1546026 0.24208763 -4.020604
-1.3487655 1.1280662 -2.3096378 0.023178086 -0.5500877 0.062688865 0.22174487 -0.0926442
-0.012261449 -0.11018989 -0.1789274 2.799934 -0.35460478 0.060644582 0.968801 -0.833932
-2.4199703 -0.5584561 0.136145 0.38283777 0.74688005 0.44127673 2.4012008 1.3028957
0.15966429 0.5433188 -0.13259876 -0.7156561 0.0016663675 -0.08533171 -0.584595 0.21125238
-0.24467255 4.005168 0.5998922 -0.4506263 -2.2716312 -0.5226279 0.0024444286 0.12270666
00000000: c366 563f 43b7 373f b84d 0e3f 7b1f cdbe
00000010: aa59 debf ee6d b4be da4d 363f af84 9b3f
00000020: de3c 1d3f eae1 253d cf30 51c0 c0d3 4d3f
00000030: 1565 a03f aabb 2a3e 0caa 80be 24cc 95bd
00000040: afac 093f e994 febd 84b6 0b3f 5b7e a83e
00000050: 932f 193e 45ca 543f cfd0 5c3f 36e9 c2c0
00000060: 0263 36c0 d187 e03e 4537 7ac0 994a 6a3f
00000070: 4096 b13f 7ac9 083f 944b ac3e 5904 a03f
00000080: 4689 e23e 84b9 023f e134 503e 6a2f 8b3f
00000090: 14b3 d23f 1d19 563e 9d57 663f ee77 653f
000000a0: 3750 70c0 8018 663e 13a8 28bf 1618 f2bd
000000b0: 8177 0440 c47a 7a3f 05da c93f 6d08 fb3e
000000c0: 45e1 d73e 6e54 063f 88b5 e03e 4c21 313f
000000d0: 101b e03e 1544 513f 3b5e 37c0 d30c 143d
000000e0: b1a3 933f 705b c73f fc99 a43e 3951 043f
000000f0: 4182 6fc0 ba15 713f 997c 0c3f 016d 7fbd
00000100: 348f bd3f 95f6 68bd 46ae 493e f32b 553f
00000110: 70aa 96bf 3e75 413f dc7f 473f 8ad3 0740
00000120: 12fe 9d3f 8030 3a3f c142 0ec0 f297 183f
00000130: 6099 623f 6309 7e3f 258c 243f f6ec 22be
00000140: 4155 c83f c8a7 2b3f 7ff8 a23f 1ed0 1d3f
00000150: 91b6 0d40 8e60 733f c90d 053f 0e06 9dc0
00000160: fd20 28c0 c114 103d 1503 10c0 0122 a93f
00000170: 53bd 893f a946 583f 41d5 113f b1d0 9e3f
00000180: e87e 8d3f df63 883f 4119 5b3f 4d92 0e40
00000190: 2fa6 ae3f f10b 533f 8c4f f63f def7 fb3e
000001a0: 1393 3dc0 a7ad 503f 9671 9e3f c4b7 c43f
000001b0: 62a5 2940 f902 da3f 067e 3a40 a3ab 3f3e
000001c0: 5faa 4f3f 0216 c03f 3200 673f a064 b73f
000001d0: a260 aa3f d104 a53f b45c 0ec0 e1b0 943f
000001e0: 9cd8 4b3f 2039 2940 fbe9 b33f 292f 703f
000001f0: 4ed3 3ac0 5dc5 923f 370b 2b3f 993c 693f
00000200: aa4f abbe ade3 b7bf 3407 363f b95e 073f
00000210: 6959 d3bf a060 3e3f 10aa 523f 61cf fbbe
00000220: 9e83 2d3f a709 7e3f 149c 90bf 3911 533f
00000230: 71f9 a1be 6a79 443f 04de 63bf 0e6f 8bbf
00000240: 605d dbbf 575e 823d a67e bcbd 7fed 6ebf
00000250: 8c99 7abe e8d7 6bbf 65d9 8d3f 9df3 60c0
00000260: 7530 c8bf a53c 8d3f dedd 1cc0 d3ba 223f
00000270: d737 e6be a819 133f 734a 5ebe 5a90 8dbe
00000280: 104e 823f cba1 12be d0c2 c1bc 8947 323f
00000290: 1f49 b3bf ee53 6e3e 8cb4 1dbe 815f 30bf
000002a0: 7034 f3bf d1ea 74bf ba95 b3bd 7e1c 9c3d
000002b0: 5cda a8bf bebc a8be 7447 8b3f cfb1 a53f
000002c0: 6573 cc3e d4d1 273e a30c 40bf dccb 00c0
000002d0: 91d3 833d 0264 543e d05d 31bf 7754 9fbf
000002e0: 7055 8c3f e866 c53e d648 1abf 15d0 61be
000002f0: f242 24c0 5444 70be f64e 6bbe 4741 82be
00000300: 1652 413f eab7 c2bf 3fd2 623f 26c2 833f
00000310: 531f f1bf 34f6 0e3e 204e 1b3e f0f1 2b3f
00000320: 4575 2ebd 8521 2abd 97ca cabf 45c0 49be
00000330: 97c7 bfbe ce23 143f f673 3d3f 8c01 4fbf
00000340: b185 ae3e 8785 3d3e c63a be3e 12d9 5bbf
00000350: 266a 483f 05ca 93bf d2e5 773e caa8 80c0
00000360: 59a4 acbf 7964 903f 1bd1 13c0 f8df bd3c
00000370: 8cd2 0cbf 0563 803d 1611 633e 3ebc bdbd
00000380: 3fe4 48bc 3dab e1bd bf38 37be 1e32 3340
00000390: c28e b5be 7466 783d 5803 783f 917c 55bf
000003a0: cbe0 1ac0 fbf6 0ebf 9869 0b3e 5003 c43e
000003b0: 8833 3f3f 06ef e13e 46ad 1940 49c5 a63f
000003c0: 097f 233e f116 0b3f f8c7 07be 3d35 37bf
000003d0: 046a da3a 64c2 aebd 05a8 15bf 8b52 583e
000003e0: 718b 7abe 562a 8040 8992 193f 7eb8 e6be
000003f0: 6862 11c0 f1ca 05bf b532 203b a14d fb3d

net.2.bias f4 [64]
2.247876 4.5247808 1.5961199 5.8333197 2.4231756 5.31406 1.2955929 1.5350674
1.1770769 -0.47699353 2.537757 1.7036237 4.840855 4.3537765 5.380274 1.8137197
1.2782067 3.0824368 1.7991948 4.3160944 -1.3401144 2.4200587 5.892622 -0.044874564
2.1099994 -0.12567106 -1.8861365 1.6664743 5.3145347 5.5048184 4.975802 5.260021
-1.5827138 1.78777 5.8574715 1.7262964 5.409872 1.8420955 1.3017919 4.8274565
1.9987718 5.5126214 -1.7145573 1.2027358 5.338256 2.632342 5.2096143 1.4498395
4.3000383 -1.4938393 -1.3890948 5.4836435 -1.4929698 3.9994853 -1.6067919 6.0539565
2.5423565 -1.9304892 2.1702824 1.2820343 1.9608806 -1.3528239 2.5218675 -1.4099876
00000000: 33dd 0f40 01cb 9040 a84d cc3f 8eaa ba40
00000010: 4f15 1b40 c80c aa40 fdd5 a53f 177d c43f
00000020: 75aa 963f 7f38 f4be 9c6a 2240 5710 da3f
00000030: 49e8 9a40 2352 8b40 342b ac40 f827 e83f
00000040: 479c a33f a546 4540 044c e63f 721d 8a40
00000050: de88 abbf 3ee2 1a40 5c90 bc40 64ce 37bd
00000060: 3b0a 0740 eaaf 00be ec6c f1bf 084f d53f
00000070: ab10 aa40 7927 b040 c539 9f40 1852 a840
00000080: 5e96 cabf a6d5 e43f 6870 bb40 48f7 dc3f
00000090: ac1d ad40 c9c9 eb3f 1ea1 a63f 867a 9a40
000000a0: c1d7 ff3f 6567 b040 9d76 dbbf 3ff3 993f
000000b0: fed2 aa40 4b78 2840 29b5 a640 5794 b93f
000000c0: ea99 8940 2036 bfbf dccd b1bf 027a af40
000000d0: a219 bfbf 91f7 7f40 5bab cdbf 03ba c140
000000e0: f8b5 2240 451a f7bf e8e5 0a40 b319 a43f
000000f0: 23fe fa3f 5529 adbf 4766 2140 797a b4bf

fc_out.weight f4 [1, 64]
-2.4932697 -2.074496 2.547398 3.9768262 -2.5206888 3.2377305 2.7792933 2.4164379
2.7169566 3.5990677 -2.4980142 2.5237932 -2.0943289 -2.1467848 2.991755 -3.5566294
2.6881483 -2.450275 -3.6685314 -2.1017954 2.8337734 -2.7303946 -1.8604299 3.9201977
-3.4234197 4.135463 2.9809346 2.5613601 -2.0075052 3.5864174 -2.0881698 -2.0783534
2.7252758 -2.9897654 3.2806556 2.5562537 -2.0689723 -3.5830812 2.342093 -2.0717452
-3.4464476 -1.9978625 2.7893577 2.5090275 -1.9959513 -2.8290517 3.043754 2.5329812
-2.1350808 2.7492604 2.7152178 3.163933 2.796266 -2.1535006 2.823106 3.9076192
-2.8286705 2.803729 -2.9532712 2.5003407 -3.5088987 2.6586556 -2.6629002 2.689478
00000000: bb91 1fc0 8bc4 04c0 9208 2340 5284 7e40
00000010: f752 21c0 fa36 4f40 f1df 3140 eba6 1a40
00000020: 9ee2 2d40 2057 6640 77df 1fc0 d485 2140
00000030: 7c09 06c0 ec64 09c0 ea78 3f40 d19f 63c0
00000040: 9f0a 2c40 4ed1 1cc0 38c9 6ac0 d183 06c0
00000050: 8b5c 3540 c9be 2ec0 9122 eebf 85e4 7a40
00000060: 4f19 5bc0 b755 8440 a2c7 3e40 53ed 2340
00000070: f77a 00c0 dd87 6540 93a4 05c0 be03 05c0
00000080: eb6a 2e40 5158 3fc0 43f6 5140 a999 2340
00000090: 0b6a 04c0 3451 65c0 dae4 1540 7997 04c0
000000a0: 9992 5cc0 f5b9 ffbf d684 3240 e893 2040
000000b0: 557b ffbf 2f0f 35c0 decc 4240 5d1c 2240
000000c0: 2aa5 08c0 e2f3 2f40 21c6 2d40 e17d 4a40
000000d0: 06f6 3240 f4d2 09c0 c5ad 3440 6f16 7a40
000000e0: f008 35c0 4c70 3340 6502 3dc0 9505 2040
000000f0: cc91 60c0 6a27 2a40 f56c 2ac0 6820 2c40
