sac_critic101.pth (torch, 22598 bytes, 5 tensors)

net.0.weight f4 [64, 9]
0	0x3fb72706	1.4308784
1	0xbec1b892	-0.37836128
2	0xbe355787	-0.1770917
3	0x3ffd5a03	1.9793094
4	0xbfdb7e80	-1.714798
5	0xbe47bcf9	-0.19505681
6	0xbfca635b	-1.5811571
7	0x400a9948	2.1656055
8	0xbe93acfd	-0.28842917
9	0x3e9aaf8b	0.30212054
10	0x3f3b498f	0.73159117
11	0x3e05ba22	0.13059285
12	0xbea809d4	-0.32819998
13	0x4010effe	2.264648
14	0xbe12d218	-0.14337957
15	0xbd9c2e20	-0.07625985
16	0x3f82be0a	1.0214245
17	0xbdafb7f9	-0.08580012
18	0xbf70cbb9	-0.94060856
19	0x3dbfe93d	0.093706585
20	0x3e41673f	0.18887042
21	0xbfe0ebf6	-1.757201
22	0x3ea92381	0.330349
23	0x3f416b6a	0.75554526
24	0x3eb1b972	0.34711796
25	0xbf367e66	-0.7128662
26	0xbf0ca3cd	-0.5493744
27	0x3ebf4eea	0.37364894
28	0xbda4420d	-0.08020411
29	0xbe92b748	-0.28655457
30	0x3e9b2e45	0.30308738
31	0xbec4251d	-0.38309565
32	0xbf581e3a	-0.8442112
33	0x3fcb079b	1.5861696
34	0xbeb16392	-0.3464628
35	0xbf1a5353	-0.6028339
36	0xbda30952	-0.07960762
37	0xbf66ba20	-0.90127754
38	0xbf58b11a	-0.84645236
39	0x3eb9fdbe	0.36326402
40	0xbfd7cb8e	-1.6858995
41	0xbe1e5f47	-0.15466033
42	0x3e082d14	0.13298446
43	0xbecb71f3	-0.39735374
44	0x3f02b556	0.51057947
45	0xbedb49a2	-0.42829615
46	0x3f9820ad	1.1884972
47	0xbf92ab71	-1.145857
48	0x3e8fb011	0.28064016
49	0x3f86d8e2	1.0534937
50	0xbf59c85c	-0.8507135
51	0xbe78f0a5	-0.24310549
52	0xbf1a5d79	-0.6029888
53	0x3f85a26e	1.0440195
54	0xbeab80f6	-0.33496827
55	0xbf74f8d5	-0.9569219
56	0x3f345983	0.70449084
57	0x3f447b7d	0.7675093
58	0xbec25a7e	-0.37959665
59	0xbeb1145f	-0.34585854
60	0x3e979567	0.29606172
61	0xbcc3ef82	-0.023917917
62	0x3ecb2acc	0.3968109
63	0x3af48cbb	0.0018657664
64	0x3eaf18cb	0.34198603
65	0xbb073afa	-0.0020634518
66	0x3fff1503	1.9928287
67	0x3dd8892c	0.105730385
68	0xbe6ec545	-0.2331744
69	0xbf8f848c	-1.1212325
70	0xbf5d450e	-0.86433494
71	0xbfdbb578	-1.7164755
72	0xbd5c1956	-0.0537351
73	0x3eb92df9	0.36167887
74	0xbe5eb6df	-0.21749447
75	0xbf12b2f1	-0.5730429
76	0x3f4e813f	0.80665964
77	0x3eff811e	0.49903196
78	0xbd5348e3	-0.051583182
79	0xbf948bbf	-1.1605147
80	0xbf9a35fe	-1.2047727
81	0x3e894bf2	0.26815754
82	0x3f1cea92	0.61295426
83	0xbe5ac7f3	-0.21365337
84	0xbf65fe6a	-0.8984133
85	0x3f99479e	1.1974981
86	0x3f0e4b6d	0.5558384
87	0x3f722242	0.94583523
88	0xbf8b8416	-1.0899684
89	0xbebdb9cc	-0.37055814
90	0x3f1eae97	0.6198515
91	0x3e9aad43	0.30210313
92	0x3eaa59cb	0.33271632
93	0x3f1401b8	0.5781512
94	0x3f2aedb6	0.6676897
95	0x3f606807	0.87658733
96	0xbea7a297	-0.32741234
97	0xbf895844	-1.0730062
98	0x3da11dda	0.07867022
99	0x3e0f3ed9	0.13988818
100	0x3e04f636	0.12984547
101	0x3e599ddb	0.21251623
102	0xbea9b31b	-0.3314446
103	0x3f4885a9	0.7832895
104	0x3fe2686c	1.7688117
105	0x3ff162cb	1.8858274
106	0x3f573142	0.84059536
107	0xbf31e93a	-0.694965
108	0xbd856976	-0.06514256
109	0xbecca5c6	-0.39970225
110	0x3f6be0f9	0.92140156
111	0x3f82d40e	1.0220964
112	0xbe18314f	-0.1486256
113	0xbf80fe05	-1.0077521
114	0x3f07218f	0.5278558
115	0xbf309aad	-0.68986017
116	0x40059a59	2.0875456
117	0xbef94826	-0.48687857
118	0xbd96cada	-0.073629096
119	0x3e8c31c2	0.27381712
120	0xbff8e725	-1.944554
121	0x3dcdb1c0	0.10043669
122	0x3f32b7b4	0.6981156
123	0x3eed1930	0.4630828
124	0xbecc5a65	-0.39912716
125	0xbf684e63	-0.9074461
126	0xbf354856	-0.708135
127	0xbf02e4c6	-0.5113033
128	0x3ec02803	0.37530527
129	0x3fcac904	1.5842595
130	0xbfdea6cc	-1.7394652
131	0xbeab8f21	-0.33507636
132	0xbf28e259	-0.6597038
133	0x3f0d97a6	0.5530952
134	0xbe80a07d	-0.25122443
135	0x3e2b2dde	0.16716716
136	0x3f099e47	0.5375714
137	0xbe6bc50e	-0.23024389
138	0x3ebf0837	0.37310955
139	0x3fb88d2e	1.4418085
140	0x3e96e8d7	0.29474518
141	0xbea171ab	-0.31532034
142	0xbfe255ca	-1.7682431
143	0x3f2215fd	0.633148
144	0x3dfd0b56	0.12355678
145	0xbd2ab03a	-0.04167197
146	0x3ee3ecd3	0.4451662
147	0xbe7754b0	-0.241534
148	0xbf541172	-0.8283912
149	0x3fa352ab	1.2759603
150	0x3fb7ed2c	1.4369254
151	0xbeeb9136	-0.46009225
152	0xc06574cc	-3.5852537
153	0x3e30f53e	0.17281052
154	0xbe01c5f0	-0.12673163
155	0xbe9cbe29	-0.3061383
156	0xbe5dff7f	-0.21679495
157	0xbd8e133b	-0.06937262
158	0x3f8a9041	1.0825273
159	0x4047f55a	3.12435
160	0xbf858e79	-1.0434104
161	0x3ed55141	0.41663554
162	0x3f4315cb	0.7620513
163	0x3e19247b	0.14955322
164	0x3cc36855	0.02385346
165	0x3f8fbe2d	1.1229912
166	0xbfc7a3bb	-1.5596842
167	0xbf1ff447	-0.6248211
168	0x3f0d52a1	0.55204207
169	0x3fef6dd2	1.870539
170	0x3e498496	0.19679484
171	0xbeda4b3b	-0.4263552
172	0xbc912118	-0.017715976
173	0xbf2369ab	-0.6383311
174	0x40404775	3.0043614
175	0x3f3e9b46	0.7445568
176	0x3f3bea86	0.7340473
177	0xbeef9e41	-0.46800426
178	0x3f697689	0.91196495
179	0xbfb69441	-1.4263994
180	0xbe0633d4	-0.13105708
181	0x3ee270fd	0.44226828
182	0xbf097b89	-0.53704125
183	0xbea03b7f	-0.31295392
184	0x3f793d37	0.9735903
185	0x3f7df786	0.99205816
186	0x3f1c9659	0.6116691
187	0xbf960cb1	-1.1722623
188	0xbf87a883	-1.0598301
189	0x3e59fcfb	0.2128791
190	0x3dba8c44	0.09108785
191	0x3f2a0520	0.6641407
192	0xbeb1088a	-0.34576827
193	0x3fc2e3b4	1.522574
194	0x3eea4e18	0.45762706
195	0x3f98b389	1.192979
196	0x3d8bd4ae	0.06827675
197	0xbf78184c	-0.96912074
198	0xbeb36d72	-0.35044438
199	0x3f8e4a9e	1.1116521
200	0xbf883ab6	-1.0642917
201	0x3e0796ab	0.13241069
202	0x3f97719a	1.1831543
203	0xbf5c4ffe	-0.8605956
204	0xbebd8d7c	-0.37022007
205	0xbf3b26c1	-0.7310601
206	0x3f600c2b	0.87518567
207	0x3e80d9ac	0.2516607
208	0x3f291653	0.6604969
209	0xbea86903	-0.32892618
210	0xbde91c13	-0.11382308
211	0x3f87986e	1.0593393
212	0x3d2727cf	0.04080945
213	0x3ea59e3e	0.32347292
214	0xbf98a9b5	-1.192679
215	0x3d829c24	0.06377438
216	0xbeea17de	-0.45721334
217	0x3e2c81cd	0.1684639
218	0xbe58d3ee	-0.21174595
219	0x3fc05823	1.5026897
220	0xbe29ae0a	-0.16570297
221	0x3f475bd6	0.77874506
222	0x4010265f	2.252342
223	0xbfa5d7e1	-1.2956506
224	0x3ff551af	1.9165553
225	0xbeed5061	-0.46350387
226	0xbec40542	-0.3828526
227	0xbfae3754	-1.3610635
228	0x3e1e24fa	0.15443793
229	0xbe2963ef	-0.16542028
230	0x3ef2e849	0.47442845
231	0xbff73e69	-1.9315921
232	0x3e81eda4	0.25376618
233	0xbf4603cb	-0.7734954
234	0xbdc27de6	-0.094966695
235	0xbf430ea7	-0.7619423
236	0x3f7ed310	0.99540806
237	0x3e8113ad	0.25210324
238	0xbfe54ba4	-1.7913709
239	0x3f3a48fd	0.7276762
240	0xbeaab1c8	-0.3333876
241	0x3f6537cd	0.8953827
242	0xbd842f4f	-0.06454336
243	0xbfa37eb2	-1.2773039
244	0x3e77cfa1	0.24200298
245	0x3f019095	0.5061124
246	0xc004c410	-2.0744667
247	0x3e7c4310	0.24634957
248	0xbd5c0a87	-0.053720977
249	0x3f45e573	0.77303237
250	0xbf57fbb9	-0.84368473
251	0xbf051809	-0.519898
252	0xbee480db	-0.4462956
253	0xbe7954a7	-0.24348699
254	0xbee845e5	-0.45365825
255	0x3ed3c1e6	0.4135887

net.0.bias f4 [64]
0	0xc0113047	-2.2685716
1	0xc01ac0db	-2.418021
2	0x3fa6e431	1.3038388
3	0x40a9594b	5.29215
4	0x3f1a6a56	0.60318506
5	0x3e88c793	0.26714763
6	0xbf939843	-1.1530842
7	0xc01e912d	-2.4776108
8	0x3ea93299	0.33046415
9	0x3fc57a7e	1.5428007
10	0x3ec3061c	0.380906
11	0x3f588e8b	0.84592503
12	0xbfc818a8	-1.5632524
13	0x4025941a	2.5871644
14	0x3fcda460	1.6065788
15	0x3f0be0cf	0.54639906
16	0x3e5616e4	0.2090717
17	0x402aa8bf	2.6665494
18	0xc04de1c4	-3.2169046
19	0x3dbe1d8b	0.092829786
20	0x3f85cc4d	1.0452973
21	0xbf6f66fe	-0.9351653
22	0xbe31e5b1	-0.17372777
23	0x3f607e8d	0.876931
24	0xbf2711fa	-0.65261805
25	0x3d4af3bd	0.049548853
26	0xc060a60d	-3.510135
27	0x3f2dc719	0.67881924
28	0xc0a5e031	-5.183617
29	0xbe9ea0cc	-0.30982053
30	0x401db779	2.4643233
31	0x3c499470	0.012303457
32	0xbc9748ce	-0.018467333
33	0xc03a85ec	-2.914424
34	0x3f6e3664	0.93051744
35	0x40dc4fa5	6.884722
36	0xbe993683	-0.29924402
37	0xc0392a40	-2.8932037
38	0x3fbcbf4d	1.474588
39	0x3f680f5a	0.90648425
40	0x3fb790b4	1.4341035
41	0xbe9ed996	-0.3102538
42	0x3c5c0ea7	0.013431228
43	0x3ec099c2	0.37617308
44	0x3f8b6568	1.0890322
45	0xbf9e2edf	-1.2358054
46	0xc059e18b	-3.404391
47	0x3f79197d	0.9730452
48	0xc08a3e68	-4.320118
49	0xbf6d5cc4	-0.92719674
50	0x3f9051ff	1.1275023
51	0xbd5b0308	-0.053469688
52	0x4018a8bf	2.3852994
53	0x3f9cf8b4	1.2263398
54	0xc0ad767a	-5.4207125
55	0x40157dae	2.3357959
56	0x3fb75b3f	1.4324721
57	0xbfc6ba72	-1.5525649
58	0x3f926417	1.1436795
59	0xbfe35837	-1.7761296
60	0xbfaeb9a6	-1.3650405
61	0x3f9f8f13	1.2465538
62	0xbfa284be	-1.269676
63	0xbfa37182	-1.2769015

net.2.weight f4 [64, 64]
0	0xbfb9654d	-1.448404
1	0xbfb42034	-1.4072328
2	0x3f7f7f5b	0.99803704
3	0x402c5307	2.6925676
4	0xbe2408c5	-0.1601897
5	0x3e46706c	0.19378823
6	0x3ec53307	0.38515493
7	0x3e33b456	0.17549261
8	0xbe161d9b	-0.14659731
9	0xbd27b7e0	-0.04094684
10	0xbf5e69b5	-0.86880046
11	0xbf10d2ca	-0.5657164
12	0xbf885980	-1.0652313
13	0x3f49dcc3	0.7885248
14	0x3f81a046	1.0127037
15	0xbed86064	-0.4226104
16	0xbeeb4484	-0.4595071
17	0x3f984e19	1.1898834
18	0x3ff18076	1.8867328
19	0x3f7a5353	0.9778339
20	0x3d01e346	0.031710885
21	0xbec9bc5f	-0.39401528
22	0x3dc8e236	0.09808771
23	0xbdef3664	-0.11680296
24	0x3d9ed14d	0.07754765
25	0x3eb38715	0.35063997
26	0xbfb398af	-1.403097
27	0x3ec9d6a5	0.39421573
28	0x40862d84	4.193056
29	0xbe617d7e	-0.22020528
30	0x3f68e7f2	0.9097892
31	0xbf0b5e6e	-0.54440963
32	0xbe8f8392	-0.28030068
33	0xbf890eff	-1.0707701
34	0xbea70754	-0.32622778
35	0xbfd8dcc2	-1.694237
36	0x3f880f79	1.0629722
37	0xbff9e6aa	-1.9523518
38	0x3fb66175	1.4248492
39	0xbf4a550d	-0.7903603
40	0xbda5f81d	-0.081039645
41	0x400b8cf0	2.1804771
42	0xbf7c9531	-0.9866515
43	0xbf15251c	-0.5825975
44	0xbfa1a73f	-1.2629164
45	0x3f1348f4	0.5753319
46	0xbfe36136	-1.7764041
47	0x3e422db3	0.18962745
48	0xc0454e14	-3.0828905
49	0x3f08b345	0.53398544
50	0xbdfba0bc	-0.12286517
51	0x3f0ff992	0.5624019
52	0xbe0f96a5	-0.1402231
53	0x3fa33aa2	1.2752268
54	0xc01bb404	-2.4328623
55	0x3f8ea4ea	1.1144078
56	0x3f5f3f0c	0.87205577
57	0x3f3a0d8a	0.7267691
58	0x3f0e1ec1	0.55515677
59	0x3f185c58	0.59515905
60	0xbf08e379	-0.53472096
61	0x4015012b	2.3281963
62	0x3f28f2d3	0.6599552
63	0xbf88273e	-1.0636976
64	0xc03e29e3	-2.9713066
65	0x3ef82233	0.48463592
66	0x3ee9aae7	0.456382
67	0x3fd7b934	1.6853395
68	0x3f859ca2	1.0438426
69	0x3f7cb773	0.9871742
70	0x3eb94ca4	0.36191285
71	0x3f289f72	0.65868294
72	0xbd4b1a0b	-0.049585383
73	0x3e61ea27	0.22061978
74	0x3eddd97b	0.43329987
75	0x3ea4b7ff	0.32171628
76	0xc000a8fc	-2.010314
77	0x3f68a97b	0.90883607
78	0xbd9852ca	-0.07437666
79	0x3ed5c591	0.41752294
80	0xbe5a6b4c	-0.21329993
81	0x3f0b7f8d	0.544915
82	0x3f8d3174	1.1030717
83	0x3fab5262	1.3384516
84	0xbd9876c8	-0.07444531
85	0x3f19d5dc	0.6009195
86	0x3f96f89c	1.179462
87	0x3e1dd0a4	0.15411621
88	0x3f24d09e	0.64380825
89	0x3f6e31a7	0.93044513
90	0xc03499ef	-2.8218954
91	0x3f9d7856	1.2302349
92	0x40122c01	2.2839358
93	0x3f74d4a2	0.9563695
94	0x3efb4772	0.49077946
95	0x3e97b06c	0.29626787
96	0x3df8a46b	0.12140735
97	0xbef04893	-0.4693037
98	0x3e594e6f	0.21221326
99	0xc048e42f	-3.1389272
100	0x3f25da4b	0.64786214
101	0xc000a467	-2.0100343
102	0x3f5f31ed	0.87185556
103	0x3ec864c1	0.3913937
104	0x3e6377c8	0.22213662
105	0x402778b5	2.6167424
106	0x3f1d99f2	0.61563027
107	0x3ed349c3	0.41267213
108	0x3eebd376	0.4605977
109	0x3e0f7a13	0.14011411
110	0xbe4ee55b	-0.2020468
111	0x3f209547	0.6272778
112	0xc051d5f1	-3.278683
113	0x3e94633d	0.28981963
114	0x3fa3c573	1.2794632
115	0x3ef3fcbb	0.47653756
116	0x3f9fdcee	1.2489297
117	0x3c401da1	0.011725814
118	0xc055aa1b	-3.3385074
119	0x3f8f7b2a	1.1209462
120	0x3f9423a4	1.1573377
121	0x3fb94744	1.4474874
122	0x3f76709e	0.9626559
123	0x3ff5e1ff	1.9209594
124	0x3f2a70df	0.6657848
125	0xbe93bd26	-0.28855246
126	0x3f8fbafe	1.122894
127	0x3ee6781e	0.45013517
128	0xc00f1acd	-2.2360108
129	0xbed90108	-0.423836
130	0x3f68d5fb	0.9095151
131	0x4021d359	2.5285246
132	0x3fa52cdf	1.2904319
133	0x3f8ba8ab	1.0910848
134	0x3f28bbad	0.6591137
135	0x3f88b189	1.067918
136	0x3e91e778	0.2849691
137	0x3f36474d	0.71202546
138	0x3ee98a38	0.45613265
139	0x3f076e1d	0.52902395
140	0xbfabbd61	-1.3417169
141	0x3f9cc532	1.2247679
142	0xbf164938	-0.5870547
143	0x3f2cb92b	0.67470044
144	0x3f58f0a5	0.84742194
145	0x3fa9b319	1.3257781
146	0x3fa8be7d	1.3183132
147	0x3ff00016	1.8750026
148	0x3f015940	0.5052681
149	0x3e0ea1fb	0.13928978
150	0x3f87655d	1.0577809
151	0x3f0e2c1d	0.5553606
152	0x3fb3cb8f	1.4046496
153	0x3f56fac9	0.8397642
154	0xbfffd57b	-1.9987024
155	0x3fc0d5cf	1.5065249
156	0x403ea4fb	2.9788196
157	0x3f605a96	0.87638223
158	0x3f6f3a3e	0.93448246
159	0x3ee3928d	0.44447747
160	0x3f08c421	0.5342427
161	0xbe8b4905	-0.27204147
162	0x3f7a3fa7	0.97753376
163	0xc03b3460	-2.9250717
164	0x3f889f2f	1.0673579
165	0xbfc53636	-1.5407169
166	0x3fc39188	1.5278788
167	0x3eec2938	0.46125197
168	0x3f31bd7a	0.69429743
169	0x3fdea022	1.7392619
170	0x3dcbd8f7	0.09953492
171	0x3f11d076	0.5695871
172	0x3f165b07	0.58732647
173	0x3f36c483	0.71393603
174	0xbe990bba	-0.2989176
175	0x3fb75628	1.4323168
176	0xc01a98b6	-2.4155707
177	0x3ef2b3f2	0.47402912
178	0x3f1a54df	0.60285753
179	0x3f815d69	1.0106632
180	0x3fcfeb84	1.6243749
181	0x3f965309	1.174409
182	0xc032e112	-2.7949872
183	0x3fd58d73	1.6683792
184	0x3f8eb420	1.114872
185	0x3fa0ca0a	1.2561657
186	0x3f76f001	0.96459967
187	0x3fe27ffe	1.769531
188	0x3f48e7be	0.7847861
189	0x3f513912	0.8172771
190	0x3f91cdd3	1.1390938
191	0x3df2e250	0.11859572
192	0xbffd60c0	-1.9795151
193	0xbfc55552	-1.5416663
194	0x3e9655f3	0.2936245
195	0x407fc121	3.9961627
196	0xbef94d1e	-0.48691648
197	0x3e6f24e7	0.23353921
198	0x3d8ea2b9	0.06964631
199	0x3eb0d7c6	0.34539622
200	0xbdcf53d6	-0.10123412
201	0x3e1309e1	0.14359237
202	0xbf218333	-0.6309082
203	0x3cc303b4	0.023805477
204	0xbfd16270	-1.6358166
205	0x3f59af69	0.8503328
206	0x3fa0105f	1.2504996
207	0xbec2b933	-0.3803192
208	0xbf156b0d	-0.5836647
209	0x401de4e3	2.4670951
210	0x3fc304bb	1.5235819
211	0x3fcc451e	1.5958593
212	0x3e6a18aa	0.22860971
213	0xbe45afea	-0.19305387
214	0x3e08e7fb	0.13369744
215	0x3e293bcd	0.16526718
216	0x3fc0e084	1.5068517
217	0x3aff87d8	0.0019495441
218	0xbfc6623a	-1.5498726
219	0xbe68a38e	-0.22718641
220	0x40a8ebdb	5.278791
221	0xbdcec2d6	-0.10095756
222	0x3fac6270	1.3467541
223	0xbea43e6d	-0.32078877
224	0x3e90df6d	0.2829546
225	0xbeff0718	-0.498101
226	0xbde556c1	-0.111981876
227	0xbf852627	-1.0402268
228	0x3f252c6f	0.64520925
229	0xc0097bb0	-2.1481743
230	0x3f168fcf	0.58813184
231	0xbeaf8528	-0.34281278
232	0x3e951a4d	0.29121628
233	0x3fd3bf45	1.6542746
234	0xbf4a2394	-0.7896054
235	0xbf0b5425	-0.5442527
236	0xbfb6f1b0	-1.4292507
237	0x3e70630e	0.23475286
238	0xbfc85652	-1.5651343
239	0x3dad61ef	0.08465945
240	0xc0649118	-3.5713558
241	0x3f2b90b2	0.6701766
242	0xbee6faa3	-0.45113096
243	0x3dec2ce3	0.11531999
244	0x3ebb98e0	0.36640072
245	0x3f155f72	0.58348763
246	0xbfbbac2a	-1.4661915
247	0x3fb68347	1.4258813
248	0x3eed8d64	0.46396935
249	0xbdba9d1a	-0.09111996
250	0x3f030971	0.5118628
251	0x3edb2fda	0.42809945
252	0xbef89380	-0.48550034
253	0x3f39b283	0.7253801
254	0x3e192d7c	0.14958757
255	0xbf869950	-1.0515537

net.2.bias f4 [64]
0	0x40a34ead	5.103354
1	0x4025807a	2.5859666
2	0x407511c2	3.8292089
3	0x40cfd37f	6.4945674
4	0x40898893	4.2979217
5	0x4009c903	2.1528938
6	0x40793bc1	3.894272
7	0x40a4ac3c	5.1460247
8	0x40139726	2.3061004
9	0x4084b083	4.146547
10	0x4094416a	4.632985
11	0x40802211	4.0041585
12	0x4061bf4b	3.5273006
13	0x401a3893	2.409703
14	0x4033ff8c	2.8124723
15	0x40846b38	4.138088
16	0x40111be5	2.2673275
17	0x408ca9f5	4.3957467
18	0x408a8878	4.329159
19	0x40128527	2.289377
20	0x402a605f	2.662132
21	0x40802218	4.004162
22	0x40158fb2	2.3368955
23	0x408ec6c2	4.4617624
24	0x4089f624	4.3112965
25	0x402b70b8	2.6787548
26	0x4089dafe	4.3079824
27	0x402faf5a	2.7450776
28	0x406ccb81	3.699921
29	0x4012388e	2.2847018
30	0x4069d9f4	3.6539278
31	0x40137f4a	2.304644
32	0x4012019e	2.2813487
33	0x407cba88	3.948885
34	0x4098266d	4.7546906
35	0x409ed6be	4.9637136
36	0x405ab007	3.4169939
37	0x4066237b	3.5959156
38	0x4010c412	2.2619672
39	0x40283e52	2.6288037
40	0x40864027	4.195331
41	0xbfba651a	-1.4562104
42	0x40830815	4.0947366
43	0x408dd970	4.4327927
44	0x401683c0	2.3517914
45	0x40792b6a	3.8932748
46	0x40c3569d	6.104323
47	0x408b5f74	4.355402
48	0x4086b463	4.20952
49	0x40825d67	4.0739017
50	0x400c55c5	2.192735
51	0x4073727e	3.803863
52	0x400bc882	2.184113
53	0x401cf573	2.452481
54	0x408323ed	4.0981355
55	0x40705965	3.7554562
56	0x4080664e	4.0124884
57	0x4081623d	4.043242
58	0x407c79e6	3.94494
59	0x401ae4ce	2.4202151
60	0x401c69f2	2.4439664
61	0x3f4bc9d5	0.79604846
62	0x40125c5f	2.286888
63	0x400f845b	2.2424533

fc_out.weight f4 [1, 64]
0	0x40a2b897	5.085033
1	0xc0018407	-2.0236833
2	0xbfdfafd8	-1.7475538
3	0x40d241ce	6.570533
4	0xbfeb9dc3	-1.840752
5	0xbfe47e39	-1.785102
6	0xbfd9a4ce	-1.7003419
7	0x40a83451	5.2563863
8	0xc05a82b2	-3.414227
9	0x403c82c0	2.9454803
10	0x407c311a	3.940497
11	0xbfdd44f5	-1.7286669
12	0x403719c4	2.8609476
13	0xbffa0675	-1.953322
14	0xc0204b70	-2.5046043
15	0x4060b860	3.5112534
16	0xc065ca9b	-3.590491
17	0x40604c3b	3.5046527
18	0xbfe9e6e3	-1.8273586
19	0xc037b7a8	-2.8705845
20	0xc0261c07	-2.5954607
21	0x40473fdf	3.1132734
22	0xc0643514	-3.5657396
23	0x4087b200	4.2404785
24	0x405164f8	3.2717876
25	0xc01e284e	-2.47121
26	0x4032d39b	2.7941654
27	0xc010bae4	-2.261407
28	0xbfd440fa	-1.6582329
29	0xbff16ce8	-1.886136
30	0x4043f7bc	3.0619955
31	0xc0604aa4	-3.5045557
32	0xc056ce95	-3.3563588
33	0xbfd8b2d2	-1.6929572
34	0x40952753	4.6610503
35	0x40990e2a	4.782979
36	0xbfe47b16	-1.7850063
37	0x40322112	2.7832685
38	0xc00cbfbb	-2.1992023
39	0xc01fe8f1	-2.4985926
40	0x40337490	2.8039894
41	0x40c33eef	6.1014323
42	0x40402b80	3.002655
43	0x4059ef71	3.4052393
44	0xc04b0fd3	-3.1728408
45	0xbfde72f0	-1.7378826
46	0x40bbbd66	5.86687
47	0x407fad54	3.994954
48	0x40451dcb	3.0799434
49	0x403f126a	2.985499
50	0xbff3fbda	-1.9061234
51	0xbfe4b5fb	-1.7868036
52	0xbff4fe40	-1.9140091
53	0xc0048770	-2.0707664
54	0x403e5cb0	2.9744072
55	0x403b09c0	2.92247
56	0xbfdc67e8	-1.721921
57	0xbfe9e000	-1.8271484
58	0xbfd9c09c	-1.7011905
59	0xbfff3f1b	-1.9941133
60	0xc0008b73	-2.0085113
61	0x4083be2e	4.1169653
62	0xbfebb787	-1.8415383
63	0xc06e1e0f	-3.7205846
