test.pth (torch, 250851 bytes, 10 tensors)

conv1.weight f4 [6, 3, 5, 5]
0.036930084 -0.004256472 -0.042989887 -0.05292785 -0.09173536 -0.045744285 -0.017277405 0.077855155
-0.05125373 0.01427269 0.021092221 0.09794791 -0.10173652 -0.02398561 -0.05272212 -0.009618215
0.045104623 0.049580395 0.00019539893 0.0016442165 -0.08600885 -0.07254957 -0.007083498 -0.022110336
-0.009839363 -0.10802357 0.07048142 -0.049533628 -0.105856955 -0.032506287 0.080030695 0.11298753
-0.036211498 0.07558365 -0.014570072 0.10985212 -0.0008759871 -0.1128285 0.10372895 -0.0548024
-0.0027847365 -0.08192958 -0.014721103 0.11160956 0.10774505 -0.026056282 0.0021900982 0.08397141
-0.014326207 -0.054668892 -0.11344208 0.034491807 -0.082637735 0.065121666 -0.048767515 -0.04379165
-0.07821627 0.06555712 -0.023887657 -0.059876118 -0.07401183 0.09083162 0.05593033 0.09409252
0.093582794 -0.077462554 -0.069733456 -0.094670914 -0.051422723 0.025428653 0.014450178 -0.071737096
-0.07280421 -0.073868334 -0.07279998 0.1119518 -0.11155077 -0.10353824 -0.11154357 0.08077356
-0.07215123 -0.086734146 -0.005329944 -0.045770057 -0.06580405 -0.10612996 -0.053917345 -0.056447122
0.08038968 0.109942794 -0.06627642 -0.055687934 -0.060718242 0.026458353 0.023460895 0.0062952936
-0.0026584268 0.08134124 -0.09421299 -0.01662425 -0.105213754 -0.045128725 -0.06708524 -0.051101126
0.019188672 0.002909489 -0.034652628 0.0056275353 0.077058 0.04408069 -0.05850751 0.037487775
-0.07489964 0.005402103 0.10398866 -0.0910232 -0.081648864 -0.10152434 0.0016996562 -0.08158161
0.050562263 -0.027985267 -0.11410275 -0.08049368 -0.070171684 0.036939874 -0.037079647 0.0060919374
-0.1122895 -0.09269618 -0.05055742 -0.013919175 0.009593636 -0.025139578 0.07679507 0.10706179
-0.110154174 0.089398995 0.051292285 0.06288436 0.06448917 -0.07340947 -0.081769854 -0.10960357
0.101967975 0.07159628 -0.07189695 0.032019094 -0.04415618 -0.07252194 -0.04941453 0.064616814
0.05496742 -0.0201587 0.047747254 -0.03984856 0.04085663 -0.09532825 0.060156703 -0.039647996
-0.057469167 0.10599321 0.08663325 0.03602785 0.01271604 0.09274994 0.012810603 -0.009081088
0.07145782 -0.010855831 -0.05150546 0.004016161 0.069430426 -0.098997094 -0.055249985 -0.09803458
-0.0114376545 -0.030431658 0.099784866 0.033510774 -0.11432934 0.054776862 -0.07278492 0.09348145
0.07792759 0.0001590848 -0.039861016 0.044457138 -0.11120281 0.03387806 0.0913638 0.040210962
-0.022267982 0.026054844 0.0020074323 0.10937308 0.013595372 0.06643146 0.063856035 0.059314415
-0.087129675 0.020049095 0.020871371 0.06168756 -0.07678283 0.06896049 0.03207086 -0.07153772
0.11528441 0.029267952 -0.06568462 -0.0019264519 -0.09955418 -0.110727176 -0.108021975 0.08835377
-0.0038496032 -0.054020625 -0.1128393 -0.07800268 0.006923668 -0.07625787 0.045448124 -0.091841646
0.085393965 -0.038597815 -0.08846139 0.02158694 -0.104353644 -0.09467527 0.0011077747 0.02936098
-0.019129187 0.045064256 -0.075944535 0.041032925 -0.04286989 -0.11080693 -0.10434581 -0.03601393
-0.05008851 -0.018229716 -0.00093933195 0.07584599 -0.016549401 -0.026850171 0.013140544 -0.01926218
0.033431992 -0.107046925 0.086538926 -0.10219616 -0.07047698 0.030261993 0.048027918 0.062365532
00000000: 0044 173d e079 8bbb 2a16 30bd e0ca 58bd
00000010: c0df bbbd 5c5e 3bbd 5889 8dbc 8672 9f3d
00000020: 6eef 51bd 00d8 693c 98c9 ac3c ea98 c83d
00000030: 3d5b d0bd 787d c4bc 26f3 57bd b895 1dbc
00000040: a0bf 383d d014 4b3d 00e4 4c39 c082 d73a
00000050: 6825 b0bd de94 94bd b01c e8bb bc20 b5bc
00000060: 4835 21bc 763b ddbd 9058 903d c6e3 4abd
00000070: 88cb d8bd 5025 05bd 22e7 a33d 0266 e73d
00000080: 8252 14bd 9acb 9a3d 50b7 6ebc 26fa e03d
00000090: 80a2 65ba a112 e7bd d86f d43d 7b78 60bd
000000a0: 2080 36bb b2ca a7bd c830 71bc 8e93 e43d
000000b0: 70a9 dc3d fc73 d5bc c087 0f3b 34f9 ab3d
000000c0: 78b8 6abc 7dec 5fbd 5254 e8bd 4847 0d3d
000000d0: f93d a9bd 825e 853d 72c0 47bd e05e 33bd
000000e0: da2f a0bd d042 863d 0cb0 c3bc a940 75bd
000000f0: 8493 97bd ee05 ba3d 3417 653d 94b3 c03d
00000100: 56a8 bf3d b0a4 9ebd 6ad0 8ebd d3e2 c1bd
00000110: a2a0 52bd c04f d03c 70c0 6c3c e6ea 92bd
00000120: 601a 95bd 4848 97bd 2818 95bd fc46 e53d
00000130: bb74 e4bd db0b d4bd f570 e4bd 9c6c a53d
00000140: 06c4 93bd aca1 b1bd d0a6 aebb 6279 3bbd
00000150: 46c4 86bd aa5a d9bd 6fd8 5cbd 1935 67bd
00000160: 58a3 a43d b029 e13d efbb 87bd 0819 64bd
00000170: b1b3 78bd 30bf d83c 1031 c03c c048 ce3b
00000180: 0039 2ebb 3c96 a63d bdf2 c0bd 942f 88bc
00000190: 4f7a d7bd e6d8 38bd fc63 89bd 6a4f 51bd
000001a0: 9031 9d3c 20ad 3e3b eaef 0dbd 3067 b83b
000001b0: 96d0 9d3d f48d 343d 92a5 6fbd c88c 193d
000001c0: fc64 99bd 2004 b13b 02f8 d43d 5f6a babd
000001d0: 8537 a7bd feeb cfbd 00c7 de3a 4214 a7bd
000001e0: 601a 4f3d 5c41 e5bc b4ae e9bd dfd9 a4bd
000001f0: 2cb6 8fbd 444e 173d d4e0 17bd e09e c73b
00000200: 0af8 e5bd 7fd7 bdbd 4c15 4fbd 400d 64bc
00000210: a02e 1d3c 84f1 cdbc bc46 9d3d 3643 db3d
00000220: 8398 e1bd d216 b73d dc17 523d 84c9 803d
00000230: e612 843d b457 96bd f476 a7bd d677 e0bd
00000240: 96d4 d03d 12a1 923d b53e 93bd 7426 033d
00000250: 1cdd 34bd 6286 94bd e466 4abd d255 843d
00000260: 8425 613d dc23 a5bc a092 433d 3e38 23bd
00000270: 4859 273d 753b c3bd e066 763d f065 22bd
00000280: ca64 6bbd f812 d93d c66c b13d f091 133d
00000290: f056 503c aef3 bd3d 90e3 513c d8c8 14bc
000002a0: 7a58 923d a8dc 31bc 64f7 52bd 009a 833b
000002b0: 8a31 8e3d fdbe cabd cf4d 62bd 5bc6 c8bd
000002c0: 0065 3bbc d04b f9bc 025c cc3d 9842 093d
000002d0: 8025 eabd b45d 603d 4310 95bd 3473 bf3d
000002e0: 8098 9f3d 00d0 2639 4e45 23bd b018 363d
000002f0: 4dbe e3bd b8c3 0a3d f21c bb3d 40b4 243d
00000300: 586b b6bc f870 d53c 208f 033b fefe df3d
00000310: 20bf 5e3c 380d 883d f4c6 823d acf3 723d
00000320: 0b71 b2bd 003e a43c 70fa aa3c 18ac 7c3d
00000330: 5140 9dbd 283b 8d3d bc5c 033d 5e82 92bd
00000340: 3c1a ec3d 58c3 ef3c a885 86bd 0081 fcba
00000350: 10e3 cbbd eec4 e2bd a03a ddbd d2f2 b43d
00000360: a049 7cbb bb44 5dbd 4a18 e7bd debf 9fbd
00000370: f0df e23b 162d 9cbd d027 3a3d 7917 bcbd
00000380: 08e3 ae3d be18 1ebd 3f2b b5bd 18d7 b03c
00000390: 5db7 d5bd 1ce5 c1bd c032 913a 7086 f03c
000003a0: d0b4 9cbc 4c95 383d cf88 9bbd 2412 283d
000003b0: 5698 2fbd beee e2bd 42b3 d5bd 5883 13bd
000003c0: 9c29 4dbd 7c56 95bc 803d 76ba 2455 9b3d
000003d0: 9c92 87bc e4f4 dbbc 704b 573c b8cb 9dbc
000003e0: fcef 083d 6b3b dbbd 523b b13d 384c d1bd
000003f0: 3c56 90bd 00e8 f73c ecb8 443d 0073 7f3d

conv1.bias f4 [6]
0.09920405 -0.08770215 -0.0868218 0.086454764 0.06985827 0.005048983
00000000: 7e2b cb3d 2f9d b3bd a1cf b1bd 320f b13d
00000010: da11 8f3d f071 a53b

conv2.weight f4 [16, 6, 5, 5]
-0.0696998 -0.033443615 -0.015611902 0.006972961 -0.07722775 -0.027631957 0.06423117 -0.035570238
0.00013967603 0.0791112 0.06629668 -0.024757192 -0.052589513 -0.06188591 -0.048261546 0.08126885
0.074359596 0.0017586872 -0.02742751 -0.070992246 -0.07244162 -0.0046765506 0.064391494 0.044053987
0.021123461 -0.02228589 0.071163625 0.017749466 0.041777156 0.027714714 -0.07012421 0.054966703
-0.07090615 0.027808301 0.013211511 0.012057036 -0.0645513 -0.008992411 0.038655818 0.053503096
0.018714502 -0.0029106364 0.0029020384 0.013003282 -0.03129702 0.0029444024 -0.0444441 0.026313804
-0.058420897 -0.027311273 0.07184124 0.03319128 0.06378974 0.067300096 -0.077825606 -0.04969337
-0.035239544 -0.05119756 -0.040918104 0.0119995475 -0.05048813 0.05068624 0.016118899 -0.03979741
-0.03155414 -0.0041342527 -0.06923704 0.030619375 0.040274337 -0.017317846 -0.023192175 -0.062356927
0.018034004 -0.06778861 0.0676907 -0.020018 0.07087293 0.036818378 -0.0640581 0.032488815
-0.065117314 -0.05170849 0.07411213 -0.019982044 -0.07804147 0.028770387 0.0245035 -0.07727121
-0.07538587 0.0023458377 0.057855487 -0.07805885 0.04918538 0.006709419 0.003690824 0.05612056
0.036527902 -0.050910316 -0.0435349 -0.03139739 -0.05448879 -0.058256928 -0.024475213 -0.0372484
0.07840143 0.08054182 0.05659838 0.07992315 -0.06697493 -0.018543921 -0.04610083 -0.048722345
0.056377098 -0.013138011 -0.03798921 -0.057619154 0.012867026 -0.04507814 -0.05246541 -0.020324405
0.006217949 0.07449284 -0.0041357204 0.06545018 0.018159531 -0.03356929 -0.034639403 -0.0024900362
-0.06440769 -0.05507765 -0.039054472 -0.029347286 0.051837027 0.051250413 -0.016750507 0.031579524
0.043529868 -0.07293649 -0.08112366 0.0595157 0.039066203 -0.07027987 0.036729455 0.038854323
-0.051584087 0.062658355 -0.033272482 0.035886176 0.05405128 0.01555834 0.04564947 -0.0022089258
0.06643595 0.0022481233 0.0805078 -0.046492256 -0.004588403 0.039344475 -0.007461533 -0.025403809
-0.074422896 0.008210354 -0.01658792 -0.07347208 -0.007235974 -0.06739254 -0.077883266 -0.0030198544
-0.051919043 0.036426723 0.048071638 -0.004644662 -0.047764402 0.0025375485 -0.048444863 -0.03112398
-0.057568144 0.01719433 0.037938885 0.051235452 -0.042174287 0.012086973 -0.02946176 -0.015315831
0.047588944 0.03710419 0.0068808496 0.021699473 -0.07100474 0.064397976 0.063476264 -0.041612342
0.031217389 -0.036615446 0.076627016 0.012308456 -0.072597496 0.0375745 -0.08161614 0.02162736
-0.06806049 0.039836228 -0.00434272 0.045297906 0.0012169927 -0.06962257 0.07136011 -0.036806602
-0.065111324 0.048445657 -0.03133346 0.0069959983 0.075287685 -0.047896776 -0.06377757 0.053446382
0.0392849 -0.0033701733 0.041097216 -0.007202685 -0.041704077 -0.0210424 0.03571944 0.06818387
0.0711554 -0.06695466 0.037665203 -0.06149741 -0.066217765 -0.03756779 -0.0426997 -0.04646115
0.0070575103 -0.025004283 -0.020243883 -0.063725814 0.05301395 0.0041865185 0.06992774 0.0020381436
0.047848895 0.0703648 0.049611643 -0.074007876 0.06379712 0.045493826 -0.0675641 -0.034918107
-0.0016439259 0.00038912147 -0.047515012 -0.023649324 0.041666456 0.07771969 0.04656872 -0.045443904
00000000: c5be 8ebd 2cfc 08bd 10c9 7fbc 707d e43b
00000010: 9529 9ebd 6a5c e2bc a28b 833d 19b2 11bd
00000020: 0076 1239 0e05 a23d 8ec6 873d 98cf cabc
00000030: 1a68 57bd 147c 7dbd e6ad 45bd 4870 a63d
00000040: d849 983d c083 e63a a8af e0bc 6264 91bd
00000050: 465c 94bd c03d 99bb b0df 833d f471 343d
00000060: 1c0b ad3c e690 b6bc 3cbe 913d 5467 913c
00000070: 861e 2b3d f809 e33c 489d 8fbd c424 613d
00000080: 3e37 91bd 3cce e33c 1875 583c e08a 453c
00000090: 7933 84bd e854 13bc 9055 1e3d 1026 5b3d
000000a0: 284f 993c 60c0 3ebb 2030 3e3b b80b 553c
000000b0: 4e31 00bd e0f6 403b 040b 36bd 0c90 d73c
000000c0: c04a 6fbd e4bb dfbc 8021 933d 94f3 073d
000000d0: 32a4 823d a2d4 893d 0863 9fbd 468b 4bbd
000000e0: 5757 10bd 88b4 51bd be99 27bd c099 443c
000000f0: a4cc 4ebd 609c 4f3d c80b 843c 9c02 23bd
00000100: ea3e 01bd a078 87bb 26cc 8dbd 7cd5 fa3c
00000110: b4f6 243d 28de 8dbc 84fd bdbc fa69 7fbd
00000120: 0cbc 933c c1d4 8abd 6ca1 8a3d cafc a3bc
00000130: d425 913d dece 163d e530 83bd fe12 053d
00000140: 3a5c 85bd 48cc 53bd 1ac8 973d 62b1 a3bc
00000150: 35d4 9fbd e0af eb3c 90bb c83c 5e40 9ebd
00000160: e863 9abd a0bc 193b e0f9 6c3d 51dd 9fbd
00000170: 9c76 493d b0da db3b c0e1 713b acde 653d
00000180: 489e 153d 5687 50bd a751 32bd 8d9a 00bd
00000190: a32f 5fbd d19e 6ebd 3e80 c8bc c791 18bd
000001a0: ee90 a03d 1cf3 a43d b4d3 673d c0ae a33d
000001b0: 272a 89bd 6ce9 97bc 39d4 3cbd 1591 47bd
000001c0: aceb 663d d040 57bc 939a 1bbd 1002 6cbd
000001d0: 38d0 523c dba3 38bd f8e5 56bd 5e7f a6bc
000001e0: f0bf cb3b b48f 983d f084 87bb be0a 863d
000001f0: 4cc3 943c f47f 09bd 0ce2 0dbd e02f 23bb
00000200: 2ee8 83bd 1a99 61bd 95f7 1fbd b869 f0bc
00000210: 1053 543d f4eb 513d 5c38 89bc 8859 013d
00000220: 604c 323d ba5f 95bd 2924 a6bd bcc6 733d
00000230: e203 203d e4ee 8fbd a071 163d b625 1f3d
00000240: d649 53bd 0653 803d ba48 08bd 62fd 123d
00000250: e064 5d3d 68e8 7e3c f0fa 3a3d a0c3 10bb
00000260: 920f 883d 4055 133b 46e1 a43d aa6e 3ebd
00000270: 505a 96bb ac27 213d e07f f4bb a61b d0bc
00000280: 086b 98bd b884 063c 64e3 87bc 8878 96bd
00000290: c01b edbb 1a05 8abd 4381 9fbd c0e8 45bb
000002a0: 10a9 54bd 3034 153d c4e6 443d 4032 98bb
000002b0: 9ba4 43bd 004d 263b 1f6e 46bd b8f7 febc
000002c0: 93cc 6bbd 20db 8c3c ce65 1b3d 44dc 513d
000002d0: f2be 2cbd 7008 463c ca59 f1bc 40ef 7abc
000002e0: a0ec 423d 90fa 173d c078 e13b 18c3 b13c
000002f0: ef6a 91bd 16e3 833d d8ff 813d b471 2abd
00000300: 9cbb ff3c 14fa 15bd a0ee 9c3d 68a9 493c
00000310: ffad 94bd b8e7 193d 5d26 a7bd dc2b b13c
00000320: 4c63 8bbd 502b 233d 604d 8ebb 4c8a 393d
00000330: 8083 9f3a 4796 8ebd 4025 923d 85c2 16bd
00000340: 1659 85bd f46e 463d 8457 00bd b03e e53b
00000350: 6e30 9a3d 692f 44bd d19d 82bd 98ea 5a3d
00000360: 34e9 203d 20de 5cbb 8e55 283d 8004 ecbb
00000370: e5d1 2abd 1c61 acbc 8c4e 123d fca3 8b3d
00000380: ecb9 913d 861f 89bd d446 1a3d b5e4 7bbd
00000390: 2e9d 87bd afe0 19bd e1e5 2ebd 0c4e 3ebd
000003a0: b042 e73b c8d5 ccbc 80d6 a5bc ae82 82bd
000003b0: 2825 593d 102f 893b 4636 8f3d 6092 053b
000003c0: 34fd 433d 6c1b 903d 9435 4b3d 7191 97bd
000003d0: 10a8 823d bc57 3a3d 0c5f 8abd 4a06 0fbd
000003e0: 0079 d7ba 0003 cc39 1a9f 42bd 3abc c1bc
000003f0: 72aa 2a3d 802b 9f3d d8be 3e3d 6323 3abd

conv2.bias f4 [16]
-0.07913847 0.07769275 0.08113696 0.0017823726 -0.042432692 0.05004795 0.023406953 -0.03533033
-0.07074444 -0.060127728 0.036156327 -0.064861864 -0.057971552 0.0461248 0.033462897 -0.058402635
00000000: 5a13 a2bd 601d 9f3d 222b a63d 809e e93a
00000010: e7cd 2dbd 14ff 4c3d f0bf bf3c 89b6 10bd
00000020: 76e2 90bd 7e48 76bd a818 143d 4cd6 84bd
00000030: 9473 6dbd 5ced 3c3d 6410 093d 9a37 6fbd

fc1.weight f4 [120, 400]
0.03257289 0.01228825 0.002458334 -0.02505715 0.026421469 0.036413115 0.0042303093 -0.0057437792
0.022024732 -0.0007102601 -0.017387826 0.048372928 0.013135854 -0.037385464 0.02051704 -0.013952393
-0.011640925 0.043068532 -0.026796807 -0.0118955 0.049523298 -0.027613718 0.022282872 -0.015405487
0.0035909042 0.008855563 0.029092964 -0.04494663 -0.004205674 -0.02386697 -0.04466438 0.018007036
0.02114879 9.9509954e-05 0.045456838 0.04055946 0.011248447 0.027049754 -0.03276279 -0.02123843
0.032305907 -0.024234146 0.0137699805 0.038064618 0.024388615 -0.04103644 -0.026542282 0.046956453
-0.017302256 0.01051547 -0.022737527 0.026486386 0.023335736 -0.032481506 0.04378848 -0.022624785
0.038880277 0.014688436 -0.00036849454 -0.004029624 0.023796711 0.045243178 0.009036023 -0.030414665
0.033931334 -0.033829227 -0.033834748 0.007543009 -0.015497614 0.014317807 -0.0029584244 0.027528469
-0.032393713 -0.03669867 -8.0257654e-05 0.029431682 0.01554371 0.04576354 -0.011003308 0.044038404
-0.046762187 -0.028966963 -0.024976676 -0.03116247 0.005183149 -0.011138637 -0.04633764 -0.04389769
0.014138464 0.0054610074 0.015806023 -0.045517344 0.040864762 0.01469041 -0.040082138 -0.009663321
0.011960138 0.00010462478 0.028570954 0.017574932 -0.047410678 -0.01957382 0.0114176795 -0.018660538
-0.038766257 -0.03427081 0.0055091493 -0.030739581 0.028878901 0.0069174543 -0.032212783 -0.0037646666
-0.04123803 0.010607332 0.0085074715 -0.0060911067 -0.011970468 0.015968937 -0.016450953 0.03827965
0.040742803 -0.022603726 -0.036587268 0.0010599904 -0.038368016 -0.0467391 -0.0029151365 -0.015941631
-0.00050323084 0.00016548112 0.02085663 -0.010584511 0.038358632 -0.033800177 0.0029804036 0.021319587
0.041237596 0.04166567 -0.025105644 -0.030899113 0.012366794 0.019463394 0.044540416 -0.023326755
0.019658279 -0.03220796 0.0067350343 -0.03667196 -0.01709808 -0.045383293 0.024257068 0.018429738
-0.038089316 0.0014313646 0.04358581 -0.041752595 0.010544188 0.039084535 0.044330757 0.010911655
0.037999485 0.035493378 0.030486483 -0.031555243 0.048165176 0.04670636 -0.022280235 -0.026679976
0.03392544 -0.024808848 0.014821742 -0.012311168 -0.009864528 -0.046598315 0.024370361 -0.03154967
0.037939224 -0.013746418 0.030997109 0.029465262 0.0032108538 -0.027258445 -0.0321827 -0.023591792
-0.034825344 0.045252364 -0.021132266 0.035228733 0.024941105 -0.022052592 0.03684221 -0.04007821
-0.037689187 -0.030901551 0.04637086 -0.045072645 -0.019827737 0.033502553 -0.020163257 -0.0473018
-0.028450513 -0.012261063 -0.0006833859 0.027587626 -0.0051624104 -0.020994855 -0.010286801 -0.015046161
-0.047660448 -0.041730504 -0.0040175095 0.012678158 -0.008274786 0.028609809 0.044545654 -0.030060524
0.019325275 0.009225003 0.041799594 0.006219946 -0.030146385 -0.02080729 0.02181499 0.039817866
0.025222149 0.022784818 0.009170424 0.020230506 -0.04898114 -0.032588422 0.03984191 -0.017804075
0.013854589 -0.04953891 -0.02710932 0.0028337613 -0.049078315 0.0072466433 -0.000916291 -0.0325649
0.028206851 0.013531569 -0.008929711 -0.04142974 0.024819937 0.011562727 -0.025045587 0.012617189
0.030207027 0.02276874 -0.037070505 -0.0038345754 0.040440198 -0.0052196383 -0.0030344129 0.046643753
00000000: 276b 053d a854 493c 001c 213b a744 cdbc
00000010: d671 d83c eb25 153d 689e 8a3b 5036 bcbb
00000020: 366d b43c c030 3aba ea70 8ebc b122 463d
00000030: c437 573c 8021 19bd 5a13 a83c 9498 64bc
00000040: 94b9 3ebc a168 303d fa84 dbbc 58e5 42bc
00000050: f1d8 4a3d 2a36 e2bc 928a b63c 4c67 7cbc
00000060: 6055 6b3b ec16 113c 5e54 ee3c f519 38bd
00000070: c0cf 89bb aa84 c3bc fff1 36bd 7e83 933c
00000080: 3a40 ad3c 00b0 d038 f330 3a3d ad21 263d
00000090: 684b 383c 7297 dd3c 4632 06bd 37fc adbc
000000a0: 3353 043d b086 c6bc 7c9b 613c a5e9 1b3d
000000b0: a2ca c73c d315 28bd 336f d9bc 6955 403d
000000c0: 76bd 8dbc 1449 2c3c 0d44 babc faf9 d83c
000000d0: 962a bf3c 540b 05bd 8d5b 333d 9d57 b9bc
000000e0: ed40 1f3d c4a7 703c 8032 c1b9 f00a 84bb
000000f0: 52f1 c23c e950 393d d40b 143c 2d28 f9bc
00000100: 95fb 0a3d 8490 0abd 4e96 0abd 582b f73b
00000110: b4e9 7dbc 3c95 6a3c 20e2 41bb 6283 e13c
00000120: 45af 04bd 5851 16bd 0050 a8b8 b61a f13c
00000130: 0cab 7e3c 8d72 3b3d 3847 34bc 9d61 343d
00000140: b589 3fbd 204c edbc e39b ccbc 7048 ffbc
00000150: 68d7 a93b d47e 36bc 8acc 3dbd 10ce 33bd
00000160: 04a5 673c 40f2 b23b a27b 813c 6570 3abd
00000170: cf61 273d 0cb0 703c 2b2d 24bd e852 1ebc
00000180: 74f4 433c 006a db38 a20d ea3c 4ef9 8f3c
00000190: b331 42bd 4759 a0bc 3811 3b3c fcdd 98bc
000001a0: 5ec9 1ebd 8d5f 0cbd 1886 b43b 93d1 fbbc
000001b0: 7293 ec3c d0ab e23b 8df1 03bd a0b8 76bb
000001c0: 35e9 28bd 60ca 2d3c ec62 0b3c e897 c7bb
000001d0: c81f 44bc 4ad1 823c 26c4 86bc 1fcb 1c3d
000001e0: ede1 263d 732b b9bc 88dc 15bd 60ef 8a3a
000001f0: c827 1dbd 8071 3fbd e00b 3fbb 0698 82bc
00000200: 40eb 03ba 0085 2d39 86db aa3c a86a 2dbc
00000210: f11d 1d3d 0e72 0abd e052 433b 6aa6 ae3c
00000220: c1e8 283d 9fa9 2a3d 5aaa cdbc 2320 fdbc
00000230: 189e 4a3c b271 9f3c 0370 363d c017 bfbc
00000240: 660a a13c 7eec 03bd 90b1 dc3b 5635 16bd
00000250: 4611 8cbc d5e3 39bd c2b6 c63c f6f9 963c
00000260: 8b03 1cbd a09c bb3a 0987 323d c504 2bbd
00000270: 88c1 2c3c 1b17 203d 2b94 353d ccc6 323c
00000280: 59a5 1b3d 8161 113d cabe f93c 1240 01bd
00000290: d948 453d 2b4f 3f3d 0a85 b6bc f78f dabc
000002a0: 67f5 0a3d ed3b cbbc e4d6 723c c8b4 49bc
000002b0: d49e 21bc e0dd 3ebd 5aa4 c73c 3a3a 01bd
000002c0: 2966 1b3d a838 61bc a6ed fd3c 2261 f13c
000002d0: 306d 523b 1a4d dfbc 02d2 03bd 9343 c1bc
000002e0: 05a5 0ebd 8b5a 393d 931d adbc 014c 103d
000002f0: 4a51 cc3c a3a7 b4bc dbe7 163d 0d29 24bd
00000300: fa5f 1abd 4025 fdbc 5fef 3d3d 189e 38bd
00000310: c76d a2bc f939 093d 6a2d a5bc 88bf 41bd
00000320: 0d11 e9bc a0e2 48bc 4025 33ba 72ff e13c
00000330: 7029 a9bb 67fd abbc f889 28bc 2c84 76bc
00000340: 9a37 43bd 9bed 2abd 50a5 83bb 0cb8 4f3c
00000350: f892 07bc 1e5f ea3c 8175 363d 7d41 f6bc
00000360: 0a50 9e3c 7824 173c 0d36 2b3d b0d0 cb3b
00000370: 8df5 f6bc 0d74 aabc 5ab5 b23c 0f18 233d
00000380: ae9e ce3c 3aa7 ba3c 8c3f 163c 72ba a53c
00000390: 73a0 48bd 707b 05bd 4531 233d dad9 91bc
000003a0: 5cfe 623c 50e9 4abd 5d14 debc a0b6 393b
000003b0: 5806 49bd 4075 ed3b 4033 70ba c662 05bd
000003c0: 0e12 e73c 84b3 5d3c ec4d 12bc 3bb2 29bd
000003d0: 2e53 cb3c 9871 3d3c 672c cdbc 54b8 4e3c
000003e0: ba74 f73c 8285 ba3c 3ed7 17bd 804d 7bbb
000003f0: 9fa4 253d 8009 abbb 00dd 46bb 850d 3f3d

fc1.bias f4 [120]
0.038478855 0.022897217 -0.036061972 -0.039719023 -0.041652113 -0.044816293 -0.010425944 0.0072761886
0.006057292 0.026803907 0.039271954 -0.04165765 0.030443426 0.009569872 -0.010879051 -0.029754579
0.024739433 -0.034076378 -0.0037445948 -0.046847176 0.047216173 0.028692622 0.031682048 -0.0054494627
0.00079082325 0.04118905 0.012887958 0.0032919236 0.0140975155 -0.008447528 -0.038553994 0.0049400516
0.029593144 0.0316795 0.04050673 -0.007771414 -0.033492763 0.010626752 0.034855057 0.0094127245
-0.04685306 0.01127686 0.02470864 0.03898352 0.040972803 -0.032501806 -0.028269177 0.03450832
0.045280565 0.026450355 -0.01625539 -0.02619276 0.038108114 0.047076646 -0.009936672 -0.026257068
0.014670264 -0.0057729296 0.0015394911 0.04706276 -0.04032112 0.008316528 0.013335761 0.008324243
-0.036437493 0.026838597 -0.027854158 0.016573641 -0.048059236 0.008196544 0.00054130703 -0.010425203
0.024123583 0.04616097 0.029178623 -0.0492361 0.0032247677 0.034668062 0.032937635 -0.047354586
-0.0012231953 -0.039102256 0.04710375 -0.029186135 0.026925538 -0.026419127 -0.012897402 -0.013208441
-0.02959004 0.028511833 -0.020777637 -0.019588036 -0.025628943 0.048792634 0.0006875321 0.032186184
0.006395679 -0.027117824 0.029268693 0.016341958 -0.03864474 -0.0070555396 0.0002634041 0.03614689
0.010477267 0.032101516 0.036268506 0.0115771 0.015954588 -0.018015705 0.049966898 -0.018723331
0.010684319 -0.03167416 -0.04082363 -0.018311244 0.01145621 -0.025831748 0.02083278 0.0037187114
00000000: 019c 1d3d f292 bb3c b8b5 13bd 6ab0 22bd
00000010: 689b 2abd 4a91 37bd 94d1 2abc 186d ee3b
00000020: 407c c63b de93 db3c a1db 203d 36a1 2abd
00000030: 7e64 f93c f4ca 1c3c 0c3e 32bc e0bf f3bc
00000040: 5aaa ca3c ac93 0bbd e067 75bb d3e2 3fbd
00000050: bf65 413d ca0c eb3c 09c5 013d 6891 b2bb
00000060: 404f 4f3a d9b5 283d 0428 533c 50bd 573b
00000070: 44f9 663c 8067 0abc cbea 1dbd 28e0 a13b
00000080: 526d f23c 5dc2 013d 63ea 253d 58a7 febb
00000090: b52f 09bd d41b 2e3c 2dc4 0e3d d437 1a3c
000000a0: ffe8 3fbd 94c2 383c c669 ca3c 2fad 1f3d
000000b0: 19d3 273d 9d20 05bd c394 e7bc 9958 0d3d
000000c0: 1d78 393d 6aae d83c 062a 85bc 3392 d6bc
000000d0: 4117 1c3d 71d3 403d 6ccd 22bc 1019 d7bc
000000e0: 8c5b 703c d82a bdbb c0c8 c93a e1c4 403d
000000f0: c227 25bd 0c42 083c 3c7e 5a3c 6862 083c
00000100: 7b3f 15bd 9edc db3c 672e e4bc 72c5 873c
00000110: c3d9 44bd cc4a 063c 80e6 0d3a 78ce 2abc
00000120: d29e c53c 4913 3d3d 0208 ef3c cbab 49bd
00000130: a056 533b 1900 0e3d 9de9 063d e2f6 41bd
00000140: a053 a0ba b029 20bd ddef 403d c317 efbc
00000150: f292 dc3c ed6c d8bc a04f 53bc 3868 58bc
00000160: d066 f2bc a691 e93c dd35 aabc 1777 a0bc
00000170: caf3 d1bc c9da 473d 803b 343a a9d5 033d
00000180: d892 d13b 3326 debc e6c4 ef3c 92df 853c
00000190: f249 1ebd 2832 e7bb 8019 8a39 c30e 143d
000001a0: d8a8 2b3c e17c 033d 498e 143d e0ad 3d3c
000001b0: 32b3 823c ac95 93bc 17aa 4c3d ac61 99bc
000001c0: 480d 2f3c c4bc 01bd ae36 27bd 7601 96bc
000001d0: d4b2 3b3c 1a9d d3bc 82a9 aa3c a0b5 733b

fc2.weight f4 [84, 120]
-0.039369535 -0.003803961 -0.08984771 -0.040630173 -0.052948564 -0.029424265 0.014932759 -0.035290677
-0.011548087 -0.003004983 -0.015205577 0.06447154 0.07846503 0.035044312 -0.030776624 -0.0062091723
0.0460746 0.038856372 -0.01207342 -0.075296596 -0.08428704 -0.024676256 0.038252413 0.01062686
-0.0009214133 0.071352944 -0.03463204 -0.03813589 0.03050819 0.032115437 -0.0730411 0.022817105
0.034831107 -0.08359618 -0.04441496 0.027407996 -0.015695147 0.015955135 0.024732217 -0.07520069
0.027692154 0.08411226 0.0010083392 -0.087638766 -0.042534396 0.090452686 0.06401762 0.0485608
0.031229489 -0.042766098 -0.07956595 0.06774531 0.05086054 -0.038999215 -0.018718995 -0.038419537
0.00028070062 -0.06557828 -0.054215726 0.08750613 0.081367 0.07801363 -0.08261046 0.08447127
-0.059175983 -0.06380908 -0.037322853 0.07239662 -0.06300448 -0.052015454 -0.045146238 -0.023597613
-0.06882912 0.0815656 0.016892262 -0.022893026 0.0033160672 -0.070343085 0.042822927 -0.055415586
0.07819533 -0.053319138 -0.06920797 -0.07443517 0.05719392 -0.026471741 0.060140952 0.0030231401
0.06011781 -0.013000391 -0.057550043 0.004169628 0.02294004 0.036566287 -0.08376113 -0.04275118
-0.0033060983 -0.042297248 0.06890011 -0.059518013 0.022959664 -0.0002959743 -0.0879515 -0.0877899
0.087825105 -0.04266941 0.009192169 0.053756446 -0.05650851 0.070535436 -0.039135415 0.01745864
-0.07326612 0.05006863 -0.030551635 -0.07007483 -0.014750108 0.06392138 0.071558565 0.08052541
-0.0010223463 -0.027429707 -0.07028435 0.03188891 -0.0015187114 -0.08053806 -0.058603805 0.06691201
-0.03112946 0.08861275 -0.043940276 0.0428769 -0.046929613 -0.08301021 0.07235022 -0.046311107
-0.033444848 0.0166829 -0.032263525 0.08611916 -0.09103542 0.06296006 -0.01936075 0.0594455
-0.04177786 0.08489978 0.07926887 -0.03585389 -0.044696387 -0.01643575 -0.056964315 0.08017574
-0.043448973 0.06579216 -0.03081778 0.045533508 0.020821169 0.052446723 -0.009624422 -0.018954076
-0.08480711 0.081911 -0.037495773 0.07246998 0.027167872 -0.021267503 -0.049570445 0.076816514
0.051700547 -0.049016234 -0.0317738 0.035215825 -0.011857629 -0.06401849 -0.043030515 -0.005550772
-0.03614167 0.035341173 -0.0621263 -0.023093395 0.005812034 -0.018247202 0.024827018 -0.07932124
0.010866918 0.055312887 -0.034314778 -0.024657838 -0.045462627 -0.007996336 -0.055869743 0.03861715
-0.07909513 0.0025129914 -0.048549328 -0.06955866 0.00874681 -0.03389333 0.00037106127 -0.0032296255
0.011631191 0.008512124 -0.091113254 0.016449004 0.059160918 0.005508147 -0.08938467 -0.07823229
-0.05291399 -0.016009212 -0.0054081082 -0.0122888535 -0.046978265 -0.064310655 0.04598765 -0.015073575
-0.041901316 0.03434685 0.0164214 -0.0041417256 -0.042375643 0.006568931 0.02892293 -0.08409598
0.073523566 0.0066974685 0.020384513 -0.07268632 0.0017344579 0.06409255 -0.019756965 -0.00024744123
-0.012418337 0.009322599 -0.08246193 -0.063415974 0.08294766 -0.087213926 0.08164097 0.056716174
0.0025018305 -0.025011428 -0.06770032 -0.012654282 0.021882445 -0.018932536 0.08384533 0.023048855
-0.0056305006 -0.01041846 -0.0013297573 -0.06851493 -0.018749572 0.04678999 -0.0026933625 0.018691003
00000000: f341 21bd e04b 79bb 1402 b8bd d36b 26bd
00000010: 98e0 58bd 280b f1bc 88a8 743c f58c 10bd
00000020: 3034 3dbc 40ef 44bb d020 79bc a809 843d
00000030: 46b2 a03d a08a 0f3d 421f fcbc 5076 cbbb
00000040: b8b8 3c3d dc27 1f3d 98cf 45bc 1a35 9abd
00000050: af9e acbd dc25 cabc 90ae 1c3d 481c 2e3c
00000060: 008b 71ba 7e21 923d 53da 0dbd 6134 1cbd
00000070: 50ec f93c 7a8b 033d 9296 95bd f0ea ba3c
00000080: 10ab 0e3d 7934 abbd 76ec 35bd bc86 e03c
00000090: 1c93 80bc 58b4 823c 389b ca3c d202 9abd
000000a0: a8da e23c 0c43 ac3d 402a 843a f47b b3bd
000000b0: 8c38 2ebd 423f b93d ac1b 833d b0e7 463d
000000c0: fcd4 ff3c 812b 2fbd 79f3 a2bd 0ebe 8a3d
000000d0: 2453 503d a4bd 1fbd 9458 99bc ce5d 1dbd
000000e0: 002b 9339 e84d 86bd 4f11 5ebd 6a36 b33d
000000f0: bea3 a63d 9cc5 9f3d ac2f a9bd 46ff ac3d
00000100: 8462 72bd 56ae 82bd d9df 18bd ae44 943d
00000110: 7e08 81bd 280e 55bd 43eb 38bd c84f c1bc
00000120: 48f6 8cbd de0b a73d a461 8a3c 288a bbbc
00000130: 6052 593b 0910 90bd 1867 2f3d 74fb 62bd
00000140: e024 a03d 2b65 5abd e8bc 8dbd 7771 98bd
00000150: 2c44 6a3d 44db d8bc 5c56 763d e01f 463b
00000160: 183e 763d 98ff 54bc 98b9 6bbd 60a1 883b
00000170: c0ec bb3c 88c6 153d f58a abbd dc1b 2fbd
00000180: 20ab 58bb e13f 2dbd 801b 8d3d 29c9 73bd
00000190: e815 bc3c 002d 9bb9 eb1f b4bd 31cb b3bd
000001a0: a6dd b33d 1fc6 2ebd c09a 163c b82f 5c3d
000001b0: 7875 67bd e274 903d 754c 20bd 6c05 8f3c
000001c0: 8c0c 96bd c414 4d3d 6c47 fabc 6483 8fbd
000001d0: 70aa 71bc 36e9 823d 4c8d 923d 82ea a43d
000001e0: 4000 86ba 44b4 e0bc 3ef1 8fbd f29d 023d
000001f0: 800f c7ba 23f1 a4bd 8b0a 70bd 2a09 893d
00000200: 3603 ffbc 9a7a b53d b8fa 33bd b09f 2f3d
00000210: 4439 40bd 4201 aabd 5a2c 943d b7b0 3dbd
00000220: 77fd 08bd 94aa 883c c226 04bd 3e5f b03d
00000230: c770 babd 34f1 803d 709a 9ebc 207d 733d
00000240: 431f 2bbd f0df ad3d b857 a23d 87db 12bd
00000250: 8f13 37bd 44a4 86bc 6a53 69bd 2e33 a43d
00000260: 8df7 31bd 0abe 863d 9275 fcbc 5881 3a3d
00000270: 2891 aa3c 60d2 563d c0af 1dbc 9445 9bbc
00000280: 5aaf adbd f4c0 a73d 2b95 19bd 246b 943d
00000290: 288f de3c 3039 aebc 610a 4bbd fa51 9d3d
000002a0: f4c3 533d 3fc5 48bd 3e25 02bd 783e 103d
000002b0: 8046 42bc 201c 83bd c440 30bd 40e3 b5bb
000002c0: 4a09 14bd e8c1 103d 2678 7ebd 5c2e bdbc
000002d0: e072 be3b 287b 95bc 0862 cb3c 2d73 a2bd
000002e0: 280b 323c c48f 623d a78d 0cbd 3cff c9bc
000002f0: 0537 3abd 1003 03bc acd7 64bd 042d 1e3d
00000300: a1fc a1bd 00b1 243b a9db 46bd c574 8ebd
00000310: c84e 0f3c bbd3 0abd 008b c239 20a8 53bb
00000320: c090 3e3c 7076 0b3c 9699 babd 10c0 863c
00000330: b852 723d b07d b43b 4f0f b7bd 4038 a0bd
00000340: 57bc 58bd c025 83bc 8036 b1bb 3057 49bc
00000350: 486c 40bd 4eb5 83bd 8c5d 3c3d 28f7 76bc
00000360: b7a0 2bbd 48af 0c3d 2c86 863c 50b7 87bb
00000370: 1592 2dbd 3040 d73b c8ef ec3c 833a acbd
00000380: 8693 963d 7076 db3b 6cfd a63c 91dc 94bd
00000390: c056 e33a f442 833d 5cd9 a1bc 00bb 81b9
000003a0: 4876 4bbc d0bd 183c cde1 a8bd 3ce0 81bd
000003b0: 76e0 a93d 379d b2bd 6233 a73d 384f 683d
000003c0: c0f5 233b c4e4 ccbc 77a6 8abd e853 4fbc
000003d0: d042 b33c 6818 9bbc 1ab7 ab3d f4d0 bc3c
000003e0: 1080 b8bb 30b2 2abc 404b aeba 8e51 8cbd
000003f0: b498 99bc dca6 3f3d 2083 30bb e01d 993c

fc2.bias f4 [84]
0.03293051 0.0171749 -0.024517886 0.032588094 0.06861001 3.8318336e-05 0.09071033 0.08218695
-0.062088862 -0.018537052 0.002831079 -0.01827021 0.03271369 -0.05195735 -0.01566609 -0.004547797
-0.06617755 -0.040380336 -0.015246823 -0.07414834 0.017493673 0.059320867 0.07005896 0.039748162
0.06974645 0.0020302758 -0.00018950552 0.019642182 0.006767988 -0.0327597 -0.079897754 -0.030282963
-0.06716846 0.05519259 -0.03447774 -0.044488534 -0.03952029 0.032484606 0.043250516 -0.0018550232
-0.046561215 0.044194132 0.04907413 -0.067131914 0.04433936 0.023767352 -0.082187384 -0.011199087
0.077503964 0.06568113 0.009948254 -0.056390755 -0.034255523 -0.061943986 0.053587884 0.0677775
0.001992859 0.08797738 0.057101697 -0.0341175 -0.081970885 -0.06542345 -0.057608657 -0.0073924214
-0.000997074 0.004033223 -0.06978042 0.07800199 -0.017990872 -0.07250773 0.026967168 0.07311623
-0.0809005 0.046663463 -0.02081211 -0.089069985 -0.05334124 0.02616512 -0.086795315 -0.036949594
-0.029271074 -0.0058972538 0.050465345 0.012681827
00000000: 24e2 063d 60b2 8c3c bcd9 c8bc 187b 053d
00000010: 6883 8c3d 00b8 2038 56c6 b93d a251 a83d
00000020: e450 7ebd 04db 97bc a089 393b 68ab 95bc
00000030: cafe 053d 3bd1 54bd 2c56 80bc b005 95bb
00000040: 1888 87bd da65 25bd d0cd 79bc 16db 97bd
00000050: e44e 8f3c 70fa 723d 127b 8f3d f8ce 223d
00000060: 3ad7 8e3d 600e 053b 00b6 46b9 a4e8 a03c
00000070: 00c6 dd3b 092f 06bd 6fa1 a3bd fa13 f8bc
00000080: 9e8f 89bd a011 623d 8838 0dbd 9c39 36bd
00000090: 07e0 21bd 940e 053d 7427 313d 4024 f3ba
000000a0: f9b6 3ebd e804 353d f401 493d 757c 89bd
000000b0: 309d 353d c0b3 c23c dc51 a8bd 607c 37bc
000000c0: 66ba 9e3d d483 863d 00fe 223c fef9 66bd
000000d0: 854f 0cbd fab8 7dbd f87e 5b3d eece 8a3d
000000e0: a09a 023b 7c2d b43d 78e3 693d cbbe 0bbd
000000f0: 5ae0 a7bd bbfc 85bd 0ef7 6bbd 203c f2bb
00000100: 40b0 82ba 2029 843b 09e9 8ebd 82bf 9f3d
00000110: 9861 93bc ef7e 94bd 40ea dc3c f6bd 953d
00000120: 29af a5bd 3022 3f3d 287e aabc 536a b6bd
00000130: 587c 5abd 3c58 d63c bec1 b1bd 7558 17bd
00000140: e4c9 efbc c03d c1bb c0b4 4e3d 70c7 4f3c

fc3.weight f4 [10, 84]
0.076145105 -0.0025531948 0.061695926 0.07299624 0.05815918 0.05815605 -0.018035077 -0.0945504
-0.032292426 0.10272818 -0.07408373 0.063710354 0.036393918 -0.010470457 0.0792828 0.07134674
-0.071621224 -0.0045423657 -0.04828417 -0.0738084 0.0380423 -0.04440187 0.03948962 -0.072728604
0.094513886 0.009477913 -0.0719803 -0.0090061575 0.013538972 -0.060018215 0.07748454 -0.08562043
0.10453931 -0.098465025 -0.081340276 0.050108112 -0.008193165 -0.0061211437 0.0403961 0.08737024
0.07120768 -0.087849945 -0.005932398 -0.041247122 0.035376288 -0.03323409 -0.042192824 -0.025378905
-0.0026766062 -0.09902345 0.10249681 0.08076721 -0.02264081 0.03736367 0.04455643 -0.08325321
0.007589549 0.0760966 -0.06387727 0.052922122 -0.06346517 0.07391123 0.04602573 -0.10250647
-0.058513016 -0.052147202 -0.03604372 -0.06074549 0.081349574 -0.01950457 0.01611673 -0.079118036
-0.032313444 0.017016582 -0.008915849 -0.09075664 0.1067748 -0.032785498 -0.05087372 -0.10633864
0.076789506 0.023770966 0.012718454 -0.10637478 -0.0844783 0.015535943 0.024599023 -0.012308247
-0.10796228 -0.0860635 -0.026558623 0.010840803 -0.048781756 -0.08730117 -0.08799766 0.07017825
-0.031933606 -0.03970436 0.039386638 0.047256283 0.044459157 0.01280088 -0.027607672 -0.016998678
0.08898384 -0.02182667 0.10230165 -0.0022054315 0.03549277 0.033063553 0.10404264 0.021644168
0.087223984 0.066847496 -0.09482029 0.02711644 -0.08646531 -0.08998441 -0.08808556 0.108510934
-0.08975025 -0.047435515 0.058559425 0.09023032 0.010516934 -0.023544192 -0.016927987 -0.0016231835
0.05629579 0.02168446 0.08213688 0.022651233 0.07145501 -0.052723024 0.031084128 0.03083948
-0.074905835 0.030662782 0.052881636 -0.008032776 0.08002304 0.02322162 0.014535412 0.09910918
-0.030810885 -0.005798161 0.07516646 -0.0057287514 0.095493995 -0.029103883 -0.02824597 0.0377286
-0.1041478 0.06017793 0.074436255 -0.076023415 -0.052333225 -0.019857809 -0.09098566 0.013292782
0.08204173 -0.026544616 -0.104802735 -0.034683153 -0.05146757 0.06191028 0.06391799 0.02329681
0.07046319 0.05272738 0.01001741 -0.081890084 0.0759811 0.02652412 -0.09817618 -0.081063956
-0.08302913 0.01242321 -0.09328053 -0.071894094 0.10822754 -0.09321909 -0.0013884231 -0.009139448
-0.09068199 0.026987247 -0.037975527 -0.070111334 -0.08578813 -0.030770399 -0.05393233 -0.0216102
0.095430024 -0.107189454 -0.05976215 0.09307531 -0.08493092 0.108407326 0.056048177 0.004614666
-0.046926882 0.0027203485 -0.016005911 0.04052096 -0.032799393 0.026360936 0.0031060204 -0.020880468
0.03229078 0.104161926 -0.02267111 0.06911703 -0.0236198 0.096920796 0.10597222 0.060899816
-0.012860082 0.09901089 0.05969145 0.09630083 -0.06103766 0.044903554 -0.089032106 0.05086959
0.07291364 0.094528966 -0.072127454 -0.09693815 0.052098267 -0.0856497 0.08065229 0.07625314
0.02380275 0.03232781 -0.064721175 -0.030465245 -0.04161703 -0.046469092 -0.0584523 0.070479386
0.07607285 0.07723125 -0.09791487 -0.09614082 0.09425109 -0.01966644 -0.09291824 -0.004775755
-0.024871044 -0.08450919 -0.10175192 0.0001001358 -0.034483433 -0.05222203 -0.062392425 0.038395442
00000000: f7f1 9b3d 8053 27bb deb4 7c3d 0d7f 953d
00000010: 5238 6e3d 0a35 6e3d 4cbe 93bc a4a3 c1bd
00000020: 1045 04bd 2763 d23d 36b9 97bd 937a 823d
00000030: ca11 153d 488c 2bbc 055f a23d 3d1e 923d
00000040: 26ae 92bd 20d8 94bb 9fc5 45bd dc28 97bd
00000050: 3ed2 1b3d bcde 35bd debf 213d bcf2 94bd
00000060: 7f90 c13d 4049 1b3c 686a 93bd 908e 13bc
00000070: 90d2 5d3c a9d5 75bd 37b0 9e3d c459 afbd
00000080: b518 d63d 08a8 c9bd bb95 a6bd 2a3e 4d3d
00000090: a03c 06bc e093 c8bb 6276 253d 2bef b23d
000000a0: 55d5 913d acea b3bd 9064 c2bb bef2 28bd
000000b0: bae6 103d 7820 08bd 62d2 2cbd 6ce7 cfbc
000000c0: 006a 2fbb cecc cabd d9e9 d13d 4769 a53d
000000d0: 3879 b9bc a60a 193d ce80 363d a980 aabd
000000e0: c0b1 f83b 89d8 9b3d 16d2 82bd dec4 583d
000000f0: 07fa 81bd c55e 973d 7a85 3c3d eaee d1bd
00000100: 58ab 6fbd 4e98 55bd 94a2 13bd 43d0 78bd
00000110: 9b9a a63d 0cc8 9fbc 3c07 843c a308 a2bd
00000120: 1a5b 04bd 5c66 8b3c c813 12bc 9ede b9bd
00000130: bfac da3d 164a 06bd f660 50bd 13c8 d9bd
00000140: d143 9d3d 54bb c23c 1061 503c 05db d9bd
00000150: f502 adbd 788a 7e3c e483 c93c 88a8 49bc
00000160: 541b ddbd 0f42 b0bd 7891 d9bc a09d 313c
00000170: 61cf 47bd f5ca b2bd 1e38 b4bd 9db9 8f3d
00000180: d0cc 02bd 0aa1 22bd e253 213d ce8f 413d
00000190: ce1a 363d c8ba 513c 7c29 e2bc d040 8bbc
000001a0: 293d b63d d8cd b2bc 8783 d13d 0089 10bb
000001b0: de60 113d a66d 073d 4f14 d53d 1c4f b13c
000001c0: 7da2 b23d 57e7 883d 2431 c2bd 4c23 de3c
000001d0: b914 b1bd bf49 b8bd 3466 b4bd fb3a de3d
000001e0: fbce b7bd be4b 42bd 02dc 6f3d adca b83d
000001f0: 384f 2c3c c0df c0bc 90ac 8abc 00c1 d4ba
00000200: 6a96 663d 9ca3 b13c 6137 a83d 148f b93c
00000210: 0157 923d 19f4 57bd 24a4 fe3c 14a3 fc3c
00000220: 3b68 99bd 8430 fb3c 6a9a 583d e89b 03bc
00000230: 1fe3 a33d 443b be3c f025 6e3c c1f9 ca3d
00000240: 1c67 fcbc 80fe bdbb dff0 993d 40b8 bbbb
00000250: 5b92 c33d 446b eebc 1864 e7bc 4e89 1a3d
00000260: 714b d5bd 227d 763d 0972 983d 2ab2 9bbd
00000270: 5d5b 56bd d8ac a2bc b156 babd f8c9 593c
00000280: 7f05 a83d 1874 d9bc d1a2 d6bd ec0f 0ebd
00000290: a9cf 52bd a295 7d3d 6fe7 823d f4d8 be3c
000002a0: 014f 903d aaf8 573d 1020 243c fdb5 a7bd
000002b0: fb9b 9b3d 1c49 d93c 9810 c9bd dc04 a6bd
000002c0: 2d0b aabd b88a 4b3c dd09 bfbd 363d 93bd
000002d0: 67a6 dd3d a6e9 bebd c0fb b5ba a0bd 15bc
000002e0: 7bb7 b9bd 5c14 dd3c 3a8c 1bbd 8896 8fbd
000002f0: b0b1 afbd 3412 fcbc 26e8 5cbd e007 b1bc
00000300: d170 c33d 2586 dbbd 28c9 74bd 459e be3d
00000310: 43f0 adbd a904 de3d c692 653d a036 973b
00000320: 6736 40bd e047 323b d41e 83bc 4ef9 253d
00000330: a858 06bd e4f2 d73c 608e 4b3b 840d abbc
00000340: 5643 043d d952 d53d c4b8 b9bc 3b8d 8d3d
00000350: 507e c1bc 697e c63d f707 d93d 1672 793d
00000360: 18b3 52bc 39c6 ca3d 067f 743d 5f39 c53d
00000370: a002 7abd caec 373d 7756 b6bd a25c 503d
00000380: bf53 953d 6798 c13d 8fb7 93bd 8287 c6bd
00000390: fe64 553d 1c69 afbd 072d a53d 9b2a 9c3d
000003a0: fcfd c23c 2a6a 043d 898c 84bd 4092 f9bc
000003b0: 9e76 2abd 6056 3ebd ae6b 6fbd 7f57 903d
000003c0: 15cc 9b3d 6b2b 9e3d 9787 c8bd 7ae5 c4bd
000003d0: b706 c13d 841b a1bc eb4b bebd f07d 9cbb
000003e0: 5cbe cbbc 2713 adbd 5063 d0bd 0000 d238
000003f0: 803e 0dbd c4e6 55bd 338f 7fbd 8a44 1d3d

fc3.bias f4 [10]
-0.10393766 -0.07577628 0.068675734 -0.027459316 0.09873962 -0.044110022 -0.014813706 -0.0014640689
-0.06955506 -0.049845636
00000000: 45dd d4bd 9830 9bbd dda5 8c3d 5cf2 e0bc
00000010: ff37 ca3d b6ac 34bd 30b5 72bc 00e6 bfba
00000020: e272 8ebd f02a 4cbd
