PPO修改/sac_actor01.pth (torch, 23600 bytes, 8 tensors)

net.0.weight f4 [64, 6]
0	0x3e133909	0.14377226
1	0x3e8a6f75	0.2703816
2	0xbecd9316	-0.4015128
3	0xbed691b3	-0.41908035
4	0x3dfe39e2	0.12413384
5	0xbe40edaa	-0.18840662
6	0x3cb06182	0.02153087
7	0x3ed6ecbb	0.41977486
8	0xbec74f61	-0.3892775
9	0x3d99d0a1	0.07510496
10	0xbebfd69e	-0.37468427
11	0xbe2c51c7	-0.1682807
12	0xbde2d67b	-0.11076065
13	0xbe094dad	-0.13408537
14	0xbda6a3c0	-0.081367016
15	0x3dc3c0c6	0.09558253
16	0x3e21da04	0.15805823
17	0x3d81a676	0.06330578
18	0xbe21a5e0	-0.15785933
19	0xbe7f0b72	-0.2490671
20	0x3e63e2e8	0.22254527
21	0x3ea7b071	0.32751802
22	0xbe8291b9	-0.25501803
23	0x3eea132e	0.45717758
24	0x3d91616c	0.0709866
25	0x3de27fb1	0.110595115
26	0x3ee66860	0.45001507
27	0xbf67b86a	-0.9051577
28	0xbf038643	-0.5137674
29	0x3d67aef4	0.056563333
30	0xbdc5cb05	-0.096578635
31	0x3e2cf32c	0.16889638
32	0xbf1d1225	-0.6135581
33	0xbf111116	-0.56666696
34	0xbe97a91b	-0.29621205
35	0xbf6976bb	-0.91196793
36	0xbe1a4f29	-0.1506926
37	0x3ee51c3a	0.44748098
38	0xbeb158c3	-0.34638032
39	0x3ddf3218	0.108982265
40	0x3e4033b3	0.18769722
41	0xbe7aca34	-0.24491197
42	0x3ec80ad0	0.3907075
43	0xbf074c2f	-0.5285062
44	0x3d9958c4	0.07487634
45	0xbe13d25d	-0.14435716
46	0x3d4bd77b	0.049766045
47	0x3e3c61c7	0.18396674
48	0xbe0605b9	-0.1308812
49	0x3e07728f	0.13227294
50	0x3eb8c1a7	0.36085245
51	0x3ef1831c	0.4717034
52	0x3f1bdd1a	0.6088425
53	0x3e925f29	0.28588226
54	0xbd139a74	-0.03603597
55	0xbe85fd9b	-0.26170048
56	0x3e1502f1	0.14551903
57	0xbe802d60	-0.25034618
58	0xbedacdcf	-0.42735144
59	0xbd5fa898	-0.054604143
60	0x3c275a6a	0.0102144275
61	0x3ecf64e7	0.4050667
62	0xbdeec537	-0.116587095
63	0x3debce94	0.11514011
64	0x3f37a9b9	0.7174335
65	0xbe77f858	-0.2421583
66	0xbdcc39a7	-0.09971934
67	0xbc450f35	-0.012027551
68	0x3e7eaa90	0.24869752
69	0x3eeaed6d	0.45884266
70	0xbf0921aa	-0.5356699
71	0xbe788f0f	-0.24273323
72	0x3e3dfb1a	0.18552819
73	0x3e822d02	0.25424963
74	0x3eaa5aee	0.332725
75	0x3edf3bd0	0.4360032
76	0x3e4f5da1	0.2025056
77	0xbf0d38e7	-0.5516495
78	0x3ea2bea7	0.3178608
79	0xbe89b4e3	-0.26895818
80	0xbf00c140	-0.50294876
81	0x3f2927e3	0.6607649
82	0x3e0b7882	0.13620189
83	0xbf19f483	-0.6013872
84	0x3eaa1be8	0.33224416
85	0xbe00e44f	-0.12587093
86	0x3e542752	0.20718125
87	0xbec57dde	-0.38572592
88	0xbdbc109c	-0.091828555
89	0xbf0b4a49	-0.54410225
90	0x3de495db	0.11161395
91	0x3e73c00b	0.23803727
92	0x3e1c2cbb	0.15251438
93	0x3e6019c4	0.21884829
94	0xbf3001c3	-0.6875269
95	0xbe2dc805	-0.16970833
96	0xbe24dc56	-0.16099676
97	0x3e9f940a	0.31167632
98	0xbf4567e1	-0.7711163
99	0x3e0f664e	0.1400387
100	0x3f106bb7	0.5641436
101	0x3d7be5af	0.06149834
102	0xbe9b0ac9	-0.30281666
103	0xbe2ecd98	-0.17070615
104	0xbf0a182e	-0.53943145
105	0x3db75d83	0.08953383
106	0xbef3b244	-0.47596943
107	0xbeb36e25	-0.3504497
108	0xbce131f9	-0.02748965
109	0xbd288c87	-0.041149642
110	0xbd7342d9	-0.059389923
111	0x3e3238ce	0.17404482
112	0xbef1ffd8	-0.47265506
113	0x3ef2bb05	0.4740831
114	0x3ef4d198	0.47816157
115	0xbe4986dc	-0.19680351
116	0x3cde4dad	0.027136648
117	0x3e9fe71f	0.3123102
118	0xbd2c1d45	-0.0420201
119	0x3cc3912e	0.023872938
120	0x3eb81013	0.35949764
121	0x3d31eeea	0.043440737
122	0xbe4d089e	-0.20022818
123	0x3f35b7b8	0.7098346
124	0xbe8b9e3f	-0.2726917
125	0xbe3b3382	-0.18281367
126	0xbe975e03	-0.29563913
127	0xbd373929	-0.044732247
128	0xbc3b21ad	-0.011421603
129	0xbf2fc96a	-0.6866671
130	0xbd967fe8	-0.07348615
131	0x3dc2db1b	0.09514447
132	0xbe8365c8	-0.2566359
133	0x3d360797	0.044440832
134	0x3e813d6a	0.25242168
135	0xbe8f8d49	-0.2803748
136	0x3d109a56	0.035303436
137	0xbe3918de	-0.18075892
138	0xbec801fd	-0.39064017
139	0x3e2f69b5	0.17130168
140	0x3e023afc	0.12717813
141	0x3e39f518	0.18159902
142	0x3f768b47	0.9630627
143	0xbc661a88	-0.0140444115
144	0xbe9c7b01	-0.30562595
145	0xbea18ab2	-0.3155113
146	0x3ee6a97c	0.4505118
147	0xbf6a3a7d	-0.91495496
148	0xbe82878f	-0.25494048
149	0xbdd44a8e	-0.10365783
150	0xbe492931	-0.1964462
151	0xbf1fce55	-0.6242421
152	0x3ec0045f	0.37503335
153	0xbe223b9d	-0.15843053
154	0x3e400fb0	0.18755984
155	0xbf2bc299	-0.6709381
156	0xbd1ea318	-0.038729757
157	0xbecf4a66	-0.4048645
158	0x3d624a00	0.055246353
159	0x3bc51c0f	0.0060153077
160	0xbe64df10	-0.22350717
161	0xbd028fac	-0.031875297
162	0xbf0cadb5	-0.54952556
163	0xbe8c4984	-0.27399838
164	0x3e138d14	0.14409286
165	0xbea091c8	-0.31361222
166	0xbd9232a6	-0.07138567
167	0x3eafdb02	0.34346777
168	0xbee0efae	-0.4393286
169	0x3dd68be8	0.10475904
170	0x3e8244d9	0.25443152
171	0xbf404cb9	-0.7511707
172	0x3f1e0553	0.61726874
173	0x3e66550d	0.22493382
174	0xbe96d1aa	-0.29456836
175	0x3eeb9968	0.46015477
176	0xbe1a6ad0	-0.15079808
177	0xbf03f6bf	-0.5154838
178	0x3f491cfb	0.78559846
179	0xbe62f340	-0.22163105
180	0x3dfd8618	0.12379092
181	0x3d1b141b	0.03786097
182	0x3ebafad8	0.36519504
183	0x3ee03226	0.4378826
184	0x3ec4b198	0.38416743
185	0x3f1242e9	0.57133347
186	0x3e1b6761	0.15176155
187	0xbd8363d3	-0.06415524
188	0xbed9c2c7	-0.42531416
189	0x3f6677f6	0.90026796
190	0x3edc497c	0.43024814
191	0x3ea35be5	0.31906047
192	0xbed1dc2d	-0.40988293
193	0xbdb3512e	-0.08755718
194	0xbd376aeb	-0.0447797
195	0xbf31864e	-0.6934556
196	0xbf05d6d6	-0.5228094
197	0x3e77c3c8	0.24195778
198	0xbecba559	-0.39774588
199	0x3d5ac9fb	0.05341528
200	0x3e4a1a39	0.19736566
201	0xbe064dd1	-0.13115622
202	0xbe4da5ee	-0.20082828
203	0xbe2e96d9	-0.17049731
204	0xbe762cc5	-0.24040516
205	0x3eb62b01	0.35579684
206	0xbf0cfa0b	-0.55069035
207	0x3f552fad	0.8327587
208	0x3dc408be	0.0957198
209	0xbe0be248	-0.13660538
210	0x3da5b0f2	0.0809039
211	0x3c9968d9	0.018726753
212	0x3d1bcfc5	0.03803994
213	0xbe84f18c	-0.25965536
214	0xbdc8d957	-0.09807079
215	0x3df8b9ec	0.12144837
216	0xbedfb297	-0.4369094
217	0x3e679fb6	0.22619519
218	0x3e93d91c	0.2887658
219	0xbebf896f	-0.3740954
220	0x3eab6d0e	0.3348164
221	0x3f38d722	0.72203267
222	0x3e7d8678	0.24758327
223	0xbd845751	-0.06461967
224	0xbf1c3e7a	-0.6103283
225	0x3e916fb4	0.28405535
226	0xbf17dd75	-0.5932229
227	0xbeaa4cbc	-0.3326167
228	0xbd9cbd7c	-0.07653329
229	0x3e70f10f	0.23529457
230	0xbdfdc99c	-0.123919696
231	0x3f0cdc76	0.55023897
232	0x3ecce7d5	0.40020624
233	0x3eaa6b53	0.33285007
234	0x3ea25a95	0.31709734
235	0xbeb5513c	-0.3541354
236	0x3ea4eb79	0.322109
237	0xbf128907	-0.5724034
238	0xbed74fd6	-0.42053097
239	0x3e7dd88a	0.24789634
240	0xbe8b1706	-0.27166003
241	0x3ee544c5	0.4477903
242	0xbee809c0	-0.4531994
243	0xbdeed79e	-0.116622195
244	0x3ed4dcf9	0.4157484
245	0xbf6f777f	-0.9354171
246	0x3f0283c3	0.509823
247	0xbefec27c	-0.49757755
248	0x3da5aced	0.080896236
249	0xbe82856c	-0.25492418
250	0xbec10677	-0.37700245
251	0xbc2fc9d9	-0.010729277
252	0x3ebbefce	0.36706394
253	0xbe85d431	-0.26138452
254	0xbe46a47e	-0.19398686
255	0x3ea94e84	0.33067715

net.0.bias f4 [64]
0	0x3eb8227b	0.35963807
1	0x3e0fdb4e	0.14048502
2	0x3f20baae	0.6278485
3	0x3e8d58ee	0.2760691
4	0xbdd9b1c8	-0.10629612
5	0x3e59c6b7	0.2126721
6	0x3e4f91c9	0.20270456
7	0x3ee4dd80	0.4470024
8	0xbe10ae45	-0.14128979
9	0xbf7516c0	-0.9573784
10	0xbef0f4d2	-0.47061783
11	0x3d6d42f5	0.057925183
12	0x3e275032	0.16339186
13	0xbe95adee	-0.2923426
14	0xbe760f94	-0.2402938
15	0x3e96d484	0.29459012
16	0x3eb86ad9	0.36019018
17	0x3ed0fae8	0.40816426
18	0xbe6b65ce	-0.22988054
19	0x3ef01750	0.46892786
20	0x3ebe820d	0.37208596
21	0xbee2923e	-0.442522
22	0x3f0e5c45	0.5560954
23	0xbd537074	-0.051620916
24	0x3d89659e	0.06708835
25	0x3ed0cab2	0.40779644
26	0xbf0b44a8	-0.54401636
27	0x3db3fb08	0.08788115
28	0x3f024302	0.50883496
29	0x3d4f1f13	0.050566744
30	0xbec75a8b	-0.38936266
31	0x3dd0482a	0.10170014
32	0xbeb31f05	-0.34984604
33	0xbed8701e	-0.4227304
34	0x3d8c314b	0.068453394
35	0x3ee33cb2	0.44382244
36	0x3e8f9a00	0.2804718
37	0x3e248f6b	0.16070335
38	0x3d12584a	0.03572873
39	0x3dfca101	0.123353966
40	0xbc95fefd	-0.018310064
41	0xbdf15fa8	-0.11785823
42	0xbcdba12e	-0.026810255
43	0xbe30cb3b	-0.17265026
44	0xbd7571e7	-0.05992308
45	0x3f03b93c	0.5145452
46	0xbee5144b	-0.44742045
47	0xbe06cfca	-0.13165203
48	0x3ef2b6cc	0.47405088
49	0x3e5f0113	0.21777754
50	0xbf01401a	-0.50488436
51	0xbf30763d	-0.6893042
52	0x3d0e2776	0.0347056
53	0xbe643deb	-0.22289245
54	0x3aaee4db	0.0013343351
55	0xbe213088	-0.1574117
56	0xbf0f51ee	-0.5598439
57	0xbf1de04b	-0.6167037
58	0x3e0331c3	0.12811951
59	0xbdc22cfe	-0.09481238
60	0x3dfc1843	0.12309315
61	0x3ea1839f	0.3154573
62	0x3dc7276e	0.097243175
63	0xbded120f	-0.1157571

net.2.weight f4 [64, 64]
0	0xbe387b9d	-0.18015905
1	0xbe1d968a	-0.15389457
2	0x3d63f7cd	0.055656243
3	0x3d9b437e	0.075812325
4	0xbc83fe52	-0.01611248
5	0xbd233608	-0.03984645
6	0x3cd85fea	0.026412923
7	0x3d76b134	0.060227588
8	0x3e363572	0.17793825
9	0x3e704c03	0.23466496
10	0x3db41662	0.08793332
11	0xbdc9f9d6	-0.098621055
12	0xbe145fdd	-0.14489694
13	0xbe0cae07	-0.13738261
14	0xbe853f05	-0.26024643
15	0xbe37e83b	-0.17959683
16	0x3e00269b	0.12514727
17	0xbc9c57f3	-0.019084906
18	0x3ef1a8ba	0.4719904
19	0xbec2000a	-0.37890655
20	0xbdc29658	-0.09501332
21	0xbd8274db	-0.06369945
22	0xbdbae652	-0.09125961
23	0x3e40604e	0.18786737
24	0x3ca987aa	0.020694572
25	0xbde36287	-0.11102777
26	0x3e2a3de0	0.16625166
27	0xbdf0d15a	-0.11758681
28	0xbe8013cc	-0.25015104
29	0x3e4c577c	0.19955248
30	0xbd09d121	-0.033646706
31	0xbcccf06f	-0.025016991
32	0xbe7bdfed	-0.2459714
33	0x3d86c155	0.06579844
34	0xbc29b1c4	-0.010357324
35	0xbe884af1	-0.26619676
36	0xbde76ad4	-0.11299673
37	0x3d8736c7	0.06602245
38	0x3e4366c1	0.19082166
39	0x3be95cbb	0.00712165
40	0x3dcfd2c0	0.10147619
41	0x3dccc2c4	0.09998086
42	0x3d2fefdf	0.04295337
43	0xbcbc05bf	-0.022951959
44	0x3d00c3ec	0.031436846
45	0xbdf98546	-0.12183623
46	0x3e889e0d	0.26683083
47	0x3ba70764	0.0050973166
48	0xbe74e977	-0.23917185
49	0xbe0756b0	-0.13216662
50	0x3ea89814	0.32928526
51	0x3edbedb5	0.42954794
52	0x3d986daa	0.07442792
53	0x3db4d651	0.0882994
54	0x3c3c1e8b	0.011481891
55	0x3e33b416	0.17549166
56	0x3e1b27b7	0.15151869
57	0x3e0ec472	0.13942125
58	0x3e0a7f5f	0.1352515
59	0xbd84bd30	-0.06481397
60	0xbdfe4f3a	-0.12417455
61	0x3dbc2a62	0.091877714
62	0xbe5360dc	-0.20642418
63	0xbcc6cf0a	-0.024268646
64	0xbee281ef	-0.44239756
65	0xbe9c765b	-0.30559048
66	0x3e5f1149	0.21783938
67	0x3e7d5146	0.24738035
68	0xbd2fd950	-0.042931855
69	0xbe26f888	-0.16305745
70	0xbe0b2bd7	-0.13590942
71	0xbd53a22d	-0.051668335
72	0xbd2ab6cd	-0.04167824
73	0x3e53ed56	0.20696005
74	0xbe118284	-0.14209944
75	0x3cdf0123	0.027222222
76	0xbded98b8	-0.116013944
77	0xbedd8d43	-0.43271837
78	0x3d196695	0.037451345
79	0xbc97b51c	-0.018518977
80	0xbe3b0544	-0.18263727
81	0xbf0254d4	-0.5091069
82	0x3e85614a	0.26050788
83	0x3e4ad3cc	0.19807357
84	0xbdfba190	-0.12286675
85	0xbe2c3664	-0.16817623
86	0xbc04505b	-0.008075799
87	0xbd9d5882	-0.07682897
88	0xbe38ebc9	-0.18058695
89	0xbe641161	-0.22272255
90	0xbccfe078	-0.02537559
91	0xbdac9cc2	-0.08428337
92	0xbdb71c3a	-0.08940931
93	0xbe7c21e9	-0.2462231
94	0xbb8110e2	-0.00393878
95	0x3c9ef254	0.01940266
96	0xbeae6678	-0.34062552
97	0x3dde7ca8	0.1086362
98	0xbe10576f	-0.14095853
99	0x3d9d34c0	0.07676077
100	0x3d162c88	0.036663562
101	0xbe59f442	-0.21284583
102	0xbdca90fd	-0.098909356
103	0xbd30bd45	-0.04314925
104	0xbd517092	-0.051132746
105	0x3e0aebed	0.13566561
106	0x3da0424b	0.078251444
107	0x3dbf8c6e	0.09352957
108	0xbe1a53b9	-0.15071
109	0xbeec1215	-0.46107545
110	0x3e60dc54	0.21959049
111	0x3c157257	0.009121499
112	0xbe2b853f	-0.16750048
113	0x3ce1ddb0	0.02757153
114	0xbc83c7cd	-0.016086483
115	0x3e7b4be3	0.24540667
116	0x3d1313c4	0.03590752
117	0x3e1a1d08	0.15050137
118	0xbda136b6	-0.078717634
119	0x3e38049c	0.17970508
120	0xbcd8a525	-0.026445935
121	0xb8f2353e	-0.00011549376
122	0x3d8c014b	0.06836184
123	0x3d2bca35	0.041940887
124	0x3e3ee546	0.18642148
125	0xbb4e82ae	-0.0031510997
126	0xbe230ef8	-0.15923679
127	0xbd6dce23	-0.058057915
128	0xbc882280	-0.016618013
129	0x3d5fe033	0.054657172
130	0x3e8a3497	0.26993248
131	0x3e6e3309	0.23261656
132	0x3d1c90d0	0.03822404
133	0xbdf29d87	-0.11846452
134	0xbd6cd9da	-0.057824947
135	0xbde062cb	-0.10956343
136	0xbc9a126e	-0.018807616
137	0xbe926b10	-0.28597307
138	0xbe612dd1	-0.21990134
139	0x3da90f83	0.08254912
140	0x3e2bbeeb	0.16772048
141	0x3e245317	0.16047321
142	0xbdd325cf	-0.10309946
143	0xbd4b02f9	-0.04956338
144	0xbab6f9c5	-0.0013959935
145	0x3d2ba784	0.041907802
146	0xbe6ad9aa	-0.22934595
147	0x3e381457	0.17976509
148	0x3d18ec01	0.037334446
149	0x3d0e4e6f	0.03474277
150	0x3e79f8bf	0.24411295
151	0x3e5071fc	0.20355982
152	0x3c93536a	0.01798411
153	0x3e2b0297	0.16700207
154	0xbe2a22ed	-0.16614886
155	0x3e70a5dd	0.23500772
156	0x3c30b3b8	0.010785036
157	0xbe9a8046	-0.3017599
158	0x3d991899	0.07475395
159	0x3e3b7b66	0.18308792
160	0xbdf978ef	-0.121812694
161	0x3ca5d242	0.02024186
162	0x3dd5f6b8	0.104474485
163	0x3d0b8e80	0.034071445
164	0x3dc59f77	0.09649556
165	0xbe299e24	-0.16564232
166	0x3e16e26b	0.14734809
167	0x3d55712c	0.052109882
168	0xbca49b58	-0.020093605
169	0x3c25a31d	0.01010969
170	0xbd45a79c	-0.048255548
171	0x3d9dfcdd	0.077142455
172	0xbc2e3c46	-0.0106344875
173	0x3d7764b8	0.060398787
174	0xbe056282	-0.13025859
175	0xbcadfdc9	-0.021239178
176	0x3e7097b3	0.23495369
177	0xbcfdf899	-0.03100233
178	0x3d9a146e	0.07523428
179	0x3d6c57fc	0.057701096
180	0xbdf4cb91	-0.1195289
181	0xbdb2d15e	-0.0873134
182	0x3e1a6b20	0.15079927
183	0x3d83c11e	0.064333186
184	0xbb830ef0	-0.0039995834
185	0xbe317d72	-0.1733301
186	0x3e488504	0.19581991
187	0x3e437698	0.19088209
188	0x3ddf5897	0.10905569
189	0xbc71f69e	-0.014768271
190	0xbd286416	-0.041111074
191	0x3d18361c	0.037160978
192	0x3cb68129	0.022278385
193	0x3d8a67e2	0.06758095
194	0x3e11f046	0.14251813
195	0x3d07fdc0	0.03320098
196	0xbe4a18b4	-0.19735986
197	0x3df288a7	0.118424706
198	0x3d89de4b	0.06731852
199	0x3dd03242	0.10165836
200	0x3ded25e6	0.11579494
201	0x3e188b8c	0.14896983
202	0x3ec32232	0.38112026
203	0x3d33ed9a	0.043927766
204	0x3e69b346	0.22822294
205	0x3d105049	0.035232816
206	0xbd8f9cce	-0.0701233
207	0x3c144b99	0.009051227
208	0x3eacc3f9	0.33743265
209	0xbce506be	-0.027957316
210	0xbc3572f4	-0.01107477
211	0x3e4166ea	0.18886915
212	0x3e68589e	0.22690055
213	0xbcef67de	-0.029224332
214	0x3e1c14c1	0.15242292
215	0x3cfe7698	0.03106241
216	0xbb8efbeb	-0.004363527
217	0x3e167804	0.1469422
218	0xbc52ca6b	-0.012865643
219	0x3d74fe3b	0.059812766
220	0x3dbc97e4	0.09208658
221	0x3e1dd5b8	0.15413558
222	0xbdb69279	-0.08914656
223	0x3cc8026d	0.02441522
224	0xbd861a85	-0.06548027
225	0x3d089130	0.033341587
226	0x3e95e89c	0.2927903
227	0x3e185fe9	0.14880337
228	0x3c9a3d57	0.018828077
229	0x3d8c60d3	0.06854405
230	0x3e0b5265	0.1360565
231	0xbd6101a8	-0.05493322
232	0x3e6e58df	0.23276089
233	0xbdadaf5e	-0.08480714
234	0x3dd36267	0.10321503
235	0xbcc50f9b	-0.024055293
236	0x3e872910	0.26398516
237	0xbbb269dd	-0.005444749
238	0x3dcdf921	0.10057283
239	0xbde4743c	-0.111549824
240	0x3e60eca4	0.21965271
241	0x3c176f36	0.009242823
242	0x3e2537b8	0.16134536
243	0x3e51caee	0.20487568
244	0x3df5bcaa	0.119988754
245	0xbc9f7c99	-0.019468592
246	0x3d8b1a6a	0.067921475
247	0xbe9719a7	-0.2951176
248	0x3e3cb4c6	0.18428335
249	0x3db218c6	0.086961314
250	0x3e054800	0.13015747
251	0x3e44f770	0.19235015
252	0xbab70715	-0.0013963903
253	0x3e19b647	0.1501094
254	0x3c935157	0.017983122
255	0x3d8d578e	0.06901465

net.2.bias f4 [64]
0	0xbe9febb9	-0.3123453
1	0x3dfea251	0.12433303
2	0x3dc97a72	0.09837808
3	0x3d3f3a74	0.046686605
4	0x3e18bc9b	0.14915697
5	0xbe17d943	-0.14828973
6	0x3e2770d2	0.16351631
7	0x3e0154e4	0.1263004
8	0xbc2d1493	-0.010563987
9	0x3e000ee7	0.12505685
10	0x3e2ec541	0.17067434
11	0xbe8faf8c	-0.2806362
12	0xbde9f6a5	-0.11423997
13	0x3dd18665	0.10230712
14	0x3de9ac99	0.114098735
15	0xbeaeffdf	-0.3417959
16	0xbc85af0f	-0.016318826
17	0x3e7d7bb2	0.24754217
18	0xbd636780	-0.055518627
19	0xbea67963	-0.32514486
20	0xbd9a4254	-0.07532182
21	0xbca36e8c	-0.019950174
22	0xba3c9161	-0.0007193294
23	0x3dd0a654	0.101879746
24	0x3c87256d	0.016497338
25	0xbd82ee40	-0.06393099
26	0x3d74d961	0.05977762
27	0x3c31c967	0.010851241
28	0x3e274d8f	0.1633818
29	0x3d95b201	0.07309342
30	0x3e074733	0.13210754
31	0x3dfd6212	0.12372221
32	0x3d0b8d9b	0.034070592
33	0xbe57f9f5	-0.21091445
34	0x3e1ef011	0.15521266
35	0xbb2ba550	-0.0026191063
36	0x3e12d4aa	0.14338937
37	0x3e869a41	0.2628956
38	0x3c45c3c0	0.012070596
39	0xbe16ef68	-0.14739764
40	0xbd258dda	-0.040418483
41	0xbd2392b3	-0.039934825
42	0xbe09f8e8	-0.13473856
43	0x3e704ba2	0.23466352
44	0xbd44549d	-0.047932256
45	0x3e2c5c0b	0.16831987
46	0x3e73f903	0.23825459
47	0x3e0043c2	0.12525848
48	0xbb9aa5c8	-0.0047194697
49	0xbdab74fc	-0.083719224
50	0x3d580079	0.052734826
51	0x3e353f7f	0.17700003
52	0xbce65903	-0.028118616
53	0xbe4101cb	-0.1884834
54	0x3e054616	0.13015017
55	0xbd9a9526	-0.07547979
56	0x3e08bf64	0.1335426
57	0xbda77438	-0.08176464
58	0xbe6cb870	-0.23117232
59	0x3b7b71de	0.003836743
60	0x3e382a2c	0.17984837
61	0x3dfec273	0.12439432
62	0x3db3f447	0.087868266
63	0x3e277946	0.16354856

fc_mu.weight f4 [3, 64]
0	0x3eb2b439	0.34903124
1	0x3e97f3e5	0.29678264
2	0x3e0f43dd	0.13990732
3	0x3e01bdff	0.12670134
4	0x3dded10e	0.10879718
5	0xbeafb4e6	-0.34317702
6	0xbe35c1b0	-0.17749667
7	0xbea24921	-0.31696418
8	0x3b03ffff	0.00201416
9	0xbebe0c14	-0.3711859
10	0x3e604e55	0.21904881
11	0x3d288177	0.041139092
12	0x3ddcce42	0.10781528
13	0x3d11ae90	0.035566866
14	0xbe855c07	-0.26046774
15	0x3e836fde	0.25671285
16	0xbe3947d8	-0.18093812
17	0x3e0e80a8	0.13916266
18	0xbe3d493e	-0.18484971
19	0x3e45d7e5	0.19320638
20	0xbe96a204	-0.29420483
21	0x3d9ab655	0.07554308
22	0xbcfb464b	-0.030673167
23	0x3eb6bddd	0.3569173
24	0x3e487324	0.19575173
25	0x3e6cee51	0.23137785
26	0xbe8c7140	-0.27430153
27	0xbe26cad8	-0.16288316
28	0x3d2494b5	0.04018088
29	0x3e33b29f	0.17548607
30	0xbd97389a	-0.07383843
31	0xbe1dcb19	-0.15409507
32	0x3f03ce97	0.51487106
33	0xbd8898a2	-0.066697374
34	0x3e6ad1d8	0.22931612
35	0x3dc41997	0.095751934
36	0xbd359d06	-0.044339202
37	0xbed025f6	-0.40653962
38	0xbb6f0e81	-0.003647715
39	0xbd880319	-0.06641216
40	0x3e08eb5b	0.13371031
41	0x3f0bbc14	0.5458386
42	0xbe190e65	-0.14946897
43	0xbd7eabff	-0.062175747
44	0xbe1cb76b	-0.15304343
45	0xbe47f84b	-0.1952831
46	0xbe607a22	-0.2192159
47	0xbe31fb48	-0.17381012
48	0xbeade26e	-0.33961815
49	0xbe6e4e57	-0.23272072
50	0xbd900bbe	-0.0703349
51	0x3e54092c	0.20706624
52	0xbdf37b0c	-0.11888704
53	0x3e9294c4	0.28629124
54	0xbf201cdc	-0.62544036
55	0xbd272123	-0.040803086
56	0xbdbeea46	-0.09322028
57	0xbe323737	-0.17403875
58	0xbd9c4be7	-0.07631665
59	0xbd744f61	-0.059646014
60	0x3dae3143	0.0850549
61	0xbdc1710b	-0.09445389
62	0xbea55cc1	-0.32297328
63	0xbc35e988	-0.0111030415
64	0x3e1b9303	0.151928
65	0xbe9b354e	-0.30314106
66	0xbe1bea60	-0.15226126
67	0x3e18d6e1	0.1492572
68	0x3dea3b00	0.114370346
69	0x3ebb809b	0.36621556
70	0xbc9e985a	-0.019359756
71	0x3dd12e9c	0.10213968
72	0x3e5ae05f	0.21374653
73	0xbc93797e	-0.018002268
74	0xbda53b66	-0.0806797
75	0xbf188541	-0.5957833
76	0xbe56b982	-0.20969203
77	0xbc180be0	-0.009280175
78	0xba380c0a	-0.0007020837
79	0x3ef0c990	0.4702878
80	0x3e1909aa	0.14945093
81	0x3e047c71	0.12938096
82	0x3dfe0393	0.124030255
83	0x3f034c63	0.5128843
84	0xbe6e1fcb	-0.23254316
85	0x3d9a2458	0.07526463
86	0x3e0652b1	0.13117482
87	0xbe4ac626	-0.1980215
88	0xbc084cb1	-0.008319066
89	0xbd180698	-0.037115663
90	0xbe26c74b	-0.16286962
91	0xbdbf5e09	-0.09344108
92	0x3e060c79	0.13090695
93	0xbe6ea399	-0.23304595
94	0x3edb9084	0.42883694
95	0x3de83ce7	0.11339741
96	0xbe9ce845	-0.30645958
97	0x3f8917da	1.0710404
98	0xbd185e25	-0.03719916
99	0xbed65b2f	-0.41866443
100	0xbdfdfd30	-0.12401807
101	0xbd76f62d	-0.060293365
102	0xbe5ca3ba	-0.21546832
103	0xbe661c1d	-0.22471662
104	0x3dbb4727	0.091444306
105	0x3e168bef	0.14701818
106	0x3e51d8e1	0.20492889
107	0xbe60bd95	-0.2194732
108	0xbea9774e	-0.33098835
109	0x3e01a4ce	0.12660524
110	0xbddd608a	-0.10809429
111	0xbe6bac75	-0.23015006
112	0xbde29cb2	-0.110650435
113	0xbea1238b	-0.3147243
114	0x3e595b98	0.21226346
115	0xbdd574f5	-0.104226984
116	0x3ee15ed9	0.44017676
117	0x3e6e7cd0	0.232898
118	0xbe7d38c4	-0.24728686
119	0xbe118da8	-0.14214194
120	0xbcb4dde9	-0.022078471
121	0x3c963e2a	0.018340189
122	0x3d9d7313	0.07687964
123	0xbe965578	-0.29362082
124	0xbd71cd57	-0.059033718
125	0xbf0d54fb	-0.55207795
126	0xbd173fa1	-0.036925916
127	0x3e1f8f2e	0.15581962
128	0x3eaee76d	0.3416094
129	0x3ed4f231	0.41591027
130	0xbce67fe6	-0.028137159
131	0xbe0e6ea7	-0.13909398
132	0xbde47857	-0.111557655
133	0xbe12341c	-0.1427769
134	0xbbcb60ef	-0.0062066237
135	0x3e8738ae	0.2641043
136	0xbf1a6c25	-0.60321265
137	0x3ea66aa1	0.32503226
138	0xbe0cfe0f	-0.1376879
139	0x3dca7f67	0.09887581
140	0x3ec02979	0.3753164
141	0xbe128177	-0.143072
142	0xbdc056ee	-0.093915805
143	0x3ddba136	0.10724108
144	0x3e4e886f	0.20169233
145	0x3eddf9d0	0.43354654
146	0xbe4ce23d	-0.20008178
147	0xbd8b988e	-0.06816207
148	0x3cd448c2	0.0259136
149	0x3ee7973e	0.45232576
150	0x3f017d89	0.50582176
151	0xbe7bd865	-0.24594267
152	0xbd803e5c	-0.06261894
153	0x3e91646c	0.28396928
154	0x3c902011	0.017593415
155	0xbe39a793	-0.1813033
156	0xbe14becd	-0.1452591
157	0xbddd5cd1	-0.10808719
158	0x3d5d2019	0.05398569
159	0x3f1ec5ae	0.62020385
160	0xbe123269	-0.14277042
161	0x3e0e1e8f	0.13878845
162	0x3e66ef1a	0.22552148
163	0xbd099eb2	-0.03359861
164	0x3dca31b4	0.09872761
165	0xbbd8ac3f	-0.00661233
166	0xbeabd60b	-0.3356174
167	0xbe01dd28	-0.1268202
168	0xbd84ea9e	-0.06490062
169	0x3eebbb30	0.4604125
170	0x3ee519bf	0.44746205
171	0xbcf1bef5	-0.02951
172	0x3e33fdf8	0.1757735
173	0xbeb9cc7c	-0.36288822
174	0x3e95cb30	0.29256582
175	0xbe90b49d	-0.28262797
176	0xbe8390e2	-0.25696474
177	0x3e2e1ebb	0.1700391
178	0xbce4cc3c	-0.027929418
179	0x3e8144bb	0.2524775
180	0xbdeb1eba	-0.1148047
181	0xbe2b8c6c	-0.16752785
182	0xbe929fed	-0.2863764
183	0x3d3904a8	0.045170456
184	0xbe17939b	-0.14802401
185	0x3f38b0a5	0.7214454
186	0x3f38e171	0.72218996
187	0xbdd777e9	-0.10520918
188	0xbecc6042	-0.3991719
189	0xbc8447db	-0.016147545
190	0x3d561f8e	0.052276187
191	0xbe0d4128	-0.13794386

fc_mu.bias f4 [3]
0	0x3e31b380	0.1735363
1	0x3d321591	0.0434776
2	0xbd8a2b0f	-0.06746494

fc_std.weight f4 [3, 64]
0	0x3df8bc6f	0.12145316
1	0x3e4ff89e	0.20309684
2	0xbeb64519	-0.35599592
3	0xbe34f8ee	-0.17673084
4	0xbe7bbb7b	-0.24583237
5	0x3e67a5a4	0.2262178
6	0xbeef9cd9	-0.46799353
7	0xbeada266	-0.33912963
8	0xbd9b409c	-0.07580683
9	0x3e934e4c	0.28770673
10	0xbeb985bd	-0.36234847
11	0x3e59a73c	0.21255201
12	0x3dab9db9	0.083796926
13	0xbe63c6b7	-0.22243772
14	0xbd17df75	-0.03707834
15	0x3ea7fc29	0.3280957
16	0xbebb035b	-0.36525998
17	0x3dbd783f	0.09251451
18	0x3eec736a	0.46181804
19	0x3e1402e8	0.14454234
20	0xbe1b2d37	-0.15153967
21	0xbcfd42a2	-0.030915562
22	0x3e8edaf5	0.27901426
23	0xbdf8505f	-0.121247046
24	0xbe1a5732	-0.15072325
25	0xbe2f7efb	-0.17138283
26	0xbe9f7ed1	-0.3115144
27	0xbd8cfe92	-0.06884493
28	0xbe0c2e85	-0.13689621
29	0xbda36be9	-0.079795666
30	0xbea5711c	-0.32312858
31	0xbe609ab1	-0.2193401
32	0xbdf7121b	-0.12064
33	0xbd913772	-0.070906535
34	0xbe633d10	-0.22191262
35	0x3de38c32	0.111107245
36	0x3d882cb6	0.06649153
37	0xbef8c97f	-0.4859123
38	0xbedf13f4	-0.4356991
39	0x3f27f07b	0.6560132
40	0x3d132fe5	0.035934348
41	0x3e905d3b	0.2819613
42	0x3e813485	0.25235382
43	0xbeb71e2d	-0.3576521
44	0xbe65169a	-0.22371903
45	0xbeb7f8df	-0.3593206
46	0xbee8226d	-0.45338765
47	0xbec9d13a	-0.3941744
48	0x3e16ba6e	0.14719555
49	0x3e51dcd8	0.20494401
50	0xbd59a7af	-0.05313843
51	0xbe0aef34	-0.13567811
52	0xbdd04564	-0.10169485
53	0x3d040a37	0.032236304
54	0x3ebe3ce6	0.37155837
55	0xbda7b04c	-0.08187923
56	0xbe8ddd28	-0.2770779
57	0x3db6599b	0.0890381
58	0x3eade99e	0.33967298
59	0x3e484507	0.19557582
60	0xbe1e8608	-0.15480816
61	0x3e919581	0.28434375
62	0xbea0238e	-0.31277126
63	0xbe61b1d3	-0.22040491
64	0x3d4633e7	0.04838934
65	0x3d68ec2c	0.056865856
66	0xbeba442f	-0.36380145
67	0xbe3fa25e	-0.18714282
68	0xbe1e794a	-0.15475956
69	0x3eb0c903	0.3452836
70	0xbe89f2ac	-0.26942956
71	0xbe2a48a7	-0.16629277
72	0xbe0967c6	-0.13418493
73	0x3efb2a4b	0.49055704
74	0xbec49212	-0.38392693
75	0xbe001e92	-0.12511662
76	0x3d81522f	0.063145034
77	0xbe8b920b	-0.2725986
78	0xbd88b161	-0.06674457
79	0x3be70dcc	0.0070512053
80	0xbed10857	-0.40826675
81	0xbd36c9d1	-0.04462606
82	0x3e06a041	0.1314707
83	0x3dae7711	0.08518804
84	0x3e8ffb25	0.28121296
85	0x3da511b8	0.0806002
86	0x3e254149	0.16138186
87	0xbeaa1687	-0.33220312
88	0xbe907aa9	-0.28218582
89	0xbeb0920b	-0.34486422
90	0xbdf27c28	-0.11840087
91	0xbe66fb0f	-0.22556709
92	0xbe1440da	-0.14477864
93	0x3aca0fda	0.0015416101
94	0xbe13df9d	-0.1444077
95	0xbe72ccd2	-0.23710945
96	0xbee8a1eb	-0.45436034
97	0x3ecd9786	0.40154666
98	0xbe946b5d	-0.28988162
99	0x3e55a5a6	0.20863971
100	0xbd875b84	-0.06609252
101	0xbef9ab1e	-0.48763365
102	0xbe8164e2	-0.2527228
103	0x3e3a1c1c	0.18174785
104	0xbdbcc9aa	-0.09218152
105	0x3de7d2de	0.113195166
106	0x3ea9091c	0.33014762
107	0xbf0a25a9	-0.53963715
108	0xbdf189ca	-0.11793859
109	0xbdf396e4	-0.118940145
110	0xbed2ed2a	-0.41196567
111	0xbf1e4512	-0.6182414
112	0xbd4a9daa	-0.049466766
113	0x3d8c0cae	0.06838356
114	0xbe1b56e6	-0.15169868
115	0xbe41e945	-0.18936642
116	0x3c440fda	0.01196667
117	0x3dc7fe64	0.09765318
118	0x3df94610	0.121715665
119	0x3defb05a	0.11703558
120	0xbe8a535e	-0.2701673
121	0x3e81e0f4	0.25366938
122	0x3e38c737	0.18044744
123	0x3e466142	0.19373038
124	0xbed121db	-0.40846142
125	0x3e4990ab	0.19684093
126	0xbde5f41b	-0.112282
127	0xbe0540f4	-0.13013059
128	0xbc7d805c	-0.015472498
129	0x3edf266c	0.43584
130	0xbe7a18a8	-0.24423468
131	0xbe182066	-0.14856109
132	0xbe6b23ce	-0.22962877
133	0x3e45ccbb	0.1931638
134	0xbee5ead8	-0.44905734
135	0xbe1472ea	-0.14496961
136	0x3d76b2a5	0.060228962
137	0x3e1b10b5	0.15143092
138	0xbe87c4c7	-0.26517317
139	0x3e3c1b3c	0.18369764
140	0x3d70db0a	0.058802642
141	0xbe5bd2fa	-0.214672
142	0xbe250e22	-0.16118672
143	0x3e98749e	0.29776472
144	0xbeb1ae6e	-0.34703392
145	0x3de90ae2	0.11379029
146	0x3d002169	0.031281862
147	0x3d85c541	0.06531764
148	0xbd6b7d51	-0.057492558
149	0xbdef8f27	-0.11697226
150	0x3e81ccf6	0.25351685
151	0xbe74e24c	-0.2391445
152	0xbe7132f9	-0.23554601
153	0xbcbf3b93	-0.023343837
154	0xbe85a13d	-0.26099578
155	0xbc452ef1	-0.0120351175
156	0xbe6506f6	-0.22365937
157	0xbd4ac718	-0.049506277
158	0xbe3f2d4d	-0.18669625
159	0xbe47644f	-0.19471858
160	0xbda0a738	-0.078443944
161	0x3de9ef45	0.1142259
162	0xbe769a37	-0.24082266
163	0x3de51c13	0.11186995
164	0xbe07514f	-0.1321461
165	0xbe9828bd	-0.2971858
166	0xbe8702fc	-0.26369464
167	0x3ee77073	0.4520298
168	0xbe74d572	-0.23909548
169	0x3e7e1532	0.24812773
170	0x3e527bdd	0.20555063
171	0xbebc6088	-0.36792397
172	0xbe8d07d4	-0.27545035
173	0xbec26f99	-0.37975767
174	0xbead8e9c	-0.33897865
175	0xbeab1e48	-0.3342154
176	0x3ddc05c4	0.10743287
177	0x3e276901	0.1634865
178	0xbd164ff7	-0.036697354
179	0xbe8739fa	-0.2641142
180	0xbc063264	-0.008190725
181	0x3e51f8d2	0.20505074
182	0x3e496f5b	0.19671385
183	0x3d6a397c	0.057183728
184	0xbebbb807	-0.3666384
185	0x3ead6176	0.3386342
186	0x3f35de2f	0.7104215
187	0x3e1f5bbd	0.15562339
188	0xbdd73785	-0.105086364
189	0x3df5a1d3	0.11993756
190	0xbe467a1c	-0.19382519
191	0xbe1123e7	-0.14173852

fc_std.bias f4 [3]
0	0xbf113686	-0.5672382
1	0xbf320764	-0.6954253
2	0xbf12daf7	-0.57365364
