0 课件原版/DQN_whole.pth (torch, 21781 bytes, 16 tensors)

weight f4 [128, 4]
000000 d9 dd 82 3f f0 be fc be 11 df 8f c0 cd 77 d4 bf
       1.0223953 -0.49364424 -4.49598 -1.659906
000010 b9 40 ca be 47 bd f3 3e b4 9c 60 40 3f d4 b3 3f
       -0.39502504 0.47605345 3.5095644 1.4049147
000020 29 8c c2 3e ef db ad 3d 09 2d 33 c0 fd 6d 17 be
       0.3799756 0.08489215 -2.7996237 -0.14788051
000030 e1 aa 8c bf 5b cc 3a bf b6 dc a5 3f 3d b4 c8 be
       -1.0989648 -0.7296807 1.2957981 -0.3920001
000040 10 47 3d 40 de 26 c4 be a7 3c 5d bf 77 2b 6e bf
       2.9574623 -0.38310903 -0.86420673 -0.9303507
000050 70 2b 99 be 41 d7 e9 3e ed be dd 3a 62 ec 40 3f
       -0.29915953 0.45672038 0.0016917862 0.7536069
000060 f9 97 71 bc ed 4c fa bd cc ca f3 bf c7 37 bb be
       -0.014745706 -0.12221704 -1.9046264 -0.36565992
000070 ee f4 74 bf 68 68 d0 be 97 84 45 3f 0d 20 53 be
       -0.95686233 -0.40704656 0.7715544 -0.20617695
000080 aa 8c a3 bf 6e f8 b5 bf 49 ea 1a bc d1 6e 87 bf
       -1.2777302 -1.421644 -0.009455272 -1.0580693
000090 4a c9 2d c0 cd 11 e3 3f 5b b5 50 40 28 30 aa 3f
       -2.7154107 1.7739807 3.261069 1.3295946
0000a0 aa d9 a7 3e 50 4a be be e1 fc 20 c0 f9 09 d7 be
       0.32783252 -0.3716607 -2.5154345 -0.41999796
0000b0 30 95 63 c0 83 c5 1a 3f 02 3b a8 3f ef 07 c7 3e
       -3.5559807 0.6045763 1.3143008 0.3887324
0000c0 31 d4 9e bf ea e3 98 3f 6d 7e 6a 40 5f 75 1b 3f
       -1.2408506 1.1944554 3.6639664 0.6072597
0000d0 d0 7b ae 3f 04 9d e8 bf a7 ee 98 c0 fe f3 9e bf
       1.3631535 -1.8172917 -4.7791324 -1.241821
0000e0 ae 08 93 bf 1f 87 c2 bf 2c 0b 20 be 22 ca 5a bf
       -1.1487024 -1.5197486 -0.15629262 -0.8546468
0000f0 32 9b d3 be 99 88 23 3f b7 52 27 40 3f c8 44 3f
       -0.41329342 0.63880306 2.6144235 0.7686805
000100 0b 6d 8d bf bb 73 90 bf a6 02 50 3f 52 ef 21 bf
       -1.1048902 -1.1285318 0.8125404 -0.632558
000110 44 f6 48 40 64 77 56 bd 8d f1 94 be 28 f9 a1 be
       3.1400309 -0.052359954 -0.2909054 -0.31635404
000120 54 bb 22 be 25 32 1c 3f d4 11 d1 be 6b b3 18 3f
       -0.15891773 0.61014014 -0.40833914 0.5964877
000130 a8 7d 56 bf 04 a6 b3 bf ec 26 6b 3f 7f 82 1b bf
       -0.83785486 -1.4035039 0.91856265 -0.60745996
000140 62 ab 89 3f 0b 2c a8 bf 85 5f 99 c0 ba 4c 9d bf
       1.0755427 -1.3138441 -4.79291 -1.228904
000150 ff 58 5a 3d 60 00 ff bd 63 0a 2c bd 47 1f 41 be
       0.05330753 -0.124512434 -0.042002093 -0.18859588
000160 02 5a 6c bf 04 4e 10 3f 28 18 75 40 d3 a8 84 3f
       -0.9232484 0.5636904 3.8295994 1.0364021
000170 6b 5b 55 3e d5 46 ba 3d a6 af 1d c0 9c b3 1c be
       0.20835654 0.090955414 -2.4638457 -0.1530289
000180 e1 b7 69 3f 3c 7e 9c bf 02 3d ab c0 09 e7 fa bf
       0.912962 -1.2226024 -5.3511972 -1.9601756
000190 e9 9d 2b 40 44 ea fe be f3 49 82 bf 83 c0 b2 bf
       2.681513 -0.49788105 -1.0178818 -1.3965
0001a0 81 74 1c bf 52 89 9e bf e3 8f d7 c0 2b 23 8e bf
       -0.6111527 -1.2385657 -6.7363143 -1.1104482
0001b0 43 c2 a1 bf 41 cc a3 be 40 b5 ac 3f 6d 22 9f be
       -1.2637409 -0.3199177 1.3492813 -0.31080952
0001c0 1f 3f 05 40 e1 dc 97 be 7d ac 5f 3c 42 66 89 bf
       2.0819776 -0.29660705 0.013651964 -1.0734332
0001d0 e3 fe ba bf 86 76 8f bf b7 27 59 3f 49 c4 12 bf
       -1.4609035 -1.1208045 0.84826225 -0.5733076
0001e0 21 58 a0 bf a7 73 00 3f 06 c6 5f 40 46 9d 13 3f
       -1.2526895 0.5017647 3.4964614 0.57661855
0001f0 a0 b1 09 bf 4f f5 e1 bf f8 c0 9e c0 4a 3b ad bf
       -0.5378666 -1.7652987 -4.9610558 -1.3533719
000200 60 da a8 bf 9a 12 93 bf 0c 30 08 3f cf fe 6a bf
       -1.3191643 -1.1490052 0.53198314 -0.9179506
000210 29 1c bd bf 18 3b 2e bf e0 a4 87 3f 1b c7 a9 be
       -1.4774219 -0.6805892 1.0597191 -0.33159718
000220 be c0 6f be ea 3d a5 3e c1 c6 ac 40 6f 0c b7 3f
       -0.23413369 0.322738 5.399262 1.430067
000230 ec 29 33 3f 41 47 80 3f b7 39 4e bf 6f d8 fe be
       0.6998584 1.0021745 -0.80556816 -0.497745
000240 52 c5 88 c0 d7 8c 96 3e 0a 82 4e 3f 22 9f 85 3e
       -4.274087 0.29404327 0.80667174 0.2609797
000250 a7 80 99 bf 1a 5e 9f bf 70 76 3d 3f 40 64 10 bf
       -1.1992387 -1.2450593 0.74008846 -0.5640297
000260 3e 1f 6f 3e 5a 51 cc 3f f8 9d fe 3f 01 1f 89 be
       0.23351762 1.5962327 1.9891958 -0.26781467
000270 2e b0 9f 3e 8a 52 c8 be f0 7b d8 bd 1c 9a 4f be
       0.31189102 -0.39125472 -0.10570514 -0.20273632
000280 cb e2 3e 3e 32 4b 6f be 09 99 3c c0 41 ba b0 be
       0.18641202 -0.23368528 -2.9468405 -0.345171
000290 b2 70 7b c0 e7 06 a9 3e 0e 53 1d bf 9e 9e 73 3e
       -3.9287534 0.3301308 -0.61454856 0.23790976
0002a0 1c 34 35 bf bd 1e 7a be d0 4c 46 c0 e7 a4 25 bf
       -0.7078264 -0.24425788 -3.0984383 -0.64704746
0002b0 e1 6e 18 be 4b d2 aa be ec c1 88 bf e8 28 47 3f
       -0.14886047 -0.33363566 -1.068418 0.77796793
0002c0 8c 8d 3e be 05 74 ca bf c2 4e a7 c0 e6 8b a2 bf
       -0.18608683 -1.5816656 -5.228364 -1.2698944
0002d0 4b 8d be bf ec 62 44 bf 61 5f b4 3f fb 57 12 bf
       -1.4886869 -0.7671344 1.4091607 -0.571655
0002e0 96 60 f9 3f 82 89 3f 3f 3b 75 f8 bf e0 3c 42 3e
       1.9482601 0.74819195 -1.9410776 0.18968534
0002f0 e9 af 55 c0 89 cb 1c 3f 5f 41 21 be 0f 53 d4 3e
       -3.3388617 0.6124807 -0.15747593 0.4146962
000300 47 9c c3 3f f5 ce dc be ef 52 23 c0 72 90 8f bf
       1.5282067 -0.43126646 -2.5519369 -1.1215956
000310 04 d7 b5 be 26 75 26 3f 1b e8 09 c0 c0 88 be 3c
       -0.35515606 0.65022504 -2.1547916 0.023258567
000320 62 e0 0a be 27 b9 67 3e 3b 66 1f c0 6c 16 14 be
       -0.13562158 0.22629224 -2.4906147 -0.14461678
000330 6c 09 a3 bf 24 09 99 3e 30 07 f7 3e 28 76 e8 bd
       -1.273725 0.29889786 0.4824767 -0.113506615
000340 44 f6 ea 3d 4c 3f 71 bc 8f 97 05 3d b0 46 26 bd
       0.11472753 -0.014724564 0.03261524 -0.040594757
000350 ca 87 a6 bf 34 05 4c bf e5 2b 1a 3f 6f 0c eb be
       -1.301019 -0.7969544 0.6022323 -0.45907924
000360 c3 92 93 bf bd 44 b6 bf a0 0a 9f c0 43 ee 67 bf
       -1.1529163 -1.4239727 -4.970047 -0.90597934
000370 4c 5f a4 3f b7 de 94 bf 70 7b 1e c0 44 3b 87 bf
       1.2841582 -1.1630467 -2.476284 -1.0564961
000380 59 fa 0d be 19 67 4d 3e f4 b2 35 c0 ce e3 bb bd
       -0.13865031 0.2005886 -2.8390474 -0.0917431
000390 80 a6 92 bf 98 18 14 bd f6 de 2c 3f 5e 7b 68 be
       -1.1457062 -0.036156267 0.6752771 -0.22703311
0003a0 99 ff 8c 3e c2 72 00 3f 3c fd ef bf 7a 5b 1c bf
       0.27538756 0.50175107 -1.8749156 -0.6107708
0003b0 a4 2f d2 be 67 17 88 bf 65 a0 e0 be 22 f2 f9 3e
       -0.41051972 -1.0632142 -0.4387237 0.48817545
0003c0 e2 c2 3f 40 40 e6 8e be 95 cb 56 3f 90 31 83 be
       2.9962697 -0.27910042 0.8390439 -0.2562375
0003d0 4a 72 a1 3e f3 eb d9 be 1b bc d6 3e c0 09 b6 be
       0.31532508 -0.42562827 0.41940388 -0.35554314
0003e0 8a 4a 85 c0 a6 35 a0 3e d3 75 dc be f1 8b 0f 3e
       -4.165349 0.3129093 -0.43058643 0.14018227
0003f0 e1 bf a0 bf ea 49 e7 bf 93 86 80 bf 95 b9 39 bf
       -1.2558557 -1.8069432 -1.0041069 -0.725488

bias f4 [128]
000000 7c eb 6c 3f 9e 62 8b bf 70 e1 c2 3f 19 05 59 3f
       0.9254682 -1.088947 1.5225048 0.84773403
000010 65 34 8c be 01 c9 58 3f 29 06 e0 3f d5 66 31 3f
       -0.27383724 0.8468171 1.750188 0.69297534
000020 19 c2 16 3f f7 c1 78 be a5 4c cd 3f 7a 3f 01 be
       0.5888992 -0.24292742 1.6039015 -0.1262187
000030 f2 21 0f c0 31 42 d5 bf f6 32 06 3f ef a5 3f 3f
       -2.2364469 -1.6660825 0.5242151 0.7486257
000040 15 e2 e6 3e 55 68 e0 bd e6 8f 77 3f d1 d9 5e 3f
       0.45094362 -0.109574 0.96703947 0.8705111
000050 3a a5 07 c0 ed 27 e4 be 8b 60 13 c0 3b 40 d9 3f
       -2.1194596 -0.4456171 -2.3027675 1.6972727
000060 ca 47 bf bf 3a d9 b5 bf dc 25 07 bd 14 41 63 3f
       -1.4943783 -1.4206917 -0.03299509 0.88771176
000070 85 27 ca bf c1 b0 01 3f 37 31 7f 3f e6 ff 3f 3e
       -1.579331 0.5066033 0.9968447 0.18749961
000080 10 7c 03 3f 96 f2 89 3f c5 b0 93 bf a7 a9 a0 3f
       0.5136118 1.0777156 -1.1538321 1.2551774
000090 d6 df ba 3c d2 b3 83 3f 12 09 9f bf d2 6a f5 be
       0.022811811 1.0289252 -1.2424643 -0.4793306
0000a0 86 cf f2 3f 94 d2 f1 3c d1 bf c4 3f 84 c6 2a 3f
       1.8969581 0.029519357 1.5371038 0.6670916
0000b0 90 5c 93 3e bf e5 f2 3e 64 a4 a2 3f 12 89 bf 3c
       0.28781557 0.47440907 1.2706418 0.02338079
0000c0 d5 ed 1f bf 4b bd 30 bf 1d 70 f6 3f a5 7e 28 3f
       -0.6247228 -0.6903884 1.9252964 0.65818244
0000d0 2b 9d cc be 79 d5 83 3f 88 71 4c 3d 15 a7 92 3e
       -0.3996366 1.0299522 0.04991296 0.28643098
0000e0 e1 c1 e6 3f f2 49 35 3f cd 98 db 3f e6 41 93 3f
       1.8027917 0.70815957 1.7156006 1.1504486
0000f0 79 3d 6c bd ea 80 c7 be 83 c0 01 3d 9b 0f 0e 3f
       -0.057675812 -0.3896554 0.031677734 0.5549256
000100 32 59 69 3f d9 da fa bf 28 3d 00 3f d0 b1 ad 3f
       0.91151726 -1.9598037 0.5009332 1.3569889
000110 6d 57 73 bf 7d f4 df bf a1 91 fd bf 46 be 8b 3f
       -0.95055276 -1.7496487 -1.9810067 1.0917442
000120 ca 54 34 3b 04 a8 72 bd ff a3 d6 3e 8a e3 63 3f
       0.0027516359 -0.059242263 0.41921994 0.8901907
000130 76 40 9a 3f 5d 8a 69 3f 33 0b d6 3e 6c b7 5f bf
       1.2050922 0.9122675 0.4180542 -0.87389255
000140 d8 53 e7 be 1a 00 b5 3f d4 e4 f4 3e 9d 48 58 3f
       -0.45181155 1.4140656 0.47830832 0.844858
000150 aa fa 3e 3f 75 dc 8b 3f b4 c8 84 3f 9a d0 75 3f
       0.74601233 1.0926653 1.037375 0.96021426
000160 30 f5 d7 be 27 7d d7 be 5e f9 d1 bf af af d7 3f
       -0.4217925 -0.4208767 -1.6404226 1.6850489
000170 30 85 c7 3c 04 4e 95 bf 52 40 a7 3f 27 a4 5d bf
       0.024355501 -1.1664433 1.3066504 -0.865786
000180 80 c0 87 3f 79 8a 7c 3e 4f 14 d5 3e 85 b3 8f bf
       1.0605621 0.24662198 0.41617057 -1.122666
000190 1b 9d 6c 3f 01 9b ea be c5 ec c2 3f 3d 93 aa 3f
       0.92427224 -0.45821384 1.5228506 1.3326184
0001a0 43 f9 16 3f 8b 89 3e 3f eb 1c 5c 3f 1e 2e fd 3e
       0.58974093 0.74428624 0.85981625 0.49449247
0001b0 be 89 8b bd d2 98 7a 3f 63 87 e9 bc 03 eb 4f bf
       -0.068133816 0.97889435 -0.02850694 -0.81217974
0001c0 5e a6 32 3f 26 9a ca bf 09 d5 e5 3f d1 a1 36 3d
       0.69785106 -1.5828292 1.7955638 0.044587914
0001d0 c7 7a a7 bf ba aa 34 3f b3 91 da 3f 7d 05 0c 3f
       -1.3084344 0.7057301 1.7075714 0.54695874
0001e0 f1 3b 64 3f a6 be 6f 3f 86 87 ed 3e 40 e8 e2 3e
       0.89153963 0.9365028 0.4639246 0.44317818
0001f0 fa 37 10 c0 29 73 14 bf e8 1e c4 bf c7 b9 69 3f
       -2.2534165 -0.5798822 -1.5321932 0.912991

weight f4 [2, 128]
000000 71 14 cc bf 8e 07 d3 bf db 87 b3 3f 28 ad 1c 3f
       -1.5943738 -1.648668 1.4025835 0.61201715
000010 d9 6e 05 c0 f4 cd e9 3e 65 a1 b2 3f c4 26 0a 3f
       -2.0848906 0.45664942 1.3955504 0.539654
000020 8d da 84 3f 6d 4d 14 c0 a8 7c c1 3f 29 4d 30 bf
       1.0379196 -2.3172257 1.5116167 -0.6886774
000030 68 e9 88 3f 0b ef ab c0 5e 4d 37 3f 18 09 66 bf
       1.069623 -5.37293 0.7160243 -0.89857626
000040 5b 1d 26 3f 85 bd ca bf 18 b3 89 3e b8 32 4f 3f
       0.6488854 -1.5839087 0.2689445 0.80936766
000050 da bc 8e c0 6c 06 9d bc cd c1 9c 3f 67 3f b6 3f
       -4.460553 -0.019168101 1.2246643 1.4238099
000060 b1 17 3e c0 c8 78 27 c0 4e 50 fc bf 62 55 29 3f
       -2.970196 -2.616747 -1.9712007 0.6614591
000070 93 39 d2 bf 73 d1 43 3f 12 44 e1 bf d7 d8 f5 bf
       -1.642382 0.7649147 -1.7598898 -1.9206799
000080 06 4c 1f 3f 64 51 54 3f 33 54 2f c0 a8 9f 96 3f
       0.6222538 0.8293669 -2.739514 1.1767473
000090 49 8c cc bf 15 50 5c 3f c1 40 96 40 78 ea c3 bc
       -1.5980312 0.86059695 4.6954045 -0.023915514
0000a0 f9 f3 be 3f f2 38 b7 bf 10 01 bb 3f 09 da 0a 3f
       1.4918205 -1.4314253 1.4609699 0.54238945
0000b0 5b b9 dc bf f2 ab f2 3e 8a a8 9b 3f a8 29 f9 bf
       -1.7244066 0.4739681 1.2160809 -1.9465837
0000c0 50 67 fa bf b9 e6 b8 bf 99 7d ec 3f 71 d8 93 3e
       -1.9562778 -1.4445411 1.8475829 0.2887607
0000d0 28 2b 1f 3d 43 6f 53 3f 4c 1e 57 c0 5a 26 2c bf
       0.038859516 0.82591647 -3.3612242 -0.6724602
0000e0 6b e4 b3 3f 3f 90 af 3e b6 c0 98 3f df 81 3a 3f
       1.4054083 0.3428974 1.1933811 0.7285442
0000f0 d0 86 ec bf 99 56 de bc eb d4 05 c0 1c 68 3b 3f
       -1.8478642 -0.027140902 -2.0911205 0.73205733
000100 c5 5f 13 c0 03 7a d4 bf 4a b8 0d 3f 7b 9f 99 3f
       -2.3027203 -1.6599735 0.5535933 1.2001795
000110 3b 80 20 bf 84 ef a5 be a0 24 9c be 5a 29 ad 3f
       -0.62695664 -0.32409298 -0.30496693 1.3528244
000120 f6 46 ca bf 23 00 31 bf 11 ab 6c 3f 59 01 4d 3f
       -1.5802906 -0.69140834 0.92448527 0.8008018
000130 e4 32 2c 3f 0c f6 51 3f 40 d3 13 3f 53 cc 7a 40
       0.6726515 0.8201606 0.57744217 3.918721
000140 4f cf 92 3d fc b5 c3 3f eb b3 76 3f d4 82 e9 3e
       0.07168447 1.5289912 0.96368283 0.45607626
000150 a3 b8 51 bf 88 bc 39 3f e5 39 23 3f 01 7b 15 3f
       -0.8192236 0.725533 0.63760215 0.58390814
000160 7e 1b 5b 3d 59 43 cb 3b a3 8d 69 bf 87 a9 a0 3f
       0.053493015 0.006203097 -0.91231745 1.2551736
000170 4a fd 9a bf 43 af 3b c0 7c 02 d0 3f 20 b7 23 40
       -1.2108548 -2.9325721 1.6250758 2.558052
000180 17 0a b6 bf 9c ee 8c bf f9 e6 d3 3e 58 6b da bf
       -1.4221829 -1.1010318 0.41387156 -1.7064009
000190 4a fe a5 3e ac ed 53 c0 5f 5b b6 3f 90 db 91 3f
       0.3242057 -3.3113813 1.4246634 1.139513
0001a0 4a 4c 87 3e b9 ce 19 3f bb c6 66 3f eb fc 61 3f
       0.2642539 0.6008106 0.9014699 0.8827655
0001b0 48 9e fd bf a2 5b 63 3f 85 5a 30 bf 46 bf 9a bf
       -1.9813929 0.88811696 -0.6888812 -1.2089622
0001c0 8c d2 58 3f 35 10 a0 bf 4e 24 a5 3f 78 78 42 c0
       0.8469627 -1.2504946 1.2901704 -3.0386028
0001d0 f4 f5 e7 bf 1e 0c d1 3e 2b fb b1 3f 97 07 47 3f
       -1.8121934 0.40829557 1.3904775 0.77745956
0001e0 c1 d7 08 3f 6c 79 09 3f 08 83 1e 3f e1 7a 12 3f
       0.53454214 0.537009 0.6191869 0.5721875
0001f0 be a7 b3 3f b3 21 00 bf 69 66 d8 bd e2 06 26 3f
       1.4035566 -0.5005142 -0.10566408 0.6485425
000200 c9 84 5f bf 10 b7 6d bf 97 9c 98 3f bc 6e 03 3f
       -0.8731199 -0.92857456 1.1922787 0.5134084
000210 d4 fb cf bf 78 4d 54 3f 06 8d 84 3f d4 93 ad 3e
       -1.6248727 0.8293071 1.0355537 0.33901846
000220 fb 7d 8b 3f 96 3e 9a bf ad d5 97 3f b9 a5 f9 bf
       1.0897821 -1.205035 1.1862084 -1.95037
000230 25 cd fb bf 11 74 ed bf 58 13 58 3f b6 78 46 3f
       -1.967198 -1.8551046 0.84404516 0.7752794
000240 bc 45 35 3f 7f bc cc bf 59 5c 04 3f 71 4a f3 3e
       0.7080953 -1.5995024 0.5170341 0.47517732
000250 f9 f5 37 3f 8c e3 c9 bc 1e a7 26 c0 64 17 35 3f
       0.718597 -0.024644636 -2.60395 0.70738816
000260 37 3d 47 c0 15 cc b5 bf d7 a3 56 bf 20 65 35 3f
       -3.1131113 -1.4202906 -0.8384375 0.7085743
000270 d4 fa 2a 3d a0 58 4f 3f b9 3c df bf f3 d9 43 c0
       0.041743115 0.80994606 -1.7440406 -3.0601776
000280 c7 01 45 3f a0 d6 2d 3f d4 c4 39 bf 4f 9e 9f 3f
       0.76955837 0.67905617 -0.7256596 1.2470187
000290 cb 22 db bf 93 96 4c 3f 8d af 79 40 20 b7 51 bd
       -1.7119993 0.7991726 3.9013398 -0.051200032
0002a0 6e d3 91 3f f1 c0 e8 bf e0 d9 a4 3f 42 48 0d 3f
       1.1392648 -1.8183881 1.287899 0.5518838
0002b0 bc cc d3 bf 8e 24 56 3f a1 e3 c4 3f 9e e7 9f bf
       -1.6546855 0.8364953 1.5381967 -1.2492559
0002c0 cc a6 65 c0 a8 a2 84 bd 32 27 48 3f 77 c6 33 3f
       -3.5883055 -0.06476337 0.7818481 0.7022471
0002d0 2f 75 f7 ba 2f 0c 18 3f ac 05 1f c0 b5 18 a2 bf
       -0.0018879528 0.5939359 -2.4847212 -1.266379
0002e0 e5 4a 92 3f 3e 0a 0c 3f 5d 87 85 3f 4e 41 14 3f
       1.1429106 0.5470313 1.0431935 0.5791215
0002f0 00 00 b7 bf a0 44 5a 3b 4e 37 9a bf ba af 61 3f
       -1.4296875 0.0033305064 -1.2048128 0.8815876
000300 4a 51 47 bf d7 f7 03 3f f3 b6 18 3f d7 f7 b1 3f
       -0.7785841 0.5155005 0.5965416 1.390376
000310 fe d9 f9 bf fd 3f ef bf 13 c4 d1 bf 29 d6 c3 3f
       -1.9519651 -1.8691403 -1.6387962 1.5299731
000320 82 4f dc bf ae f8 4f c0 39 1a 5b 3f 59 e0 52 3f
       -1.7211764 -3.2495532 0.8558689 0.8237358
000330 74 38 28 3f f9 25 38 3f c5 6f 19 3f 4a 1b 55 40
       0.6571114 0.7193294 0.5993617 3.3297906
000340 90 48 85 3b 92 fe a0 3f 5e df 88 3f 06 63 4c 3f
       0.004067488 1.2577689 1.0693166 0.798386
000350 98 d9 de 3d f3 97 0d 3f d8 a0 56 3f 66 2b 1b 3f
       0.108813465 0.5530998 0.8383918 0.60613096
000360 80 bd b9 3a 2e 73 bb 3c 10 99 3e bf 40 7d 77 3f
       0.0014170855 0.02288207 -0.74452305 0.9667549
000370 93 96 db bf 4f c0 9e c0 17 8b c3 3f fd de fe 3f
       -1.7155327 -4.960975 1.5276822 1.9911801
000380 88 6e 07 3f 90 7a d2 bf 44 04 06 3f 30 af 1b c0
       0.5290303 -1.6443653 0.5235026 -2.4325676
000390 84 ce 0f 3f c6 40 94 bc 00 6e 97 3f 37 4a a9 3f
       0.5617449 -0.018097293 1.1830444 1.3225774
0003a0 fe 4e 53 3f 19 35 01 3f 89 ab 13 3f 3e 68 8e 3f
       0.8254241 0.50471646 0.57683617 1.1125562
0003b0 85 5a dc bf 53 32 79 3f 0a 6d e4 bf 04 9a 2f bf
       -1.7215124 0.97342414 -1.7845776 -0.68594384
0003c0 2f d0 d2 be 57 9b 06 c0 46 f7 86 3f c1 cc 16 c0
       -0.41174456 -2.1032312 1.0544212 -2.3562472
0003d0 25 ac 8d bf 9e 87 e4 3e 25 02 8b 3f b3 30 8b 3f
       -1.1068159 0.44634718 1.086003 1.0874237
0003e0 7c ac 16 3f 90 68 64 3f ea 74 72 3f 53 07 55 3f
       0.5885694 0.8922205 0.94709647 0.832143
0003f0 7b ea e5 bf fa 95 f6 3f 5b e7 e5 bf 60 75 4d 3f
       -1.7962183 1.9264519 -1.7961229 0.80257225

bias f4 [2]
000000 15 10 b2 3e 59 92 26 3f
       0.34777895 0.6506706

weight f4 [128, 4]
000000 ae e3 82 3f e3 f8 fc be 3e f1 8f c0 fa 9a d4 bf
       1.0225732 -0.49408635 -4.4981985 -1.6609795
000010 bd 40 ca be 45 bd f3 3e b4 9c 60 40 3f d4 b3 3f
       -0.39502516 0.4760534 3.5095644 1.4049147
000020 7a 7a c1 3e 0e 72 ae 3d 92 ef 32 c0 7f 17 16 be
       0.37788755 0.08517848 -2.7958722 -0.146574
000030 e9 2d 8d bf e9 7f 3a bf e4 62 a6 3f ca 3a c8 be
       -1.1029636 -0.72851425 1.2998929 -0.39107352
000040 fe 4a 3d 40 29 9f c3 be 2d 3c 5d bf 6e 88 6e bf
       2.9577022 -0.38207367 -0.86419946 -0.93176925
000050 5b 9b 9a be 20 a0 e9 3e 4f e7 a6 3b e3 44 41 3f
       -0.30196652 0.45629978 0.005093492 0.7549574
000060 5e c6 88 bc dc 7d f9 bd c8 4e f3 bf a2 8e ba be
       -0.016696151 -0.12182209 -1.9008417 -0.36436945
000070 3e e8 75 bf 93 b9 cf be 9e 87 46 3f 27 43 52 be
       -0.960575 -0.4057127 0.77550685 -0.20533429
000080 5d 02 a4 bf 03 07 b6 bf 58 45 c3 bb 24 41 87 bf
       -1.2813221 -1.422089 -0.005959194 -1.0566754
000090 f3 92 2d c0 00 d2 e2 3f 62 87 50 40 6a 25 aa 3f
       -2.712094 1.7720337 3.258263 1.3292668
0000a0 d4 d2 a6 3e 56 1c be be 1d bf 20 c0 0b 60 d6 be
       0.32582724 -0.37130994 -2.5116646 -0.4187015
0000b0 a6 52 63 c0 cf d8 1a 3f 25 f0 a7 3f 5f 3a c6 3e
       -3.5519195 0.60487074 1.3120161 0.3871641
0000c0 31 d4 9e bf ea e3 98 3f 6d 7e 6a 40 5f 75 1b 3f
       -1.2408506 1.1944554 3.6639664 0.6072597
0000d0 d0 7b ae 3f 04 9d e8 bf a7 ee 98 c0 fe f3 9e bf
       1.3631535 -1.8172917 -4.7791324 -1.241821
0000e0 db 82 93 bf b5 8b c2 bf 40 2f 1c be af 73 5a bf
       -1.1524309 -1.5198885 -0.152524 -0.8533277
0000f0 50 56 d4 be 8e 12 23 3f 48 37 27 40 92 bc 44 3f
       -0.414721 0.6370019 2.612749 0.76850235
000100 7b e3 8d bf 30 80 90 bf 64 e9 50 3f a5 97 21 bf
       -1.1085047 -1.128912 0.81606126 -0.63122016
000110 51 fc 48 40 4a 96 51 bd 72 0d 95 be 19 c2 a2 be
       3.1404002 -0.051168717 -0.2911182 -0.3178871
000120 3b 9a 25 be cd 13 1c 3f 38 5f cf be 9b 0a 19 3f
       -0.16172116 0.60967714 -0.40502334 0.5978181
000130 a2 49 57 bf 7a c0 b3 bf e1 e4 6b 3f a2 1e 1b bf
       -0.8409673 -1.4043114 0.92146116 -0.60593617
000140 62 ab 89 3f 0b 2c a8 bf 85 5f 99 c0 ba 4c 9d bf
       1.0755427 -1.3138441 -4.79291 -1.228904
000150 ff 58 5a 3d 60 00 ff bd 63 0a 2c bd 47 1f 41 be
       0.05330753 -0.124512434 -0.042002093 -0.18859588
000160 02 5a 6c bf 04 4e 10 3f 28 18 75 40 d3 a8 84 3f
       -0.9232484 0.5636904 3.8295994 1.0364021
000170 91 ca 53 3e a9 9e bb 3d 45 72 1d c0 a6 76 1b be
       0.20682742 0.091611214 -2.4600995 -0.1518198
000180 e1 b7 69 3f 3c 7e 9c bf 02 3d ab c0 09 e7 fa bf
       0.912962 -1.2226024 -5.3511972 -1.9601756
000190 0b 9c 2b 40 78 a9 fe be 72 64 82 bf df e6 b2 bf
       2.681399 -0.4973867 -1.0186903 -1.3976706
0001a0 01 fa 1b bf 22 6a 9e bf d6 a4 d7 c0 09 50 8e bf
       -0.6092835 -1.2376139 -6.7388716 -1.1118175
0001b0 de 4a a2 bf 77 73 a3 be f8 34 ad 3f bf a1 9e be
       -1.2679098 -0.3192403 1.353179 -0.30982777
0001c0 fc 35 05 40 d3 ed 97 be 6d d2 3f 3c 73 7c 89 bf
       2.08142 -0.29673633 0.011707884 -1.0741104
0001d0 97 80 bb bf 5a 44 8f bf d1 48 5a 3f 62 84 12 bf
       -1.4648618 -1.1192734 0.8526736 -0.5723325
0001e0 2e c9 9f bf f9 87 00 3f 11 8e 5f 40 20 4c 13 3f
       -1.248327 0.5020748 3.493046 0.5753803
0001f0 ef bd 08 bf 60 ee e1 bf 81 dd 9e c0 23 64 ad bf
       -0.53414816 -1.7650871 -4.964539 -1.3546184
000200 f1 5f a9 bf 56 e6 92 bf 48 4f 09 3f 22 bb 6a bf
       -1.3232404 -1.1476543 0.536366 -0.9169179
000210 77 9a bd bf e1 f2 2d bf 4a 26 88 3f d5 48 a9 be
       -1.4812764 -0.6794873 1.0636685 -0.3306338
000220 be c0 6f be ea 3d a5 3e c1 c6 ac 40 6f 0c b7 3f
       -0.23413369 0.322738 5.399262 1.430067
000230 d1 90 32 3f 97 49 80 3f a6 47 4d bf 56 24 fe be
       0.6975222 1.0022458 -0.8018745 -0.49637097
000240 8b a5 88 c0 a7 d2 95 3e 5a 9d 4d 3f 13 37 85 3e
       -4.270208 0.29262277 0.80318224 0.2601858
000250 05 05 9a bf 55 3c 9f bf 11 7f 3e 3f 67 1f 10 bf
       -1.2032782 -1.2440287 0.7441264 -0.56297916
000260 78 87 70 3e 4e e4 cc 3f 9f 2a ff 3f a8 34 8a be
       0.23489177 1.6007173 1.9934882 -0.269933
000270 2e b0 9f 3e 8a 52 c8 be f0 7b d8 bd 1c 9a 4f be
       0.31189102 -0.39125472 -0.10570514 -0.20273632
000280 ed db 3c 3e 8a e9 6e be 20 5b 3c c0 a3 10 b0 be
       0.1844327 -0.23331276 -2.9430618 -0.34387693
000290 ac 2f 7b c0 0c 57 a8 3e 5a 44 1e bf 9c c7 72 3e
       -3.9247847 0.32878911 -0.61823046 0.23708957
0002a0 ff c1 35 bf 39 db 79 be 76 0e 46 c0 a6 4d 25 bf
       -0.7099914 -0.24400033 -3.0946326 -0.6457161
0002b0 71 d2 1a be 7d ce aa be fa 46 88 bf dc 8c 47 3f
       -0.1511934 -0.33360663 -1.064666 0.7794931
0002c0 39 02 3b be 6d 61 ca bf ea 6a a7 c0 f5 bc a2 bf
       -0.18262567 -1.5810982 -5.231801 -1.2713915
0002d0 66 16 bf bf ef 22 44 bf 13 ea b4 3f c7 15 12 bf
       -1.492871 -0.76615804 1.4133934 -0.5706448
0002e0 bd 3c f9 3f 55 87 3f 3f 7c 4c f8 bf 95 ae 43 3e
       1.9471661 0.74815875 -1.9398341 0.19109567
0002f0 74 77 55 c0 68 51 1c 3f a8 c8 24 be 48 02 d4 3e
       -3.3354158 0.61061716 -0.1609217 0.4140799
000300 ba a7 c3 3f 6c 46 dc be 05 4d 23 c0 f7 be 8f bf
       1.5285561 -0.43022478 -2.551576 -1.1230153
000310 04 d7 b5 be 26 75 26 3f 1b e8 09 c0 c0 88 be 3c
       -0.35515606 0.65022504 -2.1547916 0.023258567
000320 b9 4c 0c be ec 7a 68 3e 15 29 1f c0 ae e0 12 be
       -0.13701142 0.22703141 -2.4868824 -0.14343521
000330 01 91 a3 bf ae e7 98 3e 8a d7 f8 3e 82 12 e6 bd
       -1.2778627 0.29864258 0.48601943 -0.11233999
000340 44 f6 ea 3d 4c 3f 71 bc 8f 97 05 3d b0 46 26 bd
       0.11472753 -0.014724564 0.03261524 -0.040594757
000350 f7 02 a7 bf e2 b2 4b bf 80 2f 1b 3f 06 8d ea be
       -1.304778 -0.7956983 0.60619354 -0.45810717
000360 ba 20 93 bf 1f 57 b6 bf 9a 28 9f c0 38 27 68 bf
       -1.1494362 -1.4245337 -4.9737062 -0.90684843
000370 97 70 a4 3f 4e d6 94 bf c7 a3 1e c0 84 3f 87 bf
       1.284686 -1.1627901 -2.4787462 -1.0566258
000380 b4 14 10 be ec bb 4d 3e 02 75 35 c0 61 36 b9 bd
       -0.14070398 0.20091218 -2.8352666 -0.09043575
000390 97 31 93 bf 34 66 13 bd 4e d9 2d 3f db 5e 67 be
       -1.1499509 -0.03598614 0.67909706 -0.22594778
0003a0 27 ea 8b 3e 09 84 00 3f 89 82 ef bf ad 05 1c bf
       0.27327082 0.5020147 -1.8711711 -0.6094616
0003b0 b4 7b d3 be 83 0f 88 bf e0 94 de be 7c cd fa 3e
       -0.41305315 -1.0629734 -0.43472958 0.48984897
0003c0 8d c6 3f 40 61 67 8e be dd a5 56 3f 09 ed 83 be
       2.9964936 -0.27813247 0.8384684 -0.2576678
0003d0 4a 72 a1 3e f3 eb d9 be 1b bc d6 3e c0 09 b6 be
       0.31532508 -0.42562827 0.41940388 -0.35554314
0003e0 49 2f 85 c0 3a 22 9f 3e 83 5b de be 4d fd 0e 3e
       -4.162022 0.310808 -0.43429193 0.13963814
0003f0 95 3a a1 bf ea 4c e7 bf 2b 09 80 bf fe 62 39 bf
       -1.2596003 -1.8070347 -1.0002798 -0.72416675

bias f4 [128]
000000 7f 1a 6d 3f 9e 62 8b bf f3 eb c2 3f 60 38 59 3f
       0.92618555 -1.088947 1.5228256 0.84851646
000010 98 79 8b be b0 c6 58 3f a7 12 e0 3f 8d 9c 31 3f
       -0.27241206 0.84678173 1.7505692 0.693795
000020 3c e9 16 3f 38 8a 7b be 52 58 cd 3f 74 fa 03 be
       0.5894964 -0.24564445 1.6042578 -0.12888509
000030 f2 21 0f c0 31 42 d5 bf ec 65 06 3f a6 67 3f 3f
       -2.2364469 -1.6660825 0.5249927 0.7476753
000040 4d 35 e7 3e c9 45 dd bd 52 8c 77 3f 1e e4 5e 3f
       0.45157853 -0.10804326 0.96698487 0.8706683
000050 3a a5 07 c0 ed 27 e4 be 8b 60 13 c0 67 51 d9 3f
       -2.1194596 -0.4456171 -2.3027675 1.6977967
000060 ca 47 bf bf 04 c9 b5 bf f7 85 07 bd 8e 65 63 3f
       -1.4943783 -1.420197 -0.033086743 0.88826835
000070 d8 2d ca bf bf 02 02 3f cb 30 7f 3f b4 63 3f 3e
       -1.579524 0.5078544 0.9968383 0.18690377
000080 dc c8 03 3f 30 0c 8a 3f c5 b0 93 bf 48 b1 a0 3f
       0.5147836 1.0784969 -1.1538321 1.2554102
000090 fe db a7 3c 36 cd 83 3f 85 8a 9e bf d2 6a f5 be
       0.020490643 1.0297 -1.2386023 -0.4793306
0000a0 99 db f2 3f 77 a1 e1 3c eb c9 c4 3f 8b d3 2a 3f
       1.8973266 0.027542813 1.537412 0.6672904
0000b0 6f 1e 93 3e 3e 73 f3 3e 23 85 a2 3f 61 ff ab 3c
       0.28734156 0.4754886 1.269688 0.020995798
0000c0 6a a7 1f bf 4b bd 30 bf c9 82 f6 3f 64 8f 28 3f
       -0.6236483 -0.6903884 1.9258662 0.65843797
0000d0 2b 9d cc be 36 f1 83 3f bc b3 48 3d c9 2f 94 3e
       -0.3996366 1.0307987 0.048999533 0.28942707
0000e0 19 cd e6 3f 2c 63 35 3f eb a2 db 3f 77 4b 93 3f
       1.8031341 0.7085445 1.7159094 1.1507405
0000f0 f6 79 66 bd ea 80 c7 be 52 1c f3 3c da 45 0e 3f
       -0.056268655 -0.3896554 0.02967659 0.55575335
000100 0e 2a 69 3f d9 da fa bf 93 6d 00 3f 2c 97 ad 3f
       0.91079795 -1.9598037 0.50167197 1.3561759
000110 dc 82 73 bf 7d f4 df bf a1 91 fd bf 18 a2 8b 3f
       -0.9512155 -1.7496487 -1.9810067 1.0908842
000120 52 8d 14 39 1b f4 63 bd 8a 08 d7 3e 07 11 64 3f
       0.00014167026 -0.05565272 0.41998702 0.8908848
000130 0a 4a 9a 3f 26 c6 69 3f 19 a4 d6 3e 02 e2 5e bf
       1.2053845 0.91317976 0.41922072 -0.8706361
000140 d8 53 e7 be a6 f2 b4 3f e0 4a f5 3e 6f 47 58 3f
       -0.45181155 1.413655 0.47908688 0.84484
000150 e2 c3 3e 3f f1 f7 8b 3f 1b d8 84 3f 9e fd 75 3f
       0.74517643 1.0935041 1.037845 0.96090114
000160 30 f5 d7 be 27 7d d7 be 5e f9 d1 bf c7 bb d7 3f
       -0.4217925 -0.4208767 -1.6404226 1.685418
000170 74 ed b6 3c bf 45 95 bf 9d 21 a7 3f 03 ef 5c bf
       0.022330023 -1.166191 1.3057133 -0.863022
000180 67 a2 87 3f 7a 58 7f 3e 6e 7c d5 3e db 9d 8f bf
       1.0596436 0.24936095 0.41696495 -1.1220049
000190 6e 9c 6c 3f c1 de ea be a4 f7 c2 3f fc 72 aa 3f
       0.9242619 -0.45873073 1.5231824 1.331634
0001a0 64 2d 17 3f 4d bf 3e 3f 40 55 5c 3f 1b c6 fd 3e
       0.59053636 0.7451065 0.8606758 0.49565205
0001b0 84 02 8b bd 15 d2 7a 3f e4 02 fd bc 03 eb 4f bf
       -0.06787589 0.9797681 -0.030885167 -0.81217974
0001c0 59 9e 32 3f 26 9a ca bf 20 e0 e5 3f 93 bc 35 3d
       0.6977287 -1.5828292 1.7959023 0.04436929
0001d0 c7 7a a7 bf 6d cf 34 3f 6a 9d da 3f 66 4e 0c 3f
       -1.3084344 0.70629007 1.7079289 0.54807127
0001e0 50 67 64 3f ec be 6f 3f ff 24 ee 3e 7b 41 e3 3e
       0.8922014 0.936507 0.465126 0.44385895
0001f0 fa 37 10 c0 0d 79 14 bf e8 1e c4 bf ed e2 69 3f
       -2.2534165 -0.5799721 -1.5321932 0.91361886

weight f4 [2, 128]
000000 12 20 cc bf 8e 07 d3 bf d0 98 b3 3f 99 f0 1c 3f
       -1.5947287 -1.648668 1.403101 0.6130462
000010 11 68 05 c0 ce 83 ea 3e 56 b5 b2 3f 01 73 0a 3f
       -2.0844767 0.45803684 1.3961589 0.5408173
000020 71 ea 84 3f ad 1c 14 c0 62 8a c1 3f 09 cb 2f bf
       1.0384046 -2.3142502 1.5120356 -0.6866918
000030 68 e9 88 3f 0b ef ab c0 56 6f 37 3f e1 90 65 bf
       1.069623 -5.37293 0.7165426 -0.8967419
000040 49 49 26 3f 6a b0 ca bf c6 4a 8a 3e ac 53 4f 3f
       0.64955574 -1.5835087 0.27010173 0.8098705
000050 da bc 8e c0 6c 06 9d bc cd c1 9c 3f 1a 53 b6 3f
       -4.460553 -0.019168101 1.2246643 1.424411
000060 b1 17 3e c0 20 6d 27 c0 84 6c fc bf 08 a7 29 3f
       -2.970196 -2.6160355 -1.9720616 0.66270494
000070 dd 1e d2 bf 98 04 44 3f 32 0b e1 bf c4 eb f5 bf
       -1.6415669 0.7656951 -1.7581542 -1.9212575
000080 3e 72 1f 3f 66 9a 54 3f 33 54 2f c0 01 b3 96 3f
       0.62283695 0.83048093 -2.739514 1.1773378
000090 59 51 cc bf 68 81 5c 3f 2b 77 96 40 78 ea c3 bc
       -1.5962325 0.8613496 4.702047 -0.023915514
0000a0 00 05 bf 3f df ff b6 bf 53 13 bb 3f 3a 23 0b 3f
       1.4923401 -1.4296836 1.4615272 0.54350626
0000b0 0a d1 dc bf 8a 35 f3 3e 70 b3 9b 3f c8 e9 f8 bf
       -1.7251294 0.47501785 1.2164135 -1.9446344
0000c0 db 55 fa bf b9 e6 b8 bf d8 94 ec 3f 64 9e 94 3e
       -1.9557451 -1.4445411 1.8482924 0.29027092
0000d0 28 2b 1f 3d a7 af 53 3f 44 20 57 c0 fc 23 2c bf
       0.038859516 0.826899 -3.3613443 -0.6724241
0000e0 1e fb b3 3f 87 3f b0 3e 54 d4 98 3f b6 b2 3a 3f
       1.406101 0.34423468 1.1939797 0.7292894
0000f0 a2 78 ec bf 99 56 de bc 92 b8 05 c0 b1 8a 3b 3f
       -1.8474314 -0.027140902 -2.0893903 0.732585
000100 5f 69 13 c0 03 7a d4 bf 2d ed 0d 3f d3 a8 99 3f
       -2.3033063 -1.6599735 0.55440027 1.2004646
000110 a2 3a 20 bf 84 ef a5 be a0 24 9c be cb 38 ad 3f
       -0.62589467 -0.32409298 -0.30496693 1.3532957
000120 94 06 ca bf 37 f1 30 bf 7f ca 6c 3f fd 47 4d 3f
       -1.5783257 -0.69118065 0.92496485 0.8018797
000130 91 63 2c 3f bd 1c 52 3f df f9 13 3f c4 d1 7a 40
       0.67339426 0.820751 0.5780315 3.919053
000140 4f cf 92 3d 06 c6 c3 3f 18 ce 76 3f a9 f5 e9 3e
       0.07168447 1.5294807 0.96408224 0.45695236
000150 4b 4a 51 bf 99 ff 39 3f ac 8e 23 3f b8 cb 15 3f
       -0.8175399 0.72655636 0.63889575 0.58513975
000160 7e 1b 5b 3d 59 43 cb 3b a3 8d 69 bf cc ba a0 3f
       0.053493015 0.006203097 -0.91231745 1.2557006
000170 4a c3 9a bf 8c a3 3b c0 ee 12 d0 3f 0e cb 23 40
       -1.2090847 -2.931857 1.6255777 2.5592685
000180 6a d6 b5 bf 5c ee 8c bf e5 4e d4 3e 52 88 da bf
       -1.4206059 -1.1010242 0.41466442 -1.7072852
000190 05 a3 a6 3e 7a ee 53 c0 74 6e b6 3f c4 e3 91 3f
       0.3254625 -3.3114305 1.4252458 1.1397634
0001a0 5b ee 87 3e fd 0a 1a 3f 2b e7 66 3f 15 2e 62 3f
       0.26549038 0.60173017 0.90196484 0.88351566
0001b0 b4 8c fd bf 98 80 63 3f 72 e1 2f bf 46 bf 9a bf
       -1.9808564 0.88868093 -0.6870338 -1.2089622
0001c0 ec 1c 59 3f 35 10 a0 bf 8b 35 a5 3f 10 82 42 c0
       0.84809756 -1.2504946 1.2906965 -3.0391884
0001d0 f4 f5 e7 bf de b6 d1 3e 79 09 b2 3f 42 44 47 3f
       -1.8121934 0.4095983 1.3909141 0.7783853
0001e0 b1 24 09 3f 79 d9 09 3f 93 ac 1e 3f 44 ad 12 3f
       0.5357161 0.5384746 0.6198208 0.5729563
0001f0 be a7 b3 3f ff 79 fd be 69 66 d8 bd 21 52 26 3f
       1.4035566 -0.49507138 -0.10566408 0.6496907
000200 65 48 60 bf 10 b7 6d bf 43 76 98 3f 42 e6 03 3f
       -0.87610465 -0.92857456 1.1911091 0.5152322
000210 c5 21 d0 bf 41 51 54 3f 5e 78 84 3f 9b 86 ae 3e
       -1.6260306 0.82936484 1.0349233 0.3408707
000220 43 c6 8b 3f 00 cb 99 bf 51 b4 97 3f d6 2b f9 bf
       1.091988 -1.2015076 1.1851903 -1.9466503
000230 25 cd fb bf 11 74 ed bf ca 9c 58 3f 1f 93 46 3f
       -1.967198 -1.8551046 0.8461424 0.7756824
000240 a6 dc 35 3f 4b e3 cc bf d1 43 04 3f 60 18 f4 3e
       0.7103981 -1.6006864 0.5166598 0.47674847
000250 f9 f5 37 3f 8c e3 c9 bc 1e a7 26 c0 18 db 34 3f
       0.718597 -0.024644636 -2.60395 0.7064681
000260 37 3d 47 c0 b1 d6 b5 bf 5c 83 56 bf bc df 35 3f
       -3.1131113 -1.4206144 -0.8379419 0.71044517
000270 3c 23 2b 3d b0 f7 4f 3f 0f 0c df bf f3 ce 43 c0
       0.04178165 0.81237316 -1.7425555 -3.0595062
000280 31 9e 45 3f 86 4e 2e 3f d4 c4 39 bf fc 62 9f 3f
       0.77194506 0.6808857 -0.7256596 1.2452083
000290 4a ab da bf 33 06 4d 3f e6 96 79 40 20 b7 51 bd
       -1.7083523 0.80087584 3.899835 -0.051200032
0002a0 12 b8 91 3f 29 4a e8 bf 00 e1 a4 3f 60 59 0d 3f
       1.1384299 -1.8147632 1.2881165 0.552145
0002b0 d2 e3 d3 bf 60 d0 56 3f 43 a1 c4 3f 08 70 9f bf
       -1.65539 0.83911705 1.5361713 -1.2456064
0002c0 28 b0 65 c0 a8 a2 84 bd d5 01 48 3f b4 50 34 3f
       -3.5888767 -0.06476337 0.78127795 0.70435643
0002d0 2f 75 f7 ba c3 7e 18 3f 9b e0 1e c0 f9 77 a2 bf
       -0.0018879528 0.59568423 -2.4824588 -1.2692863
0002e0 84 38 92 3f f4 8a 0c 3f e8 61 85 3f 8e 68 14 3f
       1.1423497 0.54899526 1.0420504 0.5797204
0002f0 43 26 b7 bf a0 44 5a 3b df bf 99 bf 51 30 62 3f
       -1.4308552 0.0033305064 -1.201168 0.88354975
000300 a7 0a 48 bf d7 f7 03 3f f7 44 19 3f 36 b2 b1 3f
       -0.78141254 0.5155005 0.59870857 1.3882511
000310 2c e5 f9 bf fd 3f ef bf 13 c4 d1 bf cc 98 c3 3f
       -1.9523063 -1.8691403 -1.6387962 1.5281005
000320 c8 d7 db bf d2 0e 50 c0 4e 9e 5b 3f 0c 59 53 3f
       -1.7175226 -3.2509046 0.8578843 0.8255775
000330 f9 5f 28 3f 7b 96 38 3f ff 10 1a 3f c0 63 55 40
       0.6577144 0.72104615 0.60182184 3.3342133
000340 90 48 85 3b 00 bd a0 3f d6 1f 89 3f 66 2b 4c 3f
       0.004067488 1.2557678 1.071284 0.7975372
000350 b1 23 df 3d d3 0c 0e 3f 8a 1e 57 3f f4 a7 1b 3f
       0.108954795 0.5548832 0.84030974 0.6080315
000360 80 bd b9 3a 2e 73 bb 3c 10 99 3e bf c6 1b 77 3f
       0.0014170855 0.02288207 -0.74452305 0.96526754
000370 b8 1f db bf 55 bf 9e c0 ac 4d c3 3f 5e 75 ff 3f
       -1.7119055 -4.960856 1.5258079 1.9957693
000380 fd 6b 07 3f 06 c8 d2 bf 56 96 06 3f 82 d2 1b c0
       0.5289915 -1.6467292 0.52573144 -2.4347234
000390 50 cd 0f 3f 98 d9 67 bc bb 4c 97 3f b6 04 a9 3f
       0.56172657 -0.0141509995 1.1820291 1.3204563
0003a0 4c ba 53 3f 31 a9 01 3f d9 13 14 3f 63 b9 8e 3f
       0.8270614 0.5064879 0.57842785 1.1150326
0003b0 20 83 dc bf a6 a4 79 3f 36 f5 e3 bf 04 9a 2f bf
       -1.7227516 0.9751686 -1.7809207 -0.68594384
0003c0 be 6f d3 be 57 9b 06 c0 75 d0 86 3f 0e bc 16 c0
       -0.4129619 -2.1032312 1.0532366 -2.355228
0003d0 25 ac 8d bf 02 88 e5 3e 9e d8 8a 3f c1 83 8b 3f
       -1.1068159 0.44830328 1.0847356 1.0899583
0003e0 6b 28 17 3f 05 8c 64 3f 48 15 73 3f 10 a2 55 3f
       0.5904605 0.8927615 0.9495435 0.8345041
0003f0 7b ea e5 bf 21 79 f6 3f 5b e7 e5 bf 4b f1 4d 3f
       -1.7962183 1.9255716 -1.7961229 0.8044631

bias f4 [2]
000000 2c 79 b2 3e 9c 6d 26 3f
       0.34858072 0.65011

exp_avg f4 [128, 4]
000000 20 33 e3 bd ae c1 19 be 62 c6 75 bc 04 73 92 bc
       -0.11093736 -0.15015289 -0.015000911 -0.01787711
000010 cd 62 8e b3 a0 4b 1d b3 98 07 99 31 7f 2d 1d 33
       -6.630362e-08 -3.662319e-08 4.4537494e-09 3.659579e-08
000020 f6 e6 aa bd 53 c2 01 3e ba d6 a0 3c 9e c6 2e 3d
       -0.083448336 0.12671785 0.01963364 0.042669885
000030 e1 3a b3 bd 25 32 15 3d 64 14 dc 3b b3 69 3a 3c
       -0.08751465 0.036424775 0.006716298 0.01137774
000040 0c 05 1e be a6 46 2b bd 8d f6 bc bb 5d a0 17 bd
       -0.15431613 -0.041815422 -0.005766696 -0.03701817
000050 a3 06 a3 bd 95 92 df 3c 48 de ea 3b 70 49 cb 3c
       -0.0796025 0.027291575 0.0071676113 0.024815291
000060 6a 97 85 bd e7 03 06 3e 9e ee 9d 3c e3 b0 1e 3d
       -0.065230206 0.13087426 0.01927882 0.03874291
000070 6c cc 88 bd 12 14 0a 3d f1 b9 b7 3b 7c bb fa 3b
       -0.066796154 0.033710547 0.0056068827 0.0076517444
000080 49 9b 08 be 04 35 00 bc 09 4b 02 3c b9 07 11 3d
       -0.13340487 -0.00782514 0.00795246 0.035407756
000090 3e 2d 7a 3e 3d 13 1f be 2e 2f 93 bc 75 0b 41 bc
       0.24431321 -0.15534683 -0.017966833 -0.011782517
0000a0 76 46 a0 bd c0 08 0f 3e 16 f0 ab 3c 77 64 32 3d
       -0.07825939 0.13968182 0.020988505 0.043552842
0000b0 47 12 52 3e 42 4e 33 bc f6 e9 cf bb b6 fc 54 bd
       0.20514785 -0.010943951 -0.006345029 -0.051998816
0000c0 04 00 00 80 04 00 00 80 04 00 00 00 04 00 00 00
       -6e-45 -6e-45 6e-45 6e-45
0000d0 04 00 00 80 04 00 00 80 04 00 00 80 04 00 00 00
       -6e-45 -6e-45 -6e-45 6e-45
0000e0 23 22 ce bd 78 de 28 bb 30 43 c6 3b 29 f6 d1 3c
       -0.10065105 -0.0025767367 0.00605049 0.025630074
0000f0 75 46 04 be 44 26 05 be 9c 3d 22 bc 48 1a 2f 3c
       -0.12917502 -0.13002878 -0.009902384 0.010687418
000100 12 e6 ae bd 30 34 90 bb 5a 26 a7 3b 8c c1 b4 3c
       -0.08539976 -0.0044007525 0.0051010074 0.022064947
000110 76 dd d7 bd 1c 82 ca bc e9 50 a3 bb 62 9e ff bc
       -0.10540287 -0.024720244 -0.0049840105 -0.031203452
000120 dc b5 4d bd 90 cb 79 3c 53 21 8c 3b e3 fa 7a 3c
       -0.050222263 0.015246287 0.0042764335 0.015318605
000130 20 a7 9c bd d5 bc 0d bc 57 ae a1 3b cd 73 ba 3c
       -0.07649064 -0.008650978 0.004934113 0.022760296
000140 04 00 00 00 04 00 00 00 04 00 00 80 04 00 00 80
       6e-45 6e-45 -6e-45 -6e-45
000150 04 00 00 00 04 00 00 00 04 00 00 80 04 00 00 80
       6e-45 6e-45 -6e-45 -6e-45
000160 04 00 00 80 04 00 00 80 04 00 00 00 04 00 00 00
       -6e-45 -6e-45 6e-45 6e-45
000170 f0 63 cd bc b0 2a 14 3e fe 36 9c 3c d1 2b fd 3c
       -0.025072068 0.14469409 0.019069191 0.030904682
000180 04 00 00 00 04 00 00 00 04 00 00 80 04 00 00 80
       6e-45 6e-45 -6e-45 -6e-45
000190 bb b2 6f be 8e 88 bc bd 62 9c 0e bc b1 29 d6 bc
       -0.23408024 -0.09205733 -0.008704277 -0.026142927
0001a0 64 72 91 3d 6a 91 92 3c ba f1 cc bb 62 de 21 bd
       0.071018964 0.017891604 -0.006254402 -0.03951872
0001b0 9c 5f e6 bd 3d b5 0c 3d be a9 f3 3b 72 f2 80 3c
       -0.11248705 0.03435253 0.0074360063 0.015740607
0001c0 7c 70 30 be f6 bd 9b bd f1 18 cd bb 43 c9 10 bc
       -0.1723041 -0.076045915 -0.0062590768 -0.008837047
0001d0 5e 76 ed bd 0b 53 4c 3d f3 bf 16 3c 74 2a 8b 3c
       -0.115948424 0.049883883 0.009201038 0.016988017
0001e0 96 1a aa 3e ae 12 67 bd 5f c3 97 bc 39 f8 4e bd
       0.33223408 -0.0564143 -0.018525777 -0.050529692
0001f0 ba 1e 8b 3e 62 9e 88 3c b9 cf 56 bc 87 33 a2 bd
       0.2717188 0.016677085 -0.013111048 -0.07919984
000200 80 7c d5 bd 2e 2f 1f 3d 97 3b fc 3b 75 41 86 3c
       -0.10424137 0.038863353 0.0076975334 0.016388634
000210 8c 8c ee bd b8 e3 48 3d 5b c3 12 3c a6 8a 81 3c
       -0.11647901 0.049045295 0.008957709 0.015813183
000220 04 00 00 80 04 00 00 80 04 00 00 00 04 00 00 00
       -6e-45 -6e-45 6e-45 6e-45
000230 9e 51 ce bd ce f8 c7 3d c9 c5 8a 3c 6a 3c 2f 3d
       -0.10074161 0.097642526 0.016940014 0.042782225
000240 ce 31 75 3e b4 a4 c8 bd 68 32 7f bc e3 68 06 bd
       0.2394478 -0.0979704 -0.015575983 -0.03281487
000250 67 8a 04 be c0 0a 49 3d 7b a4 1c 3c ab 58 9b 3c
       -0.12943421 0.049082518 0.0095607 0.018963179
000260 b2 85 ed 3e 9d 4c 1a 3f b4 1e 0a 3d 57 38 63 bd
       0.46391064 0.6027315 0.033720687 -0.05547365
000270 00 00 00 00 00 00 00 00 00 00 00 00 00 00 00 00
       0.0 0.0 0.0 0.0
000280 3c 98 96 bd aa 31 0e 3e 4e 42 a9 3c e1 e4 2c 3d
       -0.07353255 0.13886133 0.0206615 0.042210463
000290 fe c2 73 3e 6e 22 b3 bd f3 03 78 bc d2 a5 0f bd
       0.23804852 -0.08746801 -0.01513766 -0.035070248
0002a0 80 ae bd bd ca 8f 05 3e 4c 32 a8 3c b3 c8 3a 3d
       -0.09261799 0.13043132 0.020531796 0.045601558
0002b0 5a 72 2f bd 69 93 36 3d ed 5e fc 3b e6 3a a4 3c
       -0.042833664 0.044574175 0.0077017457 0.020047616
0002c0 8c 7d 1f 3e a6 83 8f 3c c8 bd 14 bc ac 7e 61 bd
       0.15575236 0.01751883 -0.0090784505 -0.055052444
0002d0 92 45 ce bd ce 84 e1 3c 71 23 d5 3b 34 28 8c 3c
       -0.10071863 0.027529147 0.006504469 0.017109014
0002e0 00 ab 63 bc 71 41 b5 3d c1 75 13 3c 15 7b 4e 3d
       -0.01389575 0.088503726 0.009000243 0.05041035
0002f0 7b d7 63 3e 59 c7 03 be 0d 61 91 bc 5f d2 af bc
       0.22250168 -0.12869014 -0.017746473 -0.021462617
000300 6e eb f5 bd 5c 11 01 bd ec 24 9d bb b4 61 19 bd
       -0.12007795 -0.031510696 -0.004795661 -0.037446693
000310 04 00 00 80 04 00 00 00 04 00 00 00 04 00 00 80
       -6e-45 6e-45 6e-45 -6e-45
000320 38 eb 86 bc 24 aa 44 3e d2 c9 c8 3c 1b 86 16 3d
       -0.016469583 0.19205528 0.024510298 0.036748987
000330 a0 a3 b4 bd 27 ba c6 3b 9b b4 86 3b c4 5d 87 3c
       -0.088202715 0.0060646716 0.0041108853 0.016524203
000340 04 00 00 00 04 00 00 00 04 00 00 00 04 00 00 80
       6e-45 6e-45 6e-45 -6e-45
000350 de 40 dc bd 96 d2 4e 3d a1 2c 0f 3c 8c c3 6a 3c
       -0.1075456 0.0504938 0.008738668 0.014328849
000360 c9 d5 b7 3e 43 2b e3 bc ed 21 c8 bc 09 31 86 bd
       0.35905293 -0.02773059 -0.02443024 -0.065523215
000370 c0 9b fb bc 06 a9 c2 bc 94 ea d0 bb 1a dd dc ba
       -0.030713916 -0.023762237 -0.00637562 -0.0016850561
000380 1c dd 9e bd b4 b2 03 3e 32 76 a0 3c 31 f0 29 3d
       -0.07757017 0.12861139 0.01958761 0.04148883
000390 f9 cf 9c bd 88 c5 5d 3c 8c ed 8a 3b d3 8f 4d 3c
       -0.07656855 0.013535865 0.0042397436 0.012546497
0003a0 dc 5b 98 bd aa 05 db 3d 05 49 89 3c 23 91 17 3d
       -0.07439396 0.1069444 0.016758451 0.037003648
0003b0 28 86 2c bd 55 5d 84 3d ee 6a 27 3c 78 8e c6 3c
       -0.04212013 0.06463114 0.010218365 0.024237856
0003c0 36 76 0d be 60 20 2a bd a2 67 d0 bb 8c fb 00 bd
       -0.13814625 -0.04153478 -0.0063600102 -0.031489894
0003d0 04 00 00 80 04 00 00 80 04 00 00 80 04 00 00 80
       -6e-45 -6e-45 -6e-45 -6e-45
0003e0 28 d2 68 3e 04 3b 15 be 01 c1 a3 bc 85 df 96 bc
       0.22736418 -0.14573294 -0.019989492 -0.01841713
0003f0 50 fb d5 bd e6 e3 0c bb 9e ba ce 3b d4 f2 d9 3c
       -0.10448325 -0.0021498143 0.0063088676 0.026605047

exp_avg_sq f4 [128, 4]
000000 7d 03 aa 3e 49 90 08 3e 12 66 31 3a 72 13 47 3d
       0.33205786 0.1333629 0.0006767224 0.04860253
000010 87 b7 f9 37 16 9f 03 38 8e a8 d7 34 f5 f0 34 38
       2.9768575e-05 3.1380994e-05 4.016951e-07 4.3139753e-05
000020 80 7c bc 3e c7 5a 03 3e 18 6c 48 3a dc d9 47 3d
       0.36813736 0.12827598 0.0007645502 0.04879175
000030 58 b0 9b 3c b0 fc 1f 3c c3 c2 ef 38 de 09 c7 3b
       0.019004986 0.009764835 0.00011432685 0.0060741743
000040 7e ab 07 3f b6 03 32 3e 6b 12 b3 39 60 9d 25 3d
       0.5299605 0.17384228 0.00034155263 0.040433288
000050 d7 21 a9 3d 06 97 cc 3c 14 ac 32 39 67 97 30 3c
       0.082584076 0.024974357 0.00017039507 0.010778285
000060 74 d8 aa 3e e6 16 f3 3d e7 ac 35 3a 5d 49 35 3d
       0.33368266 0.11869602 0.00069303665 0.044259418
000070 6d 54 45 3c 80 48 e2 3b 51 b2 a1 38 55 59 8a 3b
       0.012044054 0.0069056153 7.710292e-05 0.004222075
000080 e5 4a 7b 3d 16 5a bc 3c cf 78 bb 39 f0 2b 92 3c
       0.061350722 0.022992175 0.0003575743 0.017843217
000090 d3 a9 3a 3e 15 b8 aa 3d f9 42 9d 3a ee 15 40 3d
       0.18228845 0.08335892 0.0011998109 0.046895914
0000a0 c8 d0 cf 3e f1 95 12 3e 64 e2 5c 3a 47 6b 5c 3d
       0.40588975 0.1431501 0.0008426069 0.053813245
0000b0 a6 18 fc 3d 04 e5 2d 3d bc 26 19 3a 08 b4 cc 3c
       0.12309389 0.042454734 0.00058422587 0.02498819
0000c0 52 02 23 20 ba 57 03 20 eb 71 ba 1c 4e 0c b7 1f
       1.3807405e-19 1.1125158e-19 1.2337895e-21 7.752387e-20
0000d0 21 f0 de 1b f7 52 cf 1b 61 4c c1 18 57 8a ea 1a
       3.6882e-22 3.4298892e-22 4.9966454e-24 9.700363e-23
0000e0 cc 63 08 3d 4b 36 46 3c f5 9f 45 39 a6 57 19 3c
       0.0332983 0.012097905 0.00018846973 0.009359276
0000f0 fd 30 20 3e 26 3d 5a 3d f5 c7 9e 39 1f a9 9c 3c
       0.15643688 0.053280972 0.00030285088 0.019123612
000100 e3 a0 cc 3c cf ef 22 3c cd 69 19 39 eb 7a ea 3b
       0.02497906 0.00994487 0.00014630631 0.0071557662
000110 1b cb b3 3e 70 81 e3 3d 26 58 73 39 d9 ae e5 3c
       0.35115895 0.111086726 0.00023207124 0.028037475
000120 25 5f 02 3d 62 02 1c 3c 2b a0 89 38 54 8a 87 3b
       0.03182902 0.0095220525 6.562503e-05 0.004136363
000130 be 2f ca 3c 06 50 4a 3c c4 db 27 39 81 cf 12 3c
       0.024680968 0.012348181 0.0001600823 0.008960606
000140 d4 33 4f 1e 55 d8 26 1f 3c d5 09 1b 36 8a ff 1e
       1.09692066e-20 3.5330813e-20 1.1401274e-22 2.7056338e-20
000150 f8 55 0a 00 45 ec 93 01 ab 58 0a 00 93 4c 39 02
       9.49195e-40 5.43383e-38 9.50163e-40 1.3613629e-37
000160 40 2c c6 27 39 0c 1d 28 f1 66 f3 23 25 54 a5 27
       5.5004016e-15 8.717901e-15 2.638971e-17 4.588793e-15
000170 17 5f 99 3e 2a 39 e3 3d a3 8f 22 3a 60 30 22 3d
       0.2995536 0.110948876 0.0006201213 0.039596915
000180 cd fa 52 2f 02 16 5c 2f c6 41 1a 2b 64 57 0a 2f
       1.9188491e-10 2.0016702e-10 5.480307e-13 1.2582074e-10
000190 35 cf 33 3f 01 0a 45 3e 0a 6f 97 39 e2 c7 e2 3c
       0.7023805 0.19242097 0.00028883695 0.027683202
0001a0 fa 07 b3 3d 29 22 78 3c e0 df 15 3a 3d ac e4 3c
       0.08741756 0.015144863 0.0005717259 0.02791416
0001b0 10 36 00 3d 07 a7 76 3c 91 51 2e 39 fb 23 14 3c
       0.031301558 0.015054471 0.00016624319 0.009041782
0001c0 67 e3 68 3e 44 07 61 3d 36 18 9b 38 65 76 d8 3b
       0.22742997 0.05493857 7.3954856e-05 0.0066059106
0001d0 c4 c0 0b 3d 1f 12 77 3c d6 32 58 39 8f cc 1e 3c
       0.034119383 0.015080004 0.00020618303 0.009692325
0001e0 4d f1 91 3e 85 48 1c 3e b3 50 a3 3a 4f 26 9b 3d
       0.2850441 0.15262039 0.0012459963 0.07575666
0001f0 6e 71 a0 3e 59 0a 9d 3d 61 cd d6 3a fb 3a a0 3d
       0.3133654 0.07667989 0.0016388112 0.0782375
000200 97 b3 dd 3c b9 27 36 3c 93 82 22 39 66 ca ef 3b
       0.027063174 0.011117869 0.00015498167 0.007317829
000210 89 e2 12 3d 3a fc 9c 3c 6d ed 60 39 dc 82 3d 3c
       0.035860572 0.01916324 0.00021450753 0.011566844
000220 e5 c7 17 37 0e f0 cf 36 b7 1f 81 35 93 b3 57 37
       9.046843e-06 6.197027e-06 9.620479e-07 1.2856809e-05
000230 d2 93 9d 3e 64 ac d2 3d 0a fa 26 3a 43 c7 25 3d
       0.3077684 0.10286787 0.0006369656 0.040473234
000240 ee e6 1a 3e a4 4b 81 3d 42 cc 68 3a 7d 25 20 3d
       0.15127155 0.063132554 0.00088805344 0.03909825
000250 65 36 29 3d 07 bb a8 3c 68 ca 80 39 17 25 53 3c
       0.04131164 0.020596994 0.00024564867 0.012887261
000260 fa e5 0c 3f 24 22 3e 3e 40 d3 ec 39 8a 8c aa 3c
       0.55038416 0.18567711 0.0004517082 0.020818967
000270 00 00 00 00 00 00 00 00 00 00 00 00 00 00 00 00
       0.0 0.0 0.0 0.0
000280 ac ad c6 3e cf b9 0c 3e 12 3c 53 3a b1 c9 52 3d
       0.38804376 0.13742755 0.00080579624 0.05146188
000290 81 38 18 3e cb a2 75 3d a8 e4 5a 3a 5a 66 16 3d
       0.14865305 0.059969705 0.00083501125 0.036718704
0002a0 fe dd ca 3e 0a 06 0d 3e 71 cd 57 3a 8d 9c 57 3d
       0.39622492 0.13771835 0.0008232212 0.052639533
0002b0 79 a4 73 3d aa c8 a0 3c 59 32 02 39 2e 18 fa 3b
       0.059483025 0.019626934 0.00012416522 0.007632277
0002c0 46 c3 f3 3d 7d e7 f2 3c 98 e3 3b 3a bd a9 17 3d
       0.1190248 0.029651398 0.0007167398 0.03702711
0002d0 08 92 d3 3c 4a 7e 27 3c 37 b8 0f 39 86 55 d1 3b
       0.025826469 0.010222981 0.00013706168 0.006388369
0002e0 23 e9 ad 3e ea 20 fd 3d 4b c3 32 3a 58 b3 4c 3d
       0.33966932 0.123597935 0.0006819262 0.049975723
0002f0 e4 7d 14 3e 73 64 88 3d c0 fd 7a 3a 00 34 2f 3d
       0.14501148 0.06659784 0.0009574555 0.0427742
000300 e1 87 52 3f 3d 5c 4b 3e f5 26 bd 39 96 50 30 3d
       0.82238585 0.19859405 0.00036077914 0.043045603
000310 c5 86 38 2a 97 c1 30 2b 70 5a 23 27 05 15 20 2b
       1.638924e-13 6.279642e-13 2.266982e-15 5.687259e-13
000320 ee c9 f6 3e 54 f1 38 3e 1e 8f 82 3a a5 51 82 3d
       0.48200935 0.1806081 0.0009960865 0.06363229
000330 30 2f b9 3c 49 ea 17 3c a4 29 ba 38 b3 5c 98 3b
       0.022605509 0.0092721665 8.876927e-05 0.0046497225
000340 35 98 61 05 75 c5 b8 05 60 24 27 01 e2 d7 d4 04
       1.0607405e-35 1.7375811e-35 3.0699153e-38 5.0039218e-36
000350 36 86 fd 3c 4f 98 8a 3c db de 4b 39 f0 02 2c 3c
       0.030947786 0.01691833 0.00019442609 0.010498747
000360 fc 9f e1 3e 59 2f b4 3d 18 28 2e 3b 77 c2 e4 3d
       0.4406737 0.08798093 0.002657419 0.11169904
000370 a6 a9 ff 3d 3a 02 23 3d 91 e4 61 39 2a c8 87 3c
       0.1248353 0.039797045 0.0002154282 0.016574938
000380 df e6 b5 3e 74 8e ff 3d b3 8e 41 3a c5 13 41 3d
       0.35527703 0.12478343 0.00073836296 0.047137994
000390 ee b5 79 3c 1a 60 d4 3b e3 c0 8b 38 b7 cc 67 3b
       0.015241129 0.0064811828 6.6639645e-05 0.0035369822
0003a0 a0 22 8b 3e 93 40 c1 3d 08 02 14 3a ac 84 13 3d
       0.27174854 0.09436145 0.00056460546 0.036015198
0003b0 8f dc 8e 3d 16 94 db 3c 93 f8 3e 39 bc aa 2c 3c
       0.06975662 0.026804011 0.00018212413 0.010538753
0003c0 81 cf d2 3e 5a 0a 0b 3e 9e 43 8c 39 15 ea 01 3d
       0.41173938 0.13578168 0.0002675326 0.03171738
0003d0 eb 60 3b 00 ce 4c 3d 01 31 ff 3e 00 29 9b 5b 01
       5.453062e-39 3.4768922e-38 5.785346e-39 4.033527e-38
0003e0 ad 66 21 3e 01 d5 96 3d 2e 06 8b 3a 46 bc 43 3d
       0.15761824 0.07364846 0.00106067 0.047786973
0003f0 fe 3e 12 3d c8 ff 52 3c a5 61 52 39 70 7d 23 3c
       0.035704605 0.012878366 0.00020063536 0.009978637
