0 课件原版/DQN_parameter.pth (torch, 5251 bytes, 4 tensors)

fc1.weight f4 [128, 4]
00000000: 9401 91bf 41db a83e a338 c5bf 9fdf 9cbe
00000010: a73f 82be 24ea b83d c8f3 93bd 6c8f b43e
00000020: 5233 80bd 5289 173e f168 2dbe 4d2c a9bd
00000030: 9d88 27bf 4748 74be de0a c4be dd8a e33d
00000040: 0b76 c6be cada 703e 4e74 6dbf 37a8 90be
00000050: e365 0a3f 06c5 853e ffe1 873e 2f84 613e
00000060: 802c 86bb 213a 8f3d 3f7c 073f 03c4 e4be
00000070: dc06 bbbe 6e38 12be f8af 7bbe 47e2 d43e
00000080: 6bc7 96be df7a 68be d4b1 a3be 9927 eebe
00000090: 7bf7 c5be 0911 d23e 0bbb 023e bc2b 643e
000000a0: 67af 213e 070d 82be 2463 5d3e 4bd4 edbe
000000b0: fad6 e9be 9f4f 86be 15c9 603e 61c3 933e
000000c0: bf4e 79be 76ae c6bc 4890 983e 6751 fb3e
000000d0: c8a7 6f3e 5622 0e3c afde bd3e 23e0 b4be
000000e0: adb4 24bc 0c66 a4be e549 e6be d954 44be
000000f0: a5bf a93d 99bd 2a3e 1cbf e2be b606 ef3d
00000100: e4e3 653e 663a 99bd ade7 ffbc e248 d53d
00000110: b045 8f3e a33b e63e 31f4 d4be 2cc9 5abe
00000120: 774f e63d 70e3 c43e 583a b33e c2a9 d23e
00000130: 3ad5 863c 3fc9 abbe 01d2 17bd cea7 5abe
00000140: f0a8 05bf e386 d13e 36b3 a53e c4a5 08bf
00000150: e24e 4ebf 06b9 80bd 1f4c 7bbf 817b 54be
00000160: db0b 913e 351c b0be 06dc 8c3e 01f6 513e
00000170: f460 e53c cdfc 1c3e 0528 53bf 394b b7be
00000180: 6030 f3bd b9f5 553d 532b 42bf e83e aebe
00000190: 4758 393f b31f 373e 8047 303d 0e5e 91be
000001a0: df08 c8bf 3380 f03d 9149 bbbf 9bbd 84be
000001b0: dbef 8cbd 7b02 3c3d 724d 7cbe f3f7 883e
000001c0: b360 bebe e3eb df3e 7fa2 8c3e eb3e e0be
000001d0: 041f 0fbe 03c2 c63c 848f 6b3d c859 f63d
000001e0: 655c ecbc 5c76 acba 7446 f1be ac41 523e
000001f0: 4534 67bf 9ff2 3ebe 3b7e 0cbf 48e2 08be
00000200: 949a 04be 8002 c3be 7595 79bd 3712 0b3e
00000210: 01f6 debd 7808 c53d 2e29 133f 0751 903d
00000220: 07cc 773e 6f53 1dbe 13c0 aa3e 9f64 543e
00000230: 5ece de3e e084 ad3e a250 df3e 0438 72bc
00000240: 89e8 96be 2fe1 7fbe de62 fd3e 42c4 83bc
00000250: 2c9d 2fbe 2eb1 c0be 8523 c8be 1895 d4be
00000260: bb87 bfbd 9a58 8c3e da83 8e3e dff0 f6be
00000270: b612 1abf 777c a2be da80 82bf e2ed 03be
00000280: 3ee2 513d 421f 3cbd 772b 9abe b84a c2be
00000290: d2f5 6abe 6cd5 5bbd 2bb9 c3be 754a 033e
000002a0: f470 87be 513a 213d 3410 203f f7fa 05be
000002b0: 383d a33e 8da2 1b3e a1c6 15bf b413 933e
000002c0: 0053 ef3d ec2c 46be 920b 133f 0bae bfbe
000002d0: 5509 0e3c a519 a4bd acc1 9f3e 9d11 283e
000002e0: ae4a 833e c862 6a3e 7b1e d5bd a86e 58bd
000002f0: b860 b6be 34ae 2f3e 9ce9 e83e 5e94 783e
00000300: a120 c5be f09c 753d 1e4d c5be 8947 73be
00000310: ba04 7ebe b46c 8e3d 2b2b 82be 06dd e5bd
00000320: cd7f 843c 4cfa c43e a059 c4be fcca 8fbe
00000330: 5d2e ebbe da03 783e d409 b5be f6c1 a03e
00000340: 4e78 9b3e 428f d43b a596 f63d 1767 1fbe
00000350: f5bd 913e ad90 fb3c 44b5 5f3e 91af 553e
00000360: 5595 86be 5f01 7abe 2e31 083f bb94 c6be
00000370: 309e 46be 68cc ea3e 8e6c ad3c 0e2d b3bc
00000380: f546 12bf f7e7 b43e 7e10 fdbe 42a3 14bd
00000390: 6ed1 82be c2d3 80bd dbe4 aabd c7da d83e
000003a0: 6d48 763e 205e fc3e 3bcb f73e c6c6 8abe
000003b0: ec75 c93d caf1 47be 8ffa acbe de49 9c3e
000003c0: 30d7 8c3d adce 8a3e 3709 86be d25d d3bd
000003d0: c8bb e33e 650d dcbe 6a84 0c3f 252b b8be
000003e0: fba0 62be a4aa b9bd 6eaf fbbe e38b 773d
000003f0: 1116 a43e a720 863d 3d9d c7be 6efd da3c
-1.1328607 0.32979777 -1.5407909 -0.3063936 -0.25439188 0.09029034 -0.07224232 0.35265672
-0.062597886 0.14798477 -0.16934563 -0.08260403 -0.6544283 -0.23855697 -0.3828954 0.111104704
-0.38761935 0.23520961 -0.9275559 -0.28253338 0.54061717 0.2612688 0.2653961 0.2202308
-0.0040946603 0.06993509 0.5292396 -0.44680795 -0.3652867 -0.14279339 -0.24578846 0.41578886
-0.2944902 -0.22703122 -0.3197161 -0.46514586 -0.38665375 0.41028622 0.12766664 0.22282308
0.15789567 -0.25400564 0.2161985 -0.4645103 -0.45671827 -0.2623262 0.21951707 0.2886
-0.24346446 -0.024253111 0.29797578 0.49085543 0.23403847 0.0086751785 0.37083957 -0.35327253
-0.010052842 -0.32109106 -0.44978252 -0.19172992 0.082885064 0.16673888 -0.4428643 0.11671202
0.22450215 -0.07481842 -0.031238401 0.10414292 0.27982855 0.44967374 -0.41592553 -0.21365803
0.112456255 0.3845477 0.3500545 0.4114514 0.016459096 -0.33551976 -0.03706551 -0.21353075
-0.52210903 0.40923223 0.3236329 -0.5337794 -0.80589116 -0.062852904 -0.98163027 -0.20750238
0.28329358 -0.3439652 0.27511615 0.20504 0.028000332 0.15330811 -0.8248294 -0.35799578
-0.11874461 0.052236293 -0.7584736 -0.3403237 0.72400326 0.17883186 0.043036938 -0.2839207
-1.5627707 0.11743202 -1.4631826 -0.25925907 -0.06881686 0.045900803 -0.24638918 0.2675167
-0.3718315 0.43734655 0.27467725 -0.43798003 -0.13976675 0.024262434 0.057509914 0.12028843
-0.02885265 -0.0013157832 -0.47124064 0.20532864 -0.9031413 -0.1864724 -0.5488011 -0.1336757
-0.12949592 -0.38087845 -0.06093355 0.13581167 -0.10886765 0.09620756 0.5748471 0.07046705
0.24198924 -0.15363859 0.33349666 0.20741509 0.4351682 0.33890438 0.43616205 -0.014783863
-0.29474285 -0.24988244 0.49489492 -0.016084794 -0.171498 -0.37635177 -0.390896 -0.4152
-0.093520604 0.27411348 0.2783497 -0.48230645 -0.601848 -0.31735584 -1.0195572 -0.12883714
0.051241152 -0.045928247 -0.30111286 -0.3794763 -0.22945336 -0.05367033 -0.3822721 0.12821372
-0.26453364 0.039362255 0.62524724 -0.13084017 0.31882644 0.15198727 -0.5850621 0.2872597
0.11685753 -0.19353074 0.5743953 -0.37437472 0.008669217 -0.08012704 0.31202447 0.16412969
0.25642914 0.22889245 -0.10406204 -0.052839905 -0.35620666 0.17156297 0.4549073 0.24275348
-0.38501456 0.05996412 -0.38535398 -0.23757757 -0.2480649 0.06954327 -0.2542356 -0.112237975
0.016174221 0.3847221 -0.38349628 -0.28084552 -0.4593381 0.24220219 -0.3535906 0.3139798
0.30365223 0.006486804 0.12040452 -0.1556667 0.28465238 0.030708635 0.21846491 0.20867755
-0.26285806 -0.24414586 0.5320004 -0.38785347 -0.19396281 0.45859075 0.021169927 -0.02187207
-0.5713952 0.35333225 -0.49426645 -0.036288507 -0.25550407 -0.062903896 -0.08344432 0.42354414
0.24051066 0.49290562 0.4839724 -0.27104777 0.09836945 -0.19525829 -0.3378491 0.30525106
0.06876981 0.27110806 -0.26178905 -0.10320629 0.44479203 -0.4297897 0.5488955 -0.35970417
-0.22131722 -0.0906575 -0.4915728 0.06043614 0.32048085 0.06549197 -0.3898715 0.026732173

fc1.bias f4 [128]
00000000: 0c1c 4dbe 4408 12be 78ae e13d cb98 ad3d
00000010: d5ca 37be 08e1 4a3e 95a4 8b3e 9e5e 09bd
00000020: c69b 183e 0803 cfbd 5a10 313e 251c b7be
00000030: df5a 93be 199a 47be ec2f c93e 0f36 cdbd
00000040: 207c 293c 7ce8 58be 1964 073f 5433 c73e
00000050: 0325 afbe ea79 dabe d190 a9be 2ce2 ff3c
00000060: 3ead 99bd 8f41 2dbe 0b8c 9cbe 6e35 fd3d
00000070: dfc8 7abe a76a df3d a2c9 aabd 894e b4be
00000080: 76da 223d 391a 943e f7fe 68be 9434 f13a
00000090: 42a8 2fbe 23bb f73e 72d6 f2be 9ca0 0dbf
000000a0: 6b82 e13e a32d 83be 636a ba3c c56a 66bc
000000b0: c53d 0abe 3980 0bbe 61e3 873e 596e fc3d
000000c0: 9c43 06bf d680 46be 4073 6ebe b3ff b73e
000000d0: 2d92 88be 4735 a73e 3463 04be 922b 5cbd
000000e0: 6380 923e bded 753e 6c0c c23e 3b2d 063e
000000f0: 2242 43bd 605f c5be b43c 01bd 2205 4f3e
00000100: 1d0a 50be 86c5 dabe eeca e23d 70bc ea3e
00000110: c87c 16be 659f c4be 6a90 d9be ddab 4d3e
00000120: d9e2 d7bd 040a 81be a3a9 6b3d e94f 403e
00000130: 003a bd3e bd0b 8c3e 6929 01be 077b c9be
00000140: a53e a7be 75e1 013f 4cba 013e 9b25 783e
00000150: 19ee cdbe 1f42 c43e ad53 db3e ea9e cf3e
00000160: aa67 9cbe 72be 2dbe ffdd aabe ecc7 cb3e
00000170: 4bab 13be cc09 6cbe fa0d ba3e e545 2bbe
00000180: 1195 16be 2169 acbc 6198 02be 417f bcbe
00000190: 974d ca3e 62b5 f7bd 4d9a 2a3e 4110 9c3e
000001a0: 4251 823e b52a 253d 8277 a83e 109c 373e
000001b0: 975f 24be 240c f03e 591a 033d 6042 d3be
000001c0: 4761 28be 9871 abbe c65c 973e 2f38 b2bd
000001d0: e7ce c6be da05 70bb 34a3 953e fe90 093e
000001e0: 1f3b 3e3e 22bc 113e fc77 c83d 3bde 01be
000001f0: ff92 29bd ed84 aebe d6c3 b1be e825 863e
-0.2003023 -0.14260966 0.110196054 0.084764086 -0.17948468 0.19812405 0.27274004 -0.0335375
0.14903173 -0.10108 0.17291394 -0.3576366 -0.28780267 -0.19492377 0.39294374 -0.100200765
0.010344535 -0.21182436 0.5288711 0.38906348 -0.34207925 -0.42671138 -0.331183 0.031235777
-0.075037464 -0.1691954 -0.30575594 0.123637065 -0.24490689 0.10909014 -0.0833924 -0.35216168
0.03975912 0.28926256 -0.22753511 0.001840251 -0.17154029 0.4838496 -0.47429234 -0.55323195
0.44044814 -0.25620756 0.022755807 -0.014063542 -0.13500126 -0.13623132 0.26540664 0.12325735
-0.52446914 -0.19385085 -0.23286152 0.3593727 -0.26674023 0.32657835 -0.12928468 -0.05375249
0.28613576 0.24016471 0.37900102 0.13103192 -0.04767049 -0.38549328 -0.03155203 0.20216802
-0.20316358 -0.42728823 0.11073862 0.4584689 -0.14696038 -0.38402858 -0.42492992 0.20085092
-0.10541315 -0.25202954 0.057534825 0.18780483 0.36958313 0.27352706 -0.12613453 -0.39351675
-0.3266498 0.50734645 0.12668723 0.24233095 -0.40220717 0.38331696 0.42837277 0.4055093
-0.3054784 -0.1696718 -0.33372495 0.39800966 -0.14420812 -0.23050612 0.36338788 -0.16725881
-0.14705302 -0.021046223 -0.1275344 -0.36815837 0.3951232 -0.12095143 0.16660424 0.3048115
0.2545262 0.04032393 0.32903677 0.17930627 -0.1605209 0.46884263 0.03200755 -0.41261578
-0.16443358 -0.33485103 0.29562968 -0.087021224 -0.3882973 -0.0036624582 0.29226077 0.13434216
0.1857724 0.14231923 0.0978851 -0.1268243 -0.041399952 -0.3408579 -0.34719723 0.26200795

fc2.weight f4 [2, 128]
00000000: 6cce 6bbf 1363 cebc 1c54 153c ba9c 2cbd
00000010: c4c8 b5be 7303 163d 56dc 413d 979a a4bc
00000020: 9368 99bd 2631 00bd cb19 bd3d 3bf8 45bc
00000030: 7ff1 933d db76 603e 2b39 85bd ac90 f7bd
00000040: f5ba 92bb 2a37 99bc b3ce a93c 02b8 813d
00000050: 0c0e d43c e593 fcbe 7e43 493d baf9 35be
00000060: abff 14bc bc60 b03b 020b 2bbf 4bd7 e4bc
00000070: c099 843c d36c d93c 67b5 25be 7e65 6dbe
00000080: af5a 89bb 78e0 113e cd47 f63c 0032 203e
00000090: 1f63 413e df02 e3bb 3ef7 fd3d 23ea 4bbf
000000a0: c703 7c3d 4288 05be 92cc 513e 48ae dbbd
000000b0: d558 0e3e ee90 123e 4af3 5cbb 4867 723c
000000c0: 0099 e7bd 5640 afbd b415 19be 237f febd
000000d0: da9a 0e3d 7995 a03d c481 d33d 4bf6 a7bd
000000e0: 6ee0 14be 8ae8 a6bd e00c 053e e24c 5abc
000000f0: e522 a8bd c9df f93d f502 b6be ca43 2bbb
00000100: 408c 0dbe b2a2 b4bc 6a10 d4be 9da7 943d
00000110: 9d85 08bd 5bfd d43b a32f eabd 1d81 c4bd
00000120: 592c 67be 7339 50bd b65b 183e 13f8 87be
00000130: 5168 593d 3b65 a1bc 4ace 88be 4a96 ba3d
00000140: 4806 e1bc 4edf 2f3e fa73 a6bc a2e2 63be
00000150: 6209 3ebd 3a68 653e 62af acbe a5b2 59be
00000160: d819 c63c 39c2 0ebe f7bb 4fbf 927a 683e
00000170: 50a6 1bbe 32bd 9dbd 96a7 843d 881b 8c3d
00000180: 4fa7 b1bb 8745 8bbd 7f53 36be a43e 04be
00000190: e54f 59bf 4d8f d1be f354 10be 0dd7 68bd
000001a0: e393 123c f64f b73d e0f6 a23d fe47 4abf
000001b0: 5ade d7be 89e6 ec3c 0fbd 9dbe 0c9d 5fbd
000001c0: 050a b1be cfb3 fe3b f657 babe 6bdc 893d
000001d0: f819 e13c 0f75 d73d 7a92 ba3c f50f 30be
000001e0: 5fd5 11bd 1eb9 b03d cb9b 96be da19 723e
000001f0: 57c0 14bf e00e 78bd b16c adbb 87e4 3dbd
00000200: 0040 33bf 170e 54bd ff76 0b3d c677 2bbd
00000210: 6a74 5fbe 18f5 4e3c ef5f b73d 8d65 a8bd
00000220: 249f d93d e9d5 99bd f90a f23d f001 c0bd
00000230: 5dc0 c6bd 93a1 af3d 2cea f63c 1166 14bd
00000240: 0439 c9bc 5de1 8bbd 8b5b b8bc 1114 3bbd
00000250: 09ad af3b 9fea d1be f8dd 5abb c7c9 4f3e
00000260: 257c a23e 76c1 a0b8 4f38 61be 67df 73bd
00000270: 2d8f 5ebd 84fa a9bc 14bd 5ebd 8439 b0bc
00000280: 3207 533d e9ec 9c3c 4752 073d 870f 46bd
00000290: 6ae0 233d e926 d13d 1e36 713d 77eb 4abe
000002a0: e367 1e3d 9fa2 03bd ab0a 6e3c 3528 8bbd
000002b0: 5e21 823d 0474 26bd 6351 943c 55b2 ce3d
000002c0: fcc2 8bbd b067 5b3c 91cc 34bd 5381 2ebc
000002d0: 1f34 163d a3c8 8a3c 9b04 ab3d 3987 48bd
000002e0: 653f 39bc 2a4a 02bd 022c 383d a1b9 00bb
000002f0: 4a54 70bc dd92 353d df8e e1bc f87c 853b
00000300: f2ec 07bd 1589 6dbd 7c32 c8bd b501 6b3d
00000310: 94a5 023e d41e 35bd 0d91 8abd 9bf9 9dbc
00000320: 65ef 7dbd 92a4 7d3d bad9 343d 1fcb 02bd
00000330: 182d 863d 6441 693d 6a20 ebbe 7079 1c3d
00000340: 9126 d9bc 72df 133d 468b ac3c 188a ac3c
00000350: 977e 7bbd f879 2c3c f161 debe f4ae d7bd
00000360: 96f3 a1bc 4be4 9fbd fd00 f1be bd7b 59bc
00000370: fcc3 103c dbe7 943d 04f4 673d 1d27 8abc
00000380: ae3b 543d af78 48bd 2dfa 2ebd 1668 96bd
00000390: 18fc bdbe 835b 62be bd30 7dbd b2a3 f73c
000003a0: 3d87 a5bd bae6 093d 337c eb3c 3525 adbd
000003b0: e93a 13bf b91d f23d b1a5 4cbd ae8f 1dbd
000003c0: d5e2 b0bc 51ad e7bd 21a1 a1bd a3bd de3d
000003d0: 89d5 80ba bb02 e93c 6c5d a23d 4422 dbbd
000003e0: 90e7 473e f8d8 5b3d d964 38bd 667e ff3d
000003f0: dbbb cdbe 1f52 cb3c 3164 35bd 37b7 71bd
-0.9211185 -0.025193727 0.0091142915 -0.042141654 -0.35504735 0.036624383 0.04732927 -0.020093245
-0.07490649 -0.03129687 0.09233435 -0.012083109 0.07223796 0.2192034 -0.065050445 -0.12088141
-0.0044778534 -0.018703062 0.020728445 0.06333925 0.025885604 -0.49331585 0.04913663 -0.17771044
-0.009094159 0.0053826254 -0.6681367 -0.027934691 0.016186595 0.02654115 -0.16182481 -0.23183247
-0.0041917185 0.14245784 0.030063534 0.15644073 0.18885468 -0.0069278325 0.12400673 -0.7965414
0.06152704 -0.1304026 0.20488194 -0.10726601 0.13901074 0.14313099 -0.0033714348 0.014795132
-0.11308479 -0.08557193 -0.14949685 -0.12426593 0.034815647 0.0784101 0.10327485 -0.082012735
-0.14538738 -0.08149822 0.12993193 -0.013323994 -0.082097806 0.12200887 -0.3554913 -0.0026132935
-0.13823032 -0.022050235 -0.41418773 0.07258532 -0.03333055 0.006499929 -0.11434867 -0.09594939
-0.22575511 -0.050836038 0.14878735 -0.26556453 0.053078 -0.01970159 -0.26719886 0.091106966
-0.027468815 0.17175028 -0.020318974 -0.22254422 -0.046395667 0.2240304 -0.33727556 -0.21259554
0.024182245 -0.13941278 -0.81146187 0.22703007 -0.15200162 -0.07702102 0.06477277 0.06841189
-0.005421556 -0.06800371 -0.17805289 -0.1291452 -0.84887534 -0.40929642 -0.14094906 -0.056845713
0.008946392 0.08950798 0.07957244 -0.790161 -0.42161828 0.028918521 -0.30808303 -0.05459313
-0.34577957 0.0077728997 -0.36395234 0.067314945 0.027478203 0.10520374 0.022774924 -0.17193587
-0.035603877 0.08629058 -0.29415736 0.23642674 -0.5810599 -0.06056106 -0.005292498 -0.04636052
-0.7001953 -0.05177125 0.03404903 -0.04186227 -0.21821752 0.012631677 0.08953845 -0.08222494
0.10626057 -0.07511503 0.11818499 -0.093753695 -0.09704659 0.0857574 0.030140959 -0.03623015
-0.02456332 -0.06830094 -0.022504589 -0.045673434 0.0053612036 -0.40999314 -0.0033396464 0.20291816
0.3173534 -7.6654294e-05 -0.21994136 -0.059539225 -0.05433576 -0.020749338 -0.054379538 -0.0215118
0.051520534 0.019155936 0.03303745 -0.04835465 0.04000894 0.102125 0.0588895 -0.19816385
0.038673293 -0.03213751 0.014528911 -0.06794778 0.063540205 -0.040637985 0.018105214 0.10092608
-0.068243 0.01339142 -0.044140402 -0.0106509505 0.0366708 0.016941374 0.08350488 -0.048957083
-0.011306618 -0.03180901 0.044963844 -0.0019641893 -0.014668534 0.044329513 -0.027533947 0.0040737353
-0.033184953 -0.05799206 -0.09775254 0.057374675 0.12758476 -0.044218853 -0.067659475 -0.01928406
-0.061995883 0.061924525 0.044152953 -0.031931993 0.0655157 0.056947127 -0.45923167 0.03820175
-0.026507648 0.036101766 0.021062505 0.021061942 -0.061400022 0.0105271265 -0.43434098 -0.105314165
-0.019769471 -0.07807215 -0.47071066 -0.01327413 0.008835789 0.072707854 0.056629196 -0.016864354
0.051814727 -0.048943218 -0.042719055 -0.073440716 -0.37106395 -0.22105221 -0.06181406 0.030229423
-0.08082435 0.033667304 0.028745746 -0.08454362 -0.57511765 0.118220754 -0.049962703 -0.0384671
-0.021592537 -0.11312354 -0.07892061 0.10876014 -0.0009829263 0.028443685 0.07927975 -0.10699895
0.19521928 0.053673714 -0.04501805 0.124752805 -0.40182385 0.024819432 -0.044285003 -0.059012618

fc2.bias f4 [2]
00000000: 81d2 34bd fcad e83c
-0.044146065 0.028403275
