0 课件原版/maddpg0targetactor.pth (torch, 22039 bytes, 6 tensors)

fc1.weight f4 [64, 8]
0	0x3f0644d2	0.5244876
1	0xbf339b1e	-0.70158565
2	0xbdb1bf08	-0.086790144
3	0xbe49ec2f	-0.19719003
4	0xbb49e18f	-0.003080461
5	0x3e23d145	0.15997799
6	0x3e9482ee	0.2900614
7	0x3e47e319	0.19520225
8	0xbed050cb	-0.4068664
9	0x3e86f946	0.26362056
10	0xbed6593c	-0.41864955
11	0x3df7e20d	0.12103663
12	0x3ea01cc7	0.31271955
13	0xbe689623	-0.22713523
14	0x3ea646d1	0.32475904
15	0x3e7dc82b	0.2478339
16	0x3edf493c	0.4361056
17	0xbde56a49	-0.11201913
18	0x3e8c853f	0.2744541
19	0xbde4c06d	-0.11169515
20	0xbfac89da	-1.3479569
21	0x3f0c0635	0.5469697
22	0xbd9b99a2	-0.075976625
23	0xbdb63ebc	-0.088986844
24	0x3ef9918a	0.4874385
25	0xbe8dda30	-0.27705526
26	0x3f053745	0.5203746
27	0xbcfdd66b	-0.030986032
28	0x3f6f1d8c	0.9340446
29	0xbe778263	-0.24170832
30	0xbee8a39d	-0.45437327
31	0x3f1f0645	0.6211894
32	0x3d4cedee	0.050031595
33	0x3e88d542	0.26725203
34	0x3e6a4ca4	0.22880799
35	0x3d1d24c6	0.038365148
36	0x3e0fbec5	0.14037617
37	0x3e050943	0.12991814
38	0xbf848096	-1.0351741
39	0xbfb0c9e3	-1.3811611
40	0xbecaea91	-0.39632085
41	0x3e43bffa	0.19116202
42	0xbf068aec	-0.5255573
43	0x3e71b6f1	0.23604943
44	0xbd9cc320	-0.07654405
45	0xbefe96e4	-0.49724495
46	0x3f8fe533	1.1241821
47	0xbf8ff795	-1.1247431
48	0x3c4c25bc	0.012460168
49	0x3d92fba7	0.07176905
50	0xbeae9548	-0.34098268
51	0x3ec0c71e	0.37651914
52	0x3f0eedf8	0.5583186
53	0x3fbd6d08	1.4798899
54	0x3f474425	0.77838355
55	0x3e14c4f4	0.14528257
56	0xbcbe8d2d	-0.023260677
57	0xbe94daf6	-0.29073304
58	0xbf1e3b6b	-0.61809415
59	0x3fb07c04	1.3787847
60	0xbe2796da	-0.16366139
61	0xbe609c65	-0.2193466
62	0x3f034870	0.51282406
63	0xbea32201	-0.3186188
64	0x3f5eec2c	0.8707912
65	0x3ec35a0f	0.38154647
66	0xbf9099f4	-1.1296983
67	0xbf437b75	-0.76360255
68	0x3f09bb59	0.53801495
69	0xbe06a6d5	-0.13149579
70	0x3ec070ba	0.37586004
71	0x3f2c22d6	0.67240655
72	0xbf866e65	-1.050244
73	0x3ec4910b	0.3839191
74	0xbed8ccf8	-0.4234388
75	0x3f0fe974	0.56215596
76	0x3e4fd4c0	0.20296001
77	0x3c96db76	0.018415194
78	0xbe9b9834	-0.3038956
79	0xbed6975c	-0.41912353
80	0xbf8591f0	-1.0435162
81	0xbf8287c0	-1.0197678
82	0x3ee8d693	0.45476207
83	0x3f0a21ce	0.5395783
84	0x3e9b41dd	0.30323687
85	0x3ec0726d	0.375873
86	0x3f184740	0.5948372
87	0xbe13df7a	-0.14440718
88	0x3f0d17e0	0.55114555
89	0xbf22386b	-0.63367337
90	0x3f1ffb2e	0.62492645
91	0xbf631a1a	-0.887117
92	0xbe15621c	-0.14588207
93	0x3b380743	0.00280805
94	0x3e66e188	0.22546971
95	0x3e202046	0.15637311
96	0xbf8b7e25	-1.0897871
97	0x3e01cda9	0.1267611
98	0x3d90bf5e	0.070677504
99	0x3d8458f8	0.06462282
100	0x3da66fce	0.08126794
101	0x3c9f5ee9	0.019454436
102	0x3e7d0ae0	0.2471118
103	0x3e392de7	0.18083917
104	0x3e67a5ee	0.22621891
105	0xbf0d2c04	-0.5514529
106	0x3e9f8073	0.31152686
107	0xbee86372	-0.4538837
108	0xbf8874cc	-1.0660644
109	0x3f982b57	1.1888226
110	0xbd2b1d52	-0.04177601
111	0x3e3736fa	0.17892066
112	0x3ecf63ed	0.40505925
113	0xbe0b6ca7	-0.13615666
114	0x3f1e6343	0.6187021
115	0xbf5552d4	-0.8332951
116	0xbf99cbd9	-1.2015334
117	0x3f7876e7	0.9705643
118	0x3ea25ee2	0.31713015
119	0xbe52244d	-0.2052166
120	0x3de40fad	0.111358024
121	0xbf7bacc7	-0.9831051
122	0x3df9c533	0.12195816
123	0xbfb22e60	-1.3920403
124	0xbe9d9bda	-0.30782968
125	0xbe9ff27d	-0.3123969
126	0xbf1128f8	-0.5670314
127	0x3f272486	0.65290105
128	0x3ea1e405	0.31619278
129	0x3eadfe0e	0.3398289
130	0xbe4d1e27	-0.20031033
131	0xbfcb68b4	-1.5891328
132	0x3e84e8b6	0.25958794
133	0x3e0e2045	0.13879497
134	0x3e3b9314	0.18317825
135	0xbed51762	-0.41619402
136	0xbfa176b5	-1.2614352
137	0x3f4fa357	0.8110861
138	0x3e3abd20	0.18236208
139	0xbefc3d66	-0.49265593
140	0x3df21f7f	0.11822414
141	0xbdb884ba	-0.090096906
142	0x3f1ab81c	0.6043718
143	0xbec24cf1	-0.37949327
144	0x3d6cb6a2	0.05779136
145	0xbf14fb1a	-0.5819565
146	0xbf1d82d1	-0.61527735
147	0x3f921f09	1.1415721
148	0x3ea25f4a	0.31713325
149	0xbf53fc6b	-0.82807034
150	0x3e1b8f3b	0.15191357
151	0xbf933032	-1.1499083
152	0xbe55ce55	-0.2087949
153	0x3e2722a8	0.16321814
154	0xbf15411e	-0.58302486
155	0xbeda37e5	-0.4262077
156	0x3ef76ede	0.48326772
157	0x3de44ed2	0.11147846
158	0x3e914456	0.2837245
159	0xbf5609e2	-0.8360883
160	0x3b13c2d8	0.0022546556
161	0xbe80a37b	-0.25124726
162	0xbdf187a7	-0.11793452
163	0xbd8450f6	-0.064607546
164	0xbf511af0	-0.8168173
165	0xbe0faa1b	-0.14029734
166	0xbf5e8ad8	-0.8693061
167	0x3f3c1c98	0.7348113
168	0xbdce972c	-0.100874275
169	0xc00de050	-2.216816
170	0xbe33646f	-0.17518781
171	0x3f0d70b7	0.55250114
172	0xbcbe60a6	-0.023239445
173	0x3ec5c326	0.3862545
174	0x3f0c3017	0.5476088
175	0x3d86571e	0.06559585
176	0xbe87551e	-0.26432127
177	0x3fd31f34	1.6493897
178	0xbe3ce719	-0.18447532
179	0xbf0852b3	-0.5325119
180	0x3d5fd30b	0.054644626
181	0xbcb2987d	-0.021801228
182	0x3ec9c7cd	0.39410248
183	0xbf6e3512	-0.9304973
184	0x3e9d258e	0.30692714
185	0xbf1f1a67	-0.6214966
186	0xbec4e5aa	-0.3845647
187	0x3ec303fb	0.38088974
188	0xbefec49e	-0.49759382
189	0x3eba6362	0.36403948
190	0x3d0f8f1a	0.03504858
191	0x3f155a9a	0.5834137
192	0xbfe6d7d6	-1.8034618
193	0xbefa2418	-0.48855662
194	0x3f8b8c86	1.0902259
195	0xbe428915	-0.18997605
196	0x3eab9285	0.33510223
197	0x3e978c85	0.29599395
198	0x3d9a5eb9	0.07537598
199	0x3ea990e3	0.33118352
200	0xbf35e99b	-0.7105958
201	0x3fafab44	1.3724141
202	0x3eee7902	0.46576697
203	0xbed491b8	-0.41517425
204	0x3d4e6970	0.05039352
205	0xbf3a4928	-0.7276788
206	0x3ed93c44	0.42428792
207	0xbf343d86	-0.7040638
208	0xbfa7674d	-1.30784
209	0xbf26c041	-0.65137106
210	0xbd8606ee	-0.065442905
211	0xbda9bc40	-0.08287859
212	0x3e066814	0.1312564
213	0xbd3d9315	-0.046282846
214	0x3e5295d7	0.20564972
215	0xbe12c25e	-0.14331958
216	0x3f1670b0	0.587657
217	0xbe626a7f	-0.22110938
218	0xbfcdfc93	-1.6092705
219	0xbcb7ea42	-0.02245057
220	0x3e8b28af	0.27179477
221	0xbefd33a9	-0.49453476
222	0x3ecc1dc9	0.39866474
223	0x3e155069	0.14581455
224	0x3d8bd882	0.06828405
225	0x3db35707	0.087568335
226	0x3e3e7d09	0.18602385
227	0x3e59b551	0.21260573
228	0xbdcdf1cd	-0.100558855
229	0x3ecf5600	0.404953
230	0x3efc634f	0.49294516
231	0x3f71f1f0	0.9450979
232	0xbced938e	-0.029001024
233	0xbe5d2c6d	-0.21598978
234	0x3d1c2676	0.038122617
235	0xbe685ff9	-0.2269286
236	0xbe8e7a7e	-0.2782783
237	0x3f0b5b49	0.54436165
238	0x3ea0523e	0.31312746
239	0xbe0359d4	-0.12827235
240	0xbed240fe	-0.4106521
241	0x3ee89200	0.4542389
242	0xbf168d5d	-0.58809453
243	0x3efac521	0.48978522
244	0xbf2f52c5	-0.6848567
245	0x3e71c069	0.23608555
246	0xbd3dca04	-0.046335235
247	0x3f28b69a	0.6590363
248	0x3dd137b1	0.102157004
249	0x3f131f58	0.574697
250	0xbf7fe4f6	-0.9995874
251	0xbfb2cd6d	-1.3968941
252	0x3f109624	0.56479096
253	0x3f35e600	0.7105408
254	0x3f303248	0.68826723
255	0x3e088684	0.13332564

fc1.bias f4 [64]
0	0x3f01ada0	0.50655556
1	0x3eb93b3a	0.36178
2	0x3e9d4054	0.3071314
3	0xbeb39316	-0.35073155
4	0xbf49cd0a	-0.7882849
5	0x3f2be1fb	0.67141694
6	0xbd4ca483	-0.049961578
7	0xbe5ab6f3	-0.21358852
8	0x3e883d93	0.26609477
9	0x3e489227	0.19587003
10	0xbf1e9c59	-0.6195732
11	0x3f1bae0e	0.6081246
12	0x3e532e6f	0.20623182
13	0x3f1869bc	0.5953634
14	0xbf398a17	-0.72476333
15	0xbf48d860	-0.7845516
16	0x3e635482	0.22200206
17	0xbf382944	-0.71937966
18	0xbf48af91	-0.78392893
19	0x3ee932d3	0.45546588
20	0x3d6b4a78	0.057444066
21	0xbee11cd2	-0.439673
22	0xbf0ef151	-0.5583697
23	0x3eb7426a	0.35792857
24	0x3e4305bc	0.19045156
25	0x3edc1228	0.42982602
26	0x3ed70fea	0.4200433
27	0x3f083ff6	0.53222597
28	0xbe487c01	-0.19578554
29	0x3e1c2380	0.15247917
30	0xbeb062cd	-0.3445038
31	0xbf69f3f6	-0.9138788
32	0xbc9dacab	-0.019247374
33	0x3f2291ea	0.635039
34	0x3e906ac5	0.2820646
35	0xbe68f68c	-0.227503
36	0x3f1a3e21	0.6025105
37	0xbd926e4b	-0.07149943
38	0xbee936ef	-0.45549724
39	0x3f0e19fe	0.5550841
40	0x3e337639	0.17525567
41	0x3e65b36d	0.22431727
42	0x3e6094bb	0.21931736
43	0x3f19dd04	0.6010287
44	0xbf21f21e	-0.63260067
45	0xbec5e16c	-0.38648546
46	0xbf2fcb09	-0.6866918
47	0xbe7701d4	-0.24121791
48	0xbfa262c8	-1.2686396
49	0xbf2e6625	-0.6812461
50	0x3e995409	0.29946926
51	0xbf731a8b	-0.94962376
52	0xbf3f7891	-0.74793345
53	0xbf00cf03	-0.50315875
54	0xbf4660bb	-0.7749135
55	0x3dc9db4f	0.09856283
56	0x3e99f834	0.30072176
57	0xbef02c20	-0.46908665
58	0x3f16b26e	0.5886601
59	0xbf780727	-0.96885914
60	0xbe945344	-0.28969777
61	0xbf30de17	-0.6908888
62	0x3ee459a3	0.44599637
63	0x3f047b15	0.5175031

fc2.weight f4 [64, 64]
0	0x3e4f67ae	0.20254394
1	0xbd3866c2	-0.045019872
2	0x3e175580	0.1477871
3	0xbf70e672	-0.9410163
4	0xbf12e899	-0.57386166
5	0xbf68841e	-0.90826595
6	0xbf55270f	-0.83262724
7	0x3d883b74	0.06651965
8	0x3ea2a885	0.31769195
9	0x3d10e171	0.035371248
10	0xbef075ba	-0.46964818
11	0xbd7d4a5d	-0.061838496
12	0x3eaed18a	0.3414424
13	0x3de9a36b	0.11408123
14	0xbf358fbf	-0.70922464
15	0xbed5ab63	-0.4173232
16	0x3dc583f8	0.09644312
17	0xbc6bc125	-0.014389311
18	0xbf143c58	-0.5790458
19	0xbf2496fa	-0.6429287
20	0xbe6608ae	-0.22464249
21	0x3ee3be3c	0.44481075
22	0xbd7c98ab	-0.061669033
23	0x3dff7b13	0.124746464
24	0x3eed6075	0.46362653
25	0x3f041365	0.51592094
26	0xbd98cf16	-0.074613735
27	0x3ec73dab	0.38914236
28	0x3f8b39d1	1.0877019
29	0xbc839185	-0.0160606
30	0xbc58128e	-0.0131880175
31	0xbf23699f	-0.6383304
32	0x3ebbed9b	0.36704716
33	0x3e1bdb28	0.1522032
34	0xbdde4d68	-0.10854608
35	0x3f05eeee	0.523177
36	0xbcce20dd	-0.025162155
37	0x3dd0aa6b	0.10188755
38	0xbe8a9da0	-0.27073383
39	0x3ea89451	0.32925656
40	0xbf7d397c	-0.9891584
41	0xbf34a0bc	-0.7055776
42	0xbcada565	-0.02119703
43	0xbec26289	-0.379658
44	0xbf022937	-0.5084414
45	0xbed90da3	-0.42393216
46	0x3d931486	0.07181649
47	0xbf436657	-0.76328033
48	0xbee55ead	-0.44798794
49	0x3da6d833	0.081467055
50	0x3e9974fe	0.2997207
51	0xbf89dd1b	-1.0770601
52	0x3d60a0d2	0.05484087
53	0xbfa2a5b2	-1.2706816
54	0x3f40e115	0.7534345
55	0xbe020d88	-0.12700474
56	0x3cc133d2	0.02358428
57	0xbd8d9089	-0.069123335
58	0x3ce15921	0.02750832
59	0xbf2012eb	-0.62528867
60	0x3f2f96de	0.6858958
61	0xbeb7f2a4	-0.35927308
62	0x3df751df	0.120761625
63	0xbdf84b16	-0.121236965
64	0x3c282581	0.010262848
65	0xbca8cb3a	-0.020604718
66	0xb929317f	-0.00016135535
67	0xbdbe5b4c	-0.09294757
68	0xbe2278b2	-0.15866354
69	0xbdac8864	-0.08424452
70	0xbe27bbf3	-0.1638029
71	0xbb8a4d73	-0.0042206584
72	0xbda609ea	-0.0810736
73	0x3cdc4a41	0.026890876
74	0xbcde4a1c	-0.027134947
75	0xbdd5e679	-0.1044435
76	0x3c41e8e8	0.011835314
77	0xbe4bd005	-0.19903572
78	0xbe1f7f18	-0.15575826
79	0xbdf00c3b	-0.11721083
80	0xbd64ef15	-0.05589207
81	0x3d3439c0	0.044000387
82	0x3d1f016d	0.03881972
83	0x3c9741f4	0.018464066
84	0xbdeca971	-0.11555756
85	0xbd99ac14	-0.075035244
86	0x3dd1f383	0.10251524
87	0xbe44017c	-0.19141191
88	0xbe53077d	-0.20608325
89	0xbd9a5496	-0.07535665
90	0xbdd3b450	-0.10337126
91	0xbe2a7395	-0.16645654
92	0xbe781a6e	-0.24228832
93	0xbd8d7c3e	-0.06908463
94	0xbdb89e07	-0.09014516
95	0xbdf909c6	-0.12160067
96	0xbe750ca1	-0.23930599
97	0xbd472637	-0.04862043
98	0xbd234bf3	-0.039867353
99	0x3ca24827	0.019809796
100	0xbe742689	-0.23842825
101	0xbd8d928b	-0.069127165
102	0xbdb9ca92	-0.0907184
103	0xbccebe13	-0.025237119
104	0xbe80db0c	-0.2516712
105	0xbe87b98b	-0.26508746
106	0xbda32900	-0.079668045
107	0xbe5674a4	-0.20942932
108	0xbe224f2a	-0.15850511
109	0xbe90900c	-0.282349
110	0xbd8e3178	-0.06943029
111	0xbe75fcbe	-0.24022195
112	0xbd050245	-0.032472868
113	0x3d79c844	0.060982004
114	0xbdd0482c	-0.10170016
115	0x3cf63e4a	0.030058999
116	0x3cfe2a8f	0.031026153
117	0xbdc96f91	-0.09835733
118	0xbd2d6526	-0.04233279
119	0xbdbbb426	-0.0916522
120	0xbe3732ae	-0.17890427
121	0xbe275b99	-0.16343535
122	0xbe1aab8c	-0.15104502
123	0xbe1eb6c9	-0.15499415
124	0xbd9ddf78	-0.07708639
125	0xbe1fb7bc	-0.15597433
126	0xbda41425	-0.08011655
127	0xbe261ecd	-0.16222687
128	0xbe0bbe73	-0.1364687
129	0xbd05be40	-0.03265214
130	0xbd9ba8e3	-0.07600572
131	0xbdb973a2	-0.09055258
132	0x3bc0b93b	0.005881456
133	0xbdc4ea03	-0.09614947
134	0xbe1ece24	-0.15508324
135	0xbdd487ac	-0.1037744
136	0x3d51bbda	0.05120454
137	0xbe27c449	-0.1638347
138	0xbe34b722	-0.17647985
139	0xbd8cf54f	-0.068827264
140	0x3d151997	0.036401358
141	0xbe04759b	-0.12935488
142	0xbc261bee	-0.010138495
143	0xbc8f2dbf	-0.017477868
144	0xbe4441a7	-0.1916567
145	0xbe44083b	-0.19143765
146	0x3d667841	0.056267027
147	0xbdb9870a	-0.0905896
148	0xbd34dfa1	-0.04415858
149	0xbdb772f5	-0.08957473
150	0xbe366efa	-0.17815772
151	0xbe131110	-0.14361978
152	0x3d865c52	0.065605775
153	0xbdaccee9	-0.084379025
154	0xbe64e64d	-0.22353478
155	0xbd23e6d5	-0.04001506
156	0xbdac9964	-0.084276944
157	0xbdce9882	-0.10087682
158	0xbb4f66c3	-0.0031646944
159	0x3d02e899	0.031960104
160	0x3cfbed52	0.030752812
161	0xbe149170	-0.14508605
162	0x3d3a37f5	0.04546352
163	0xbc0b853c	-0.008515652
164	0xbe107770	-0.14108062
165	0x3def10a4	0.11673096
166	0xbdcb49d0	-0.09926188
167	0xbbe9ff17	-0.007141005
168	0xbe195174	-0.14972478
169	0xbe3ecb36	-0.18632206
170	0xbd1be0c8	-0.038056165
171	0xbce47de5	-0.027892062
172	0x3dc11e23	0.09429576
173	0xbcad1683	-0.021128898
174	0xbda618f1	-0.08110226
175	0xbe3293de	-0.1743922
176	0xbd20c101	-0.039246563
177	0xbe07e3bb	-0.13270466
178	0xbe00da76	-0.12583336
179	0xbdbbe9b5	-0.091754355
180	0xbe27ebbd	-0.16398521
181	0x3d2f26bf	0.04276156
182	0xbe7a27b6	-0.24429211
183	0xbda67c5e	-0.0812919
184	0xbe58c984	-0.21170622
185	0x3e00ae84	0.12566572
186	0x3d09cca6	0.033642434
187	0xbd9f40fc	-0.07776067
188	0xbe60b6d2	-0.2194474
189	0xbd24650b	-0.040135425
190	0xbb65b483	-0.003505022
191	0x3e079a4b	0.13242452
192	0xbebdcbeb	-0.3706964
193	0x3ec5d833	0.3864151
194	0x3f0ebbe7	0.55755466
195	0x3e4793e8	0.19490016
196	0xbe153267	-0.14570008
197	0x3d830075	0.063965715
198	0xbe369fa1	-0.17834331
199	0xbdd03ac1	-0.101674564
200	0x3f14ba97	0.58097214
201	0x3ea3ef8b	0.32018694
202	0x3f0b00b7	0.54297966
203	0xbf6ec2da	-0.9326607
204	0x3e32fedf	0.17480038
205	0x3f1e7544	0.61897683
206	0xbfab1705	-1.33664
207	0xbf0a65a6	-0.54061353
208	0xbfa2f89d	-1.2732121
209	0xbf19e899	-0.6012054
210	0xbea8e9ce	-0.3299088
211	0xbc01992c	-0.007910054
212	0x3efab394	0.48965132
213	0xbf6aac8c	-0.91669536
214	0x3d852ade	0.06502317
215	0x3c82f720	0.015986979
216	0x3f337a9b	0.70108956
217	0x3f6431fb	0.89138764
218	0x3e78e7a0	0.24307108
219	0x3f403460	0.7507992
220	0x3e382874	0.17984182
221	0x3e5c7785	0.21529968
222	0xbea1036b	-0.3144792
223	0x3e54feb7	0.20800291
224	0xbdc6466f	-0.09681403
225	0xbf969e32	-1.1767027
226	0x3cf4901d	0.029853875
227	0x3e5da1ff	0.21643828
228	0x3f4bd3ef	0.7962026
229	0x3ddb948b	0.10721692
230	0xbd1ceaa3	-0.038309705
231	0x3d589754	0.052878693
232	0xbe9ae846	-0.30255336
233	0x3ef50f0c	0.47863042
234	0x3dd9d612	0.10636534
235	0xbdc79df4	-0.09746924
236	0x3d8d80c8	0.06909329
237	0xbf179215	-0.5920728
238	0x3f25328e	0.64530265
239	0x3f16d188	0.5891347
240	0xbf393c18	-0.7235732
241	0xbdea188c	-0.11430463
242	0xbe2e787e	-0.17038152
243	0xbf834443	-1.0255207
244	0x3fcb8965	1.5901304
245	0x3ea5bba9	0.32369736
246	0xbf97784c	-1.1833587
247	0x3e021a33	0.12705307
248	0x3ef42680	0.47685623
249	0x3e9a98cb	0.30194697
250	0x3d8cc986	0.06874375
251	0xbdb1fa91	-0.0869037
252	0x3dfa4d37	0.12221759
253	0x3e177e1e	0.14794204
254	0xbf554949	-0.8331495
255	0xbf5e2c4d	-0.8678635

fc2.bias f4 [64]
0	0x3d88bca1	0.06676603
1	0xbde4b50f	-0.11167347
2	0xbdb1317e	-0.08652018
3	0x3eff082c	0.49810922
4	0xbe157400	-0.14595032
5	0x3f223fb6	0.63378465
6	0xbdf4edd2	-0.11959423
7	0x3b95e0cd	0.0045739175
8	0xbe015599	-0.12630309
9	0x3f224a46	0.6339458
10	0xbbcefc3c	-0.00631669
11	0x3d168c7f	0.03675508
12	0x3f3161a4	0.6928961
13	0x3b620432	0.0034487364
14	0xbe1e0750	-0.15432477
15	0xbe1361ec	-0.14392823
16	0xbe21c2c9	-0.15796961
17	0xbe2df50d	-0.1698801
18	0xbdba9cc8	-0.09111935
19	0xbe478c9f	-0.19487236
20	0x3eafb8af	0.3432059
21	0xbcb797d2	-0.02241126
22	0x3d15c3a5	0.036563534
23	0x3d9c0ac1	0.07619239
24	0x3ebd3bdc	0.36959732
25	0xbdb2c6a6	-0.087292954
26	0xbc2e0c3e	-0.010623036
27	0x38b4f300	8.628331e-05
28	0xba8ac318	-0.0010586707
29	0x3c4c7e2f	0.012481256
30	0xbd524ecc	-0.051344678
31	0xbd79acc9	-0.060955796
32	0xbe3371be	-0.17523858
33	0x3ef355d0	0.47526407
34	0x3f065cdb	0.52485436
35	0xbd2c3729	-0.042044792
36	0xbe095c4b	-0.13414113
37	0xbd70d910	-0.058800757
38	0xbce36416	-0.027757686
39	0x3bd3fe3d	0.0064695165
40	0xbd67a7bd	-0.056556452
41	0x3eee8e8b	0.46593127
42	0xbd9295e7	-0.07157498
43	0xbd9ab01d	-0.07553122
44	0xbd84facf	-0.064931504
45	0xbe541a4c	-0.20713156
46	0xbdeb5710	-0.11491215
47	0x3f4eb525	0.80745155
48	0x3f0e899d	0.5567873
49	0xbe38a2a6	-0.18030795
50	0xbdb2ea19	-0.08736057
51	0xbdabdea0	-0.08392072
52	0xbe122714	-0.1427272
53	0xba8f127a	-0.0010915541
54	0xbc39d3a0	-0.011341959
55	0xbdf971ae	-0.12179886
56	0xbe2f1811	-0.17099024
57	0xbd93eabc	-0.072225064
58	0xbd72257c	-0.05911778
59	0xbd335cec	-0.04378979
60	0xbdbaae16	-0.091152355
61	0x3ec20cda	0.3790043
62	0xbe292569	-0.16518177
63	0xbe04614b	-0.1292774

fc3.weight f4 [5, 64]
0	0x3d97f814	0.07420364
1	0xbd3cdea2	-0.046110757
2	0x3deff3c7	0.11716419
3	0xbd6c9dc4	-0.057767645
4	0x3e254ca1	0.16142513
5	0xbc28a948	-0.010294266
6	0xbc5e0410	-0.013550773
7	0x3e61ae15	0.22039063
8	0xbd55c2e7	-0.052187826
9	0x3dd52f1d	0.10409377
10	0xbde92694	-0.11384311
11	0xbd5d255e	-0.053990714
12	0xbdff3bce	-0.12462579
13	0xbdc850b6	-0.097810194
14	0x3df1d9ee	0.11809145
15	0x3cad1f68	0.02113314
16	0xbd9d8cfe	-0.07692908
17	0xbc26619a	-0.010155106
18	0x3d60628c	0.05478148
19	0xbd9037c3	-0.07041886
20	0xbdfa4cf7	-0.12221711
21	0xbdaa6680	-0.083203316
22	0x3cbfc8fc	0.023411267
23	0xbd9c10d1	-0.07620395
24	0xbd1a4a16	-0.03766831
25	0xbdd3d05f	-0.10342478
26	0x3e22e569	0.15907826
27	0xbe4d78a3	-0.2006555
28	0x3d3ad08b	0.04560904
29	0xbd9d9ea0	-0.07696271
30	0x3d33785b	0.04381595
31	0x3c9443bc	0.018098705
32	0x3bf33882	0.0074225077
33	0x3e2034b2	0.15645102
34	0x3e99be5a	0.3002804
35	0xbcfce528	-0.030870989
36	0xbc8c27b3	-0.017108774
37	0xbe13cc05	-0.14433296
38	0x3dee9981	0.11650372
39	0xbd3e7b85	-0.046504516
40	0x3e00aace	0.12565157
41	0xbe4eeabc	-0.20206732
42	0xbcf42a82	-0.029805426
43	0xbe117878	-0.14206111
44	0x3e6cd138	0.23126686
45	0xbc4c97c0	-0.012487352
46	0x3dd64434	0.104622275
47	0xbd45d1d1	-0.0482958
48	0x3e546230	0.2074058
49	0xbdb11e0a	-0.086483076
50	0xbd8e2b8b	-0.06941899
51	0x3e0af993	0.13571768
52	0x3e09b23b	0.13446896
53	0xbc037402	-0.008023264
54	0xbd871747	-0.06596237
55	0xbd9b87dc	-0.075942725
56	0xbd16d4e4	-0.036824122
57	0x3d553a4e	0.052057557
58	0x3d6fed7d	0.058576096
59	0xbaa4f248	-0.0012584412
60	0x3e0a9273	0.13532428
61	0xbe69e1b9	-0.22840013
62	0x3e208b11	0.1567805
63	0x3e0fa6d7	0.14028488
64	0xbf31ad4d	-0.6940506
65	0x3de3eaac	0.111287445
66	0xbde013ed	-0.109413005
67	0xbdb7db9a	-0.089774325
68	0x3e130f5e	0.14361331
69	0x3f61e48c	0.8823936
70	0x3d076e67	0.033064272
71	0xbccc621e	-0.02494913
72	0x3dcaf4e3	0.0990999
73	0xbe94e39d	-0.29079905
74	0x3e1fc11c	0.15601009
75	0xbf6f701a	-0.9353043
76	0xbf138d37	-0.5763735
77	0x3dc409df	0.09572195
78	0x3de16e0d	0.11007319
79	0x3e0fd35f	0.14045475
80	0xbd0d021b	-0.034425836
81	0x3e0c1913	0.1368144
82	0x3e1c785f	0.15280293
83	0x3e4ded6f	0.20110105
84	0x3e8485b2	0.2588325
85	0x3e818f6b	0.25304732
86	0x3e65526c	0.22394723
87	0xbe97cb05	-0.2964708
88	0x3fa18248	1.2617884
89	0x3e696259	0.22791423
90	0x3d4f47ab	0.050605457
91	0x3d107fbf	0.03527808
92	0xbe256fcd	-0.1615593
93	0x3e0f41ab	0.13989894
94	0x3d8948f3	0.06703367
95	0x3de90b63	0.11379125
96	0x3e02e023	0.12780814
97	0x3f82184d	1.0163666
98	0x3eaf1713	0.34197292
99	0xbd530067	-0.051514056
100	0x3de04719	0.10951061
101	0x3e8e39ff	0.27778623
102	0x3e5a20cd	0.21301575
103	0x3dd5542b	0.104164444
104	0x3e236634	0.15956956
105	0xbeedd15d	-0.46448794
106	0x3d6ff542	0.058583505
107	0x3e529604	0.20565039
108	0x3dbf4a1b	0.09340306
109	0xbdbe2276	-0.09283917
110	0x3df5a99a	0.119952396
111	0x3f12259d	0.57088643
112	0x3e563a70	0.2092073
113	0x3d2b348b	0.041798156
114	0x3db96868	0.09053117
115	0x3e06d0a5	0.13165529
116	0x3e6a2d15	0.2286876
117	0xbce96384	-0.028489836
118	0x3e04d54f	0.12971996
119	0x3dc78e2c	0.09743914
120	0xbda451d7	-0.08023422
121	0xbc8185ba	-0.015810836
122	0x3e31ee37	0.17376028
123	0x3e5ef0e6	0.21771583
124	0xbe22df29	-0.15905441
125	0xbebd0b37	-0.3692262
126	0xbd91e8f7	-0.07124513
127	0xb94dbd7a	-0.00019620909
128	0x3f019651	0.5061999
129	0x3b9d2e3b	0.004796771
130	0x3dddc038	0.108276784
131	0x3f162ddd	0.5866373
132	0xbb582821	-0.0032982903
133	0x3e4dbf52	0.20092514
134	0xbd91ab3f	-0.07112741
135	0xbb8c1145	-0.0042745196
136	0x3d8cdb85	0.068778075
137	0xbdc519f2	-0.09624089
138	0x3df840e4	0.12121752
139	0x3f9045d5	1.1271311
140	0xbf307629	-0.689303
141	0xbc0d2e32	-0.008616971
142	0x3c44d487	0.012013561
143	0x3cc35452	0.023843918
144	0xbd094946	-0.033517145
145	0x3d879c07	0.06621557
146	0x3c853cf7	0.016264422
147	0x3d20e057	0.039276447
148	0xbf028d8c	-0.50997233
149	0x3d2ea047	0.04263332
150	0xb9110894	-0.00013831473
151	0x3eed7b11	0.46382955
152	0xbf65ae1d	-0.897188
153	0x3d1100c8	0.035401136
154	0x3c8fda6d	0.017560208
155	0xbcccf937	-0.025021179
156	0xbd0fd382	-0.03511382
157	0x3d11efd5	0.035629112
158	0x3e088d43	0.13335137
159	0x3d03c25b	0.032167774
160	0x3d75ae30	0.05998057
161	0xbfa62fed	-1.2983376
162	0xbda78e8e	-0.08181487
163	0x3d552d16	0.05204495
164	0xbd942e9b	-0.07235452
165	0x3dec0cc5	0.11525873
166	0x3e480fdf	0.19537304
167	0x3e0e286b	0.13882606
168	0x3d75ee12	0.060041495
169	0x3e6ec716	0.23318133
170	0x3e1a51b4	0.1507023
171	0xbd3cbe39	-0.046079848
172	0x3e141e34	0.14464647
173	0x3c4fb55c	0.012677517
174	0xbd279110	-0.040909827
175	0xbf2fe7c7	-0.6871304
176	0x3f09125a	0.5354363
177	0x3c622f6b	0.013805251
178	0x3dffc0ea	0.12487967
179	0xbbcb26d5	-0.0061996975
180	0xbbb9ef74	-0.005674297
181	0xbcdc914e	-0.026924755
182	0x3e21d121	0.15802433
183	0x3c5405b9	0.0129408175
184	0x3c1512ed	0.009098751
185	0x3ccd3351	0.025048884
186	0x3d82cb69	0.06386454
187	0x3e3c289a	0.18374863
188	0x3d5817f9	0.052757237
189	0xbefdddd5	-0.49583307
190	0x3c371b6f	0.011175974
191	0x3dd4eeac	0.103970855
192	0x3e8705e2	0.26371676
193	0x3e6f1419	0.2334751
194	0xbda68525	-0.08130864
195	0x3f0cfbaa	0.5507151
196	0xbd3e4a39	-0.046457503
197	0xbe4950bd	-0.19659705
198	0x3d84b6d7	0.064801864
199	0x3db0beb9	0.086301275
200	0x3da7ecf5	0.08199493
201	0xbe8ef412	-0.27920586
202	0x3dd60930	0.10450971
203	0xbe099285	-0.13434799
204	0x3f82fcbb	1.0233377
205	0x3e27b319	0.16376914
206	0x3db9c863	0.09071424
207	0xbc662cf7	-0.014048806
208	0xbdc9dec3	-0.098569416
209	0xbe19d194	-0.15021354
210	0x3cce9ffa	0.025222767
211	0x3dd12e43	0.10213902
212	0x3ef4ecf6	0.47837037
213	0x3dd1ddc5	0.10247377
214	0x3c418782	0.011812093
215	0x3f04e177	0.5190653
216	0xbd863b87	-0.06554323
217	0x3d18b06d	0.037277628
218	0xbe360e1a	-0.17778817
219	0xbca791a4	-0.020455189
220	0x3dae5651	0.08512557
221	0x3e98c27c	0.2983588
222	0xbc8aab72	-0.016927455
223	0xbd3feca9	-0.046856556
224	0x3e35bf32	0.17748716
225	0x3eae5dc3	0.3405591
226	0x3f49d09a	0.78833926
227	0x3df83f0a	0.12121399
228	0x3dfde6f4	0.123975664
229	0xbdb19fba	-0.086730435
230	0xbd0e5c99	-0.034756277
231	0x3bc4f321	0.0060104285
232	0x3da20b71	0.079123385
233	0xbeab3b66	-0.33443755
234	0x3da26869	0.07930071
235	0xbcdbf886	-0.026851904
236	0xbd23816f	-0.03991836
237	0xbe08ae13	-0.13347654
238	0xbc456c9a	-0.012049818
239	0xbe8c2afa	-0.2737654
240	0xbf0328ec	-0.51234317
241	0xbe16dafc	-0.14731973
242	0x3ccb80ba	0.024841655
243	0x3cb83ea6	0.02249081
244	0x3e2b9d0d	0.16759129
245	0x3c785266	0.015156364
246	0x3d239a11	0.03994185
247	0xbd0612c7	-0.03273275
248	0xbc2108ed	-0.009828788
249	0x3b636881	0.003469974
250	0xbba22fa1	-0.0049495255
251	0x3d12b9f4	0.03582187
252	0xb894833e	-7.081636e-05
253	0x3f6d1097	0.9260344
254	0xbbee002c	-0.007263204
255	0x3cebc727	0.028781487

fc3.bias f4 [5]
0	0xbf0b50e2	-0.5442029
1	0x3e9746c1	0.29546168
2	0xbe2ecab4	-0.17069513
3	0xbd0c72b7	-0.034289088
4	0x3ee83eb3	0.45360336
