0 课件原版/maddpg1.pth (torch, 22551 bytes, 6 tensors)

fc1.weight f4 [64, 10]
000000 e0 3d d9 b9 d1 69 3a 3f 35 45 4f be 6e 53 d6 3e
       -0.00041435566 0.72817713 -0.20241244 0.41860527
000010 04 9e 67 3e a0 81 fd 3e 5e 18 6b bd 05 ea 46 3f
       0.22618872 0.4951296 -0.057396285 0.77700835
000020 82 71 0e 3f d8 52 60 bf 83 b2 a8 3f 26 7d a1 3e
       0.5564195 -0.8762641 1.3179477 0.31540793
000030 3b 9a 89 3d bc d1 e6 bc 3d ca 0e bf af 06 d2 be
       0.0671887 -0.028176181 -0.5577734 -0.41020724
000040 29 91 94 be 13 0a 2f be c7 de a0 3e cb 15 25 be
       -0.29016998 -0.17093687 0.31419966 -0.16121595
000050 65 f5 46 3d 53 42 44 bf 68 0e 37 3d 5e 06 59 be
       0.04857387 -0.766637 0.044691473 -0.21193835
000060 26 c5 7f be 7f cb d7 3e 7a 21 be bd e3 ff da 3e
       -0.2497755 0.42147443 -0.09283729 0.4277335
000070 47 2e ed 3e 67 4a 5a bf d1 52 35 be 3c 2b 3e bd
       0.4632437 -0.8526978 -0.17707373 -0.04642795
000080 a4 5c 9d bd 0f b1 28 3e 93 42 d0 3e db 06 8a be
       -0.076836854 0.16473792 0.40675792 -0.26958355
000090 9f 4d 1b 3d d4 c5 6b be 6a b1 bc 3e e5 f8 5f be
       0.037915822 -0.23024684 0.36854106 -0.2187229
0000a0 e3 d6 ed 3e 99 81 b2 bf 99 29 f2 3e 42 cd a9 3e
       0.46453008 -1.39458 0.47297361 0.33164412
0000b0 77 de c3 3c 3c f6 0d 3c 19 7a 10 bf cf d7 3a 3f
       0.02390979 0.008664664 -0.56436306 0.7298555
0000c0 37 b7 fe 3e ee 75 70 be 30 0c 1b 3f da 8c fe 3c
       0.49749157 -0.23482487 0.6056547 0.031073023
0000d0 ec 94 03 3e 09 57 49 be 98 73 34 be 1f 5b 8a be
       0.12849778 -0.19662108 -0.1762222 -0.27022645
0000e0 c3 eb 4f be e1 aa 2e bf a5 fb 7d be b6 28 6d 3d
       -0.2030478 -0.6822949 -0.24803026 0.057900153
0000f0 fb 90 fe 3f 31 e8 eb 3f 51 61 d0 3e c7 24 19 3d
       1.9887995 1.8430234 0.40699247 0.03738859
000100 b4 73 11 3f bf 5f ac bc 09 90 2a 3d 89 c8 93 be
       0.56817174 -0.021041749 0.04164127 -0.28863934
000110 4a f4 3e be da 0a 98 3e ab 8d 41 be 69 36 95 bc
       -0.18647876 0.2969578 -0.18901698 -0.018214421
000120 53 4e ed 3d 85 9e 39 bd dc 38 5a 3f cc 48 be 3e
       0.11587205 -0.04531719 0.8524301 0.37164915
000130 d6 77 7d be 23 4f 71 be 6a f1 3f 3f e5 8d 54 be
       -0.24752745 -0.23565345 0.74977744 -0.20757253
000140 d0 95 17 3e 92 bc 31 3e f9 7e 2a 3e f3 19 24 3e
       0.14803243 0.1735709 0.16649999 0.16025524
000150 8a 1d ab 3e cb 3e 27 3d 94 63 b1 3e f0 36 50 3d
       0.33420974 0.04083137 0.34646285 0.050833642
000160 1d 77 d9 3c 2f d9 7a bf 8b ac 47 3e 6f 4c bb 3d
       0.026546055 -0.97987646 0.19499414 0.09145438
000170 1e f8 95 3e 9b ba a1 be be 8e 38 3f 9b 09 03 bf
       0.2929086 -0.3158768 0.7209281 -0.5118653
000180 51 f5 36 bd 2b ec 38 3e a5 48 c6 bc ff 99 0b 3f
       -0.044667546 0.18058841 -0.024204561 0.54531854
000190 16 28 a7 3f a6 87 95 be c9 b8 f7 3e f3 92 8b 3e
       1.3059108 -0.29205054 0.48383167 0.2726055
0001a0 f6 4c c2 3e 5f df 7a 3d f6 8d 36 be e6 b1 f3 3e
       0.37949342 0.06124818 -0.17827591 0.47596663
0001b0 29 4b ad bc 9f d4 86 3e 29 94 a6 3f bf f6 1e bf
       -0.021154003 0.26334092 1.3013965 -0.62095255
0001c0 ae 29 6c 3e 5d 8f dd bd fa 55 21 3f 92 71 8e be
       0.23062775 -0.1081836 0.63021815 -0.27821022
0001d0 04 fc 49 be 1a 67 06 3e ca 9a a3 be 54 8a 5c bd
       -0.19725043 0.13125268 -0.31954032 -0.053842857
0001e0 ce 2b c9 3f c7 65 ef bf 80 e9 49 be 90 d0 ce be
       1.5716493 -1.8702935 -0.1971798 -0.40393496
0001f0 f9 30 6f 3e 98 81 98 be fc 58 00 bf cc 52 9b be
       0.23358525 -0.29786372 -0.5013578 -0.30336607
000200 f4 e1 8b bd 8b 62 96 3d 69 dc 49 be 49 be 99 3e
       -0.068302065 0.07343014 -0.19712986 0.3002799
000210 21 e9 48 3e 9a c4 48 bf 60 b3 d2 3e c2 8d 82 bf
       0.19620182 -0.7842499 0.41152477 -1.0199511
000220 e8 6c 30 3e 53 19 6c be 5e fb 86 3e 34 de 5e 3f
       0.17229044 -0.23056535 0.26363653 0.87057805
000230 14 27 e6 3f 39 a1 00 40 02 c9 aa 3e 7d 60 82 3d
       1.7980676 2.0098403 0.33356482 0.0636606
000240 fc fc 0a 3f 9d 81 bb 3e ad 1b d4 bd 1b 9b 04 3e
       0.54292274 0.36622325 -0.10356841 0.12949793
000250 34 7f 09 3f 8f b0 4d 3e af 0b 5c 3f 25 f7 8e 3f
       0.5370972 0.20086883 0.8595533 1.1169173
000260 e8 0f 82 3e 25 dc c2 bc c8 c6 b9 3e 5c 0a 93 bd
       0.2540276 -0.023786614 0.3628447 -0.0717971
000270 84 3e c9 3d 3b 89 ad be 9f 55 a7 3e 01 be 82 3e
       0.09826377 -0.3389376 0.3268251 0.25535586
000280 af fe 9f 3f ff 50 6b bf 90 bb bb 3c a0 b1 c9 be
       1.2499598 -0.91920465 0.022916585 -0.3939333
000290 d9 17 fc bc 9f 43 4a be c5 c0 01 bf 4c 60 dc 3e
       -0.03077309 -0.19752358 -0.5068477 0.4304222
0002a0 22 5e 8f 3e 98 7c 2d be aa e6 6f bc f3 d2 32 3f
       0.28001505 -0.1694206 -0.014642397 0.6985313
0002b0 22 b8 0c 3d b6 e7 ea 3d 08 54 1a bb 3a 90 0c be
       0.03435529 0.114699766 -0.0023548622 -0.13726893
0002c0 5d ea c0 3d cd db 8e 3e 02 b3 81 3e 71 be 8e bf
       0.09419701 0.2790207 0.25331885 -1.1151868
0002d0 85 a5 b5 bd ad 50 05 bf de db 50 3d 44 c1 2c 3d
       -0.08869461 -0.52076226 0.05099093 0.0421765
0002e0 cc 73 3f 3e b9 fb 50 3e 6a 00 34 3d be 07 91 3e
       0.18696517 0.20408525 0.043945707 0.2832622
0002f0 01 38 96 3e 3d d5 1a 3f 13 6a da 3f 8e 6b ec be
       0.29339603 0.60481626 1.7063621 -0.46175808
000300 ef 5f b9 3d f3 00 d6 bd c4 d2 90 3e 42 81 cd bd
       0.09051501 -0.104494 0.282858 -0.100344196
000310 36 0e 31 be b1 50 5c 3e 12 4e 0e 3f 62 4f 8f be
       -0.17290577 0.21515156 0.55587876 -0.27990252
000320 25 10 58 3f 2a dc 5a bf 16 58 a5 bd 25 de 8a 3c
       0.84399635 -0.85492194 -0.08073442 0.01695163
000330 e1 37 05 3e 0b 6a a7 be 9d 6a 76 be 7b aa 6e bd
       0.13009597 -0.32698092 -0.24064107 -0.05826805
000340 d0 a3 ee 3e 0f 96 c0 be a7 42 9f be 59 37 f9 be
       0.46609354 -0.37614486 -0.3110554 -0.4867504
000350 35 ff 94 3a b1 b6 82 be 74 77 dc bb de 0a f6 be
       0.0011367562 -0.25530007 -0.006728107 -0.48055166
000360 a5 04 00 3e f8 bb c1 3d 68 ba 15 3d b2 1f 26 3f
       0.12501772 0.0945968 0.036554724 0.64892113
000370 af 51 44 40 be f5 14 c0 9e 2a 96 3e 6f 81 98 bd
       3.0674856 -2.327499 0.2932939 -0.074465625
000380 48 85 42 3c 5b 37 56 be 32 4c 27 3e 09 4f a0 3d
       0.011872597 -0.20919554 0.1633766 0.07827575
000390 3c 7f 13 3f c7 0e 10 bf 9e b6 4a bf 21 69 8c 3f
       0.5761602 -0.5627255 -0.791849 1.0969583
0003a0 20 a2 1d 3c 4a 28 ba 3d 75 50 a2 be 7b c0 58 3e
       0.009621173 0.09089716 -0.3170201 0.21167175
0003b0 68 57 4f 3e ed 1c 24 bf b1 dc 92 3e 26 93 90 3e
       0.20248187 -0.6410664 0.28684 0.28237265
0003c0 ee db 23 3f a7 1e 06 3f 27 9d 17 3e 3c d7 89 bd
       0.6400746 0.5239052 0.14806043 -0.06730506
0003d0 86 6b 7f bb 5a a9 80 bd f0 d0 bf be 95 27 31 3d
       -0.0038974 -0.06282301 -0.37464094 0.04325064
0003e0 7d 24 0c bf e0 62 58 bf fe 3f a6 bf d5 56 ab 3f
       -0.54743177 -0.8452587 -1.2988279 1.3385874
0003f0 c9 95 8f 3d 55 7f 6a bd b8 ff 14 be 3f 7e 1d bd
       0.07010991 -0.05725034 -0.14550674 -0.038450476

fc1.bias f4 [64]
000000 e4 1f 4f bf d1 29 06 bf 12 f9 39 be 6c bf c8 bd
       -0.80908036 -0.52407557 -0.18161419 -0.09802136
000010 c9 ce ba bd 15 e4 6f 3e 00 f8 3b 3e c1 63 43 bf
       -0.091214724 0.2342685 0.18356323 -0.7632409
000020 84 06 e3 3e c5 e5 56 bf 22 2d 1c be e8 73 23 3e
       0.4434091 -0.8394435 -0.15251592 0.15962183
000030 73 b0 c7 be 63 37 1e bf d0 b6 8a be c5 8c 17 bf
       -0.39001808 -0.61803263 -0.270926 -0.5919917
000040 d2 70 5b be 27 4d d5 bd 5f d7 03 bf ca 14 54 bf
       -0.21429756 -0.10415106 -0.51500505 -0.8284422
000050 e9 73 71 bf ae 06 42 be e5 3c 3c bf b0 2b 2a bf
       -0.9431749 -0.1894786 -0.7353042 -0.6647291
000060 d5 6c b9 be 33 c9 43 bf 6a f0 26 bf 48 40 12 3d
       -0.36215845 -0.7647888 -0.6521059 0.035705835
000070 7a 60 13 bf 1f 5b 79 bf a8 5c e3 be af 3e 68 be
       -0.57569087 -0.97404665 -0.4440663 -0.22680162
000080 56 84 88 be d5 a8 c5 3e fc 1c 0f be e8 b8 cf be
       -0.26663464 0.3860537 -0.139759 -0.4057076
000090 ad a1 b4 be ef fa e4 3d 92 0b a1 be d7 bc 29 be
       -0.352796 0.11180674 -0.3145414 -0.16575943
0000a0 f2 5a 42 bf 49 f8 68 bf 1c ff 47 bf 6f f5 78 be
       -0.7592002 -0.91003853 -0.7812364 -0.24312375
0000b0 3d f1 97 3c 04 cb 61 bf e3 1f 2b bf ae 76 1c bf
       0.018547649 -0.882004 -0.6684553 -0.6111859
0000c0 c9 29 29 bf 66 b4 b1 be 7e 41 94 3e ca 25 e5 be
       -0.66079384 -0.34707946 0.28956217 -0.44755393
0000d0 9b 62 32 bf 09 77 04 bf bf eb c2 bd a0 e9 70 bc
       -0.6968171 -0.51744133 -0.09517621 -0.014704138
0000e0 73 ac 85 be 7a 63 d7 be aa f8 97 bf be 27 bb be
       -0.2610813 -0.42068082 -1.1872761 -0.36553758
0000f0 98 19 32 be bd 8d 1d bf 52 a3 29 3e 7e 98 f9 be
       -0.17392576 -0.615444 0.16566208 -0.48749155

fc2.weight f4 [64, 64]
000000 89 9c 39 be 8c 56 24 3c ba b6 bf bd 0e 4a c1 3d
       -0.1812612 0.0100304 -0.09361024 0.09437953
000010 4e fd da bd ed 33 b8 bc a0 6b a1 3c 6e 39 64 be
       -0.10692845 -0.022485698 0.01970464 -0.22287533
000020 d2 18 5d be 50 44 91 bd 19 ae 06 3e ff f0 93 bc
       -0.215915 -0.07093108 0.1315235 -0.018059252
000030 35 31 9f be 34 56 b9 bc 8b a8 7c be 75 40 44 3d
       -0.3109223 -0.022624113 -0.24673669 0.047913034
000040 da f9 b6 bc da 7d a1 be ae d1 41 bd 84 f5 0f bd
       -0.022335935 -0.3154133 -0.047319107 -0.03514625
000050 a3 25 f7 3c 2e 79 6c bb cf 0a 59 bd 7a 18 3e be
       0.030169314 -0.003608297 -0.052988824 -0.18564025
000060 d6 d7 03 bf 28 53 fa bc 7c 21 86 bd 42 5c 50 bd
       -0.51501215 -0.03055723 -0.065493554 -0.050869234
000070 a0 a3 19 be b2 ff a6 be 93 7d 39 3d 13 21 5b 3e
       -0.15003824 -0.32616955 0.045285773 0.21399336
000080 33 5b 72 be 0b 9f 4e be 2e ae 25 be 5b 85 41 be
       -0.23667602 -0.20177858 -0.16179726 -0.18898527
000090 02 e1 3c be d0 30 7c 3d b7 69 ef bd 8d ae 44 be
       -0.18445209 0.06156999 -0.116900854 -0.19207211
0000a0 b5 36 9b bc 82 00 10 be d0 b2 57 3d 6e d4 1d 3d
       -0.018946985 -0.14062694 0.052660763 0.038532667
0000b0 e7 d6 d5 bd a8 20 01 3d 19 1d d6 bd af da 39 be
       -0.1044138 0.031525284 -0.10454769 -0.18149827
0000c0 4a 8c a3 bd 79 67 12 be f4 ed 0d 3d c4 23 96 bd
       -0.079857424 -0.14297284 0.034650758 -0.073310405
0000d0 6e fb df bd 5c e8 39 bd c6 11 a4 bd 66 7e 35 be
       -0.10936628 -0.04538761 -0.080112025 -0.17723998
0000e0 ce 90 75 bd 4c 58 92 3d 48 bd 10 bd 5c cb 0d be
       -0.05995255 0.071457475 -0.035336763 -0.13847107
0000f0 ab 96 76 be 2b 73 0f be 65 8b 5d bd 35 b3 4a 3d
       -0.24080913 -0.14008777 -0.054088015 0.04948731
000100 cf 4a 4e be 0d 11 05 be 93 db 55 3d 6d 90 34 be
       -0.20145725 -0.12994786 0.052211355 -0.17633219
000110 b7 23 c2 bb d0 db 22 be 63 06 ba bd 40 4a 2b 3c
       -0.0059246677 -0.15904164 -0.090832494 0.010454714
000120 5d 90 18 be ee 7c b5 3c 0f a7 6d bd c5 55 df bd
       -0.1489882 0.022154298 -0.058020648 -0.10905031
000130 a4 cf 35 bd 87 ca 71 bd e1 84 67 bd 15 68 81 be
       -0.044387475 -0.059031036 -0.056523208 -0.2527472
000140 a6 ba 69 be 8a 01 57 be b8 9c 8e bc c4 6c ca bd
       -0.22825107 -0.20996681 -0.017408714 -0.09884027
000150 d0 be 36 be 2e c0 3d be c4 9a 4a 3d 4c 47 6c be
       -0.17846227 -0.18530342 0.049464002 -0.23074073
000160 1c 3d 84 be 7b 58 22 be 4e 2f 96 3d 3c 7d aa bd
       -0.25827873 -0.15854065 0.073332414 -0.08324668
000170 75 d1 16 be 8c 51 03 be 60 d0 37 3d 97 0b 1e 3d
       -0.14728339 -0.12824076 0.044876456 0.03858527
000180 1b 67 91 bd b5 6d ce bc bd e2 44 be 02 23 21 bd
       -0.07099744 -0.025198797 -0.19227119 -0.039340027
000190 a4 3c c4 bd 8b 48 c5 bd 86 99 cb bd 64 fb 62 be
       -0.09581879 -0.09632977 -0.09941392 -0.2216621
0001a0 c8 6c 81 bd 32 12 d5 3d d6 90 2f bd 50 91 19 be
       -0.063195765 0.10403861 -0.042862736 -0.14996839
0001b0 98 9a da bc 43 94 04 be 38 bf bf 3b 00 7f 01 3b
       -0.026685044 -0.12947182 0.0058516525 0.0019759536
0001c0 ee 97 bf bd c8 77 ac bd f0 33 90 be 53 15 6a be
       -0.0935515 -0.08421284 -0.28164625 -0.22859697
0001d0 b2 f4 dd bd 73 23 83 bd a6 99 a8 bd a8 e2 48 be
       -0.108376876 -0.06403246 -0.08232431 -0.19617712
0001e0 59 37 f0 bd 00 bf 6f bc 0a 92 5f 3c 03 e3 84 be
       -0.11729307 -0.01463294 0.013645658 -0.25954446
0001f0 c8 f9 66 be 76 8c f7 bd 55 d1 7c be 6f bb 3c be
       -0.22556221 -0.12087338 -0.24689229 -0.18430875
000200 78 ac b5 bc 10 4d 9d 3c c0 94 b3 bd 80 a6 69 bb
       -0.022176966 0.019201785 -0.08768606 -0.003565222
000210 fb bb 85 3c d9 41 fe 3c 9c 13 f9 bd 86 bf 42 bd
       0.016324988 0.031037258 -0.12161943 -0.047545932
000220 e1 c0 04 be 36 04 8f 3c 77 b0 42 bd 26 7d fd bd
       -0.12964202 0.017458063 -0.04753157 -0.12377386
000230 c6 5d 0f bc af 73 36 3a 80 bf b6 bd 58 cd 6e 3d
       -0.008750385 0.0006959987 -0.089232445 0.0583013
000240 bd 36 f0 bd a0 c8 3b 3d ba e1 c3 bd aa c3 cc ba
       -0.117291905 0.045845628 -0.09564538 -0.0015622277
000250 ec b2 84 bd ca b0 92 3c 68 3c 70 bd 74 1a d2 bd
       -0.06479439 0.017906565 -0.058651358 -0.10258952
000260 6a 84 19 bd d2 dc ec bd 58 69 04 bd bf 1b c7 bb
       -0.037479796 -0.11565556 -0.032327026 -0.0060763056
000270 22 ee b2 bd 84 ee 6e bd b6 4b d9 bc a2 c1 0a bd
       -0.087368265 -0.058332935 -0.02652536 -0.03387607
000280 32 39 14 be 07 83 38 bd 19 08 d1 bd 18 bd d3 bd
       -0.14474943 -0.045046832 -0.10206623 -0.10338801
000290 95 42 2d be 80 81 c1 bd f5 7f 98 bd 49 d1 e0 bd
       -0.1691993 -0.09448528 -0.07446281 -0.10977418
0002a0 e6 e3 0c be 74 d0 46 be 94 5d 17 bd 96 c5 4c bc
       -0.13758811 -0.19415456 -0.036954477 -0.01249828
0002b0 c9 53 75 bd 00 65 5e ba c0 15 6b bb 44 6f 70 bd
       -0.059894357 -0.0008483678 -0.0035871118 -0.05869986
0002c0 80 10 76 bd 69 09 1f 3b 9a 64 e6 bd f6 e5 40 3d
       -0.06007433 0.0024267083 -0.11249657 0.047094308
0002d0 20 d9 80 bd 38 99 cc bd 76 f2 9d bb c7 69 87 bd
       -0.06291413 -0.09990162 -0.0048201634 -0.06611972
0002e0 01 5c 02 3c 56 79 87 bd 91 e2 63 3d fc 0c 0a bd
       0.007956506 -0.0661494 0.055635992 -0.03370379
0002f0 5b cc 0f be 83 55 11 be 9c d4 93 3d 44 06 2d bc
       -0.14042799 -0.14192776 0.072182864 -0.010560576
000300 06 b9 5b bd e1 d5 ef bd 1a 98 d3 39 e6 b4 51 be
       -0.05364325 -0.11710716 0.0004035838 -0.20479164
000310 e8 f1 da bd 74 39 8e bd ee 24 30 be 5f 09 83 bd
       -0.10690671 -0.06944552 -0.17201588 -0.06398272
000320 ea 9f 43 be 10 f6 db bd 70 b3 87 bd 82 85 28 be
       -0.19103971 -0.10740292 -0.06626022 -0.16457179
000330 00 4d f2 bd f4 d3 59 ba f2 99 61 3c 7f 2d bc bd
       -0.11831093 -0.00083094765 0.013769614 -0.09188365
000340 4d 1d 0a be e0 ef 0e bd 96 f6 c7 bd a8 9c db bc
       -0.1348774 -0.03489673 -0.097638294 -0.026808098
000350 85 ca f7 bd f1 28 56 bd 65 4a 8b bd 2d 32 26 be
       -0.120991744 -0.05228514 -0.06801299 -0.16230078
000360 29 e3 73 bb 1a ad 2f be 7f d4 04 be b2 97 03 be
       -0.0037214255 -0.17155877 -0.12971686 -0.12850836
000370 75 e8 2e be 32 d3 4a bd c1 b7 44 3b 34 70 70 bc
       -0.17080863 -0.049517818 0.0030016752 -0.014675189
000380 d1 b1 c5 3d 66 9a 2e be a3 1e 2d bc 61 56 15 be
       0.096530564 -0.17051086 -0.010566386 -0.14583732
000390 31 3c b5 3c 1e a9 f8 bd 3c 48 8b bc 6f 84 24 be
       0.022123428 -0.121416315 -0.017002217 -0.16066144
0003a0 5c 2b 74 3c 28 14 19 be 06 05 d8 bd f8 18 58 be
       0.014902916 -0.14949095 -0.10547833 -0.21103275
0003b0 d2 a7 e9 bd 2f 33 ed bd 75 e4 4a be e0 3b a9 bd
       -0.11408962 -0.11582028 -0.19813712 -0.082633734
0003c0 32 7c 5b bd 95 ea a1 bd 1d 3e cf bd bd e9 18 be
       -0.05358524 -0.07906071 -0.10119269 -0.14932914
0003d0 fd 7d 3e bd 67 54 62 be 30 2e 0c bd 39 58 51 be
       -0.04650687 -0.2210251 -0.034223735 -0.2044381
0003e0 bb 28 5d be ce 3c b4 bb ca f8 1a be 0a 0f 16 bd
       -0.21597569 -0.0055004125 -0.15133968 -0.036635436
0003f0 8a c0 38 be 74 a5 ef bd 8c ef 32 be 57 25 1e be
       -0.18042198 -0.117014796 -0.17474192 -0.15443932

fc2.bias f4 [64]
000000 45 e7 44 3d 42 56 4f be f7 02 4a be bf 45 8a bd
       0.04807212 -0.20247748 -0.19727693 -0.06751584
000010 f8 40 7a 3e db 99 2b bd 6c e9 5d bd 31 0d bf bd
       0.24438846 -0.041894775 -0.054177687 -0.09328688
000020 aa ea 2b be e8 19 17 3d 53 04 e2 bd 9e 95 42 3e
       -0.16788736 0.03688994 -0.11035981 0.19002387
000030 6c 47 12 3d ec e8 fb bd d0 42 fe 3d a9 48 49 bd
       0.035712644 -0.12300286 0.12415087 -0.04914156
000040 a0 c8 8a 3d b1 ae ec 3e 40 34 48 bd f3 3d 29 bb
       0.067765474 0.4622703 -0.048877954 -0.0025824278
000050 f1 ab 53 3f 9d 92 94 3f e4 25 80 bd 14 76 fc bd
       0.82684237 1.1607243 -0.06257227 -0.12327209
000060 c6 08 4b be 14 84 f7 bd 90 d4 c3 bd b7 c0 ce 3e
       -0.19827566 -0.12085739 -0.095620275 0.40381405
000070 eb a0 50 bd 1a 88 09 3c 37 6f 41 3d 0f dd d5 bd
       -0.050934713 0.008394266 0.047225203 -0.10442554
000080 42 b5 32 be e8 ce dc bd 02 63 14 3e 70 2a 37 bd
       -0.17451957 -0.10781652 0.14490893 -0.044718206
000090 6b 31 e3 3d f8 40 0e bd 76 a0 a8 be b0 66 e7 3e
       0.1109341 -0.034729928 -0.32934922 0.45195532
0000a0 37 57 d4 bd 95 55 79 be 16 9d 59 3f 32 1f db 3d
       -0.103681974 -0.24349053 0.8500532 0.106993094
0000b0 bf b4 35 be e7 dc d4 3f fc 6f 80 3e 90 cc 38 bd
       -0.1774473 1.6629914 0.25085437 -0.04511696
0000c0 47 23 0a 3f 22 2f 3c 3e 74 d5 96 3f 61 5f 9b bd
       0.5396008 0.18377355 1.1783891 -0.075865515
0000d0 6f d0 02 be ae 84 cb bc 24 53 b2 3d 6b c6 36 3e
       -0.12774824 -0.02484354 0.08707264 0.17849128
0000e0 42 df 28 3e a8 3c 5e 3f 48 3d f7 3e 51 b6 46 3f
       0.16491416 0.86811304 0.4828894 0.7762194
0000f0 37 e1 c7 bd 9c 6d 23 3c eb 38 81 bd 0d 5e a5 bd
       -0.09759753 0.009974863 -0.06309684 -0.080745794

fc3.weight f4 [5, 64]
000000 75 bf 77 bd cb ec f5 bc 02 60 b1 bd ea 68 6a 3d
       -0.060485322 -0.030020138 -0.0866089 0.05722896
000010 87 33 58 3e 8e 09 22 be db 58 25 bd d2 a1 f7 3d
       0.21113406 -0.15823957 -0.040367942 0.12091412
000020 4f f8 46 be e6 f2 2e be ad 28 50 3e 36 40 c8 3d
       -0.1943066 -0.17084846 0.20328017 0.09777872
000030 a3 88 e1 bd 94 ee 62 3d 1c bf 98 3e e8 9d 73 bd
       -0.110123895 0.055403307 0.29833305 -0.059476763
000040 2d 0b 55 3e e2 d8 75 3f 78 38 91 bd 19 7a 4a 3c
       0.20805044 0.9603406 -0.07090849 0.012358212
000050 3a 16 1c be 32 43 23 be bc 14 32 3c fc fa 2d 3b
       -0.15242854 -0.15943602 0.010869201 0.0026547303
000060 79 40 88 3d 8a 85 cb bd aa 59 29 3e d5 dc b8 be
       0.06652922 -0.0993758 0.1653811 -0.3610598
000070 76 4e 8a 3c 7a 5c a8 bd ce 31 c6 3e ea 7f 4d 3e
       0.016883116 -0.082207635 0.38709873 0.20068327
000080 72 71 b3 3c f3 4f f9 bd d1 b5 18 3e 1c 89 cb bd
       0.02190468 -0.12173452 0.14913107 -0.09938261
000090 28 9f 85 3e 21 50 db bd 5c 46 fb 3e 21 81 c0 be
       0.2609799 -0.10708643 0.49077117 -0.37598518
0000a0 bb 84 9f bd 89 61 db be dc 1d a1 3e 50 fe 39 3e
       -0.07788988 -0.4284785 0.31468093 0.18163419
0000b0 6f ae d0 bc b4 63 da 3b e5 d6 1b 3f 53 d4 8b bd
       -0.025473801 0.0066647176 0.6087478 -0.06827607
0000c0 52 c8 8c bc 87 6a 02 be 20 27 02 bf 5e 61 ec 3d
       -0.017185364 -0.1273595 -0.5084095 0.11542009
0000d0 18 7a 16 bd 8a 41 96 3e ab bc a6 3d 4e 54 80 3c
       -0.03673753 0.29346877 0.08141454 0.0156652
0000e0 82 ea be 3e 17 f4 c6 bc 83 2d 70 be 9e 63 e9 3d
       0.3728829 -0.024286313 -0.23454861 0.113959536
0000f0 17 c1 10 3e 43 9d 83 bd 38 6b 9d bd d9 b9 d7 bc
       0.14136158 -0.0642648 -0.07686466 -0.026333736
000100 e6 f6 59 3e 01 2c b3 bd 71 84 ca bc ff 0b 08 3d
       0.2128559 -0.087486275 -0.024721356 0.033214565
000110 3a 29 ed 3c b1 32 a0 3d 8a 55 4d 3c 5d c5 a4 bd
       0.028950322 0.078221686 0.012532601 -0.080454566
000120 94 34 da 3d 13 73 9f ba 0d 96 09 bd 8a 14 d7 be
       0.1065456 -0.0012165032 -0.033590365 -0.42007858
000130 82 10 46 3e e7 22 18 3e 30 d3 2d bc a5 59 76 3d
       0.19342235 0.14857064 -0.010609433 0.060144085
000140 7f 2d 15 3e 39 2e 3c 3e a5 91 4a be 32 25 79 3c
       0.14568137 0.18377008 -0.19782121 0.015206622
000150 37 3f 11 3f 04 5a 0e bf ce fa dc 3d 24 67 31 be
       0.56737083 -0.556061 0.10790025 -0.17324501
000160 78 c4 53 3e a0 5c 39 be 5f a2 95 3d d0 40 27 3f
       0.20680416 -0.1810174 0.073063605 0.6533327
000170 c4 63 a3 bd 2f 8c 5b 3e e2 10 d6 bd 85 e9 4b 3e
       -0.07978013 0.21440195 -0.10452439 0.199133
000180 ae b5 18 be 92 8c ea 3c d9 8c 7c 3e 62 21 34 bd
       -0.14913055 0.028631482 0.24663104 -0.04397715
000190 7c c6 2e 3e 24 5b 28 3e d8 51 e2 3e 3a 4c 89 be
       0.17067903 0.16441017 0.44203067 -0.2681597
0001a0 c7 e8 bc bd dc 67 28 be c4 2d 0b 3f d0 96 88 3d
       -0.09224086 -0.16445869 0.5436671 0.0666939
0001b0 f4 b5 7a 3d 31 7f 6b bf 21 40 18 bd 78 5f 58 3e
       0.06120868 -0.91990954 -0.037170533 0.21130168
0001c0 e8 eb e8 be 88 02 42 3e 40 c5 c9 3d 3d 7b 4c bc
       -0.45492482 0.18946278 0.098520756 -0.012480554
0001d0 3d 64 89 bc 6d 40 77 3d c7 3d 3a 3e c8 92 1e 3f
       -0.01677143 0.060364176 0.18187629 0.6194272
0001e0 6b 1b 8a bd 48 79 1c bf 46 57 33 3f ab 35 b7 3c
       -0.06743511 -0.6112256 0.70055044 0.022364458
0001f0 46 e3 05 3e 68 8a df 3d b2 38 80 3d 6f 32 12 be
       0.13074979 0.10915071 0.06260814 -0.14277051
000200 f9 60 28 3e 50 69 85 bc 41 aa ed bd a2 64 c8 3d
       0.16443242 -0.016285568 -0.11604739 0.09784819
000210 75 12 93 be 6f 85 01 3e ec 9f 95 3d 9e ca 6d be
       -0.2872502 0.12648557 0.07305893 -0.23221824
000220 ab e1 a8 be 73 78 9a 3e b9 3d bc 3c a1 ba 64 bd
       -0.3298467 0.3017002 0.02297865 -0.055842046
000230 ee 63 45 3b 4b 73 9d bb 49 05 65 bd 29 76 17 3e
       0.0030119377 -0.0048050038 -0.055913243 0.14791168
000240 e6 bc 35 3d 74 3f ba 3d b0 31 04 3d 34 db c3 3d
       0.0443696 0.09094134 0.03227395 0.09563294
000250 4c 2e 08 3f 99 31 23 bf e1 cd 43 bd 53 c9 6c 3e
       0.53195643 -0.63747555 -0.047803763 0.23123674
000260 eb 59 da be 25 b8 c6 3d 48 0d ef bd 96 3a 2e ba
       -0.42646727 0.097030915 -0.11672455 -0.0006646303
000270 34 8a ea 3d e9 4c 8d 3d 74 61 7f bc 28 b0 ff 3c
       0.114521414 0.06899435 -0.0155871995 0.031211928
000280 fc 31 36 ba 51 0a 26 bc ca 40 58 bd b0 cf f4 bc
       -0.0006950197 -0.010134296 -0.052796163 -0.02988419
000290 89 ae 27 be c5 ff 23 3d c4 4c 0e bf 80 2f f2 39
       -0.16375174 0.040038843 -0.55585885 0.00046193227
0002a0 d9 13 b2 bd 4d aa 05 be c0 ba de be 1e d3 0f be
       -0.08695192 -0.13053246 -0.43501854 -0.14045379
0002b0 11 8b 8c 3d 16 95 bc 3e 31 84 2c be 32 c9 ae 3c
       0.06862462 0.36832494 -0.16847302 0.021336172
0002c0 13 27 cb bc 74 c3 ac bd 43 df 88 3f da 5c c5 3d
       -0.024798905 -0.08435717 1.0693134 0.09636851
0002d0 56 e7 e9 bc 15 25 57 3e dc 28 f0 3d aa 4d f3 3c
       -0.028552692 0.2101024 0.11726543 0.029700119
0002e0 a1 c9 1e 3e 1b b0 bd 3e 2b 35 be be 73 9a 30 3f
       0.15506603 0.3704842 -0.3714994 0.6898567
0002f0 2f 59 09 be d3 eb a2 be 79 3f fd 3c 4e 1a 84 3d
       -0.13412927 -0.31820545 0.030914055 0.0645033
000300 6d 35 65 bd 0a 00 85 3d 6d 33 41 bd 1c ee 15 3c
       -0.055959154 0.06494148 -0.047168184 0.009151008
000310 d4 fc 35 bd fc 72 eb 3d 77 72 43 3e 2f b5 55 bf
       -0.04443057 0.11496541 0.19086634 -0.8347959
000320 18 f7 89 3e 7e 8c 7d bd 2b ed 71 bd 81 f3 4c be
       0.2694633 -0.061901562 -0.05906407 -0.20014764
000330 bc 70 b0 bd 45 b9 82 bc ea 63 99 bd c4 34 2d be
       -0.086152524 -0.015957484 -0.0748976 -0.1691466
000340 40 da 13 bc ce f6 fc be 00 fa f1 bc c2 c0 83 3d
       -0.009024203 -0.49407047 -0.029538155 0.0643325
000350 94 f8 06 bf dd 94 9a 3f 84 3f 22 be 45 8b f6 bd
       -0.5272305 1.207668 -0.15844542 -0.12038282
000360 01 15 3a bf 13 9e 2e bb d4 49 12 3c f8 ac c5 bd
       -0.726883 -0.0026644513 0.008928735 -0.09652132
000370 36 f3 95 bc eb af c7 bd f6 90 8d be e2 d7 98 bd
       -0.018304449 -0.097503506 -0.2764966 -0.074630514
000380 d2 7b cf bc 2b f8 96 bd a1 c7 6b be 08 09 79 bd
       -0.025327597 -0.07371553 -0.23025371 -0.06079963
000390 07 87 0f 3c 01 36 5b bd 3d 4c 89 3e 76 41 2f 3e
       0.00876022 -0.0535183 0.26815978 0.17114815
0003a0 a9 75 51 be 73 e0 3e 3e d8 38 63 3e e3 d2 70 3d
       -0.2045504 0.18640308 0.22189653 0.058794867
0003b0 c8 d4 a9 3c 6b b6 92 3f 62 37 12 bd 73 1d c9 bc
       0.020731345 1.146192 -0.03569735 -0.024550175
0003c0 a4 73 e2 bd 2c e8 97 bd 11 1a 94 be 5c 2c c6 bc
       -0.11057213 -0.0741733 -0.28926137 -0.024191074
0003d0 76 c2 00 3d a4 51 ca be b1 0a db bd a3 36 ee be
       0.031435452 -0.39515412 -0.106953986 -0.4652606
0003e0 54 b9 ce bd d0 26 99 be 60 03 b7 bd 99 59 cd be
       -0.10093942 -0.29912424 -0.089361906 -0.4010742
0003f0 36 9a 68 3d 74 69 8a be dc 88 48 be dd 03 1b bd
       0.056787692 -0.2703358 -0.19583458 -0.03784548

fc3.bias f4 [5]
000000 91 d4 60 bf d6 c9 2b 3f 9f 3c 6b be 26 41 22 be
       -0.8782435 0.6710485 -0.22972344 -0.15845165
000010 25 ce 49 3e
       0.19707544
