0 课件原版/maddpgzoo0.pth (torch, 22447 bytes, 6 tensors)

layer1.weight f4 [64, 8]
0	0xbf0b1fde	-0.543455
1	0xbed1999b	-0.40937504
2	0xbeba3a0a	-0.36372405
3	0x3f8858b4	1.065207
4	0x3f48529a	0.7825104
5	0xbf03b7a3	-0.5145208
6	0x3e08401a	0.13305703
7	0xbf5fb699	-0.87387997
8	0x3f3d1306	0.7385715
9	0x3f315ab1	0.6927901
10	0x3f356c6d	0.7086857
11	0x3d151e5c	0.036405906
12	0x3e7008b7	0.23440824
13	0xbe065a20	-0.13120317
14	0x3d1c9095	0.03822382
15	0x3edb0790	0.42779207
16	0xbe1eb165	-0.15497358
17	0x3e55bfc7	0.20873939
18	0xbf79255c	-0.9732263
19	0x3f9a20dd	1.2041279
20	0xbe8369bf	-0.25666615
21	0x3deb5f68	0.11492807
22	0xbde31687	-0.11088281
23	0x3ddc1372	0.107458964
24	0x3f3aeb22	0.73015034
25	0xbfa2df95	-1.2724482
26	0x3da86d7b	0.08224007
27	0xbd63292c	-0.055459186
28	0xbe74cf28	-0.23907149
29	0x3efd60d3	0.49487934
30	0xbecd1a22	-0.40059
31	0x3f659be0	0.8969097
32	0xbef5efba	-0.4803446
33	0x3ef6a1d6	0.48170346
34	0xbf12dd68	-0.5736909
35	0x3f64701f	0.89233583
36	0x3f8550d5	1.0415293
37	0xbf4420ce	-0.76612556
38	0x3efb5bd0	0.49093485
39	0xbf56071f	-0.83604616
40	0x3f75fa77	0.96085304
41	0x3fa9dd61	1.3270684
42	0xbeaf34c2	-0.3421994
43	0xbf000bdf	-0.50018114
44	0x3ef8e026	0.48608512
45	0xbeaa9d2d	-0.3332304
46	0xbf011871	-0.5042792
47	0xbedbe59c	-0.42948616
48	0x3f94c41a	1.1622345
49	0xbedb3bb2	-0.4281898
50	0x3f8380e6	1.0273712
51	0xbf08645c	-0.53278136
52	0xbee189f2	-0.44050556
53	0x3f0a91a8	0.54128504
54	0x3e0875ea	0.1332623
55	0xbd36ef10	-0.04466158
56	0xbf0d6bda	-0.55242693
57	0xbe5df82a	-0.21676698
58	0xbe3aca2e	-0.18241188
59	0x3ed064ae	0.40701813
60	0x3e40ef2b	0.18841235
61	0x3e6671c2	0.22504333
62	0x3f881e19	1.0634185
63	0x3ebe641c	0.37185752
64	0x3ee90018	0.45507884
65	0x3c795a79	0.015219324
66	0xbfce0f10	-1.6098347
67	0x3f414306	0.75492895
68	0x3f8f0ab3	1.117514
69	0xbeaaadab	-0.33335623
70	0x3f0a7c25	0.5409568
71	0xbf05147a	-0.5198437
72	0xbf112386	-0.5669483
73	0xbdeda6a1	-0.116040476
74	0x3f78c0e1	0.9716931
75	0x3e87d170	0.26526976
76	0xbe8a7d33	-0.27048644
77	0xbe8bf157	-0.27332565
78	0xbf22e17d	-0.6362532
79	0x3cf2d4f1	0.029642554
80	0xbf104866	-0.5636047
81	0xbf2ec9be	-0.68276584
82	0xbdb3456e	-0.08753477
83	0xbe9ec90d	-0.31012765
84	0x3dd9fe6f	0.106442325
85	0x3f3defec	0.74194217
86	0x3ded2baf	0.115805976
87	0x3ddebd8d	0.10875998
88	0x3fe8d5b3	1.8190216
89	0xbd0d6112	-0.0345164
90	0xbf68be15	-0.9091504
91	0x3e226a09	0.15860762
92	0x3d99933e	0.07498787
93	0xbe98db80	-0.29854965
94	0xbf890f88	-1.0707865
95	0x3db3cefa	0.08779712
96	0x3ee05e60	0.43822002
97	0x3fb6e0be	1.4287336
98	0xbd05acd2	-0.032635517
99	0xbd6ae97f	-0.057351585
100	0x3d0092df	0.031390067
101	0xbec3e957	-0.38263962
102	0x3d809dff	0.06280135
103	0xbe557b6c	-0.20847863
104	0xbdbdf49f	-0.092751734
105	0x3f1e4c2d	0.61834985
106	0xbf6a66c9	-0.9156309
107	0x3ea8c310	0.3296132
108	0xbd033f47	-0.032042768
109	0x3f564239	0.836948
110	0xbea37cdc	-0.31931198
111	0x3edefc42	0.43551832
112	0xbf2aacd8	-0.6666999
113	0xbf67f67c	-0.9061048
114	0xbe22185c	-0.15829605
115	0x3e42eb19	0.19034995
116	0x3f734a60	0.9503536
117	0x3f81cd86	1.0140846
118	0x3d3a33e9	0.04545966
119	0x3e25594b	0.16147344
120	0x3f6569db	0.8961465
121	0xbe9b739d	-0.30361643
122	0xbd3b9f50	-0.04580623
123	0xbec85f32	-0.39135128
124	0x3dd194ef	0.10233485
125	0xbf1c09ea	-0.6095263
126	0xbed7aea2	-0.42125422
127	0x3ecb22ba	0.39674932
128	0xbf970835	-1.179938
129	0xbe41d9a4	-0.1893068
130	0xbe48a60b	-0.1959459
131	0x3d862704	0.065504104
132	0x3dba3468	0.09092027
133	0xbd09fe15	-0.033689577
134	0x3f7cb274	0.987098
135	0x3ed8c48a	0.42337447
136	0x3ef7ca62	0.48396593
137	0xbfeb1c2e	-1.8367975
138	0x3e5280d9	0.20556964
139	0xbe745570	-0.23860717
140	0xbeafa695	-0.3430678
141	0x3f031d9f	0.51217073
142	0xbeb9bc7f	-0.36276624
143	0x3df4bf85	0.11950592
144	0xbefa167a	-0.48845273
145	0x3f44b716	0.76841867
146	0xbf41b9af	-0.75673956
147	0x3f78d6f1	0.97202975
148	0xbdf4fabb	-0.119618855
149	0x3da39414	0.07987228
150	0xbea0696a	-0.31330425
151	0x3d72f8c8	0.059319288
152	0xbe8e8868	-0.27838445
153	0xba9c02e8	-0.0011902722
154	0xbf60ee26	-0.87863386
155	0xbf046c83	-0.51728076
156	0x3d7e2645	0.062048215
157	0xbcd271c6	-0.025689017
158	0x3ed7453c	0.4204501
159	0x3f5df738	0.8670535
160	0x3f37357b	0.7156598
161	0xbfa76003	-1.3076175
162	0xbcee4d53	-0.029089605
163	0xbdfce7c0	-0.1234889
164	0x3d416e09	0.04722408
165	0xbebc6d18	-0.36801982
166	0x3ddc1f4a	0.107481554
167	0xbce2aef0	-0.027671307
168	0x3dd4ac85	0.10384468
169	0x3ef7b3c2	0.48379332
170	0x3d0af467	0.033924486
171	0x3d5b72c3	0.053576242
172	0x3f94a573	1.1612991
173	0xbdf2e9ea	-0.11861022
174	0xbf89f244	-1.0777059
175	0x3e3eec23	0.18644767
176	0xbfa63758	-1.298564
177	0x3e09ae21	0.13445331
178	0xbf809b27	-1.0047349
179	0xbe3b149a	-0.18269578
180	0xbdb87640	-0.090069294
181	0xbe28524f	-0.16437648
182	0xbd18cf52	-0.03730709
183	0x3ed3f3de	0.41396993
184	0xbe7bea32	-0.24601057
185	0xbf2e7caa	-0.6815897
186	0xbce0d500	-0.027445316
187	0xbefa8709	-0.4893115
188	0x3ea1d9c0	0.31611443
189	0xbf10a13e	-0.56496036
190	0x3d51a220	0.051180005
191	0xbe8b59ee	-0.27217048
192	0x3ec4c4eb	0.38431486
193	0x3e7e853f	0.24855517
194	0x3e5a4a22	0.21317342
195	0xbdd9a50e	-0.10627185
196	0xbd81e681	-0.06342793
197	0x3d99f9d9	0.07518358
198	0xbe0ecaea	-0.13944593
199	0xbd914297	-0.07092779
200	0xbfc878a6	-1.5661819
201	0x3e05313c	0.13007063
202	0xbf87bca5	-1.0604445
203	0x3df1b575	0.11802188
204	0x3f256b6e	0.6461705
205	0xbf0f1d7e	-0.55904377
206	0x3e499759	0.19686641
207	0x3eca78d3	0.39545307
208	0x3eafcc26	0.3433544
209	0xbe55b49b	-0.20869677
210	0xbfc8c8db	-1.5686296
211	0x3f074559	0.5284019
212	0x3f3c6462	0.7359067
213	0xbeaf5438	-0.3424394
214	0xbec615ea	-0.38688594
215	0x3d583b0e	0.052790694
216	0x3eee1061	0.4649687
217	0xbe717762	-0.23580697
218	0x3f24b083	0.64331836
219	0xbf19035d	-0.59770757
220	0x3f82b86d	1.0212532
221	0xbe5d033d	-0.21583267
222	0x3e1b5d28	0.15172255
223	0xbe97e9f5	-0.29670683
224	0x3eabf479	0.33584955
225	0x3ec6f32b	0.38857397
226	0xbf0f436a	-0.5596224
227	0xbf3fe97c	-0.74965644
228	0x3c3684f2	0.011140095
229	0xbeb6a7bb	-0.35674843
230	0xbe076fe4	-0.13226277
231	0x3d4f5587	0.050618675
232	0xc0089052	-2.1338086
233	0xbdfea7de	-0.12434362
234	0x3f206a05	0.6266177
235	0xbea5e6b8	-0.32402587
236	0x3f5aed3c	0.8551824
237	0x3db02365	0.08600501
238	0x3df6dd67	0.12053948
239	0xbe608ec9	-0.21929468
240	0xbea0bbbe	-0.31393236
241	0x3d58e448	0.05295208
242	0x3fe3809b	1.7773622
243	0xbefe2e58	-0.49644732
244	0xbe8b7dbf	-0.27244374
245	0xbebb58b9	-0.36591128
246	0xbf214144	-0.6299021
247	0x3b6721a0	0.0035267845
248	0xbff3e719	-1.90549
249	0xbe00b3a8	-0.12568533
250	0xbf970d54	-1.1800942
251	0xbf0b74b0	-0.54474926
252	0x3db2c102	0.087282196
253	0xbe4182cb	-0.1889755
254	0x3dae3271	0.08505715
255	0x3eda3e4f	0.42625663

layer1.bias f4 [64]
0	0xbf80cffb	-1.0063471
1	0xbe636777	-0.22207437
2	0x3e07cb5c	0.13261169
3	0xbd736d53	-0.05943043
4	0xbf81a548	-1.0128565
5	0xbf3c88eb	-0.7364642
6	0xbf8fbe8a	-1.1230023
7	0xbf46da88	-0.776772
8	0xbf47069b	-0.77744454
9	0xbf6b796d	-0.91982156
10	0xbe8130a1	-0.25232413
11	0xbef088bc	-0.4697932
12	0x3de58235	0.11206476
13	0xbf291238	-0.66043425
14	0xbebd88f3	-0.37018546
15	0xbee09f18	-0.4387138
16	0xbe64c61f	-0.22341202
17	0xbea3c3a5	-0.31985202
18	0x3bfc822d	0.007705948
19	0xbe1ff752	-0.15621689
20	0x3f2bd2f2	0.6711875
21	0xbed21f76	-0.41039628
22	0xbfb5ae06	-1.4193733
23	0xbf1a1161	-0.6018277
24	0xbedb1bff	-0.42794797
25	0xbfae551d	-1.3619725
26	0xbf7980e0	-0.9746227
27	0xbde6aa76	-0.112629816
28	0xbf02f38f	-0.5115289
29	0xbf65fbef	-0.89837545
30	0xbf84cee5	-1.0375639
31	0xbfba89b2	-1.4573271
32	0xbf12aa99	-0.5729156
33	0xbf37929c	-0.71708083
34	0xbf52824a	-0.82230055
35	0xbf311736	-0.6917604
36	0xbe7b9c2f	-0.24571298
37	0x3e2a5198	0.16632688
38	0xbf2f3b02	-0.68449414
39	0x3c1cec38	0.009577803
40	0xbedd49f3	-0.4322048
41	0xbf065493	-0.524728
42	0xbea8548e	-0.3287701
43	0xbf375a7a	-0.7162243
44	0x3e2bbada	0.16770497
45	0xbf49fad1	-0.7889834
46	0xbf4a5c32	-0.7904693
47	0xbfeb74e6	-1.839505
48	0x3d2e9e28	0.0426313
49	0xbf843b22	-1.0330546
50	0x3dd0fd22	0.10204531
51	0x3dfb97c1	0.12284804
52	0x3e92f521	0.28702644
53	0xbdc2f3cc	-0.09519157
54	0xbd836d77	-0.06417363
55	0x3eb4da59	0.35322836
56	0x3e5def43	0.21673302
57	0xbedc61d0	-0.43043375
58	0xbfbaca6c	-1.4593024
59	0xbf6019d7	-0.8753943
60	0xbf8b53ea	-1.0884984
61	0xbfa1fc20	-1.2655067
62	0x3e420194	0.18945915
63	0x3dbe046a	0.09278186

layer2.weight f4 [64, 64]
0	0xbe95227a	-0.29127866
1	0xbe888ae0	-0.26668453
2	0xbea13612	-0.31486565
3	0xbed52ece	-0.41637272
4	0xbea5101d	-0.32238856
5	0xbe229495	-0.15876992
6	0xbed5e94c	-0.41779554
7	0x3e46557f	0.19368552
8	0x3ddd5d93	0.108088635
9	0xbb921203	-0.0044577136
10	0xbe1e6303	-0.15467457
11	0xbe309c71	-0.17247178
12	0xbeaabb29	-0.33345917
13	0xbe52b49b	-0.20576708
14	0xbe2c2dba	-0.16814318
15	0xbe45514a	-0.1926929
16	0x3d9896e5	0.07450656
17	0xbea64a3e	-0.32478517
18	0xbeefa850	-0.468081
19	0x3e237a96	0.15964732
20	0xbe9f8d4d	-0.3116249
21	0x3db1f9ef	0.08690249
22	0xbd8d208a	-0.06890972
23	0xbecf2003	-0.4045411
24	0xbd26ea05	-0.040750522
25	0x3d99db70	0.075125575
26	0xbe20e0f8	-0.15710819
27	0xbe00519e	-0.12531134
28	0xbe995908	-0.29950738
29	0xbd5661af	-0.052339252
30	0xbee6d918	-0.45087504
31	0xbf049374	-0.51787496
32	0xbe6169ef	-0.22013067
33	0xbe691361	-0.22761299
34	0xbdd0ff78	-0.10204977
35	0xbd40f305	-0.04710676
36	0x3d5f676c	0.05454199
37	0xbe9c63e0	-0.3054495
38	0xbe7e5de6	-0.24840507
39	0xbe5183df	-0.20460461
40	0xbe4ba1d6	-0.19885954
41	0x3c6221e2	0.013802024
42	0xbed789e4	-0.4209739
43	0xbe82f9ec	-0.255813
44	0xbde36519	-0.11103267
45	0xbe61b893	-0.22043066
46	0x3c6daf35	0.014507105
47	0xbe1fcc0d	-0.15605183
48	0xbed21298	-0.4102981
49	0xbe40636e	-0.1878793
50	0xbec3da4c	-0.38252485
51	0xbe1f98f8	-0.15585697
52	0xbf012cca	-0.5045897
53	0xbd85187a	-0.06498809
54	0xbf08094d	-0.5313919
55	0xbee9ea51	-0.45686582
56	0xbec125cf	-0.37724158
57	0xbe8c7b73	-0.27437934
58	0xbea66c55	-0.32504526
59	0xbeb2778f	-0.3485684
60	0xbedb4438	-0.42825484
61	0xbd325d38	-0.04354593
62	0xbe4b66c5	-0.19863422
63	0xbedff64e	-0.43742603
64	0xbd2c49c8	-0.04206255
65	0xbe160989	-0.14652075
66	0xbe371a09	-0.17881025
67	0xbdc11b48	-0.094290316
68	0xbe32aeb2	-0.17449453
69	0xbd73eabc	-0.059550032
70	0xbe2a8f62	-0.16656259
71	0xba1afb2b	-0.0005912061
72	0x3ceb77d4	0.028743662
73	0xbe4b4a95	-0.1985267
74	0x3d99622f	0.0748943
75	0x3bf3ec8c	0.00744397
76	0xbd476faf	-0.048690494
77	0x3d9b5c38	0.07585949
78	0xbdc01a34	-0.09379998
79	0xbd413910	-0.04717356
80	0xbdd6cc1b	-0.10488149
81	0x3c2ab1ae	0.010418339
82	0xbd75d0cc	-0.060013577
83	0xbe426f83	-0.18987851
84	0xbc964974	-0.018345572
85	0xbe5678d8	-0.20944536
86	0xbe6a553e	-0.2288408
87	0xbe524a93	-0.2053626
88	0xbe274db9	-0.16338243
89	0xbe10c558	-0.1413778
90	0xbbfa2439	-0.0076337126
91	0xbdf79293	-0.12088504
92	0xbd02cc1a	-0.031932928
93	0xbe28286b	-0.16421668
94	0xbc9515c8	-0.018198863
95	0xbdb444e5	-0.08802203
96	0x3c15382b	0.00910763
97	0xbd9c11d2	-0.076205865
98	0x3bae3b3d	0.0053171203
99	0xbdb631b6	-0.088962
100	0xbe6a4a23	-0.22879843
101	0xbd907704	-0.070539504
102	0xbddc7b84	-0.10765746
103	0x3ceee27a	0.029160727
104	0xbe5018f7	-0.20322023
105	0x38c097f4	9.183577e-05
106	0xbbbfa57f	-0.005848586
107	0xbe283b58	-0.16428888
108	0xbda67bfd	-0.08129118
109	0xbe383cb2	-0.17991903
110	0xbe253c5e	-0.1613631
111	0xbe67c015	-0.22631867
112	0xbd815dd9	-0.06316728
113	0x3c5e7067	0.0135766035
114	0xbe345a1f	-0.17612503
115	0xbd6cf706	-0.057852767
116	0xbe31c2e5	-0.17359503
117	0xbe19f19b	-0.15033571
118	0xbd17078a	-0.036872424
119	0xbe0b7e18	-0.1362232
120	0xbdefcd3d	-0.11709068
121	0xbe08967b	-0.13338654
122	0xbd4e8fb6	-0.050430022
123	0xbdfc1f4d	-0.12310658
124	0xbdc781d0	-0.09741557
125	0x3d2b2fb6	0.041793548
126	0xbdc0e2db	-0.09418269
127	0xbe13a064	-0.14416653
128	0x3d8b8af9	0.06813616
129	0xbe69aa72	-0.22818926
130	0xbd87f556	-0.06638591
131	0xbecaa079	-0.39575556
132	0xbdaa79de	-0.083240256
133	0xbdd9d186	-0.106356665
134	0xbec6cda4	-0.38828766
135	0xbe2d9c48	-0.16954148
136	0xbc328ec7	-0.010898299
137	0xbe067c9f	-0.13133477
138	0x3dc37997	0.09544676
139	0xbdb8372f	-0.089949004
140	0xbe5daeab	-0.21648662
141	0xbdc49c09	-0.09600074
142	0xbe74f9d7	-0.23923431
143	0xbd3751f4	-0.04475589
144	0x3d67607b	0.056488495
145	0xbe284939	-0.16434182
146	0x3ca1e1e5	0.019761035
147	0xbea1ad38	-0.31577468
148	0xbe63d79b	-0.22250216
149	0xbe8c307f	-0.2738075
150	0xbd323230	-0.043504894
151	0xbeb301d8	-0.34962344
152	0xbead92bc	-0.33901012
153	0xbebd7012	-0.36999565
154	0x3c84e46b	0.0162222
155	0xbec47689	-0.38371685
156	0xbd632273	-0.055452775
157	0xbeabe6dd	-0.33574572
158	0x3e3ee05a	0.18640271
159	0xbe3ef596	-0.18648371
160	0xbc921179	-0.017830597
161	0xbe08eeb3	-0.13372307
162	0x3d12c2e8	0.03583041
163	0xbdb8096b	-0.08986171
164	0xbd1158e2	-0.035485156
165	0x3d03b21c	0.03215228
166	0x3d9475e2	0.07249047
167	0x3e0b4e2d	0.1360404
168	0x3ce26245	0.02763475
169	0x3e65bf3a	0.22436228
170	0xbdd7a9a0	-0.105304
171	0x3e0dd02e	0.13848945
172	0xbde926d1	-0.11384357
173	0x3cd33c1f	0.025785504
174	0xbe80649c	-0.2507676
175	0x3d33269b	0.04373799
176	0x3dc7fdfb	0.0976524
177	0x3d8f268e	0.069897756
178	0xbde4871f	-0.11158585
179	0xbd4c028a	-0.04980711
180	0xbe35dbfa	-0.17759696
181	0xbe018348	-0.12647736
182	0xbe8de433	-0.27713165
183	0xbead361d	-0.33830348
184	0xbad66367	-0.0016356529
185	0xbdd53313	-0.10410132
186	0x3e05401b	0.13012736
187	0x3c83663f	0.016039966
188	0xbd3858ac	-0.04500644
189	0x3d295dca	0.04134921
190	0xbb89729f	-0.004194572
191	0xbe0b01b1	-0.13574864
192	0x3f111d54	0.56685376
193	0xbde9789f	-0.1139996
194	0x3ed0cfed	0.40783635
195	0xbfab29f7	-1.3372182
196	0xbf77b07f	-0.96753687
197	0xbf2a3461	-0.66486174
198	0xbf074848	-0.5284467
199	0xbe02bef8	-0.12768161
200	0x3f7fc6f2	0.9991294
201	0xbf00ebbe	-0.50359714
202	0x3d5c3f04	0.053771034
203	0xbec55fea	-0.3854974
204	0xbfb963e2	-1.4483607
205	0xbfa6908c	-1.3012862
206	0xbf42a7e1	-0.7603741
207	0xbef69147	-0.48157713
208	0xbf625095	-0.8840421
209	0xbf85b577	-1.0446004
210	0x3c91542c	0.017740332
211	0xbe858aee	-0.26082557
212	0x3ef066ef	0.46953532
213	0x3e9a57f6	0.30145234
214	0xbfb6dc87	-1.428605
215	0xbfa6985b	-1.3015245
216	0xbe23a7a9	-0.15981926
217	0xbffb7da5	-1.9647719
218	0x3f05fb36	0.5233644
219	0xbfa6189b	-1.2976259
220	0xbf5bc610	-0.85849094
221	0xbf9ebaa6	-1.240071
222	0xbdb412c5	-0.087926425
223	0xbe912afb	-0.28353104
224	0xbdd6c2d1	-0.10486377
225	0xbf7c4171	-0.98537356
226	0xbedc2812	-0.4299932
227	0xbce165d8	-0.027514383
228	0x3d86dfbc	0.06585643
229	0xbfedb8ce	-1.8572023
230	0x3f6b2542	0.91853726
231	0x3ef31d87	0.47483465
232	0xbf32b659	-0.6980949
233	0xbe18bfef	-0.14916967
234	0xbea4bb68	-0.3217423
235	0xbf0f1dca	-0.5590483
236	0x3f28ddcb	0.6596343
237	0xbbf3857f	-0.0074316855
238	0xbeba3519	-0.36368635
239	0xbe309bb6	-0.17246899
240	0x3e04c250	0.1296475
241	0x3f6b7049	0.9196821
242	0xbde4f308	-0.11179167
243	0x3e261989	0.16220678
244	0xbdb11290	-0.08646119
245	0xbfc83a26	-1.5642745
246	0xbef91f88	-0.4865687
247	0xbf63ac91	-0.8893519
248	0xbe288d45	-0.1646014
249	0x3f2fb212	0.6863109
250	0xbeb6b860	-0.35687542
251	0xbf087530	-0.53303814
252	0x3e4b13db	0.19831793
253	0x3dd768c1	0.10518027
254	0x3dc3edf8	0.09566873
255	0x3e1f6f5e	0.15569827

layer2.bias f4 [64]
0	0xbeb9fe87	-0.36327
1	0xbc78b111	-0.015178935
2	0xbdba6b6a	-0.09102519
3	0x3f1ac05a	0.60449755
4	0x3c936f27	0.017997338
5	0x3f83c01b	1.0293001
6	0x3ebd66c9	0.3699248
7	0x3f496b23	0.786791
8	0xbddfb329	-0.10922844
9	0xbd833e2d	-0.064083435
10	0xbe393781	-0.1808758
11	0x3dbd8603	0.09254076
12	0xbd9c5fd7	-0.076354675
13	0x3f32a94c	0.69789577
14	0x3f39c07d	0.7255934
15	0xbe291788	-0.16512883
16	0xbbf1705d	-0.007368131
17	0xbde6bb12	-0.112661496
18	0x3eeb2bba	0.45931798
19	0x3e820e60	0.25401592
20	0xbd8106b8	-0.063001096
21	0x3e516ecf	0.20452426
22	0xbe40caf8	-0.18827426
23	0x3f60fb60	0.8788357
24	0xbdeea681	-0.11652852
25	0x3f25ea7f	0.6481094
26	0x3eecbeea	0.46239406
27	0x3ef9a6a4	0.4875995
28	0x3f6c5fd0	0.923337
29	0xbe00ec83	-0.12590222
30	0xbe441ed5	-0.19152386
31	0x3c72d435	0.014821102
32	0xbe428c3b	-0.18998806
33	0xbe02cfdc	-0.12774605
34	0x3f22b7a2	0.6356145
35	0x3f7710c4	0.9650996
36	0xbe0bb185	-0.13641937
37	0xbe3cd504	-0.18440634
38	0xbc02cc31	-0.007983253
39	0x3f825666	1.0182617
40	0x3cc5b66d	0.024134839
41	0xbe92a413	-0.28640804
42	0x3ef82a39	0.48469713
43	0xbdb423ee	-0.087959155
44	0x3ee2abce	0.44271702
45	0x3f5769fb	0.8414609
46	0x3d11d7c4	0.03560616
47	0xbe0c19e3	-0.1368175
48	0xbe584d11	-0.21123149
49	0x3f59e311	0.851121
50	0x3f013b64	0.5048125
51	0xbe78da06	-0.2430192
52	0x3f85dfcd	1.0458924
53	0x3bc9a956	0.0061542196
54	0xbdcd5607	-0.10026174
55	0x3cd35cda	0.025801111
56	0xbe3599e4	-0.17734486
57	0xbdb11a52	-0.08647598
58	0x3e822888	0.25421548
59	0x3eb6380e	0.3558964
60	0x3f8d16c8	1.1022577
61	0x3eec31d2	0.4613176
62	0xbd4f4fc8	-0.050613195
63	0x3eee7b5f	0.465785

layer3.weight f4 [5, 64]
0	0x3e8a48c4	0.2700864
1	0xbc5b84da	-0.0133983735
2	0xbdb3c115	-0.08777062
3	0xbd5adc10	-0.053432524
4	0xbda03a20	-0.078235865
5	0xbde08a7e	-0.10963915
6	0x3e0daca4	0.13835388
7	0x3d7bc292	0.061464854
8	0x3cecdbfb	0.028913489
9	0xbd45ebf0	-0.04832071
10	0x3d216979	0.039407227
11	0xbe080df0	-0.13286567
12	0x3dbf0f62	0.09329106
13	0xbbba052e	-0.005676887
14	0xbddb9054	-0.10720888
15	0xbd9c0cca	-0.07619627
16	0xbdb271a5	-0.08713082
17	0xbcb2c7d2	-0.021823797
18	0xbe1983ff	-0.14991759
19	0xbd49b55c	-0.049245223
20	0xbc239a8b	-0.009985576
21	0x3d876746	0.06611495
22	0xbc022a7b	-0.007944698
23	0x3e0c1cdf	0.13682888
24	0x3d8a2144	0.06744626
25	0xbdcaba70	-0.098988414
26	0xbdd07aa4	-0.10179642
27	0xbd3d1781	-0.046164993
28	0xbd411290	-0.047136843
29	0x3e019b04	0.1265679
30	0xbcd0abdf	-0.02547258
31	0x3de1f1e4	0.11032465
32	0x3d31bfe8	0.043395907
33	0xbe0c06b1	-0.13674428
34	0xbde33db8	-0.11095756
35	0xbdd47e2c	-0.10375628
36	0xbd803a59	-0.06261129
37	0xbdb1305b	-0.08651801
38	0xbc2dbee8	-0.010604598
39	0xbb2819fc	-0.0025650254
40	0xbd4ade5e	-0.049528472
41	0xbdc8d37f	-0.09805965
42	0x3d9408e2	0.07228257
43	0x3c24b2f3	0.01005243
44	0x3dceb402	0.100929275
45	0x3d2520e1	0.04031456
46	0x3d567605	0.052358646
47	0x3bfff088	0.007810656
48	0xbc58958f	-0.013219251
49	0xbcab928b	-0.0209439
50	0xbd934dbb	-0.0719256
51	0x3b4b972c	0.0031065447
52	0xbc58a850	-0.013223723
53	0x3e67d934	0.2264145
54	0x3b6e051d	0.0036318966
55	0xbcac79ab	-0.02105411
56	0x3bad03d8	0.005279999
57	0x3e1a3fda	0.1506342
58	0x3a7dcd29	0.00096817553
59	0xbdf3c1b8	-0.11902183
60	0x3c424cd4	0.011859138
61	0xbe1f07cb	-0.15530317
62	0x3da8c6c3	0.08241036
63	0x3d83e5b5	0.064402975
64	0xbe84cae9	-0.25936058
65	0xbc175809	-0.009237298
66	0xbdd998a0	-0.10624814
67	0xbef083b1	-0.46975473
68	0xbc9f0c6d	-0.019415105
69	0xbf083ab9	-0.53214604
70	0xbf4d79bd	-0.8026388
71	0xbf5bd9f8	-0.8587947
72	0x3d4c21fe	0.049837105
73	0x3e173b4d	0.14768715
74	0x3d87c9fa	0.06630321
75	0xbd622ac8	-0.05521658
76	0x3d2f91c9	0.04286364
77	0xbf0d0849	-0.5509077
78	0x3e76c977	0.2410029
79	0x3d497d89	0.049191985
80	0x3d848796	0.064711735
81	0x3da22e52	0.07918991
82	0xbec6743d	-0.38760558
83	0x3c73e22e	0.014885468
84	0x3db83ed9	0.08996362
85	0x3caaa30c	0.0208297
86	0x3c48d791	0.012258426
87	0xbe2a2a40	-0.1661768
88	0xbdfbbd9b	-0.12292024
89	0x3eb81fd5	0.35961786
90	0x3d15070a	0.036383666
91	0xbf02e7ac	-0.51134753
92	0xbd8ffa5c	-0.07030174
93	0xbdae7a34	-0.08519402
94	0xbc0328c0	-0.008005321
95	0x3d927a2f	0.07152211
96	0x38aa049a	8.107089e-05
97	0x3d8f9ffd	0.07012937
98	0x3f1dc7f9	0.6163326
99	0x3da1fa01	0.079090126
100	0xbc42b152	-0.011883097
101	0x3dc164ed	0.09443078
102	0xbe446ef9	-0.19182958
103	0xbe47e322	-0.19520238
104	0xbcef7754	-0.029231705
105	0x3d301d1b	0.042996507
106	0xbeaade9a	-0.33372957
107	0x3d61d735	0.055136878
108	0xbd38fa47	-0.045160558
109	0x3f045bda	0.51702654
110	0x3d882675	0.0664796
111	0x3d4267a7	0.04746213
112	0x3e35edd8	0.17766511
113	0x3f995369	1.197858
114	0xbe996a67	-0.2996399
115	0x3d444d7a	0.04792545
116	0x3f16596e	0.5873021
117	0x3d823e74	0.06359568
118	0x3c93b22f	0.0180293
119	0x3d5c2a63	0.05375136
120	0xbe5408c8	-0.20706475
121	0x3d7b1f7e	0.06130933
122	0x3e8637c4	0.2621442
123	0xbe25fe4d	-0.1621029
124	0xbea6e4a3	-0.3259631
125	0xbeb80790	-0.3594327
126	0xbd21260f	-0.039342936
127	0x3fb466f4	1.4093919
128	0xbe64f67d	-0.22359653
129	0xbbb80d1e	-0.005616798
130	0xbe25b20b	-0.16181199
131	0x3efd20b7	0.49439022
132	0x3dd545ec	0.10413727
133	0x3e6e37d3	0.23263483
134	0x3e0b416a	0.13599172
135	0xbe19832a	-0.14991441
136	0x3d298b85	0.04139282
137	0xbba272be	-0.004957526
138	0x3c18b710	0.009320989
139	0x3d8e4bab	0.06948026
140	0x3dcf7f2b	0.10131677
141	0x3db73956	0.08946483
142	0x3f0980b0	0.53711987
143	0xbd290d26	-0.041272305
144	0x3d8c2b9f	0.068442576
145	0x3ddb8410	0.10718548
146	0x3de5c417	0.11219042
147	0x3ebc4da0	0.36777973
148	0xbdb1bf8e	-0.08679114
149	0xbd81f0cc	-0.063447565
150	0x3b2a44a7	0.0025980861
151	0x3e3adf33	0.18249206
152	0xbc9a3489	-0.018823879
153	0xbec96015	-0.39331117
154	0xbec4b7fe	-0.38421625
155	0xbe801c34	-0.25021517
156	0x3ee46563	0.44608602
157	0xbe010892	-0.12600926
158	0x3dcc5c6f	0.09978568
159	0xbdb6067a	-0.08887954
160	0xbc3a1a77	-0.011358849
161	0xbe4ff6a2	-0.20308927
162	0xbe2aae28	-0.16667998
163	0x3f320e5e	0.6955317
164	0x3bc78c01	0.006089688
165	0xbd6b6fe1	-0.057479743
166	0x3ea375b5	0.3192574
167	0x3eb62e31	0.35582116
168	0xbcea9afc	-0.028638355
169	0x3cc0cea5	0.023536036
170	0xbe76b735	-0.24093325
171	0x3d5edf49	0.05441216
172	0xbe6c59d7	-0.23081146
173	0xbd6cf037	-0.057846274
174	0xbc6188db	-0.013765539
175	0x3e24ca7c	0.16092867
176	0xbdccbd0a	-0.09996994
177	0xbf34836f	-0.7051305
178	0xbe9fa591	-0.31181005
179	0x3dbb702d	0.09152255
180	0xbda7491b	-0.08168241
181	0xbe387f7f	-0.18017386
182	0xbccb56bc	-0.024821632
183	0x3d155b82	0.03646422
184	0x3d89f616	0.0673639
185	0x3d2460a6	0.040131234
186	0xbd87bfa2	-0.06628348
187	0x3f84f271	1.0386487
188	0x3f92ae7e	1.1459501
189	0xbf158443	-0.5840494
190	0xbdbc8923	-0.09205844
191	0xbf683510	-0.90705967
192	0xbd955017	-0.072906666
193	0x3dfd3c88	0.12365061
194	0xbd4c3e43	-0.049864065
195	0x3f2f708f	0.68531126
196	0x3d8425fc	0.064525574
197	0x3f2de8f4	0.67933583
198	0x3fbfb59a	1.4977295
199	0x3e2acca7	0.16679631
200	0x3d2b2521	0.041783456
201	0xba9dfd5e	-0.0012053659
202	0xbd3bf5bd	-0.04588865
203	0xbb4bc76c	-0.0031094206
204	0xbd73f13f	-0.059556242
205	0x3d9fed0c	0.07808885
206	0xbed313bd	-0.41225997
207	0xbdbc6d62	-0.092005506
208	0x3c0ee65b	0.008721913
209	0xbe6207b4	-0.22073251
210	0xbf06f126	-0.52711713
211	0xbc2431b3	-0.010021615
212	0xbda13b2b	-0.078726135
213	0x3e438b3a	0.1909608
214	0xbcac8487	-0.021059288
215	0x3ecb65c8	0.3972609
216	0xbd8a5d32	-0.06756057
217	0x3ea826ba	0.32842046
218	0xbeac810e	-0.3369221
219	0xbccc53ad	-0.024942243
220	0xbea6da76	-0.32588547
221	0x3cbe041d	0.02319532
222	0xbe01da29	-0.12680878
223	0x3dc3a2d3	0.09552541
224	0xbce96268	-0.028489307
225	0x3d84d381	0.06485654
226	0xbe7d9c35	-0.2476662
227	0xbf0d541a	-0.55206454
228	0xbc4de712	-0.0125672985
229	0xbd2bb5b3	-0.04192133
230	0xbf16daa3	-0.58927363
231	0xbee17a9a	-0.4403885
232	0x3bb9e65b	0.0056732125
233	0x3da94354	0.08264795
234	0x3e9be928	0.30451322
235	0x3cb53776	0.022121172
236	0xbedeea07	-0.43537924
237	0xbf2ba631	-0.6705046
238	0x3da4fc00	0.08055878
239	0xbd3592c0	-0.044329405
240	0x3ca97d1d	0.020689541
241	0x3e58b82e	0.21164009
242	0x3edffe7e	0.4374885
243	0xbd02d692	-0.03194291
244	0xbf438a3c	-0.76382804
245	0x3ddfddea	0.109309986
246	0x3c887c56	0.01666085
247	0x3de4c9c7	0.111712985
248	0x3d802976	0.06257908
249	0x3d1ded54	0.03855641
250	0xbe0a09a5	-0.13480242
251	0xbf6bd26e	-0.92117965
252	0xbf808d9a	-1.0043213
253	0x3f39cb45	0.7257579
254	0xbb811b1e	-0.00394
255	0x3edcf3a8	0.43154645

layer3.bias f4 [5]
0	0xbf8314eb	-1.0240759
1	0x3e98cac9	0.29842213
2	0xbd80bd30	-0.06286085
3	0x3f1df50f	0.61702055
4	0xbe87428a	-0.26417953
