0 课件原版/maddpg0.pth (torch, 22039 bytes, 6 tensors)

fc1.weight f4 [64, 8]
0	0x3f0c6616	0.5484327
1	0xbf223ef3	-0.633773
2	0xbdcc1e6a	-0.099667385
3	0xbe3ffff6	-0.18749985
4	0xbd877c99	-0.06615562
5	0x3e6710e8	0.22565043
6	0x3e965e0c	0.29368627
7	0x3e675460	0.2259078
8	0xbec76f00	-0.38951874
9	0x3e80462a	0.2505353
10	0xbed9f150	-0.4256692
11	0x3df4d22a	0.11954148
12	0x3eb5cb5e	0.3550672
13	0xbeac87d8	-0.3369739
14	0x3eac6f51	0.33678678
15	0x3e853df7	0.26023838
16	0x3eecb304	0.46230328
17	0xbe199441	-0.1499796
18	0x3e94a378	0.29030967
19	0xbe3c9868	-0.18417513
20	0xbfb07ca9	-1.3788043
21	0x3f1f00a3	0.62110347
22	0xbe1e57d3	-0.1546319
23	0xbbd53df4	-0.0065076295
24	0x3f078a72	0.52945626
25	0xbebea88b	-0.37237963
26	0x3f00e39f	0.5034732
27	0xbde1a95b	-0.1101863
28	0x3f85d9e1	1.0457116
29	0xbececdc3	-0.4039136
30	0xbf017df0	-0.5058279
31	0x3f44ad8e	0.76827323
32	0x3dbaae98	0.09115332
33	0x3e9d501f	0.3072519
34	0x3e1b9660	0.15194082
35	0x3e1ab1e7	0.15106927
36	0x3e35cc4d	0.17753716
37	0x3e282922	0.16421941
38	0xbf9a8f9d	-1.2075077
39	0xbfaa54b8	-1.3307104
40	0xbec695bd	-0.38786116
41	0x3e449a86	0.19199571
42	0xbf09d0dd	-0.53834325
43	0x3e5d744b	0.21626393
44	0xbdd76165	-0.105166234
45	0xbefcb21e	-0.49354643
46	0x3f97fdda	1.1874344
47	0xbf8ec037	-1.1152409
48	0xbcb0c450	-0.021577984
49	0x3d98f43f	0.07468461
50	0xbee523ff	-0.44754025
51	0x3e8f9fc2	0.28051573
52	0x3f1b2205	0.60598785
53	0x3fc3e313	1.5303673
54	0x3f38e00f	0.72216886
55	0x3da41381	0.080115326
56	0xbd8fbd2e	-0.07018505
57	0xbeac1f9c	-0.33617866
58	0xbf1e4b20	-0.6183338
59	0x3fb2e9d5	1.397761
60	0xbe004210	-0.12525201
61	0xbe9233df	-0.285552
62	0x3f0a2e86	0.5397724
63	0xbea30442	-0.31839186
64	0x3f5f7674	0.8729012
65	0x3ecd4d67	0.40098116
66	0xbf9c9f82	-1.2236178
67	0xbf389295	-0.72098666
68	0x3f0f022c	0.5586269
69	0xbe0dc8f0	-0.13846183
70	0x3eee339b	0.46523747
71	0x3f1f148c	0.6214073
72	0xbf85dfa2	-1.0458872
73	0x3edee275	0.43532148
74	0xbeeae45a	-0.45877343
75	0x3f100761	0.5626126
76	0x3e712ba4	0.23551804
77	0x3bcdeb6c	0.006284168
78	0xbe8900a2	-0.26758295
79	0xbed47b08	-0.41500115
80	0xbf8e47a5	-1.1115614
81	0xbf886dba	-1.0658486
82	0x3eda4fcd	0.42639008
83	0x3f11f5b6	0.5701555
84	0x3ec38e3e	0.3819446
85	0x3ea9432d	0.33059064
86	0x3f0c7d92	0.54879105
87	0xbddad7ef	-0.10685717
88	0x3f19efd3	0.6013157
89	0xbf30fc4c	-0.69134974
90	0x3f1d255a	0.6138512
91	0xbf6cd0b8	-0.9250598
92	0xbe159313	-0.14606886
93	0x3d57ca99	0.052683447
94	0x3e8a62e2	0.27028567
95	0x3e2aa41d	0.16664167
96	0xbf8a03dd	-1.0782429
97	0x3db923fc	0.090400666
98	0x3dde9dad	0.10869918
99	0x3d943fdb	0.07238742
100	0x3e04df6a	0.1297585
101	0x3dc17d83	0.094477676
102	0x3ec4b6be	0.3842067
103	0x3e22c9f7	0.15897356
104	0x3e892488	0.26785684
105	0xbef3212e	-0.47486252
106	0x3e88de0e	0.26731914
107	0xbf050787	-0.5196461
108	0xbf800944	-1.0002828
109	0x3faa8df4	1.3324571
110	0xbd572029	-0.052520905
111	0x3db3cb1a	0.08778973
112	0x3ef0624c	0.46949995
113	0xbe2d6194	-0.16931754
114	0x3f2a3a74	0.6649544
115	0xbf649611	-0.89291483
116	0xbf92866a	-1.144727
117	0x3f7eddeb	0.9955737
118	0x3eb689aa	0.35651904
119	0xbe0d2740	-0.13784504
120	0x3d6350c3	0.055496942
121	0xbf78b102	-0.9714509
122	0x3de03a12	0.10948576
123	0xbfbc004a	-1.4687588
124	0xbef675f2	-0.4813686
125	0xbe945b98	-0.2897613
126	0xbf092322	-0.53569233
127	0x3f1b4175	0.60646755
128	0x3eb11ab0	0.34590673
129	0x3ead4c03	0.33847055
130	0xbea5e5c4	-0.3240186
131	0xbfd40cb9	-1.6566383
132	0x3e80a2c4	0.2512418
133	0x3dd7e841	0.10542346
134	0x3e2bdb31	0.16782834
135	0xbed42237	-0.41432354
136	0xbfa777c3	-1.3083423
137	0x3f5145e8	0.81747293
138	0x3e68bb7e	0.22727773
139	0xbedf0877	-0.43561146
140	0x3e398c12	0.18119839
141	0xbe0fb913	-0.14035444
142	0x3f1bdfcf	0.6088838
143	0xbef45f53	-0.47728977
144	0x3e6bc9b6	0.23026165
145	0xbf00d5c4	-0.5032618
146	0xbf07287d	-0.52796155
147	0x3f96846b	1.1759161
148	0x3edb91b4	0.428846
149	0xbf2c42ee	-0.67289627
150	0x3e145f05	0.14489372
151	0xbfa12ff7	-1.2592763
152	0xbe573f26	-0.21020183
153	0x3e25dc89	0.16197409
154	0xbf1f9266	-0.6233276
155	0xbef132ab	-0.4710897
156	0x3ed0ec99	0.4080551
157	0x3cdec707	0.027194513
158	0x3ea10c9b	0.3145493
159	0xbf48e975	-0.7848123
160	0xbd523414	-0.051319197
161	0xbe7918ee	-0.24325916
162	0xbe051b52	-0.12998703
163	0xbc089245	-0.008335655
164	0xbf7c500a	-0.9855963
165	0xbe26bc52	-0.16282776
166	0xbf4d3963	-0.8016569
167	0x3f3c52d4	0.73563886
168	0xbdd6a0e4	-0.10479906
169	0xc00f93b1	-2.2433894
170	0xbd219c42	-0.03945566
171	0x3f0c824d	0.54886323
172	0x3ca0ddf8	0.019637093
173	0x3ecd155e	0.40055364
174	0x3f10e233	0.5659515
175	0x3ce13d20	0.027494967
176	0xbe7f318c	-0.24921244
177	0x3fc9e74a	1.5773709
178	0xbe540e6c	-0.20708627
179	0xbf11470d	-0.5674904
180	0x3e1d8d26	0.15385875
181	0x3bac08bc	0.0052500647
182	0x3e8eefcf	0.27917334
183	0xbf876661	-1.0578119
184	0x3eb1bee3	0.34715948
185	0xbf1467eb	-0.57971066
186	0xbebaaa1a	-0.36457902
187	0x3ea403d9	0.32034186
188	0xbf0c026d	-0.546912
189	0x3ec1e42f	0.37869403
190	0x3cb36ab8	0.021901473
191	0x3f0cec5e	0.5504817
192	0xbfef59e7	-1.8699311
193	0xbef2136a	-0.47280437
194	0x3f88cb23	1.0686992
195	0xbe766106	-0.24060449
196	0x3eb041de	0.34425253
197	0x3ea24174	0.31690562
198	0xbcdb9e95	-0.026809016
199	0x3eb182ca	0.34670097
200	0xbf3c4ccb	-0.73554677
201	0x3fac1ded	1.3446633
202	0x3ee295bf	0.44254872
203	0xbea1cba2	-0.31600672
204	0x3e120eda	0.14263478
205	0xbf43fb45	-0.7655528
206	0x3f0897c2	0.53356564
207	0xbf3ea29d	-0.7446688
208	0xbfaf18c8	-1.3679438
209	0xbf391f77	-0.72313637
210	0xbdc5c0bc	-0.09655902
211	0xbc9b528b	-0.018960258
212	0x3e13b135	0.14423068
213	0xbd040c27	-0.032238152
214	0x3e3461f8	0.17615497
215	0xbe1207e2	-0.1426082
216	0x3f1bdb89	0.6088186
217	0xbe7394c5	-0.2378722
218	0xbfd71d2d	-1.6805779
219	0xbcf2d469	-0.0296423
220	0x3e6cf1dd	0.23139139
221	0xbef7d466	-0.48404235
222	0x3ee97246	0.45594996
223	0x3d81b473	0.06333246
224	0x3d7d8257	0.06189188
225	0x3ce07309	0.027398603
226	0x3e4d953d	0.20076461
227	0x3e60a360	0.21937323
228	0xbdb093d4	-0.08621946
229	0x3e89b616	0.26896733
230	0x3f08c637	0.5342745
231	0x3f6eeaa2	0.9332677
232	0xbd0cbb2e	-0.034358196
233	0xbe6a2081	-0.22863962
234	0x3d3bd4e2	0.045857318
235	0xbe429827	-0.19003354
236	0xbe82a828	-0.25518918
237	0x3f2531c4	0.6452906
238	0x3eb75997	0.3581054
239	0xbe4cb66d	-0.19991465
240	0xbedc6d5e	-0.4305219
241	0x3ed11131	0.40833429
242	0xbf08eaea	-0.5348345
243	0x3ede53fc	0.4342345
244	0xbf5d6dd4	-0.8649571
245	0x3e687350	0.22700238
246	0xbe4b38cc	-0.19845885
247	0x3f4d9cae	0.803172
248	0x3c426059	0.011863791
249	0x3f15cb7c	0.5851362
250	0xbf7de3ec	-0.99175906
251	0xbfb18a2e	-1.3870294
252	0x3eeee61e	0.4665994
253	0x3f4077dc	0.7518289
254	0x3f4d62e3	0.80229014
255	0x3e408ed3	0.18804483

fc1.bias f4 [64]
0	0x3f087eaa	0.53318274
1	0x3ea1ee61	0.3162718
2	0x3ea3d491	0.31998113
3	0xbebb19b4	-0.36543047
4	0xbf4e7708	-0.8065038
5	0x3f318dec	0.6935718
6	0xbe11fc1e	-0.14256331
7	0xbe6db890	-0.23214936
8	0x3e718b68	0.23588336
9	0x3e3363fd	0.17518611
10	0xbf19289e	-0.598276
11	0x3f0b56ca	0.54429305
12	0x3dfb66f9	0.122755
13	0x3f15b8fc	0.5848539
14	0xbf459c2d	-0.7719143
15	0xbf3fa9b4	-0.7486832
16	0x3e8f1c5e	0.2795133
17	0xbf3b1280	-0.73075104
18	0xbf46e74f	-0.776967
19	0x3ee8377d	0.45354834
20	0x3c3acdaf	0.011401578
21	0xbefb93f2	-0.4913631
22	0xbf217f9f	-0.6308536
23	0x3ea9d2ad	0.33168545
24	0x3e0b55a8	0.13606894
25	0x3ef191bd	0.47181502
26	0x3ede4a97	0.43416283
27	0x3f0e7a46	0.55655324
28	0xbe8611d4	-0.26185477
29	0x3e032fd5	0.12811215
30	0xbebe0518	-0.3711326
31	0xbf79ca71	-0.97574526
32	0xbd901801	-0.070358284
33	0x3f2d49d9	0.6769081
34	0x3e7de215	0.24793275
35	0xbe890a5f	-0.26765725
36	0x3f133056	0.5749563
37	0xbda2fb85	-0.0795813
38	0xbecac91f	-0.39606568
39	0x3f160974	0.58608174
40	0x3e1c0c23	0.15239005
41	0x3e36e86c	0.178621
42	0x3e785221	0.2425008
43	0x3f199f59	0.6000877
44	0xbf271aed	-0.6527546
45	0xbefdba53	-0.49556217
46	0xbf24835d	-0.64262944
47	0xbe4ce21c	-0.20008129
48	0xbfa466a4	-1.2843823
49	0xbf45b85f	-0.7723445
50	0x3ea5307e	0.3226356
51	0xbf71de73	-0.94480056
52	0xbf4098b6	-0.7523302
53	0xbefd0a4f	-0.49421927
54	0xbf4a2657	-0.7896475
55	0x3e0cdda5	0.13756426
56	0x3eb0a482	0.3450051
57	0xbef25b8b	-0.47335467
58	0x3f1b8b79	0.60759693
59	0xbf7be20c	-0.98391795
60	0xbe9703b1	-0.29495004
61	0xbf3b2db1	-0.73116595
62	0x3effe68a	0.49980575
63	0x3f094115	0.5361493

fc2.weight f4 [64, 64]
0	0x3e72b390	0.2370131
1	0xbdb3e42a	-0.08783753
2	0x3e1b01f0	0.15137458
3	0xbf9e1f02	-1.2353213
4	0xbf194aaf	-0.59879583
5	0xbf73a193	-0.9516842
6	0xbf666736	-0.9000124
7	0xb7c6ad6c	-2.3684195e-05
8	0x3e91b560	0.2845869
9	0xbbcce6fd	-0.006253122
10	0xbefba813	-0.49151668
11	0xbc573e43	-0.013137403
12	0x3ed6fb5a	0.4198864
13	0x3dff6659	0.12470693
14	0xbf4f8340	-0.81059647
15	0xbec6b327	-0.38808557
16	0x3e061876	0.13095269
17	0x3c70eff2	0.014705645
18	0xbf229739	-0.63512
19	0xbf1a18f9	-0.60194355
20	0xbeb1affc	-0.34704578
21	0x3e9c5be3	0.30538854
22	0xbe36e15a	-0.17859402
23	0x3dfa4958	0.122210205
24	0x3f156508	0.58357286
25	0x3efc2190	0.49244356
26	0xbd4cad68	-0.04997006
27	0x3edbb39b	0.42910466
28	0x3f977159	1.1831466
29	0x3c833f21	0.016021313
30	0xbdda7afc	-0.10667989
31	0xbf47ce28	-0.78048944
32	0x3ee9d0fa	0.4566725
33	0x3dee8f79	0.11648459
34	0xbdf5aa33	-0.119953535
35	0x3f2c91c6	0.6740993
36	0xbd7e88e3	-0.062142264
37	0x3d4d6553	0.05014546
38	0xbe7b8faf	-0.2456653
39	0x3ea7e737	0.3279359
40	0xbf8ac324	-1.0840802
41	0xbf50d400	-0.81573486
42	0x3b9db7a0	0.0048131496
43	0xbeb97088	-0.36218667
44	0xbec31774	-0.3810383
45	0xbec9389b	-0.39301
46	0x3d44c3f8	0.048038453
47	0xbf72e37b	-0.9487836
48	0xbedb120d	-0.4278721
49	0x3bf3dcba	0.007442084
50	0x3e93b737	0.2885072
51	0xbf888eee	-1.0668619
52	0xbb2c806d	-0.0026321665
53	0xbfac7268	-1.3472414
54	0x3f5098eb	0.81483334
55	0xbda6bea4	-0.081418306
56	0xbddca7fd	-0.10774229
57	0xbdb9b8ef	-0.090684764
58	0x3d9a98e5	0.075486936
59	0xbf368e4d	-0.71310884
60	0x3f2f746c	0.6853702
61	0xbe887f5d	-0.2665967
62	0x3de921df	0.113834135
63	0xbdbfac3d	-0.09359024
64	0x3c2822af	0.010262175
65	0xbca8cd03	-0.02060557
66	0xb92a2613	-0.00016226647
67	0xbdbe5bdb	-0.09294864
68	0xbe2278dc	-0.15866417
69	0xbdac88a8	-0.084245026
70	0xbe27bc16	-0.16380343
71	0xbb8a4dd3	-0.004220703
72	0xbda60ac3	-0.081075214
73	0x3cdc4872	0.026890013
74	0xbcde4a53	-0.02713505
75	0xbdd5e6e7	-0.10444432
76	0x3c41e6be	0.011834798
77	0xbe4bd050	-0.19903684
78	0xbe1f7f27	-0.15575849
79	0xbdf00cc1	-0.117211826
80	0xbd64ef84	-0.055892482
81	0x3d343984	0.044000164
82	0x3d1f00ba	0.038819052
83	0x3c974172	0.018463824
84	0xbdeca9cf	-0.11555826
85	0xbd99ac40	-0.07503557
86	0x3dd1f32d	0.1025146
87	0xbe4401d8	-0.19141328
88	0xbe5307f5	-0.20608504
89	0xbd9a54e7	-0.07535725
90	0xbdd3b470	-0.1033715
91	0xbe2a73d7	-0.16645752
92	0xbe781ae7	-0.24229012
93	0xbd8d7c9e	-0.069085345
94	0xbdb89e7e	-0.09014605
95	0xbdf909d3	-0.12160077
96	0xbe750ccc	-0.23930663
97	0xbd47272c	-0.04862134
98	0xbd234d43	-0.039868604
99	0x3ca246b1	0.019809099
100	0xbe7426e9	-0.23842968
101	0xbd8d9301	-0.069128044
102	0xbdb9cb3e	-0.090719685
103	0xbccebf86	-0.02523781
104	0xbe80db1e	-0.25167173
105	0xbe87b98e	-0.26508754
106	0xbda32976	-0.079668924
107	0xbe56749a	-0.20942917
108	0xbe224f86	-0.15850648
109	0xbe909046	-0.28235072
110	0xbd8e31d9	-0.069431014
111	0xbe75fd2e	-0.24022362
112	0xbd050297	-0.032473173
113	0x3d79c7b2	0.06098146
114	0xbdd04866	-0.10170059
115	0x3cf63d8b	0.030058643
116	0x3cfe29c1	0.03102577
117	0xbdc97056	-0.098358795
118	0xbd2d6543	-0.0423329
119	0xbdbbb488	-0.09165293
120	0xbe3732ca	-0.17890468
121	0xbe275ba0	-0.16343546
122	0xbe1aab8d	-0.15104504
123	0xbe1eb768	-0.15499651
124	0xbd9ddfc8	-0.077086985
125	0xbe1fb7e8	-0.15597498
126	0xbda4144b	-0.08011683
127	0xbe261f0e	-0.16222784
128	0xbe0bbecb	-0.13647
129	0xbd05be8a	-0.032652415
130	0xbd9ba921	-0.07600618
131	0xbdb9739e	-0.09055255
132	0x3bc0b711	0.005881198
133	0xbdc4ea3b	-0.096149884
134	0xbe1ece22	-0.15508321
135	0xbdd487a5	-0.10377435
136	0x3d51bb7e	0.051204197
137	0xbe27c47d	-0.16383548
138	0xbe34b72e	-0.17648003
139	0xbd8cf57c	-0.0688276
140	0x3d151952	0.0364011
141	0xbe0475f0	-0.12935615
142	0xbc261eb3	-0.010139155
143	0xbc8f2e18	-0.017478034
144	0xbe4441af	-0.19165681
145	0xbe440861	-0.19143821
146	0x3d667889	0.056267295
147	0xbdb9875e	-0.09059022
148	0xbd34dff2	-0.044158883
149	0xbdb77329	-0.08957512
150	0xbe366efb	-0.17815773
151	0xbe131151	-0.14362074
152	0x3d865c06	0.06560521
153	0xbdacceec	-0.08437905
154	0xbe64e66f	-0.22353528
155	0xbd23e6ff	-0.040015217
156	0xbdac994c	-0.084276766
157	0xbdce98bc	-0.100877255
158	0xbb4f6c87	-0.003165038
159	0x3d02e7fc	0.03195952
160	0x3cfbec46	0.030752312
161	0xbe149191	-0.14508654
162	0x3d3a378d	0.045463134
163	0xbc0b848a	-0.0085154865
164	0xbe1077b2	-0.1410816
165	0x3def1055	0.11673037
166	0xbdcb4a4e	-0.09926282
167	0xbbea0224	-0.0071413685
168	0xbe195172	-0.14972475
169	0xbe3ecb43	-0.18632226
170	0xbd1be171	-0.038056795
171	0xbce47f7a	-0.027892817
172	0x3dc11e44	0.09429601
173	0xbcad16d5	-0.021129051
174	0xbda618ea	-0.08110221
175	0xbe329430	-0.17439342
176	0xbd20c19b	-0.039247137
177	0xbe07e3f3	-0.1327055
178	0xbe00dab0	-0.12583423
179	0xbdbbe9fc	-0.09175488
180	0xbe27ebf5	-0.16398604
181	0x3d2f2664	0.04276122
182	0xbe7a27db	-0.24429266
183	0xbda67c96	-0.08129232
184	0xbe58c9c2	-0.21170714
185	0x3e00ae98	0.12566602
186	0x3d09cc23	0.033641946
187	0xbd9f4153	-0.077761315
188	0xbe60b727	-0.21944867
189	0xbd2465a5	-0.040136
190	0xbb65bb57	-0.003505429
191	0x3e079a69	0.13242497
192	0xbed0e359	-0.40798452
193	0x3ecf368d	0.40471306
194	0x3f12801e	0.5722674
195	0x3e33b08d	0.17547818
196	0xbe1d0efc	-0.15337747
197	0x3d9c3d5c	0.07628891
198	0xbe2ae850	-0.16690183
199	0xbdd1803c	-0.10229537
200	0x3f0ea9df	0.5572795
201	0x3ea81a7e	0.32832712
202	0x3ee89b62	0.45431048
203	0xbf783655	-0.96957904
204	0x3e350e1d	0.17681165
205	0x3f2b420f	0.6689767
206	0xbfaa9f8c	-1.332994
207	0xbf0c8296	-0.5488676
208	0xbfa66a3f	-1.3001174
209	0xbf25f820	-0.64831734
210	0xbea07455	-0.31338754
211	0x3cf9a640	0.030474782
212	0x3f037c5b	0.51361626
213	0xbf6f5994	-0.9349606
214	0x3db90516	0.09034173
215	0x3c34c8b8	0.011034183
216	0x3f30a989	0.6900869
217	0x3f6bc72d	0.92100793
218	0x3e75f926	0.24020824
219	0x3f47b18f	0.7800531
220	0x3e68c147	0.2272998
221	0x3e89f111	0.26941732
222	0xbea3bc11	-0.3197942
223	0x3dfc230a	0.12311371
224	0xbd7303b9	-0.059329722
225	0xbf9a9d13	-1.2079185
226	0x3cb459e0	0.022015512
227	0x3e66fdaa	0.22557703
228	0x3f44e13f	0.769062
229	0x3d0be566	0.03415432
230	0xbd30b69a	-0.043142892
231	0x3da3e4ff	0.08002662
232	0xbe996efc	-0.29967487
233	0x3edc60bc	0.43042552
234	0x3df35b39	0.11882634
235	0xbdccd399	-0.100012966
236	0x3d9b10ab	0.075715385
237	0xbf0d0a57	-0.550939
238	0x3f2bcffb	0.6711423
239	0x3f30c3a2	0.6904851
240	0xbf39d3c3	-0.7258875
241	0xbe0d1f77	-0.13781534
242	0xbe6c7ab5	-0.23093684
243	0xbf81d7c4	-1.0143971
244	0x3fd2d94b	1.6472563
245	0x3ed68069	0.41894844
246	0xbf8a0829	-1.078374
247	0x3e08b9ce	0.13352129
248	0x3f04e9da	0.5191933
249	0x3e8fb189	0.28065136
250	0x3d3d6de2	0.04624737
251	0xbdb3ecc9	-0.087853976
252	0x3e2858b2	0.16440085
253	0x3e74e2a6	0.23914585
254	0xbf53c3c5	-0.82720596
255	0xbf72bbd4	-0.9481785

fc2.bias f4 [64]
0	0x3cfcb12c	0.0308462
1	0xbde4b54f	-0.11167394
2	0xbdb131ac	-0.08652052
3	0x3ef1e1c8	0.4724257
4	0xbe157432	-0.14595106
5	0x3f20b85c	0.6278131
6	0xbdf4eddb	-0.1195943
7	0x3b95dd60	0.004573509
8	0xbe0155c6	-0.12630376
9	0x3f263d5d	0.6493738
10	0xbbcf02f3	-0.0063174902
11	0x3cf0f93c	0.02941572
12	0x3f2ba056	0.6704153
13	0x3b61faeb	0.0034481834
14	0xbe1e077d	-0.15432544
15	0xbe1361f5	-0.14392836
16	0xbe21c2eb	-0.15797012
17	0xbe2df542	-0.1698809
18	0xbdba9d17	-0.09111994
19	0xbe478ca0	-0.19487238
20	0x3eb6fa96	0.35738057
21	0xbcb799ba	-0.02241217
22	0x3d15c307	0.036562946
23	0x3d823b87	0.0635901
24	0x3eb93526	0.36173362
25	0xbdb2c6f3	-0.08729353
26	0xbc2e0dd0	-0.01062341
27	0x38b3cdf6	8.573748e-05
28	0xba8ad0b7	-0.0010590766
29	0x3c4c7d26	0.01248101
30	0xbd524f4b	-0.05134515
31	0xbd79ad15	-0.06095608
32	0xbe3371f1	-0.17523934
33	0x3eec70bd	0.46179762
34	0x3f078cda	0.529493
35	0xbd2c37a5	-0.042045254
36	0xbe095c6d	-0.13414164
37	0xbd70da9b	-0.05880223
38	0xbce36503	-0.027758127
39	0x3bd3f9e3	0.006468998
40	0xbd67a84e	-0.056556992
41	0x3ede7d38	0.4345491
42	0xbd929609	-0.07157523
43	0xbd9ab04f	-0.075531594
44	0xbd84faf5	-0.06493179
45	0xbe541a5a	-0.20713177
46	0xbdeb5768	-0.11491281
47	0x3f597931	0.8495055
48	0x3f0d46e7	0.55186313
49	0xbe38a2e0	-0.18030882
50	0xbdb2ea48	-0.08736092
51	0xbdabdeb2	-0.08392085
52	0xbe122750	-0.14272809
53	0xba8f27fe	-0.0010921953
54	0xbc39d735	-0.011342813
55	0xbdf971c6	-0.12179904
56	0xbe2f1865	-0.1709915
57	0xbd93ed36	-0.07222979
58	0xbd72260e	-0.059118323
59	0xbd335da4	-0.043790475
60	0xbdbaae2e	-0.091152534
61	0x3ed708e5	0.41998973
62	0xbe292575	-0.16518195
63	0xbe046167	-0.12927781

fc3.weight f4 [5, 64]
0	0x3e2593bf	0.16169642
1	0xbd3cdebc	-0.046110854
2	0x3deff42f	0.11716496
3	0x3b9a7b8d	0.0047144354
4	0x3e254cc5	0.16142567
5	0xbc417fde	-0.011810271
6	0xbc5e0352	-0.013550596
7	0x3e61ae39	0.22039117
8	0xbd55c2a7	-0.052187588
9	0x3dd8b8b7	0.105821066
10	0xbde926b8	-0.11384338
11	0xbd1090b4	-0.03529425
12	0xbe11a4e3	-0.14223056
13	0xbdc85053	-0.09780946
14	0x3df1da33	0.11809196
15	0x3cad1eb7	0.02113281
16	0xbd9d8d38	-0.07692951
17	0xbc266220	-0.010155231
18	0x3d606309	0.054781947
19	0xbd9037b8	-0.070418775
20	0xbe15e7c4	-0.14639193
21	0xbdaa6661	-0.083203085
22	0x3cbfca79	0.023411976
23	0xbdb3c7bd	-0.087783314
24	0xbda2dce3	-0.07952287
25	0xbdd3d09c	-0.103425235
26	0x3e22e58b	0.15907876
27	0xbe4d78c5	-0.20065601
28	0x3d3ad0d2	0.045609303
29	0xbd9d9eba	-0.0769629
30	0x3d3378ac	0.043816254
31	0x3c9444dc	0.018099241
32	0x3bf33b0b	0.00742281
33	0x3d45cf43	0.048293363
34	0x3e864fbc	0.26232708
35	0xbcfce5bd	-0.030871266
36	0xbc8c273c	-0.017108552
37	0xbe13cc59	-0.14433421
38	0x3dee9974	0.116503626
39	0xbd3e7b46	-0.04650428
40	0x3e00aaef	0.12565206
41	0xbe450633	-0.19240646
42	0xbcf42ab2	-0.029805515
43	0xbe1178c4	-0.14206225
44	0x3e6cd142	0.231267
45	0xbc4c9855	-0.012487491
46	0x3dd64438	0.104622304
47	0xbd75f8fd	-0.060051907
48	0x3e496719	0.19668235
49	0xbdb11e1e	-0.086483225
50	0xbd8e2bda	-0.06941958
51	0x3e0af9a5	0.13571794
52	0x3e09b278	0.13446987
53	0xbc037118	-0.008022569
54	0xbd8717b6	-0.065963194
55	0xbd9b8804	-0.07594302
56	0xbd16d529	-0.03682438
57	0x3d553a8f	0.0520578
58	0x3d6fedc6	0.058576368
59	0xbaa4ef95	-0.0012583608
60	0x3e0a92a6	0.13532504
61	0xbe8d7e9c	-0.27635658
62	0x3e208b4b	0.15678136
63	0x3e0fa6ea	0.14028516
64	0xbf4f9c88	-0.8109822
65	0x3de3eaf8	0.11128801
66	0xbde01405	-0.109413184
67	0xbd801f5f	-0.062559836
68	0x3e130fc7	0.14361487
69	0x3f566e3f	0.8376197
70	0x3d076e9f	0.03306448
71	0xbccc61b4	-0.024948932
72	0x3dcaf51c	0.09910032
73	0xbe96cb80	-0.29452133
74	0x3e1fc15d	0.15601106
75	0xbf7bffd5	-0.98437244
76	0xbf1abc6b	-0.60443753
77	0x3dc40a5f	0.09572291
78	0x3de16e82	0.11007406
79	0x3e0fd396	0.14045557
80	0xbd0d01cd	-0.034425545
81	0x3e0c1916	0.13681445
82	0x3e1c78af	0.15280412
83	0x3e4dedb9	0.20110215
84	0x3e86cfae	0.26330322
85	0x3e818fa5	0.25304905
86	0x3e655296	0.22394785
87	0xbe9dd3c2	-0.3082562
88	0x3f9ef3b6	1.2418125
89	0x3e69629b	0.22791521
90	0x3d4f482f	0.05060595
91	0x3d10801c	0.035278425
92	0xbe256fe0	-0.16155958
93	0x3e0f41ac	0.13989896
94	0x3d894964	0.06703451
95	0x3de90bae	0.11379181
96	0x3e02e044	0.12780863
97	0x3f853daf	1.0409449
98	0x3ea4259b	0.3205994
99	0xbd52fffe	-0.051513664
100	0x3de0479f	0.10951161
101	0x3e8e39fc	0.27778614
102	0x3e5a210f	0.21301673
103	0x3dd5548d	0.104165174
104	0x3e236660	0.15957022
105	0xbefaaf61	-0.48961928
106	0x3d6ff630	0.058584392
107	0x3e52961b	0.20565073
108	0x3dbf4a2a	0.093403175
109	0xbdbe2296	-0.092839405
110	0x3df5aa0a	0.11995323
111	0x3f0d3f6b	0.55174893
112	0x3e470bce	0.19438097
113	0x3d2b3413	0.04179771
114	0x3db968ec	0.090532154
115	0x3e06d103	0.13165669
116	0x3e6a2d4f	0.22868846
117	0xbce96349	-0.028489726
118	0x3e04d575	0.12972052
119	0x3dc78e45	0.09743933
120	0xbda45200	-0.08023453
121	0xbc818646	-0.015811097
122	0x3e31ee6a	0.17376104
123	0x3e5ef10e	0.21771643
124	0xbe22df25	-0.15905435
125	0xbed9f9e1	-0.42573455
126	0xbd91e8b7	-0.07124465
127	0xb94cfcbc	-0.00019549107
128	0x3f12c6b9	0.57334477
129	0x3b9d2f74	0.0047969166
130	0x3dddc089	0.10827739
131	0x3f1e8f45	0.6193736
132	0xbb582213	-0.0032979294
133	0x3e231fcf	0.15930103
134	0xbd91ab31	-0.0711273
135	0xbb8c1728	-0.0042752214
136	0x3d8cdc49	0.068779536
137	0xbdbe25cf	-0.09284555
138	0x3df8417a	0.12121864
139	0x3f95439c	1.1661258
140	0xbf2339e0	-0.63760185
141	0xbc0d2cc0	-0.008616626
142	0x3c44d5db	0.012013878
143	0x3cc3538c	0.02384355
144	0xbd0949b0	-0.03351754
145	0x3d879c56	0.066216156
146	0x3c853db6	0.016264778
147	0x3d20e0f2	0.039277025
148	0xbf119758	-0.5687156
149	0x3d2ea0ec	0.042633936
150	0xb910baae	-0.00013802454
151	0x3f0152fc	0.5051725
152	0xbf74598b	-0.9544913
153	0x3d11007f	0.035400864
154	0x3c8fd970	0.017559737
155	0xbcccfa0d	-0.025021577
156	0xbd0fd3dc	-0.035114154
157	0x3d11f026	0.035629414
158	0x3e088d5e	0.13335177
159	0x3d03c2fc	0.032168373
160	0x3d75adb3	0.059980106
161	0xbfa282db	-1.2696184
162	0xbc11c8b8	-0.008897953
163	0x3d552cbc	0.052044615
164	0xbd942e3e	-0.072353825
165	0x3dec0cbe	0.11525868
166	0x3e480fec	0.19537324
167	0x3e0e2878	0.13882625
168	0x3d75ee2e	0.0600416
169	0x3e652b1a	0.22379723
170	0x3e1a51ce	0.15070269
171	0xbd3cbef1	-0.046080533
172	0x3e141e52	0.14464691
173	0x3c4fb3bb	0.012677128
174	0xbd279063	-0.040909182
175	0xbf3dca42	-0.74136746
176	0x3f1042fb	0.56352204
177	0x3c622dd6	0.013804873
178	0x3dffc102	0.12487985
179	0xbbcb2326	-0.0061992584
180	0xbbb9eb64	-0.0056738127
181	0xbcdc925d	-0.02692526
182	0x3e21d18f	0.15802597
183	0x3c540443	0.012940469
184	0x3c151152	0.009098368
185	0x3ccd32f8	0.025048718
186	0x3d82cbb9	0.06386513
187	0x3e3c28da	0.18374959
188	0x3d581759	0.05275664
189	0xbef7a4c3	-0.4836789
190	0x3c3719d2	0.01117559
191	0x3dd4eec9	0.10397107
192	0x3e750b5c	0.23930115
193	0x3e6f1450	0.23347592
194	0xbda6854f	-0.08130895
195	0x3efe22d6	0.49635953
196	0xbd3e499e	-0.046456926
197	0xbe1bff51	-0.15234114
198	0x3d84b70b	0.06480225
199	0x3db0be4e	0.08630048
200	0x3da7ed9c	0.08199617
201	0xbea9c192	-0.33155495
202	0x3dd609d8	0.10451096
203	0xbe717321	-0.23579074
204	0x3f84e299	1.0381652
205	0x3e27b32d	0.16376944
206	0x3db9c86d	0.09071431
207	0xbc662e86	-0.014049178
208	0xbdc9defe	-0.098569855
209	0xbe19d1a1	-0.15021373
210	0x3ccea153	0.02522341
211	0x3dd12ea6	0.102139756
212	0x3f00f376	0.5037149
213	0x3dd1de12	0.10247435
214	0x3c418af1	0.011812911
215	0x3f03ad02	0.51435864
216	0xbc1b51c1	-0.009479941
217	0x3d18afe2	0.03727711
218	0xbe360e2c	-0.17778844
219	0xbca792eb	-0.020455798
220	0x3dae565c	0.085125655
221	0x3e98c27e	0.29835886
222	0xbc8aab1c	-0.016927294
223	0xbd3fec9a	-0.0468565
224	0x3e35bf75	0.17748816
225	0x3ebc4677	0.3677251
226	0x3f4cb60c	0.7996528
227	0x3df83f29	0.12121422
228	0x3dfde741	0.12397624
229	0xbdb19fe2	-0.08673073
230	0xbd0e5cd9	-0.034756515
231	0x3bc4f500	0.0060106516
232	0x3da20b85	0.079123534
233	0xbea14501	-0.31497958
234	0x3da268b0	0.07930124
235	0xbcdbf9d4	-0.026852526
236	0xbd2381db	-0.03991876
237	0xbe08ae30	-0.13347697
238	0xbc456c09	-0.012049683
239	0xbe819172	-0.25306278
240	0xbf06fc95	-0.5272916
241	0xbe16db3b	-0.14732067
242	0x3ccb8081	0.024841549
243	0x3cb83eda	0.022490907
244	0x3e2b9d4e	0.16759226
245	0x3c7853a2	0.015156658
246	0x3d239aef	0.039942678
247	0xbd061229	-0.032732163
248	0xbc2109c5	-0.009828989
249	0x3b63704d	0.0034704388
250	0xbba22d10	-0.0049492195
251	0x3d12ba43	0.035822164
252	0xb893cc61	-7.047575e-05
253	0x3f7720cb	0.96534413
254	0xbbee046d	-0.007263711
255	0x3cebc7e1	0.028781833

fc3.bias f4 [5]
0	0xbed7d822	-0.42157084
1	0x3e92c706	0.28667468
2	0xbe592111	-0.2120402
3	0xbd760d91	-0.06007153
4	0x3ef1f82b	0.4725965
