0 课件原版/net.pth (torch, 22010 bytes, 16 tensors)

weight f4 [128, 4]
00000000: 3a7a 1b3f 8ddc d93c b676 4ec0 6e84 e7bf
00000010: 5182 81be c771 e83e aae2 5640 cd42 8a3f
00000020: ef94 08be 4ea3 a83c d3cb eabf 03e9 e0be
00000030: c77b c3bf 756f a1bf 89f0 463e 886d 17bf
00000040: 01a0 223f 7c93 e03e 2fc0 f0bf 5c62 0fbf
00000050: f9d2 2abe c185 503e 2832 80bf 0715 513e
00000060: d317 abbf c0cf 13bf e632 b23f 372b fdbe
00000070: 36e5 22bf 1d3f 1abf 8026 b83f 3554 803f
00000080: f6fa c6bf f825 94bf 8f10 6bbe 7a19 51bf
00000090: 320a 21c0 9114 d03e e7ca 0840 7cb7 133f
000000a0: ea4a a3bf d041 adbf c514 863e b432 81bf
000000b0: 62dd 33c0 54bd b4be ee07 203f 8916 7fbe
000000c0: 5906 bbbf 5b9b cc3e 9838 2f40 604a abbd
000000d0: 29e0 773e 0db3 34bf 52be 68c0 3b72 53bf
000000e0: 69fc 42bf cedf 53bf 5111 85bd 485a 95be
000000f0: 721a 4c3f 06ef 983f ce90 4cbf 27eb 173f
00000100: 42e4 cd3d 187f 38be 375d 573e 7218 7e3e
00000110: e355 e03f 9496 83be cece 2ec0 4a75 31bf
00000120: 75d7 a6bd e7c6 8f3e 4b30 11bf 324d 2f3e
00000130: 7da1 53bf a501 70bf 45d9 313e 6811 8ebe
00000140: 7805 4a3f 9ba0 2f3c 44f1 8ac0 1b38 a6be
00000150: f112 763d 8723 f1bd 86c3 47bd b70d 48be
00000160: ed40 8fbe 26e9 783e 70fd 8c40 6031 823f
00000170: a242 c33f 3639 2e3e 6cf1 90be cd5d 33bf
00000180: 4c47 52be bcde 4dbe 5ae7 02c0 ddac cbbf
00000190: 1cbc 2e40 a754 3a3f 7c09 8e3f 1932 073f
000001a0: c1e9 a4be d42c d2be e047 7ac0 5a24 b7bf
000001b0: 2491 3fbf 45af 5abf de18 863f 008a 323f
000001c0: 6923 b43e f729 87bf a76d adc0 ce2f a9bf
000001d0: a9eb 54bf 3dfc e4be 229d 2a3f 767a 2ebe
000001e0: d993 3dbf 0bdf fb3b 2732 fc3e 65b6 b73f
000001f0: e9ec 053f 5052 e0be 1b33 3bc0 485f 4ebf
00000200: cf8e a0bf 205c 9dbf b32f 063f 1f43 44bf
00000210: d54a 92bf 6eaa 3abf fa4e 833f 8e60 abbe
00000220: fa45 0ebf 91dd 163f 8335 d23f f580 b63f
00000230: ccb2 913f 841a 2b3f 3c3a 4dbf b136 d93e
00000240: 8547 31c0 d423 babe 8a13 913f dac2 19be
00000250: 1f67 b5bf f97f a4bf ebfa 95be 6fb2 87bf
00000260: d2ef c8bf a3ea d23e c132 ff3f 6c4d f33e
00000270: 3569 b73e 91b5 b0be 60d3 29be 944d 7fbe
00000280: 3a6e b3bd c8b6 dbbd 751e 04c0 d25b 3dbf
00000290: 4a59 1bc0 25ef 9cbe 37b8 76be f576 6cbe
000002a0: 5ae6 b4bf 3385 5bbf 0eba 2f3f 0449 d4be
000002b0: a856 af3f 9a2b 933f a24c eebf 3b10 5a3f
000002c0: 46f5 343f 2e96 03bf 0c2d f4bf afaf b5bf
000002d0: 180b 58bd 7977 dcbd ef8a a23f bcc6 cc3e
000002e0: 285d a93f 453f f73e 3b78 0ac0 5470 9f3e
000002f0: 6109 3ec0 a055 45be a25c 913d 4295 74bd
00000300: 8cbd 4abf 32a1 c1be 4c04 19c0 8d0a 1abf
00000310: aa9a 6ebf 87d9 703e c69a 83bf 867e e43d
00000320: cd99 cebe e999 223f 939a b3bf 57f8 93be
00000330: 8fd6 16bf 239e 363e 7620 8b3e 9c2f 4f3f
00000340: 5ef1 053e 8f57 a4bc b7e1 cc3d 9343 acbc
00000350: 2d99 64bf 6063 2cbf 1873 a33d 9112 7ebe
00000360: a305 cbbf 26cc 62bf e046 65c0 69fe 1fbf
00000370: 228a 283f d7a9 8b3e 2cdd 1840 b7f4 3c3e
00000380: 392c f8be 7465 b33e 5207 eebf 762e 19bf
00000390: 81e8 58be e451 123e 916a 6d3f ef78 eb3e
000003a0: ed1b c43e cb3f 523f 99e2 94bf 6e18 69bf
000003b0: cde0 f63d 886c 18bf 8e49 f93d 9011 8e3e
000003c0: 13af 173f 582f 58bf 8408 86c0 377c 39bf
000003d0: d7d0 223f 1296 19bf fe22 d9bf 94d9 4abf
000003e0: 463c 06c0 e1aa 8a3c 67b3 bf3f 1d96 cfbd
000003f0: b0f0 e83e 36aa dcbd 3438 0bc0 220f 6abf
0.6073338 0.026594425 -3.2259955 -1.8087289 -0.25294736 0.45399305 3.3575845 1.0801636
-0.13338064 0.020585682 -1.8343452 -0.43927774 -1.5272149 -1.2612139 0.19427694 -0.59151506
0.63525397 0.43862522 -1.880865 -0.5600946 -0.16682042 0.20363523 -1.0015306 0.20418178
-1.3366646 -0.57738876 1.3921783 -0.49447033 -0.63631 -0.60252553 1.4386749 1.0025698
-1.5545337 -1.1574087 -0.22955535 -0.816795 -2.5162473 0.4064069 2.1373842 0.5770185
-1.2757237 -1.3535709 0.2618772 -1.0093598 -2.8103871 -0.35300696 0.625121 -0.2491094
-1.4611312 0.39962277 2.7378292 -0.08363795 0.24206604 -0.7058571 -3.6366162 -0.82596177
-0.761664 -0.82763374 -0.064974435 -0.29170442 0.7972785 1.1947944 -0.79908454 0.5934319
0.10053302 -0.18017232 0.21031652 0.24814013 1.752621 -0.2570082 -2.7313724 -0.69319594
-0.08146564 0.28081438 -0.56714314 0.17119291 -0.82668287 -0.9375251 0.17368038 -0.27747655
0.78914595 0.010719444 -4.3419514 -0.3246468 0.060076658 -0.117743544 -0.04877045 -0.19536482
-0.27979222 0.24307689 4.405937 1.0171318 1.525471 0.17014012 -0.2830919 -0.70065004
-0.2053501 -0.20104498 -2.0453706 -1.5912129 2.7302313 0.7278542 1.1096644 0.5281082
-0.3220959 -0.41049826 -3.910637 -1.4307969 -0.7483084 -0.8542369 1.0476339 0.6974182
0.35183266 -1.0559682 -5.4196353 -1.3217714 -0.8317209 -0.44723693 0.66646016 -0.17038903
-0.7405372 0.007686501 0.49257013 1.4352537 0.5231462 -0.438128 -2.9249942 -0.8061414
-1.2543582 -1.2293739 0.52416533 -0.7666492 -1.1429087 -0.72916305 1.0258477 -0.33472103
-0.55575526 0.58931834 1.642258 1.4258105 1.138269 0.66837335 -0.80166984 0.4242454
-2.7699902 -0.3635546 1.1334088 -0.15015736 -1.4172095 -1.2851554 -0.29292998 -1.0601329
-1.5698187 0.4119464 1.9937364 0.47520006 0.35822454 -0.34513524 -0.1658454 -0.24931937
-0.087612584 -0.10728222 -2.064359 -0.7396823 -2.4273248 -0.30651203 -0.2409371 -0.23092254
-1.4132798 -0.8575012 0.6864327 -0.41461957 1.369832 1.1497681 -1.8617136 0.85181016
0.7068676 -0.5140103 -1.9076247 -1.4194239 -0.052744955 -0.10764975 1.2698649 0.39995372
1.3231554 0.48290458 -2.1635883 0.31140387 -2.9693224 -0.19270945 0.070977464 -0.059712656
-0.79195476 -0.37818295 -2.3908873 -0.6017235 -0.9320475 0.2352048 -1.0281608 0.11156945
-0.40351716 0.635161 -1.4031547 -0.28900406 -0.5892114 0.17833762 0.27173203 0.8093202
0.13080356 -0.020061282 0.10003989 -0.021028316 -0.8929623 -0.67339134 0.07980937 -0.2481177
-1.5861095 -0.88592756 -3.5824509 -0.62497574 0.65835774 0.27278015 2.3884993 0.18452726
-0.4847124 0.3503834 -1.8595984 -0.5983652 -0.21182443 0.14289051 0.9274073 0.45990703
0.38302556 0.8212859 -1.1631652 -0.910529 0.12054596 -0.59540606 0.121722326 0.27747774
0.5925152 -0.8444724 -4.1885395 -0.7245516 0.63599914 -0.59994614 -1.6963804 -0.7923825
-2.0974288 0.016927185 1.4976624 -0.10136054 0.4549613 -0.10774653 -2.1753054 -0.9142934

bias f4 [128]
00000000: 805f 8b3e a668 e3bf eaf7 ad3f 9240 0e3f
00000010: 2c02 8fbf 011d 393f b131 ad3f ad9a 963e
00000020: c763 693f 3c27 e93e aa5e 203f 50aa 81bd
00000030: 9833 6dbf c31b 473f 8951 a03f a0d1 993f
00000040: 1fe5 4e3f 13bc 91bf 9079 993f 8f57 af3f
00000050: 0e46 99bf b6b0 e0be deb3 c6bf a482 bebe
00000060: 4bbb b7bf 124c e63d 58ed 4b3f c1a6 293f
00000070: 8d0f c4bf 7a2b 5d3f 2b6e b9bc 0388 913f
00000080: 8d0c f73e a85c a13f 0669 a6bf d7bc ab3f
00000090: 9069 c2ba 89ca a23f 457c 4ebf ae55 06bf
000000a0: 2b72 da3f a9a3 a2bd 7532 4c3f 4bb1 843f
000000b0: f9e6 593f 459e e93e ccc7 ad3f dc79 a3bd
000000c0: b538 b23d 4e02 42bd b5e0 ae3f f32c 8d3f
000000d0: 7fe7 cfbe 8819 983f 9dc6 c03c 3d37 4bbf
000000e0: 24a1 cc3f a2b0 673f 5637 bd3f 015d 9e3f
000000f0: 9bc6 c5bf ae7e 843f db2a 8a3e 7b58 b83f
00000100: 6bec 1c3f f2d3 41be 94c8 683f 2047 cc3f
00000110: cc48 fabd 69e2 cbbf 9c0d 85bf 1fed a43f
00000120: 9940 96bd 2b5f 6ebd 5fa7 713f f0cc 9d3f
00000130: 2427 ad3f f52b a33f 87ef 113f db99 9fbf
00000140: d853 e7be 7e91 c33f 6861 b43f 04da c93f
00000150: 5a3d b03f 7b49 b03f 7077 b33f d3aa 7c3f
00000160: 30f5 d7be 78a7 583f 25f0 98bd 8df3 df3f
00000170: 8be2 9abd 72df 48be fdd6 913f 1bb9 8f3d
00000180: 13ab 8e3f fd73 653f 96fa e63e 51f9 bbbf
00000190: e0f8 893f 10ab 36bf d49e b83f 618c c63f
000001a0: 2666 853f fcff ac3e 74f8 a63f df1d 893f
000001b0: ea4a 38bf 5020 5c3f f898 8dbd 5da3 a5bd
000001c0: 9e52 c23d 5a95 0ebd b62a db3f 8d6c 933d
000001d0: 8068 c8bf 1988 2d3f d523 c43f e071 7f3f
000001e0: 27fe ed3e 3e41 603f 0188 f43e 0714 0d3e
000001f0: 7830 75be 9fdb b6be ce72 bfbf a5f5 5a3f
0.27221298 -1.7766311 1.3591282 0.55567276 -1.1172538 0.7230988 1.353079 0.29414883
0.91167873 0.45537746 0.62644446 -0.06331313 -0.9265685 0.77776736 1.2524883 1.2017097
0.8081836 -1.1385521 1.1990223 1.3698596 -1.1974504 -0.4388482 -1.5523641 -0.37209046
-1.4354032 0.11244978 0.7965903 0.6627007 -1.5317246 0.86394465 -0.02263554 1.1369632
0.48251763 1.2606401 -1.3000801 1.3417004 -0.0014832485 1.2718059 -0.8065837 -0.52474487
1.7066091 -0.07941372 0.7976449 1.0366606 0.8511806 0.45628563 1.3576598 -0.07982227
0.08702222 -0.04736548 1.3662325 1.1029342 -0.40606305 1.1882792 0.023532206 -0.7938116
1.5986676 0.90503895 1.4782512 1.2372133 -1.5451235 1.035116 0.2698582 1.4402002
0.61298245 -0.18928507 0.9093106 1.5959206 -0.12220916 -1.592847 -1.0394778 1.2884864
-0.0733654 -0.058196228 0.94396013 1.2328167 1.352757 1.274779 0.57006115 -1.2468828
-0.45181155 1.5278776 1.4092226 1.5769658 1.3768723 1.3772424 1.4020824 0.9869816
-0.4217925 0.8463054 -0.07467679 1.7496201 -0.07562741 -0.19616488 1.1393734 0.07017728
1.1145958 0.8963011 0.45113057 -1.468546 1.0779076 -0.7135477 1.442347 1.551159
1.0421798 0.3378905 1.3044572 1.0712241 -0.7198931 0.85986805 -0.06913942 -0.080878
0.09488414 -0.0348104 1.7122409 0.07198439 -1.5656891 0.67785794 1.5323435 0.99783134
0.46482965 0.8759955 0.47760013 0.13777171 -0.2394427 -0.35714433 -1.4956911 0.85531074

weight f4 [2, 128]
00000000: a0cd e1bf b066 aebf 6696 913f 5b25 5a3f
00000010: da5f d6bf 3c02 233e c2a3 873f 5147 d43e
00000020: 8f7c b73f 79b4 9bbf a45c 9a3f 51db 35bf
00000030: 57f5 c0bf 749d b9bf c3d3 583f 0d8a 6e3f
00000040: c2ab 303e ecba 31c0 d813 e13d 6a1e 683f
00000050: 2471 4ac0 6c06 9dbc e679 4abf b376 80bf
00000060: 239d e6be 3215 0cc0 77f7 e8bf 0cb1 ef3e
00000070: 881b 87c0 afc3 253f 6e92 4dbf 98ba 5cbd
00000080: 9f0b 2c3f 4fa9 433f 1f94 dd3e 7eb7 b93f
00000090: cb83 92bf e846 8a3f 3c43 4c40 fe5a c63c
000000a0: a7fa a73f cc1b 9dbf e0e1 8f3f 02b5 343f
000000b0: 4c05 cbbf 5540 6b3d e7b0 9d3f 9eda b5bf
000000c0: 7dd1 d33d f209 96bf d50a b73f b574 9e3e
000000d0: 7fc3 57bc 56af 3f3f 4f7c 9cbf 1d8e 4ebf
000000e0: 99c8 a23f 228d e83d 2266 833f eb64 0c3f
000000f0: abe2 83c0 5d9a 36bf fb49 8abf 95f8 6e3f
00000100: 72ef d1bf 5b7a 06bf 7560 033f fd8b 903f
00000110: ad33 ecbf 1d54 11c0 354a 263f 5d3a ac3f
00000120: ee0b 9abf c969 e5bf 5d3e 053f b3b9 5b3f
00000130: 42d6 bd3e 68f8 033f 447c 58bc 623a 5f40
00000140: 4fcf 923d e819 653f b542 9b3f a630 a63f
00000150: c29f 8d3f 7f77 dc3e 7c16 fc3e 939d de3e
00000160: 7e1b 5b3d 8f2a b2bf 4798 3ebf 0910 993f
00000170: 5a04 75bf eced 31c0 5af8 373f af43 fdbf
00000180: c5ab ac3f 4e4c a8bf 636d f83d 2949 fabf
00000190: af43 783d d530 2fbe a802 a63f 21cd 7f3f
000001a0: 4bdd 7c3e 7ec8 ff3e d782 733f 7c45 763f
000001b0: 808d f5bf 8f16 543f 28b3 5ebf 6312 e9bf
000001c0: 0dad dbbf 03d6 f7bf eec4 963f e805 223f
000001d0: 2f83 68c0 d204 473e 3ec4 903f fb57 283f
000001e0: ac24 393f e77d 8e3e b576 0f3f f671 9f3e
000001f0: 2b72 87bd 6987 46bf c131 033f 6acc 093f
00000200: 2e89 5abd 0960 6abf 8765 7a3f c43b 613f
00000210: 951e 13c0 1d65 e63e f805 8a3f e4c6 123f
00000220: 5c49 a33f aef6 b2bf 1fec 813f 128e e9bf
00000230: 540b 06c0 54a0 67bf 46bd 2d3f b849 863f
00000240: ebd1 fd3e ab36 0dc0 ff76 fc3e ce41 1e3f
00000250: 2ba8 f1bf 417c 92bc 0f24 f4bf 1eb6 cdbf
00000260: dd5d 66c0 6d2f 86bf d148 80bf 3692 3b3f
00000270: b5c0 6bc0 d953 3c3f b925 29bf 84c4 04c0
00000280: df7e 5e3f 7c98 7b3f 4b02 39bf e181 5e3f
00000290: ea36 adbf 55bd 7a3f a84f 0e40 20b7 51bd
000002a0: 4319 713f 23dd 9dbf 75c6 913f 4a2e 7a3f
000002b0: c49e 77bf 604d 8a3e 9b13 963f d482 b0bf
000002c0: 49d7 a3bf 7391 85bf 6656 0c3f 34c6 693f
000002d0: c7de a13c dee0 293f 4176 0bc0 834c cc3e
000002e0: 41e2 823f cf65 2c3f 7e76 8a3f 8503 0d3f
000002f0: 0e09 d9bf 721d 0ac0 4094 5ebf 7083 373f
00000300: 5459 07bf 6e77 78bf 5187 063f 5b18 4f3f
00000310: 83a1 a1bf 4ace 51c0 61d3 11bf 5b78 463f
00000320: d58b aabf e3a4 15c0 6307 1d3f 28d5 903f
00000330: 6f42 433f 3c46 2d3f 8e95 783e d6a9 2640
00000340: 9048 853b 5367 913f fada 523f f0b5 773f
00000350: edc7 533f c5e3 593f d0a1 833f f008 593f
00000360: 80bd b93a c50a 92bf 13d3 64bf 67ce 583f
00000370: 5781 94bf 2fad 95bf bd0c 8a3f 8ce5 e2bf
00000380: c99d 833f ec2e 8bbf ac45 f03e 6171 64bf
00000390: 294d 1e3f a97f 3cbf bfeb 793f bb0f 433f
000003a0: 5802 143f b803 fd3e fd89 173f 22dc 903f
000003b0: f0ed 4fc0 03a1 643f cdf6 9cbf 3ee4 89be
000003c0: 643e b4bf 5d7f 1fc0 3c5a 503f 08f7 bf3f
000003d0: 704d debf 9047 383f 7bef 773f 0539 833f
000003e0: 72c0 5a3f 89a6 293f 0412 713f 7abf b13e
000003f0: 73e9 343e 18d4 8c3f fcf3 88bf 39d0 613f
-1.7640877 -1.3625088 1.1374023 0.8521325 -1.6748002 0.15918821 1.059685 0.4146066
1.4334887 -1.2164451 1.2059522 -0.71037775 -1.5074872 -1.4501176 0.8469812 0.931794
0.1725302 -2.7770338 0.10990113 0.9067141 -3.1631556 -0.019168101 -0.7909225 -1.0036224
-0.4504176 -2.1887937 -1.820052 0.46814764 -4.2221107 0.64751714 -0.8030156 -0.053888887
0.6720523 0.7643022 0.4327707 1.4509122 -1.144647 1.0802889 3.1916037 0.02421331
1.3123368 -1.2274108 1.1240807 0.70588696 -1.5860991 0.0574344 1.2319611 -1.4207342
0.10342691 -1.1721785 1.4300181 0.30948415 -0.0131691685 0.74876916 -1.2225436 -0.806856
1.2717468 0.11355044 1.0265543 0.5484149 -4.1214194 -0.7132929 -1.0803827 0.93348056
-1.6401198 -0.5253045 0.51319057 1.1292721 -1.845327 -2.2707589 0.6495698 1.3455311
-1.2034891 -1.7922908 0.52048284 0.8583023 0.37077528 0.5155091 -0.013213221 3.4879384
0.07168447 0.89492655 1.2129732 1.2983596 1.1064379 0.43059918 0.49235904 0.43479595
0.053493015 -1.3919238 -0.74451107 1.1958019 -0.95709765 -2.7801466 0.7186333 -1.978628
1.348992 -1.3148286 0.12130239 -1.9553577 0.060611423 -0.17108472 1.2969561 0.99922377
0.24693792 0.4995765 0.9512152 0.96199775 -1.9183807 0.8284692 -0.8699212 -1.8208736
-1.7162186 -1.9362186 1.1778848 0.6329026 -3.6330068 0.19435433 1.1309888 0.6575925
0.7232158 0.2783043 0.5604051 0.31141633 -0.06613573 -0.7755037 0.51247793 0.53827536
-0.05335348 -0.9155279 0.9781117 0.8798182 -2.2987416 0.44999018 1.0783072 0.57334733
1.2756763 -1.3981531 1.0150183 -1.8246481 -2.0944414 -0.90479016 0.67866933 1.0491247
0.49574217 -2.2064617 0.49309537 0.6181916 -1.8879446 -0.017881515 -1.9073504 -1.6071203
-3.599479 -1.0483223 -1.0022222 0.73269975 -3.683637 0.7356544 -0.66073185 -2.0744944
0.8691234 0.9827955 -0.72269124 0.8691693 -1.3532383 0.9794515 2.2236118 -0.051200032
0.9417917 -1.233311 1.1388689 0.9772688 -0.9672663 0.27012157 1.1724733 -1.3789926
-1.2800075 -1.0435013 0.54819334 0.9131806 0.019759549 0.66358745 -2.1790926 0.39902124
1.0225297 0.6734285 1.0817411 0.55083495 -1.6955888 -2.1580472 -0.8694496 0.7168493
-0.5287068 -0.97057235 0.52550226 0.8089654 -1.2627414 -3.278216 -0.56963164 0.775274
-1.3323923 -2.338189 0.61339396 1.131505 0.76273245 0.67685294 0.242758 2.604116
0.004067488 1.1359657 0.8236538 0.9676199 0.8272694 0.85113174 1.0283756 0.8477926
0.0014170855 -1.1409537 -0.89384574 0.84689945 -1.1601971 -1.1693476 1.0785137 -1.7726302
1.0282527 -1.0873694 0.46928155 -0.892355 0.6183649 -0.73632294 0.97625345 0.7619588
0.57816076 0.494169 0.5919493 1.1317179 -3.2488976 0.89308184 -1.2262818 -0.26931947
-1.408154 -2.4921486 0.81387687 1.4997263 -1.7367382 0.71984196 0.96849793 1.0251776
0.854499 0.6626974 0.94168115 0.34716398 0.17667179 1.1002226 -1.0699458 0.8820835

bias f4 [2]
00000000: 4219 db3e 4709 653f
0.42792708 0.8946728

weight f4 [128, 4]
00000000: b1ae 1b3f 61ed da3c 4788 4ec0 5f70 e7bf
00000010: 5182 81be c771 e83e aae2 5640 cd42 8a3f
00000020: 7c73 09be 3a12 a03c a8d8 eabf 5f3c e0be
00000030: dc8e c3bf a3b3 a1bf 7f5e 463e 878b 16bf
00000040: 3de4 223f 4942 e13e 3191 f0bf 65d7 0fbf
00000050: 8195 2cbe f9dd 4d3e 7e65 80bf eda3 543e
00000060: 1df5 aabf 1091 13bf 476e b23f 566a fcbe
00000070: a73c 23bf 89c0 1abf 8907 b83f b8aa 803f
00000080: 6d09 c7bf 4966 94bf 699f 6bbe 9f37 50bf
00000090: 77fe 20c0 223a d13e e6d7 0840 badb 123f
000000a0: 9154 a3bf 0d79 adbf 07ee 853e 60cb 80bf
000000b0: 3bbd 33c0 30ee b2be 3faf 203f c3e7 81be
000000c0: 4c17 bbbf 2cc1 cb3e 0b5f 2f40 8b4b a4bd
000000d0: 89a9 753e b352 35bf d5f6 68c0 cc91 53bf
000000e0: 8a93 42bf eb6e 53bf b30c 80bd a3e2 94be
000000f0: 8993 4b3f 0e8d 983f 79c4 4cbf 5910 193f
00000100: 5a5b ca3d 052b 3bbe 69bf 553e b1d6 803e
00000110: b990 e03f 6c83 82be 78ab 2ec0 92f2 31bf
00000120: d2a8 aabd 164d 8e3e 94a5 11bf c750 333e
00000130: 3f2c 53bf 227d 6fbf 3c79 343e 3dcb 8dbe
00000140: 52e7 493f 9553 273c c5f6 8ac0 0631 a6be
00000150: f112 763d 8723 f1bd 86c3 47bd b70d 48be
00000160: ed40 8fbe 26e9 783e 70fd 8c40 6031 823f
00000170: da5d c33f 19b0 2e3e b99d 90be 53fa 32bf
00000180: 86a5 51be f2bc 4ebe c9df 02c0 265c cbbf
00000190: 3ecb 2e40 a76f 3a3f bf0b 8e3f 666a 073f
000001a0: e1f4 a5be 2d58 d3be 757b 7ac0 e030 b7bf
000001b0: c7c5 3fbf ca58 5bbf bf09 863f 56a4 333f
000001c0: 6357 b43e b025 87bf f86b adc0 c122 a9bf
000001d0: 1eab 54bf ca90 e4be f817 2b3f 8ba1 2cbe
000001e0: a1c3 3dbf 44cd 053c 517c fc3e 4a42 b73f
000001f0: d071 063f 84a9 debe c310 3bc0 ad83 4fbf
00000200: 97ad a0bf 71b3 9dbf 01f4 053f 2a35 43bf
00000210: 8e2f 92bf 1286 3abf a58c 833f 1148 aabe
00000220: fa45 0ebf 91dd 163f 8335 d23f f580 b63f
00000230: 3e91 913f e2b1 2a3f 7b1e 4dbf cecc da3e
00000240: 9c3b 31c0 c821 b9be b233 913f 20cf 1cbe
00000250: b67a b5bf 11c9 a4bf 5c62 96be f43c 87bf
00000260: 3add c8bf 8a44 d43e 17fb fe3f e9c7 f03e
00000270: 3569 b73e 91b5 b0be 60d3 29be 944d 7fbe
00000280: 78d4 b4bd f54d ddbd 7421 04c0 a91b 3dbf
00000290: da51 1bc0 483d 9cbe 340b 76be 67b9 6ebe
000002a0: 92fb b4bf 0a19 5cbf 7e85 2f3f 2377 d2be
000002b0: e100 af3f 33be 923f 5d72 eebf 0338 5b3f
000002c0: bf29 353f 0166 03bf a934 f4bf 87cb b5bf
000002d0: 9449 60bd 5dce e2bd e94f a23f f7e4 ce3e
000002e0: 022f a93f 0c25 f63e 8c77 0ac0 2168 a13e
000002f0: 8e02 3ec0 53fd 43be a380 923d 4679 7dbd
00000300: 9ddf 49bf 2ad6 bebe 89a7 18c0 f3c1 1bbf
00000310: 348a 6ebf 6497 713e a292 83bf 5998 e13d
00000320: dab2 cebe 5099 223f 2c8d b3bf 28f2 93be
00000330: 6d37 17bf aa1a 343e 4365 8a3e 3815 503f
00000340: 5ef1 053e 8f57 a4bc b7e1 cc3d 9343 acbc
00000350: 9e33 64bf 58fa 2bbf fa68 a83d 66e0 7cbe
00000360: 39d6 cabf 8107 62bf ca2d 65c0 0611 21bf
00000370: 7b0c 293f 79cb 8c3e bcf5 1840 8ff0 3a3e
00000380: 4c93 f8be d1e9 b23e 8f11 eebf a5e0 18bf
00000390: 2ee0 5abe f43e 0f3e 0fef 6c3f 0893 ed3e
000003a0: 1b50 c33e a2cd 513f 6af3 94bf 3e98 68bf
000003b0: 1b24 f43d bed7 18bf 81c2 f73d 80fb 8e3e
000003c0: 13af 173f 582f 58bf 8408 86c0 377c 39bf
000003d0: 7042 233f 5ee9 18bf 30ee d8bf 64c0 4bbf
000003e0: e439 06c0 b913 963c 3db8 bf3f f043 d5bd
000003f0: 0790 e83e 5670 debd 843c 0bc0 96c7 69bf
0.6081343 0.02672452 -3.2270677 -1.8081168 -0.25294736 0.45399305 3.3575845 1.0801636
-0.1342296 0.019539941 -1.8347368 -0.4379606 -1.5277972 -1.2632946 0.19371985 -0.5880665
0.63629514 0.43995884 -1.8794309 -0.5618804 -0.16853906 0.20104207 -1.0030973 0.20765658
-1.3356053 -0.5764322 1.3939904 -0.49299878 -0.63764423 -0.60450035 1.43773 1.0052099
-1.5549752 -1.1593715 -0.23010029 -0.8133487 -2.5155313 0.40864664 2.1381774 0.57366526
-1.2760183 -1.3552567 0.26158163 -1.0062065 -2.8084247 -0.34947348 0.62767404 -0.25372133
-1.4616485 0.39795816 2.740176 -0.08022221 0.23990454 -0.70829314 -3.6400654 -0.82644343
-0.76006377 -0.8259112 -0.06252422 -0.2907916 0.79521996 1.1918046 -0.79987293 0.5979057
0.09880705 -0.1827813 0.20873798 0.25163797 1.7544166 -0.25490892 -2.7292156 -0.6951076
-0.08332981 0.27793187 -0.5689328 0.17511283 -0.8248939 -0.9355031 0.17624372 -0.2769412
0.7886859 0.010212799 -4.342623 -0.32459277 0.060076658 -0.117743544 -0.04877045 -0.19536482
-0.27979222 0.24307689 4.405937 1.0171318 1.5263016 0.17059363 -0.28245333 -0.69913214
-0.20473298 -0.20189264 -2.0449088 -1.5887496 2.731155 0.7282662 1.1097335 0.52896726
-0.3241339 -0.4127821 -3.9137852 -1.431179 -0.7491116 -0.85682356 1.0471724 0.7017263
0.3522292 -1.0558376 -5.41943 -1.3213731 -0.83073604 -0.44641715 0.6683345 -0.16858499
-0.7412663 0.008166615 0.49313596 1.4317105 0.52517414 -0.43488705 -2.922898 -0.81060296
-1.2552975 -1.2320386 0.52325445 -0.76252997 -1.1420763 -0.72860825 1.0277296 -0.33258107
-0.55575526 0.58931834 1.642258 1.4258105 1.1372449 0.6667768 -0.80124635 0.4273438
-2.7692633 -0.36158586 1.1343901 -0.15313387 -1.4178073 -1.2873861 -0.29371917 -1.0565476
-1.5692513 0.4145854 1.9920377 0.4702752 0.35822454 -0.34513524 -0.1658454 -0.24931937
-0.08829588 -0.10805885 -2.0645418 -0.7387033 -2.4268708 -0.30515504 -0.24027711 -0.23312913
-1.4139273 -0.85975707 0.6856307 -0.4110652 1.3672143 1.1464294 -1.8628651 0.8563234
0.70766824 -0.5132752 -1.9078571 -1.4202737 -0.05475767 -0.11074517 1.2680637 0.4040906
1.3217471 0.4807514 -2.1635466 0.31524757 -2.968906 -0.19139604 0.07153442 -0.061883233
-0.7885683 -0.3727277 -2.3852255 -0.6084282 -0.9317963 0.23592907 -1.0279124 0.11015386
-0.40370828 0.63515186 -1.4027457 -0.28895688 -0.5906895 0.17588297 0.27030382 0.8128238
0.13080356 -0.020061282 0.10003989 -0.021028316 -0.8914126 -0.6717887 0.08223148 -0.24694976
-1.5846626 -0.882927 -3.5809197 -0.629166 0.6603467 0.27498987 2.3899984 0.18255828
-0.4854988 0.34944013 -1.8599108 -0.5971778 -0.2137458 0.13988858 0.92552274 0.46401238
0.38147053 0.81954396 -1.1636784 -0.90857303 0.11920949 -0.59704196 0.120976456 0.27926254
0.5925152 -0.8444724 -4.1885395 -0.7245516 0.6377325 -0.5973109 -1.6947689 -0.7959044
-2.0972834 0.018319951 1.49781 -0.10413349 0.45422384 -0.1086127 -2.1755686 -0.9132017

bias f4 [128]
00000000: bd4b 8c3e a668 e3bf ee05 ae3f 1f6f 0e3f
00000010: 62d2 8ebf 93da 393f 9974 ad3f e15e 983e
00000020: 8c67 693f b9ac e83e 645d 203f 3e90 8abd
00000030: d43f 6dbf 83d9 463f 3a84 a03f b100 9a3f
00000040: 68a3 4f3f 7c6f 91bf 57e7 993f 697c af3f
00000050: 5551 99bf b6b0 e0be deb3 c6bf 3e81 bebe
00000060: bc09 b8bf 89a3 e63d 5bc7 4b3f 9648 2a3f
00000070: aa19 c4bf 88cb 5d3f a782 cfbc 790a 913f
00000080: 9fd9 f73e e7b8 a13f 0669 a6bf d6b1 ab3f
00000090: 0958 5abb 63c9 a23f 586f 4ebf ae55 06bf
000000a0: f972 da3f a7ba a4bd c14f 4c3f a3fa 843f
000000b0: 15f5 593f 9161 eb3e 03de ad3f d7ea a5bd
000000c0: 28d1 a43d d34c 44bd fabd ae3f 8c8f 8d3f
000000d0: 7fe7 cfbe 1657 983f 6928 a73c 40dd 4abf
000000e0: 11aa cc3f bc96 683f 8f5c bd3f 5875 9e3f
000000f0: 9bc6 c5bf 1021 843f 8d42 8a3e 435e b83f
00000100: 9043 1d3f 552a 46be 1a5d 693f cb47 cc3f
00000110: c2bc f9bd 64a6 cbbf d736 85bf 31f5 a43f
00000120: 3575 99bd 542c 75bd cdf0 713f 620a 9e3f
00000130: 6474 ad3f fe5a a33f 08fb 123f e957 9fbf
00000140: d853 e7be 4bdd c33f 7c5e b43f c2ff c93f
00000150: 8748 b03f 4794 b03f 3dc5 b33f 9948 7d3f
00000160: 30f5 d7be dc92 583f b517 9dbd 81f3 df3f
00000170: 6185 9ebd e6a1 47be da26 923f 3a92 8f3d
00000180: 7088 8e3f 4061 653f 3635 e93e 99f4 bbbf
00000190: d872 8a3f 8017 38bf fea2 b83f b591 c63f
000001a0: 2dbb 853f ce4f ad3e ee18 a73f 4f55 893f
000001b0: a630 38bf 3951 5c3f 1fc4 92bd 2b81 a1bd
000001c0: cdd8 c13d 6f7b 0ebd 0129 db3f bf97 903d
000001d0: 8068 c8bf 1e9f 2e3f 8931 c43f 4226 803f
000001e0: e197 ee3e 8eed 603f e3be f53e 5a70 0f3e
000001f0: 3055 70be 79e2 b7be 4178 bfbf cc76 5b3f
0.27401534 -1.7766311 1.359556 0.5563831 -1.1157954 0.7259914 1.3551208 0.29759887
0.91173625 0.45444277 0.626425 -0.06765793 -0.9267552 0.77675647 1.2540352 1.2031461
0.81108713 -1.1362147 1.2023724 1.3709842 -1.1977946 -0.4388482 -1.5523641 -0.3720798
-1.4377971 0.112616606 0.7960107 0.6651701 -1.5320332 0.8663869 -0.025330855 1.1331321
0.4840822 1.2634553 -1.3000801 1.3413646 -0.0033316633 1.2717708 -0.8063865 -0.52474487
1.7066337 -0.080434136 0.79809195 1.0388988 0.8513959 0.45972875 1.3583378 -0.08101433
0.08047706 -0.047924828 1.3651726 1.1059432 -0.40606305 1.1901577 0.020405011 -0.7924385
1.59894 0.90855 1.4793872 1.237956 -1.5451235 1.032259 0.270039 1.4403766
0.6143122 -0.19352086 0.91157687 1.595941 -0.12194206 -1.5910153 -1.0407361 1.2887326
-0.074930586 -0.059856728 0.9450806 1.2346919 1.3551145 1.2762144 0.57414293 -1.2448703
-0.45181155 1.5301908 1.4091334 1.5781176 1.3772134 1.3795251 1.4044567 0.989389
-0.4217925 0.8459909 -0.076705374 1.7496186 -0.07740284 -0.19495353 1.1418107 0.070103124
1.1135387 0.89601517 0.4554841 -1.468402 1.0816298 -0.7191086 1.4424741 1.5513216
1.0447747 0.3384995 1.3054483 1.0729159 -0.7194923 0.86061436 -0.071663134 -0.07885965
0.094651796 -0.034785684 1.7121888 0.07060193 -1.5656891 0.68211544 1.5327617 1.0011675
0.4660025 0.8786248 0.47997198 0.14007702 -0.23469996 -0.35914972 -1.4958574 0.85728145

weight f4 [2, 128]
00000000: dde4 e1bf b066 aebf a84d 913f 6d8b 593f
00000010: 1a93 d6bf fb7e 203e 974d 873f f8e6 d23e
00000020: a326 b73f 4100 9cbf db0c 9a3f 9639 36bf
00000030: f2ef c0bf 9af6 b9bf f510 583f e924 6e3f
00000040: 10cf 2d3e aad7 31c0 9e61 dc3d af59 673f
00000050: 0f6f 4ac0 6c06 9dbc e679 4abf 568c 80bf
00000060: f9a5 e6be d61f 0cc0 6e3c e9bf 1638 ee3e
00000070: e21a 87c0 fd06 253f c319 4ebf 3428 66bd
00000080: c571 2b3f e9ec 423f 1f94 dd3e e67d b93f
00000090: d2b4 92bf 03e9 893f ce0b 4c40 fe5a c63c
000000a0: d2b2 a73f 6c49 9dbf 668a 8f3f a85c 343f
000000b0: 683f cbbf f8f1 5e3d 6771 9d3f 1609 b6bf
000000c0: 1e21 d03d ee32 96bf f4cc b63f 1f09 9d3e
000000d0: 7fc3 57bc 4cf0 3e3f 48b1 9cbf 375a 4fbf
000000e0: 8686 a23f 3f4e e33d e338 833f 27a5 0b3f
000000f0: abe2 83c0 5735 37bf d58c 8abf 8c74 6e3f
00000100: 1207 d2bf 5be5 06bf 269d 023f 1f4c 903f
00000110: 8561 ecbf 7470 11c0 36d5 253f a411 ac3f
00000120: 463a 9abf 319b e5bf d482 043f 9b5f 5b3f
00000130: 496d bc3e 6e49 033f 785a 85bc 6f28 5f40
00000140: 4fcf 923d 1aae 643f 3ffb 9a3f 00fb a53f
00000150: ef6d 8d3f f42a db3e e9bc fa3e 3160 dd3e
00000160: 7e1b 5b3d cd6c b2bf 7df5 3ebf a1cb 983f
00000170: c060 75bf 8502 32c0 3fa3 373f 2855 fdbf
00000180: e081 ac3f 3e8c a8bf 9344 f23d 2949 fabf
00000190: f4c4 6c3d 727a 31be ccbc a53f 713f 7f3f
000001a0: 4610 7a3e 5c96 fe3e 60c1 723f fff3 753f
000001b0: 46b0 f5bf 0f66 533f 7d11 5fbf cc38 e9bf
000001c0: 72be dbbf 9be5 f7bf e67c 963f b232 223f
000001d0: 2f83 68c0 88fc 433e 337a 903f 3fa3 273f
000001e0: 868d 383f 7143 8d3e a8d8 0e3f 9b2d 9e3e
000001f0: 8c6f 8cbd a86d 46bf c131 033f d1fe 083f
00000200: 3ae6 5bbd 0960 6abf f27b 7b3f da83 623f
00000210: c51b 13c0 3f7d e83e b4b5 8a3f a33b 143f
00000220: d1f1 a33f a367 b2bf 818e 823f ae28 e9bf
00000230: 0a26 06c0 2e24 66bf e331 2f3f ff67 863f
00000240: 0806 003f 472d 0dc0 4c51 fe3e 7bb6 1f3f
00000250: 5ba5 f1bf 417c 92bc 0f24 f4bf 1ec4 cdbf
00000260: 1865 66c0 1a41 86bf 0353 7fbf 990e 3d3f
00000270: d1c0 6bc0 59bb 3d3f f2da 27bf 567c 04c0
00000280: 56c4 5f3f 4b01 7d3f 4b02 39bf e9e2 5e3f
00000290: 79cc acbf 5d18 7c3f 1219 0e40 20b7 51bd
000002a0: 8231 723f e679 9dbf 3670 923f bc45 7a3f
000002b0: bdcc 76bf 7085 8c3e 6c4a 963f c01d b0bf
000002c0: ae5c a3bf bb3a 85bf 352e 0d3f 3df5 6a3f
000002d0: c7de a13c 4850 2b3f 5238 0bc0 b72b cc3e
000002e0: d863 833f 4267 2d3f 80ab 8a3f 4e4c 0e3f
000002f0: 0e09 d9bf a3d5 09c0 a393 5dbf f466 383f
00000300: c431 07bf ccc1 77bf defb 073f 41ec 4f3f
00000310: 4135 a1bf 7db7 51c0 dc2c 12bf 93bd 463f
00000320: aa26 aabf 3469 15c0 e74d 1e3f e605 913f
00000330: fa79 443f 8884 2e3f 6ee8 7c3e 3e8c 2640
00000340: 9048 853b dd96 913f 48e0 533f d300 783f
00000350: ce21 543f e40d 5b3f c536 843f ef46 5a3f
00000360: 80bd b93a cd6f 91bf b906 64bf 31c5 593f
00000370: e81c 94bf 3350 95bf 9315 8a3f 00f9 e2bf
00000380: 24a2 833f 1391 8abf 6727 f33e e08b 64bf
00000390: ac54 1f3f abfc 3bbf dcf5 7a3f 5008 443f
000003a0: 412d 153f bb95 ff3e 40fe 183f 8601 913f
000003b0: 07f3 4fc0 ca05 663f 1d8f 9cbf 5fa7 88be
000003c0: ae51 b4bf f789 1fc0 a562 513f 3bdb bf3f
000003d0: 704d debf f5bb 393f 9209 793f 60e8 833f
000003e0: 330b 5c3f 85bf 2a3f 2b4c 723f 95c4 b43e
000003f0: 12de 363e 7cad 8c3f dff0 88bf 8f3a 633f
-1.7647969 -1.3625088 1.1351824 0.8497837 -1.6763642 0.15673439 1.0570554 0.4119184
1.4308666 -1.2187577 1.2035173 -0.7118162 -1.5073225 -1.4528382 0.84400874 0.9302507
0.1697352 -2.778788 0.107608065 0.9037122 -3.1630285 -0.019168101 -0.7909225 -1.0042827
-0.45048502 -2.189443 -1.8221567 0.46527165 -4.2220316 0.6446379 -0.8050806 -0.056190684
0.66970474 0.76142746 0.4327707 1.4491546 -1.1461432 1.0774235 3.1882205 0.02421331
1.3101447 -1.2288032 1.1214111 0.7045388 -1.5878725 0.054429978 1.2300233 -1.4221523
0.101625666 -1.1734293 1.4281297 0.3067102 -0.0131691685 0.74585414 -1.2241602 -0.8099703
1.2697303 0.11098909 1.0251735 0.5454888 -4.1214194 -0.71565765 -1.0824229 0.93146586
-1.6408408 -0.5269372 0.5102104 1.127323 -1.8467261 -2.2724886 0.6477846 1.3442883
-1.2049034 -1.7937986 0.5176213 0.8569276 0.36802128 0.5128392 -0.01627849 3.4868429
0.07168447 0.8932816 1.2107924 1.2967224 1.1049174 0.42806208 0.48972252 0.4323745
0.053493015 -1.3939453 -0.74593335 1.1937143 -0.95850754 -2.7814038 0.7173347 -1.9791613
1.3477135 -1.3167799 0.11829486 -1.9553577 0.057805017 -0.17331865 1.2948241 0.9970618
0.2442027 0.4972409 0.94826317 0.96075433 -1.9194419 0.82577604 -0.8713606 -1.8220458
-1.7167494 -1.9366945 1.1756866 0.63358605 -3.6330068 0.19139302 1.1287292 0.6548347
0.7209095 0.27590516 0.5579934 0.3089417 -0.068572134 -0.7751107 0.51247793 0.5351382
-0.053686358 -0.9155279 0.98236 0.8848244 -2.29857 0.45408055 1.0836701 0.579035
1.2808172 -1.3937877 1.0199739 -1.821554 -2.0960717 -0.89898956 0.68435496 1.0500487
0.500092 -2.2058885 0.496714 0.6238782 -1.8878587 -0.017881515 -1.9073504 -1.6075475
-3.5999203 -1.0488617 -0.9973604 0.738504 -3.6836436 0.74113995 -0.6556846 -2.0700889
0.8740896 0.988301 -0.72269124 0.8706499 -1.34999 0.98474675 2.2202802 -0.051200032
0.9460679 -1.2302825 1.1440494 0.97762656 -0.96406156 0.27445555 1.1741462 -1.3759079
-1.2762659 -1.0408548 0.5514863 0.91780454 0.019759549 0.66919374 -2.1753125 0.39877102
1.0264845 0.67735684 1.0833588 0.5558518 -1.6955888 -2.1536644 -0.865534 0.72032094
-0.5281031 -0.96780086 0.53118694 0.8121987 -1.2594377 -3.2768242 -0.570997 0.7763302
-1.3293049 -2.334546 0.6183762 1.1329925 0.7674862 0.68170977 0.2469804 2.6023097
0.004067488 1.1374165 0.827641 0.9687626 0.8286408 0.8556807 1.0329214 0.85264486
0.0014170855 -1.1362244 -0.8907276 0.85066515 -1.1571321 -1.16651 1.0787834 -1.7732239
1.0283856 -1.0825523 0.47491 -0.8927593 0.62238574 -0.73432416 0.980314 0.76575184
0.58272177 0.49918923 0.59762955 1.132859 -3.2492082 0.89852583 -1.2231175 -0.26690194
-1.4087427 -2.4927957 0.81791145 1.4988779 -1.7367382 0.72552425 0.9728023 1.030529
0.8595459 0.66698486 0.94647473 0.3530623 0.1785815 1.0990443 -1.0698508 0.8876123

bias f4 [2]
00000000: e7e1 d93e a90a 663f
0.42555162 0.89860016

exp_avg f4 [128, 4]
00000000: 5992 033d f292 6a3d 3f22 1f3b 18b5 abbc
00000010: 0400 0000 0400 0000 0400 0000 0400 0000
00000020: 1884 d7bc d0f3 63bd b91a 79bb fd59 fc3c
00000030: fab4 7fbb 8af2 dabc ec68 23ba 81f5 043d
00000040: 0fe2 033b ce8e 833c 7473 9f3a c8ea 5dbc
00000050: cc78 61bc c013 c0bc 89dd d0ba b037 513c
00000060: 9d3f ad3b 19fa 58bc e87a 503a cea6 fd3c
00000070: bd71 12bc 3518 6abc 7d3d 11ba 1f94 3d3c
00000080: 53ac bcba 5db8 25bd 5e8a 7cba 3462 5a3d
00000090: 45f4 2d3c 8d77 3c3d e016 ca3a 6066 4abd
000000a0: d957 193b 5606 e9bc 7964 d0b9 9543 2c3d
000000b0: a49a 203d 1609 873d ab7c 1f3b 234f 47bd
000000c0: 91af afbc df0b c3bc e638 003b 2bed 8f3c
000000d0: 662f febc e0cb 7abc 7432 4cbb 6292 debc
000000e0: 0909 313c eacf 81ba dbea 953a 418a 9f3c
000000f0: eb6e 50bd 3c5e b1bd 8a68 a0bb c845 3e3d
00000100: 448b 78bc fd8c d3bc 001f e6ba 6b68 663c
00000110: 9f36 373d 726a 833d b2a7 a33b 19d5 65bc
00000120: f415 7bbc 5fd4 cebc 55eb e0ba 0e8b 603c
00000130: 8cb7 6b3c ea00 583b 899d af3a e937 8f3c
00000140: 307b 01bb e8d8 d3ba 4cb0 eab8 501b e9b9
00000150: 0400 0000 0400 0000 0400 0080 0400 0080
00000160: 0400 0080 0400 0080 0400 0080 0400 0000
00000170: fbbd b83c d1ab ec3c 47e5 783b ef3e 3d3b
00000180: deec 8f3a feeb 47ba 2ece 5839 5516 9e3b
00000190: 85c2 743d c652 993d a500 e93b 35b5 88bb
000001a0: 361b 22bd 6dc8 9cbc 7afb 76bb 8be4 05bd
000001b0: 18d7 07bc 3a06 c4bc 48f8 22ba 2ac9 c93c
000001c0: 6016 ea3a 98d7 4539 a7fa 0d39 b2ed b03a
000001d0: 0023 cd3a 10da 2dbc 7d1e f539 4459 ae3c
000001e0: 22c2 60bb d553 b53b 4d32 1a3a f8bb 46bc
000001f0: e04e 863d 5232 d33d 28aa e63b a8bb 63bd
00000200: 42fb 11bc 6af7 f6bc b28d 68ba 8662 003d
00000210: 70fc b3ba 7c86 8dbc c03b c939 975c e83c
00000220: de94 f38d 9bdf 0e8e aedc 4e0c 8da0 a80d
00000230: 9831 30bd 4b50 9abd c8f6 28bb a145 303d
00000240: 8854 0b3c 3f1d 0f3d 998c 743a 9ad5 22bd
00000250: 6fb6 b7bb 5274 19bd 54bb acba 89ea 2e3d
00000260: 92c3 2a3d 9c49 3e3d ad2a 1ebb 655b 0dbd
00000270: 0400 0080 0400 0080 0400 0000 0400 0000
00000280: c2d4 c7bc cdf6 60bd 26fb 75bb 401f fa3c
00000290: 443d d23a 6a95 c93c 8348 5639 f57f 0dbd
000002a0: d610 c7bb cb12 1dbd b2e1 9bba 0a54 363d
000002b0: 3405 4bbd 274e 99bd 60b4 92bb 7334 163d
000002c0: a2c9 103d d7f4 873d ad37 393b c18d 0dbd
000002d0: 9153 0ebc b558 67bc 9995 76ba b2ab fa3b
000002e0: 7e3f 46bd df55 acbd 2f53 4ebb d693 4a3d
000002f0: 623b df39 c64c d93c c302 0639 a69c 1dbd
00000300: e743 423d 199a 833d a45f 3d3b c502 10bd
00000310: 955d 2fbb af7c 653c 03c2 feb9 3667 d2bc
00000320: b583 39bc ba9e 13bd 53be 21bb b263 a73c
00000330: b306 cebc 5b2e 38bd 8ce0 48bb 8f72 d13c
00000340: 0400 0000 0400 0000 0400 0080 0400 0080
00000350: 0d34 083c e6c7 3cbb bd51 803a 57b2 9c3c
00000360: 6304 113d a3b2 983d 96ec c83a 9ebe 8bbd
00000370: 6b30 e13c e82f 063d dd18 123b 8cc9 5ebb
00000380: 2336 debc 4f44 70bd 6353 83bb f62f 053d
00000390: ae8b acbc 0c4c 0cbd b4a8 18bb 3b12 983c
000003a0: bd53 22bd 2219 88bd d9ca 64bb 0352 0c3d
000003b0: adf3 8fbc e0dd 08bd 80ce 11bb 91ee 8f3c
000003c0: 0400 0000 0400 0000 0400 0080 0400 0080
000003d0: 93e0 853d 89f5 e33d 1937 f93b 14ac 77bd
000003e0: 27ba 96bb 9b71 af3c 6cf5 5639 177f 0ebd
000003f0: 57e0 99bc 4f2c 29bd 74ad 39bb c7c7 bb3c
0.03212199 0.057269044 0.0024281887 -0.020960376 6e-45 6e-45 6e-45 6e-45
-0.026308104 -0.05565244 -0.0038010313 0.030804629 -0.0039017783 -0.02672698 -0.0006233591 0.032460693
0.0020123755 0.016059306 0.0012165145 -0.013544746 -0.01376171 -0.023446918 -0.0015935163 0.012769625
0.0052871243 -0.013243222 0.0007952885 0.030963328 -0.00893825 -0.014287998 -0.00055404735 0.011570959
-0.0014394618 -0.040459026 -0.00096336554 0.05331631 0.01061732 0.04601245 0.0015418194 -0.04941404
0.0023398309 -0.028445404 -0.0003974771 0.04205664 0.039209977 0.0659353 0.0024335783 -0.048659455
-0.021446021 -0.023809372 0.0019565164 0.017569145 -0.03102846 -0.015307397 -0.0031158002 -0.02716941
0.010805377 -0.0009903882 0.001143779 0.019475104 -0.05088703 -0.08660552 -0.0048952745 0.046453267
-0.015169922 -0.025824064 -0.0017556846 0.014062981 0.044729825 0.06416787 0.004994356 -0.014027857
-0.015325058 -0.02524775 -0.0017159978 0.013705028 0.014387023 0.003295953 0.001339839 0.017482715
-0.0019757263 -0.0016162666 -0.00011190827 -0.00044461573 6e-45 6e-45 -6e-45 -6e-45
-6e-45 -6e-45 -6e-45 6e-45 0.022551527 0.028890522 0.0037978457 0.0028876623
0.0010980626 -0.0007626413 0.00020676173 0.0048244395 0.05975582 0.07486491 0.0071106725 -0.004171992
-0.03957673 -0.01913854 -0.0037686513 -0.03268866 -0.008291028 -0.02392875 -0.00062168064 0.024632055
0.0017859451 0.00018867699 0.00013540183 0.0013498573 0.001565069 -0.010611072 0.00046752757 0.0212828
-0.00342954 0.005533675 0.0005882129 -0.012129776 0.06558013 0.10312332 0.007039327 -0.055598885
-0.008910002 -0.030147273 -0.0008871212 0.03134396 -0.0013731848 -0.017276041 0.00038382225 0.028364463
-1.501187e-30 -1.7610513e-30 1.5936071e-31 1.0392451e-30 -0.043016046 -0.07534846 -0.0025781859 0.043035153
0.008504041 0.03494 0.0009328812 -0.039754488 -0.0056064646 -0.037464447 -0.0013178387 0.04270414
0.041690417 0.046456918 -0.0024134323 -0.03451099 -6e-45 -6e-45 6e-45 6e-45
-0.024393443 -0.054922868 -0.003753373 0.03053248 0.0016039987 0.024607379 0.00020435643 -0.034545857
-0.006075005 -0.038348 -0.0011892824 0.04451374 -0.04956551 -0.074856095 -0.004477069 0.036671113
0.035348542 0.06638496 0.0028261945 -0.034559015 -0.008686916 -0.0141202705 -0.0009406447 0.007649862
-0.048400395 -0.08414816 -0.0031482687 0.049457394 0.00042578118 0.026525866 0.00012780265 -0.03847947
0.047428038 0.06425876 0.0028896118 -0.03515889 -0.002675866 0.014006778 -0.00048591205 -0.02568398
-0.011322905 -0.036040045 -0.0024680092 0.02043328 -0.025149679 -0.044966083 -0.0030651418 0.025567321
6e-45 6e-45 -6e-45 -6e-45 0.008313191 -0.0028805672 0.0009789985 0.019128008
0.035404574 0.07455947 0.0015329297 -0.06823467 0.027488908 0.03276053 0.0022292652 -0.0033994643
-0.027125424 -0.058658894 -0.004007743 0.032516442 -0.021062698 -0.03425221 -0.0023293914 0.01856338
-0.03963064 -0.06645419 -0.0034910946 0.0342579 -0.017572248 -0.03341472 -0.0022248328 0.017569812
6e-45 6e-45 -6e-45 -6e-45 0.06536975 0.111308165 0.007605445 -0.06046684
-0.004599828 0.021416476 0.00020500057 -0.03478917 -0.018783731 -0.04130202 -0.0028332146 0.02292241

exp_avg_sq f4 [128, 4]
00000000: c27e f83d 5d6d 263e 28af a83a 0fed 533d
00000010: 6dbc 5e2d 32a8 d42c 1c86 ce29 3d5e e22b
00000020: cae3 f33d 1c90 1a3e 896d 9b3a fb07 0a3d
00000030: 1449 f23c c8f0 f73c d444 5939 a8f1 6e3c
00000040: 4b94 103e ee6e 3f3e 7b83 383a 7ea1 393c
00000050: 2c5f 323c 22db 4d3c 0b33 e838 66cb 1c3b
00000060: 0df3 803d 8fd9 a23d cb46 523a 8473 e83c
00000070: a50e 053c c267 0f3c f9d6 8538 fecf 653b
00000080: 7aa1 9f3d 54f7 a33d 2514 193a 67c5 253d
00000090: 5ff2 893d 475a 8e3d 9b92 003a 83b3 113d
000000a0: ffb8 5a3d 541c 5f3d 06f3 d139 1720 df3c
000000b0: 7c5d 543d f7be 553d 0bb4 5239 a802 973c
000000c0: b894 983d 98a9 5d3d 8056 4d39 b651 953c
000000d0: 17f4 ab3d 6386 dd3d e8f6 473a d990 353d
000000e0: 65aa 033d 2e40 263d 85a8 ca39 f041 813c
000000f0: e8be 8f3d 4475 c13d b737 5f3a ecdb a03c
00000100: c36f 573c 3a9e 783c 3095 0c39 0f22 3d3b
00000110: 0abb 803e a797 a13e 7751 b83a 10a0 763c
00000120: c6b3 433c b08f 5e3c 90df 0039 09fa 233b
00000130: e26e 0d3d 1a1d 353d a5fb db39 5ec9 8b3c
00000140: 7b3e 5a3d f993 573d ae88 e138 fc54 353b
00000150: 8b08 0000 8ea7 0700 350c 0000 4a0f 0e00
00000160: 7fde 3432 7d72 0c32 b3f0 512b d732 5f31
00000170: 45bf e33d 03fd 123e 6dea b03a c8a0 363c
00000180: e587 063c 7603 b33a b5a3 c538 605a 543b
00000190: 6a98 2e3e b54c 8a3e 72ac 0d3b 97cf b23c
000001a0: 35fd ff3d 8efd 263e 7bd5 993a 8422 883d
000001b0: d12f 5c3c e3a9 5c3c 1dba f938 b2e8 d43b
000001c0: 9bb9 3b3c 56a4 9a3a 62ad 7f39 3fac d43b
000001d0: 8a3e c33c e334 eb3c 39cb 9939 9b1e 353c
000001e0: 210f 9a3c 6f72 c73c 3401 1d39 d92b 983b
000001f0: 3807 493e feef 613e 90d8 063b 5d04 213d
00000200: 8b24 b13c 25f9 b53c 803b 0639 ff66 253c
00000210: 8c64 083d a3b5 1c3d e37a c639 4bf9 873c
00000220: 569e 7b39 e8d2 6639 b6f9 4d34 7085 8338
00000230: 2db2 e03d b047 263e d691 ae3a b0cb 0e3d
00000240: a25c 6f3d 811e 6e3d 108f b939 975f d83c
00000250: 6d25 373d e569 3c3d 35a6 b039 a752 c33c
00000260: 0739 103e 9b80 c83d dcaf fb39 4fee 333d
00000270: d467 1c00 89c6 6e01 c5ee 0000 8bca 4a01
00000280: fbe3 0f3e d6ee 383e 7d85 b73a d634 283d
00000290: 0830 753d 6e14 6e3d 19ae ca39 d61a dc3c
000002a0: 47aa 533d 3c38 593d cf34 c739 bfb5 dd3c
000002b0: 96fb 4f3d e5c7 893d bb3d 223a 96d9 543c
000002c0: 6461 383e a0e2 713e 305a f13a 1151 5f3d
000002d0: 00fc 5f3b 8b3c 7a3b ed85 1b38 fab8 3c3a
000002e0: ea2e eb3d 5cc2 243e 18c7 b73a 01d2 053d
000002f0: f8e4 a13d 734f 9d3d e958 073a 277d 123d
00000300: 21af 973c 6644 9c3c 9bad 3138 a445 ab3b
00000310: 7986 543d d72f 4d3d f8f5 b839 db91 c23c
00000320: 9dd8 063e 4cc3 323e 8336 ad3a 638d 283d
00000330: ea3e 283d 5263 423d e04c e739 e822 1b3c
00000340: 0312 e002 e898 1103 b26f 0c00 b74f 0602
00000350: 4430 d93c 5fdf 073d 4439 a839 c42a 533c
00000360: 8f74 c23d 0114 c63d 6d8b f239 3fac 203d
00000370: 2d6c b93c faa3 ee3c b1f5 7839 3503 793a
00000380: d82d 113e c8ff 383e 4a01 b93a a66b 263d
00000390: e00c b13c 5c53 c83c 4351 6a39 7a9f 913b
000003a0: 26ce d53d bcdb 053e afd3 903a 1522 ee3c
000003b0: 71d4 f43c 7a59 193d 58e5 a139 cebb 0a3c
000003c0: 97a7 ed14 61c8 8415 0dff 8111 5643 7e15
000003d0: 87ac 793e da03 903e 0bff 223b 365a 5b3d
000003e0: 97ad 303d d27c 343d 250e ad39 9d90 b63c
000003f0: ab3f 983d caec c23d d8d1 423a 5f0f b03c
0.12133552 0.16252656 0.0012869583 0.05173975 1.2661078e-11 6.044076e-12 9.171502e-14 1.6084422e-12
0.11908682 0.15094036 0.0011858206 0.033699017 0.029575862 0.03026618 0.00020720373 0.0145839825
0.1411907 0.1869466 0.0007038635 0.011330007 0.010886949 0.012564452 0.000110721296 0.0023924946
0.06296358 0.07951652 0.0008021413 0.028375395 0.008121167 0.008752765 6.381976e-05 0.00350666
0.07794471 0.080061585 0.00058394886 0.04047146 0.06735682 0.06950813 0.00049046584 0.035571586
0.053399082 0.054470375 0.00040044653 0.027236981 0.051846966 0.05218407 0.00020094232 0.018433884
0.07450241 0.054116815 0.00019582547 0.01822744 0.08396166 0.10816648 0.00076280395 0.04432759
0.032144923 0.04058855 0.00038654 0.015778512 0.07018834 0.09446195 0.0008515077 0.019636117
0.013149205 0.015174443 0.00013407017 0.0028859412 0.251427 0.31561014 0.0014062364 0.01505281
0.011944717 0.013584062 0.00012290315 0.0025020859 0.034529574 0.044217207 0.00041958425 0.017063793
0.053282242 0.052631352 0.000107542946 0.0027669063 3.065e-42 7.02956e-40 4.379e-42 1.291182e-39
1.0527969e-08 8.175104e-09 7.4585753e-13 3.247967e-09 0.11120466 0.14354329 0.0013497599 0.011146732
0.008211111 0.0013657648 9.424185e-05 0.00324025 0.17050329 0.27011648 0.0021617678 0.021827502
0.12499467 0.16307661 0.0011736596 0.06647208 0.013439135 0.0134682385 0.000119079115 0.006497466
0.011457826 0.0011798244 0.00024383285 0.00649026 0.023833532 0.028711742 0.00029333847 0.01105466
0.018806042 0.024346558 0.00014973135 0.004643899 0.1963166 0.22064206 0.0020575859 0.0393108
0.02162387 0.022213528 0.00012801401 0.010095357 0.033299014 0.03825916 0.0003785706 0.016598364
0.0002399621 0.00022013078 1.9182957e-07 6.2714214e-05 0.10971484 0.16238284 0.0013318609 0.03486222
0.05843795 0.05813456 0.0003539254 0.026412768 0.044713426 0.045999426 0.0003369317 0.023843123
0.14084254 0.097901545 0.00048005476 0.04392844 2.60864e-39 4.3856138e-38 8.5654e-41 3.7246858e-38
0.14051811 0.18059859 0.0014001575 0.041066013 0.05986026 0.058124952 0.00038658155 0.026868265
0.05167606 0.053032145 0.00037995583 0.027064202 0.05077704 0.0672758 0.0006189008 0.01299133
0.18005902 0.23621607 0.0018413719 0.05452067 0.0034177303 0.003818306 3.7079608e-05 0.00071991945
0.114835575 0.16089767 0.0014021127 0.03267098 0.079050004 0.07681169 0.000516309 0.035763886
0.018516125 0.019075584 4.236177e-05 0.0052268077 0.051886056 0.05009445 0.00035278476 0.02375119
0.13168569 0.17457312 0.0013215098 0.041150462 0.041075625 0.047458 0.0004411703 0.0094687715
3.292418e-37 4.27872e-37 1.142095e-39 9.867642e-38 0.026512273 0.033172008 0.00032086123 0.012888614
0.09494888 0.09671784 0.00046261717 0.039226767 0.02263459 0.029130924 0.0002374265 0.0009499074
0.14177644 0.18066323 0.0014114764 0.040630005 0.021612585 0.024453811 0.00022346251 0.00444406
0.1043971 0.13072103 0.0011049415 0.029068986 0.029886456 0.037438847 0.00030879187 0.008467628
2.3996987e-26 5.363052e-26 2.0509799e-28 5.134801e-26 0.2438222 0.28127939 0.0024871256 0.05355283
0.0431343 0.04406435 0.0003300767 0.022285754 0.07434019 0.0951782 0.0007431782 0.021491705

exp_avg f4 [128]
00000000: a19d 703e 0400 0000 c995 a1bd a578 c2bc
00000010: e3a6 1d3c ef13 c43c 365b 7bbc dd72 e93c
00000020: 9133 95bd 54dc cf3c aed1 7bbd 64ac 08be
00000030: 0833 2e3c c911 ac3d d16e 05bd 0485 95bc
00000040: e606 db3c dae9 2b3d 4d00 163d a7b0 47bd
00000050: d94d b2b9 0400 0000 0400 0000 2656 ea3c
00000060: efeb c9bb e887 1e3e 45e7 fb3d ccf1 b43c
00000070: fd71 9dba dcb5 c83a 2ebd c6bc 29f0 5bbe
00000080: fb10 183b 10eb 803c ab30 c10d 7ff9 01be
00000090: a633 0cbd 894e 80bd 11f9 ccbc 0400 0000
000000a0: ca46 e4bd 507b 69bc f94f 2cbd ce29 3f3c
000000b0: 744f 153e b274 ac3c 0537 83bd cf2b 95bc
000000c0: 6c5d 1cbe 8706 e2bb eda9 31be bd24 503d
000000d0: 0400 0000 ee3d a3bc 18c9 f3bd 59da 9a3c
000000e0: 73d2 c4bd 9cc4 633d 1511 2fbd 0c70 f3bc
000000f0: 0400 0000 2067 edbd c456 753d 1d8b 97bd
00000100: f67c 493e be80 88bd 6cc6 a6bb 64cb c4bd
00000110: 6106 283d 6b5b cd3c 2239 3fbc d63c d6bd
00000120: b135 02bd d180 7bbd 957c 96bc ae80 ddbb
00000130: f94d bc3c ba72 22bc ab8e f23c 61e3 ad3d
00000140: 0000 0000 6dd2 f43b e244 ddbd 1ddd 7fbd
00000150: cdf7 8fbd 0c2f ba3c 701e 023d d74a 9e3c
00000160: 0000 0000 2a2b d23d 1caa f5bc 2065 d2bd
00000170: 7927 09bd ef8b e13d 7fe6 af3c 3b0d 053e
00000180: e070 1bbe 4468 c53d 8bbd 1c3d 70ed a839
00000190: 39d4 6e3d 4832 3dbd d784 d7bd a35d a3bd
000001a0: 5ed9 be3c 4ea0 80bc 1ada 66bd 6282 81bc
000001b0: ecf6 743d 2808 bebc 914e 53bd 527c d53d
000001c0: 008f dc3d 7542 003e 72a8 d3bd 0c27 aabd
000001d0: 0400 0000 c611 6c3d 5f8e a1bd eab3 143d
000001e0: db15 03bc b472 e13c d2d7 cb3c d2f1 be3b
000001f0: b98d 893c 940d 23bb daff a3b8 ea24 6f3c
0.2349763 6e-45 -0.078898974 -0.023739168 0.009622308 0.023935286 -0.015341571 0.028497154
-0.07285226 0.025373615 -0.061479263 -0.13347012 0.010632284 0.0840183 -0.032576386 -0.018251903
0.026736688 0.041971065 0.03662138 -0.048752453 -0.00034008807 6e-45 6e-45 0.028605532
-0.0061621587 0.15481532 0.122999705 0.022087954 -0.001201212 0.0015312987 -0.02426013 -0.21478333
0.002320348 0.015737087 1.190626e-30 -0.12692831 -0.034228943 -0.062649794 -0.025021108 6e-45
-0.111463144 -0.014250591 -0.042068455 0.011667682 0.1458109 0.021051738 -0.064069785 -0.018209366
-0.15270013 -0.006897751 -0.17349978 0.050816286 6e-45 -0.019926991 -0.1190359 0.018902944
-0.096104525 0.055607423 -0.0427409 -0.029716514 6e-45 -0.11591935 0.0598972 -0.07399581
0.19676575 -0.066651806 -0.0050895717 -0.09609106 0.04102171 0.025068006 -0.011671336 -0.10460822
-0.031789485 -0.061402146 -0.018369952 -0.0067597246 0.022986399 -0.009915048 0.029609045 0.08490635
0.0 0.007471374 -0.10804154 -0.06246673 -0.07029686 0.022727512 0.03176731 0.019322796
0.0 0.10262139 -0.029988341 -0.10273194 -0.03348491 0.11013018 0.021472214 0.12993328
-0.15179777 0.09639028 0.0382667 0.00032220362 0.05830786 -0.04619053 -0.10523384 -0.07976844
0.023297008 -0.01570144 -0.05636034 -0.015809242 0.059805796 -0.023197249 -0.0515886 0.10424103
0.107694626 0.12525351 -0.10334863 -0.08308229 6e-45 0.057634138 -0.07888483 0.036304392
-0.008000816 0.027520515 0.024883185 0.005827167 0.016791211 -0.002487992 -7.820102e-05 0.014596203

exp_avg_sq f4 [128]
00000000: d729 eb3e c0b3 4b2c 65da a33e dd62 0d3e
00000010: a85c 753d 1898 e73c 1d74 8e3e ba94 243d
00000020: 3fc7 c23e 82ce b03e 267a 7e3e 641a 443e
00000030: 67c6 933d fbff c03e bfd5 163e d9dd 633e
00000040: 160c 0c3d 09b4 d33d 3d76 013d 1509 213e
00000050: 9746 363c e7bf 0100 128b 0731 22fb e43d
00000060: ffb2 a03b 58fc d73e d90d 113f bc29 8f3d
00000070: f81f 0c3c e6de e13d 7d7c 823d 2b4e 0b3f
00000080: 1c5e c73d ca2e 2b3e 21f2 7838 0bf1 c03e
00000090: 66f7 5a3e f51c 633e 321b 173e 6e00 2500
000000a0: 83cb c43e 8195 473e 315f 833e d3f8 203e
000000b0: 65c6 043f fe88 1b3c 3d94 b73e 4aff 833e
000000c0: 25f8 993d b76f 263e f06e c33e 33ad e73d
000000d0: e512 ae01 a19d fa3d e7eb b93e dbb6 843c
000000e0: 914d c43e 22b0 6c3d e5a9 933e 419b a93d
000000f0: 95df 1814 a43a 233f d65b 4e3e 146e 4f3e
00000100: 67d4 f03e 71d4 5e3d 918a 7c3d 0838 923e
00000110: 83f7 b03e 25a9 bc3d 0d5b b33b 6154 ae3e
00000120: 142a 4f3e 7799 f93e 8ae0 b03d b6ec 7f3e
00000130: c0f4 b63d c4b7 c13d 7834 053c 1028 013f
00000140: 0000 0000 b431 7e3e 4b68 a43e 7a9c a73e
00000150: d729 743e 5273 e73d 016b 243e bec8 d83d
00000160: 0000 0000 1187 ec3e 98b6 a83d 1d75 a23e
00000170: 78c9 0c3e 5149 2a3f 52e5 393e 5840 ef3e
00000180: 2210 b23e d64b d23e c251 a93c 02a8 393b
00000190: 2dcd 463d fce3 403c 61e1 c43e 2637 6c3e
000001a0: 0a57 473d 5225 343d 8033 2b3e 20a9 8b3e
000001b0: dcab d63e 5fb4 153e 550b 073e 0fc6 8e3e
000001c0: 0f1c a93e d7b4 1b3f 03b6 9b3e ddcb 493e
000001d0: f0b6 091f 31e6 4c3d 2ebd a13e 5e0e 1f3e
000001e0: 1a57 e03d d2c0 823d 63de bc3d d211 893c
000001f0: de4e 0b3b 71af 573c 7def 0239 2ecf de3d
0.4593036 2.8947816e-12 0.3200256 0.13807245 0.059902817 0.028270766 0.27822962 0.0401809
0.38042638 0.34532553 0.24851283 0.19150692 0.072155766 0.37695298 0.14729975 0.22252597
0.034191214 0.10337073 0.0316069 0.15726121 0.011125228 1.60677e-40 1.9724138e-09 0.11180712
0.0049041505 0.4218471 0.56661755 0.06990382 0.008552544 0.11028843 0.063714005 0.5441615
0.09734747 0.16717067 5.9353308e-05 0.376839 0.21383438 0.22179015 0.14756468 3.398068e-39
0.38436517 0.19490625 0.25658563 0.15719919 0.51865226 0.009493111 0.35855284 0.25780708
0.07518033 0.16253553 0.38170576 0.11312332 6.394462e-38 0.122370966 0.36312792 0.016200474
0.38340428 0.05778516 0.28840557 0.082815655 7.718133e-27 0.63761353 0.2015222 0.20256835
0.4703705 0.05440182 0.061655585 0.28558373 0.34563836 0.09211949 0.0054735006 0.3404875
0.20230895 0.48749897 0.086365774 0.24992642 0.08933401 0.09458879 0.008130185 0.50451756
0.0 0.24823648 0.3211082 0.3273657 0.23844086 0.113012925 0.16056444 0.105851635
0.0 0.46196797 0.08237952 0.31729975 0.13748729 0.6651812 0.18153885 0.46728778
0.34777933 0.41073483 0.020668868 0.00283289 0.048535515 0.011773106 0.384532 0.23067912
0.04866699 0.043980904 0.16718864 0.2727747 0.41927993 0.14619587 0.13187917 0.27885482
0.3302922 0.60822815 0.304123 0.19706674 2.91622e-20 0.050024215 0.31589645 0.15532824
0.10954113 0.06384434 0.092221044 0.01673213 0.0021256725 0.013164387 0.00012486982 0.1087936
