0 课件原版/sac_target_critic201.pth (torch, 22675 bytes, 5 tensors)

net.0.weight f4 [64, 9]
00000000: 1898 8cbf de0d b63c 2f53 003f 7977 a8bf
00000010: 6463 2f3f 0eba 18bf 7c9b a43f 00da 9fbf
00000020: 7119 c33d 434c 443d 3cf0 8e3e ffbc f83e
00000030: 8cc2 97bf c1b7 b23f a562 f63f a95e 93be
00000040: bc87 803f e853 8c3d 2f23 c6be f5bd 65bf
00000050: 9b72 513d d488 2b3f 8bbd 34bf 04d5 c3be
00000060: 8000 2c3f 8883 0740 593e 90bd 3788 b73e
00000070: 920a 063f 82cc bfbe 358c 5b3f df7d cc3e
00000080: dc49 7fbf 9c3f 9bbf 04f2 733f 2c69 1440
00000090: 31c3 903f bd7f a3bc 1c24 89be 0e4b 983f
000000a0: 844d edbf 6ebb 99be 99da d5be 02a4 5c3f
000000b0: 801b 173f 216d 753f 572e 793e f794 3ebe
000000c0: 15be 443f 3254 e93e fe7e 793e ef12 0ac0
000000d0: a32f c3bf 1a5b d6bd 9b1c 823e 2a77 5b3f
000000e0: c869 0c3e 4f1d 6bbf c693 0a40 f0e8 e83e
000000f0: 37b4 653f da8c c9be a71c 54be cf35 f2be
00000100: c092 4bbe e081 0abe d34d 2a40 1899 5b3f
00000110: 68c0 043f 9f51 dc3f 08ca b53f 612f cbbf
00000120: 7144 19bf c059 643f 1513 74bf 8d0a 393f
00000130: 8c19 2d3f fc60 8fbf 2f3c 9cbf 7bf1 7dbe
00000140: 7b8e 213f c82a 273f f99d 6a3f 02d2 31bf
00000150: 7b9b 7c3b 5ea9 663f 309c 89bf 5c6c 633e
00000160: 143b 10be c5c7 93bd 75e7 5b3e c996 15bf
00000170: 6122 e4bd 6be2 a73e 99cf 05c0 a8cc 053d
00000180: 09a7 143f 0429 963f 51fc bcbe 441a 8abe
00000190: 2e1a 3c3f f5f8 68bf 3906 ab3e 0d50 f23f
000001a0: c219 1bbf 6548 523f 822c 79bf 3eea a53f
000001b0: 02b1 8bbb f392 67bf fe57 3ebf 7cdf ba3e
000001c0: f792 00c0 80e3 22bf a660 1bbe d302 c6bf
000001d0: fb44 883f 3b9d 3a3f 18f9 373f 00a4 a8bd
000001e0: 10b0 c5bd 55ac b03f f41e 3a3f 6ff9 77be
000001f0: 0aca a8bf c7bc e63e b386 32be 7549 c9bd
00000200: 384a aa3e 139f 86bf 1922 463f 1e82 9d3f
00000210: 5897 c8bf 1db5 693e 056a aa3f f8c2 22bf
00000220: 24a8 3d3c 668c 1ebd 7d1c 95bf 3684 9fbf
00000230: 4105 a73f 62fa 3b3f b687 1cbf 3411 d93e
00000240: fcce b23e 1554 b43e 764a 573d 59a1 bc3e
00000250: aa36 a8be d240 a63f d93a 2340 8bab 453e
00000260: 3fae 05c0 d3c5 0bbf 1ba3 883e a024 a33e
00000270: c868 82bf 4488 023f 0a5e 973f b508 b63e
00000280: 7986 f2be 7fbe 823e 9f85 43bf e5e7 163d
00000290: b307 a2bc 697c 05c0 c580 353f e0c6 813f
000002a0: 5bec d43f b6c0 7ebf 3da0 4ebf d823 973e
000002b0: 2a08 94bd 5ccb e3bd bfae 5cbe bcbd c5bf
000002c0: 27f5 76bf 4e96 9cbf 4b47 02bf ffc0 1a3e
000002d0: 228d 6c3f 8b4e 81be 7a07 463d 5a46 ccbf
000002e0: 442a a13f 2e07 c13f 9ee5 ccbc 09ee dabf
000002f0: 50a9 4bc0 5caa 713e e99f 793e 614f 853e
00000300: b791 2540 a07b 4bbf f0c2 31be 553c 23bf
00000310: 3475 773e a108 90bf 9d17 93be 7252 743f
00000320: 29e1 61bf 860e 31be 1d16 c23f 719f b5bf
00000330: 9397 2c3d c378 b6bf 6d60 0a3f 4d84 e9be
00000340: a977 323f f5cc 103f 226a dcbe 6865 ca3f
00000350: 9e60 efbd e2a6 283f 88f0 34bf da91 0cbe
00000360: f256 c83f 7b71 aebe 8468 eabe 43e6 bb3f
00000370: 206f c2bf c645 63be a65c babf 6e28 b63f
00000380: 2786 0c3e 8823 fe3e 1b04 82bf 1899 9b3d
00000390: 564e bc3d 70a2 e8bf c6eb ee3e 7528 9abe
000003a0: e1fe 283e 7758 bd3e 61ac dabf b1f4 43be
000003b0: 7200 143d 1a8d c6bd c742 63bf 6a1c 78bf
000003c0: 04d3 6abe 1722 2a3e 9b86 f8be 2f25 ad3f
000003d0: 9199 91be 7ecd 80be 8692 0b3f a61d 183e
000003e0: 6014 b93f f227 abbe 0688 2e3e ec55 2bbf
000003f0: 6de8 4abf 39b5 47bf b225 90bf 7cba d9bf
-1.0983915 0.02222341 0.5012693 -1.316146 0.68511033 -0.59658897 1.285995 -1.2488403
0.09526337 0.04792429 0.2791766 0.48581693 -1.1856246 1.3962327 1.9248854 -0.28783157
1.0041423 0.06851941 -0.38698718 -0.89742976 0.051134687 0.6700566 -0.7060172 -0.38248456
0.6718826 2.117403 -0.07043142 0.3584611 0.5235988 -0.37460715 0.85760814 0.39939782
-0.99722075 -1.2128787 0.9529116 2.3189192 1.1309568 -0.019958371 -0.26785362 1.1897905
-1.8539281 -0.3002581 -0.4176834 0.86187756 0.59026337 0.9586964 0.24334083 -0.18611513
0.7685254 0.45572048 0.2436485 -2.1574056 -1.5248913 -0.10466595 0.2541245 0.85728705
0.13712227 -0.91841596 2.1652694 0.45490217 0.8972811 -0.39365274 -0.20714055 -0.47306678
-0.198802 -0.13526106 2.661 0.8578048 0.5185609 1.7212409 1.420228 -1.5873834
-0.5987006 0.8919945 -0.95341617 0.72281724 0.67617106 -1.1201472 -1.2205867 -0.24799149
0.6310803 0.65299654 0.916473 -0.6946107 0.0038544822 0.90102184 -1.075079 0.22209305
-0.14085037 -0.072158374 0.21475013 -0.58433205 -0.1113937 0.3278993 -2.0907958 0.03266588
0.58067375 1.1731267 -0.36911252 -0.26973164 0.7347745 -0.9100488 0.33403185 1.893068
-0.6058618 0.82141715 -0.9733354 1.296211 -0.0042630443 -0.904586 -0.74353015 0.3649863
-2.00897 -0.6362839 -0.15173587 -1.5469612 1.0646051 0.72896165 0.7186446 -0.082344055
-0.09652722 1.3802592 0.7270348 -0.24216245 -1.3186657 0.450659 -0.17434196 -0.09828464
0.3325975 -1.0517296 0.7739578 1.2305334 -1.5671186 0.22822995 1.3313605 -0.6357875
0.011575732 -0.038708113 -1.1649319 -1.2462223 1.3048478 0.7342893 -0.6114458 0.42395937
0.34923542 0.352204 0.052561246 0.36841848 -0.32854205 1.2988532 2.5504668 0.1930372
-2.0887601 -0.5459873 0.2668694 0.3186388 -1.0188227 0.50989175 1.1825573 0.35553518
-0.4736822 0.25535962 -0.76375765 0.036842246 -0.019779062 -2.0857184 0.7089961 1.0138817
1.663463 -0.99512804 -0.80713254 0.29519534 -0.0722812 -0.11122772 -0.21551035 -1.5448527
-0.9646782 -1.2233369 -0.50890034 0.15112685 0.9240285 -0.25255236 0.048346974 -1.595897
1.2591023 1.5080316 -0.025011834 -1.7103893 -3.182209 0.23600143 0.24377407 0.26037124
2.5870187 -0.7948551 -0.17359519 -0.63763934 0.24165803 -1.1252633 -0.28728953 0.954383
-0.8823419 -0.17290697 1.5162998 -1.4189283 0.04213674 -1.4255604 0.54053384 -0.4560875
0.69713837 0.5656274 -0.43049723 1.5812197 -0.1168835 0.6587964 -0.7067952 -0.13727513
1.5651534 -0.34070954 -0.45782864 1.4679645 -1.5190163 -0.22194585 -1.4559524 1.4231088
0.1372305 0.49636483 -1.0157503 0.0759756 0.09194629 -1.8174572 0.46664256 -0.3010899
0.16503479 0.36981556 -1.7083856 -0.19136311 0.036133237 -0.09694882 -0.8877377 -0.96918356
-0.22932059 0.16614567 -0.48540196 1.3526973 -0.28437474 -0.25156778 0.5452045 0.1485506
1.4459343 -0.33428913 0.17044076 -0.6692798 -0.79260904 -0.780109 -1.1261504 -1.7010036

net.0.bias f4 [64]
00000000: d323 ee3f bc5d dabf 4ecc e13e 25c9 643f
00000010: 8d0b 05c0 2fba 9fbe c358 9c3f e657 bb3f
00000020: 7574 f43f 85fa a83f b6cb c640 3f05 893d
00000030: 0abb f03e bde3 ae3f 47bf f83f 4c0d c63e
00000040: 92e8 48c0 b6a9 623f cf89 b23f a92e 0cc0
00000050: 94be 23bd 3c59 1ac0 d510 b0bf ef08 d8c0
00000060: f300 53c0 fa95 3a40 9fa9 87c0 b08a ebbf
00000070: ffa7 9c3f 8e71 b33f 0b8a 21be 85c5 47bf
00000080: 0f87 1440 9b52 aa3f 07c3 5dbf ff58 083e
00000090: 3add 7dc0 b680 be3f 3614 cf3f 9294 643e
000000a0: f440 7fc0 85ce 9e3e 564a 6bbf 920f 203f
000000b0: e708 a340 ae26 37bc eb5c a040 8947 2b40
000000c0: 09a0 bb3f 43d3 d43f 96b1 223e cc53 9b3d
000000d0: 709e eebe bf57 adbf a81a 93bf aea3 d73f
000000e0: bff1 06c0 46d2 a4c0 272b 1e40 2693 473f
000000f0: ac76 99c0 2429 3a3e a1c3 5cbf 535f 91bf
1.8604683 -1.7059855 0.44101185 0.8936942 -2.07883 -0.31196734 1.2214588 1.46362
1.909804 1.3201452 6.212367 0.06690454 0.470177 1.366325 1.9433373 0.3868202
-3.139195 0.8854021 1.3948306 -2.190348 -0.03997667 -2.4116964 -1.3755137 -6.7510905
-3.296933 2.9154038 -4.2394557 -1.8401699 1.2238768 1.4019029 -0.15775315 -0.78035766
2.3207433 1.3306459 -0.86625713 0.133152 -3.9666276 1.488303 1.6178043 0.223223
-3.9883394 0.31016937 -0.919103 0.6252376 5.0948367 -0.011178656 5.0113425 2.6762412
1.4658214 1.6626972 0.15888056 0.07584342 -0.46605253 -1.3542403 -1.149251 1.6846826
-2.108505 -5.150668 2.4713838 0.77958906 -4.7957363 0.18179756 -0.86236006 -1.1357216

net.2.weight f4 [64, 64]
00000000: 97ea 523f f330 3c3f e51f 0b3f ce48 c8be
00000010: 0edc dfbf 612f b5be 141a 363f 83ad 983f
00000020: 1354 1e3f 4186 3d3d 339b 51c0 5278 4f3f
00000030: bc01 a13f f29b 2d3e dda2 80be aef9 7ebd
00000040: d46f 093f 77ee 01be afe3 083f 4f50 a83e
00000050: 0a2c e93d 9f40 523f d4e3 5c3f 6884 c2c0
00000060: e93e 37c0 68d5 d83e d852 7ac0 5d7b 693f
00000070: eff1 b03f 0b91 083f b118 a93e 67a3 9f3f
00000080: 9872 e43e 1880 013f f9be 533e d236 8d3f
00000090: 1c9a d13f e5b3 513e 0505 643f 9653 653f
000000a0: 72c3 70c0 f3f5 733e 2734 27bf cd8e 0dbe
000000b0: b0d9 0240 3008 783f 3224 c93f f4fe f23e
000000c0: 0ce0 d53e d3cc 033f 45a4 dc3e 276f 333f
000000d0: 65c7 df3e 45da 4e3f 305b 37c0 46cb 373d
000000e0: 2640 933f f748 c53f 8010 a63e de4f 043f
000000f0: e0a0 6fc0 b746 713f 4bb2 0c3f e533 6fbd
00000100: 41fc bb3f 7c50 46bd 4d87 423e a23b 543f
00000110: 6ac7 98bf c4b1 3f3f a2eb 453f 3025 0940
00000120: 223b 9d3f fd83 373f b22f 0ec0 27e3 163f
00000130: d25a 5f3f d25b 7c3f 8e43 273f 9a43 1bbe
00000140: 7aa1 c73f 96ca 2a3f 251c a13f ba03 203f
00000150: 9387 0c40 f935 723f 48ed 023f 6fc4 9cc0
00000160: 630d 29c0 be7c 133d d122 10c0 fe33 a83f
00000170: 68b2 883f caef 563f ba94 123f 36ad 9c3f
00000180: da82 8c3f d4cc 883f 5939 593f 3a5c 0e40
00000190: bf1a ae3f 9811 533f c5bd f33f 5281 f73e
000001a0: 67bd 3dc0 98a2 543f 3294 9a3f d853 c43f
000001b0: 6ff2 2840 8a1e da3f 022f 3940 a521 433e
000001c0: d97e 4f3f 1c05 be3f d1ef 623f f02d b83f
000001d0: 72a8 a83f 6676 a33f 2e2c 0fc0 da1c 953f
000001e0: 86f7 4a3f 0069 2840 6289 b43f ae9c 6f3f
000001f0: 40fc 3ac0 dfc8 903f d1c3 2b3f cac8 673f
00000200: bce0 acbe 4125 b5bf 53bb 3a3f 8900 0f3f
00000210: 6a38 d4bf 74c6 443f 54d2 593f 25f6 e5be
00000220: 66dc 313f 636c 823f e6fe 8fbf 4aa8 573f
00000230: 7a51 9dbe 5216 4c3f 3216 5ebf 792f 8abf
00000240: b129 dabf a801 923d 3e2c c3bd d3ca 67bf
00000250: aac1 7dbe aa0f 68bf c0ac 8f3f 8359 60c0
00000260: 8642 c8bf 0ae9 8e3f fd51 1bc0 4ed1 223f
00000270: 31da e5be 852f 1a3f aa5b 45be 3864 94be
00000280: 32d7 843f 6367 f4bd 5a2f ba39 78fe 313f
00000290: 629d b1bf 730c 823e 4d84 25be fc9c 2dbf
000002a0: 61f4 efbf 3782 6cbf 6250 e0bd 14d2 d83d
000002b0: b7c6 a8bf fe5f a5be d768 8c3f deb1 a73f
000002c0: 3d03 d73e 41a8 1c3e 89ae 3dbf 0364 febf
000002d0: 77f4 883d b51c 513e df1e 32bf e0e0 9dbf
000002e0: d6a6 8d3f f3c1 c93e 4f2f 11bf c8eb 45be
000002f0: ff95 22c0 b3bd 68be 5532 5dbe 39e6 69be
00000300: 1f76 413f dcc6 c0bf 72f4 683f 43af 843f
00000310: 7f48 f3bf c2ab 0a3e 1f3b 263e 0f25 2e3f
00000320: ba61 04bd fd07 a1bc a881 c9bf 6afd 2fbe
00000330: d274 bdbe 2350 183f fbfe 383f f521 49bf
00000340: b328 a23e 2c1e 3a3e 7509 bc3e a081 5dbf
00000350: d402 473f 7ffe 92bf 0c18 8c3e 5e55 80c0
00000360: 073d adbf 0878 933f 124a 12c0 fe6e d73c
00000370: ec61 06bf 7a21 953d 3f58 693e 7b82 c4bd
00000380: 0493 7dba a8d2 c0bd d1e2 1dbe 4729 3340
00000390: 9c16 b7be 57c3 653d ec88 773f 1ded 53bf
000003a0: 097d 19c0 1a7a 0dbf 6766 be3d 2b32 c93e
000003b0: a738 3c3f 700f d63e 7eb5 1940 931a aa3f
000003c0: 0e30 1d3e ed40 063f e61a 04be 2469 34bf
000003d0: 4383 03bb 956f b3bd f2d3 17bf f1b8 5b3e
000003e0: 747b 58be d841 8040 90a4 1c3f c89d ddbe
000003f0: 7fa0 10c0 870e 02bf 806e b03c ac09 013e
0.82389206 0.7351219 0.5434554 -0.39118046 -1.748903 -0.3538771 0.7113354 1.1927952
0.6184704 0.046270613 -3.2750976 0.8104297 1.2578654 0.1695402 -0.25124255 -0.06224983
0.5368626 -0.12688623 0.5347242 0.3287377 0.11385353 0.82129854 0.8628514 -6.078663
-2.8632147 0.42350316 -3.9113064 0.9120386 1.3823832 0.5334632 0.3302665 1.2471741
0.44618678 0.5058608 0.20678319 1.1032355 1.6375155 0.2047878 0.8907016 0.89580667
-3.761929 0.23824291 -0.65313953 -0.13824005 2.0445366 0.96887493 1.5714171 0.4746014
0.41772497 0.5148441 0.43094078 0.7009148 0.43706813 0.808018 -2.8649406 0.04487159
1.1503952 1.5412892 0.32434464 0.5168437 -3.744194 0.9424853 0.54959553 -0.0583991
1.4686357 -0.0484166 0.18996926 0.8290349 -1.1935856 0.74880624 0.7731267 2.1428947
1.2283671 0.71685773 -2.221661 0.58940357 0.87247956 0.98577607 0.65337455 -0.15162507
1.5596154 0.6671537 1.2586714 0.62505686 2.1957748 0.94613606 0.5114331 -4.8989787
-2.641442 0.036007635 -2.252125 1.3140867 1.0679445 0.8395964 0.5725819 1.224036
1.0977433 1.0687509 0.8485313 2.224379 1.3601912 0.8244872 1.9042288 0.4834085
-2.9646852 0.830606 1.2076476 1.5338087 2.639797 1.704057 2.8934941 0.19055803
0.8105293 1.4845309 0.8864718 1.4389019 1.3176405 1.2770507 -2.2370715 1.164943
0.7928394 2.6314087 1.4104426 0.9359845 -2.921646 1.1311301 0.6709567 0.90540755
-0.3376521 -1.4151994 0.72942084 0.5586019 -1.6579716 0.76865315 0.8508656 -0.44914356
0.69476926 1.0189327 -1.1249664 0.84241164 -0.30726224 0.7972156 -0.8675262 -1.0795738
-1.7043973 0.07129222 -0.09529923 -0.9054386 -0.24780908 -0.906489 1.1224594 -3.5054634
-1.5645301 1.1164868 -2.4268792 0.63600624 -0.4489303 0.6022876 -0.19273248 -0.2898271
1.0378172 -0.11933782 0.00035511964 0.69528913 -1.3876154 0.25400123 -0.1616375 -0.67817664
-1.8746454 -0.9238619 -0.10952832 0.10586944 -1.3185643 -0.322998 1.0969495 1.3101156
0.41994658 0.15298559 -0.74094445 -1.9874271 0.06687253 0.20421107 -0.69578356 -1.2334251
1.1066539 0.39405784 -0.5671281 -0.19328225 -2.540405 -0.22728615 -0.21601231 -0.22841729
0.75570863 -1.5060687 0.90997994 1.0365986 -1.9006499 0.13542083 0.1623349 0.68025297
-0.03231976 -0.01965713 -1.5742693 -0.17186514 -0.3700319 0.5949728 0.7226407 -0.7856744
0.31671676 0.18175572 0.36725965 -0.8652592 0.7773869 -1.1483916 0.27362096 -4.010421
-1.3534249 1.1521006 -2.285771 0.026298042 -0.52493167 0.07281776 0.2278757 -0.095952
-0.0009673091 -0.094151795 -0.15418555 2.7993944 -0.35759437 0.056094494 0.966933 -0.8278368
-2.3982565 -0.5526444 0.092968754 0.39296088 0.73523945 0.41808653 2.4017024 1.328936
0.15350363 0.5244282 -0.12900886 -0.7047293 -0.0020067252 -0.08761517 -0.5930778 0.21457268
-0.21140844 4.0080376 0.611886 -0.4328444 -2.259796 -0.50803417 0.021537066 0.12601346

net.2.bias f4 [64]
00000000: ccdb 0e40 217a 9040 2c81 ce3f 5b73 ba40
00000010: 095a 1a40 4197 a940 3510 a83f bd87 c63f
00000020: 6e94 983f 1552 f3be 9bad 2140 38fc db3f
00000030: 7797 9a40 8ae9 8a40 86a1 ac40 8150 e63f
00000040: 4984 a53f 2643 4440 670d e53f 71b8 8940
00000050: 4997 a8bf 3ade 1940 6e40 bc40 704c 44bd
00000060: ae14 0640 44b2 04be f36f f0bf 2ffe d73f
00000070: 21c0 a940 92e9 ae40 f7e8 9e40 7f01 a840
00000080: 380a cabf 1d20 e33f 11d9 ba40 2ab2 de3f
00000090: 0ecd ac40 7ca2 ea3f 4048 a83f b429 9a40
000000a0: 78da fc3f fc16 b040 90fe dabf 26a9 9b3f
000000b0: 7d82 aa40 9b78 2740 1d7d a640 b121 bc3f
000000c0: 1341 8940 d0f9 bebf 55c3 b1bf d51e ae40
000000d0: 9f10 bfbf 3423 7f40 cb89 cdbf 1ecd c040
000000e0: edb7 2140 17ac f4bf c25e 0940 cd19 a63f
000000f0: 713d f93f e549 adbf aa1d 2040 f312 b4bf
2.2321653 4.5149083 1.613317 5.8265815 2.4117453 5.2997136 1.3129946 1.5510174
1.1920297 -0.4752356 2.526221 1.7186346 4.8309894 4.341008 5.394717 1.7993318
1.2930995 3.0665984 1.7894715 4.303765 -1.3171169 2.4041886 5.882865 -0.04792446
2.0950122 -0.12958628 -1.8784164 1.6874446 5.304703 5.466012 4.965938 5.2501826
-1.5784369 1.7744175 5.8389974 1.7398121 5.400031 1.8330836 1.3147049 4.8175907
1.9754171 5.5028057 -1.7108936 1.2160995 5.3284287 2.6167362 5.2027726 1.4697782
4.2891936 -1.4919987 -1.3887736 5.4412637 -1.4926947 3.9865236 -1.6057676 6.0250387
2.526851 -1.9115018 2.1464086 1.2976624 1.9471875 -1.3538176 2.5018106 -1.4068283

fc_out.weight f4 [1, 64]
00000000: 9941 1fc0 330b 04c0 1e06 2340 988a 7c40
00000010: f0e9 20c0 0ce3 4d40 78f0 3140 71b3 1a40
00000020: 19cf 2d40 3192 6540 d56f 1fc0 e789 2140
00000030: 6a56 05c0 b99e 08c0 3786 3e40 c35a 62c0
00000040: d2fd 2b40 7fec 1bc0 5da2 69c0 1cb8 05c0
00000050: 0445 3540 e654 2ec0 6308 edbf 6401 7a40
00000060: da57 5ac0 3ad6 8340 a922 3f40 3afd 2340
00000070: 55b1 ffbf fa93 6240 44f5 04c0 9761 04c0
00000080: 48ae 2e40 6468 3ec0 46e2 5140 577f 2340
00000090: 77c3 03c0 7e25 64c0 03dc 1540 f7e3 03c0
000000a0: 77cc 5bc0 ae87 febf aadf 3240 e38c 2040
000000b0: bd3a febf f67d 34c0 25bf 4140 1d20 2240
000000c0: 4cd8 07c0 4434 3040 e71c 2e40 48e7 4740
000000d0: ed34 3340 9301 09c0 2a7f 3440 0cd8 7840
000000e0: fe60 34c0 0cbe 3340 938a 3cc0 33fb 1f40
000000f0: fb5a 5fc0 0f58 2a40 b5f9 29c0 0088 2c40
-2.4883788 -2.0631835 2.5472484 3.945959 -2.5142784 3.2169828 2.780302 2.4172022
2.7157652 3.5870478 -2.4912007 2.524042 -2.0833993 -2.1346877 2.9769418 -3.5367897
2.687367 -2.4363096 -3.6505349 -2.0893621 2.8323374 -2.7239318 -1.8518184 3.9063349
-3.411612 4.1199007 2.9864905 2.5623307 -1.9975992 3.5402818 -2.0774698 -2.0684564
2.7293873 -2.9751215 3.2794356 2.5546472 -2.0588052 -3.5647883 2.3415534 -2.0607889
-3.4343545 -1.9885156 2.7949014 2.508599 -1.9861676 -2.820188 3.0272915 2.53321
-2.1225767 2.75319 2.720514 3.1234913 2.8001053 -2.140721 2.8202615 3.8881865
-2.81842 2.8084745 -2.945958 2.499707 -3.489928 2.6616247 -2.655866 2.6958008
